config/results/FighterUpdated2/My Behavior/checkpoint.pt (torch, 564663 bytes, 15 tensors)

network_body.vector_processors.0.normalizer.running_mean f4 [9]
00000000: 7a2c b5bf 62ed f93f 0000 0000 6299 743f
00000010: 62ed f93f 0000 0000 c156 0e3d d613 813c
00000020: b5ba 553e
-1.4154198 1.9525568 0.0 0.95546544 1.9525568 0.0 0.034750704 0.015756529
0.20872004

network_body.vector_processors.0.normalizer.running_variance f4 [9]
00000000: 06a9 5e45 6178 9a40 0000 803f cc43 a645
00000010: 6178 9a40 0000 803f b767 1c43 16b3 9142
00000020: bc8a 3f44
3562.564 4.8271947 1.0 5320.4746 4.8271947 1.0 156.40514 72.84978
766.1677

network_body.linear_encoder.seq_layers.0.weight f4 [256, 9]
00000000: 1e3f 9d3d e82d 703d 24ed 4abc f2b6 30be
00000010: 3fd5 9b3e d09a 6bbe e636 2d3e fb6f a73e
00000020: 42c6 dd3e d08c 453e 5efe 68be 60f8 e43e
00000030: a2a9 ffbe c987 113e aa1c c03d 3264 06bf
00000040: 2600 80bd a9ae 043f 04a4 58bd c58e 12be
00000050: c644 2d3f daa4 d53e 9f7d 313e d429 5ebe
00000060: d747 083d 9cce 0cbe 44da 9cbe 7c9d ca3d
00000070: 043f a9be ae7b e33d e075 493e 13c5 ba3d
00000080: f352 6dbd 3f8d 8b3b 6caa a1be 9631 42bf
00000090: 4b74 b93e 707d f2be 4633 b0be 06a7 eb3e
000000a0: 3726 173e ee3f 6dbe f0e9 013e f2ae 93be
000000b0: af28 9ebc a083 06bd 7f47 8abf bb6f 6e3e
000000c0: e36e 503e 08a0 2a3f de44 19be cff9 633d
000000d0: 22b0 393f c74f cb3e 26fe 203f 8797 ed3d
000000e0: 4a88 e53e 96ec 2b3f 67f2 7b3e 5697 a3bc
000000f0: b407 cb3e 0faa 073e c4e0 e2be b27d 5ebe
00000100: badb ef3d c45b 0dbe d9ab 07bf d688 953d
00000110: 2653 abbe db10 3ebe 0614 073f 6e1a 173c
00000120: 24cf d7bd be18 42be 62e1 133f 3c8f d13e
00000130: 207b acbe 23d2 f6be 6a2c 17bc c582 1bbd
00000140: c673 8bbd be50 e33d c5b9 07bc 8043 2bbe
00000150: 4849 c03d 4b55 78be 233c 0dbe f3c3 4c3d
00000160: 20d4 6dbd 1b2d bfbd 984d e23c fe80 f23d
00000170: 5fe3 f0bd f6bc 7fbe b85a a43c 13c2 16be
00000180: 4977 0bbf e84a 693c e672 303e f777 70be
00000190: 13f8 b13e 0b23 4ebd 0295 fb3e 304c 053f
000001a0: 540a 6bbd 0368 d6bc 06d5 973e 0c06 803e
000001b0: 60a2 3fbe 0877 4cbc af6b 2fbe 0b20 e53e
000001c0: f430 dfbd 6fc0 55be 3720 f2bd 2221 893e
000001d0: 1084 81bc 45b3 9c3b 22ce 1cbe 13b8 9dbe
000001e0: 03e9 34be bea2 d63e 3a5b a4be 1fe7 87be
000001f0: 6604 4f3f 4371 743e 1cc7 243e 17d6 233e
00000200: b392 64be c351 e3be 3024 2c3e 546d 153e
00000210: 7045 c5be 5c05 96be b0fe a93e 9ac8 383e
00000220: ec5a b83c 6a6c fabe 118a 01bf 0ff2 36be
00000230: 3832 d8be 36ef fabd bb61 00bf cc61 11bf
00000240: 4aad 43bf 4c5c 3e3e 7e5d 8fbe 728d 033f
00000250: 0707 3b3d 700f d7be 6cac 78be a29d 293e
00000260: bfe9 96be 7606 523e 2386 fd3e 1a3e 2e3e
00000270: b38d 75be 20e2 5cbe dd0a 0fbf 0474 22be
00000280: c1e4 a1bd 2252 943e 373f 46be 1a29 da3d
00000290: 233e 2e3e 3654 d7be dc49 acbe deb7 ef3d
000002a0: 9b98 0cbe fbe5 283f 6ce4 a33d fa0e 1abf
000002b0: c047 7d3e f322 b5be 1038 403e 5265 81be
000002c0: 8f83 3e3e 2a2f 373e 973e ef3e dafe 5cbb
000002d0: 7b23 5f3e bb9b e3be a755 113e 679b f43d
000002e0: 401a 8a3c b605 9b3e 216e 26be 84d0 d83d
000002f0: ec6c 67bc d570 94be d60f e53e 67d1 f8bc
00000300: 3378 b2bd 14d1 d4bb 0bca 1c3e 3b41 c63d
00000310: 5f4e ce3d 5de7 29bd 4e47 ccbe ad56 953e
00000320: 627c c53e f61e 95be 28ba 9d3c 3f31 aebe
00000330: 56fa 8e3e b3ea 6ebe 0627 2b3d 2ef9 303f
00000340: da53 7cbe 9f2a b03c 43d6 4cbf 4386 d8bc
00000350: e8ec 723e a742 2e3e 2e69 c5be f2ee dc3e
00000360: ea13 6a3f e0ce e33e 9735 043e d77a b5be
00000370: dfd8 4f3e 8713 74be 585b 9dbe 2a5b cc3d
00000380: 3373 013e 5a5c bdbe c744 4bbc 8072 e93d
00000390: 48b0 3b3e 6d60 04bf 6e12 a5be ac57 8d3e
000003a0: 90aa 2dbe ef2e fa3e 7a95 51bd ff4c 0d3e
000003b0: 704e 24be 4f1c 50be 62da 40be db0e ee3d
000003c0: d4a1 78be aa21 03bf 4a22 ebbd 2ce8 c7be
000003d0: 4b0e 87bf dce7 cd3e 40de 6abf ca55 3c3e
000003e0: 7cff 523d 6a2c 6bbe 6852 6a3b e4f4 e13d
000003f0: e587 95bd 52f5 37bf bcac 283f 7c12 13bf
0.07678054 0.05863753 -0.01238564 -0.17257288 0.3043613 -0.23008275 0.16915473 0.32702622
0.4331532 0.19291997 -0.22753283 0.44720745 -0.49934107 0.14211954 0.09380467 -0.52496636
-0.06250028 0.5182901 -0.052890792 -0.14312275 0.67683065 0.41727334 0.17333077 -0.21695644
0.033271637 -0.1375069 -0.30635273 0.09893319 -0.3305589 0.111075744 0.19673872 0.0911962
-0.057940435 0.004258781 -0.31575334 -0.7585691 0.36221537 -0.47361326 -0.3441412 0.46025866
0.14760672 -0.23168918 0.12686896 -0.2884441 -0.019306509 -0.03284037 -1.0803069 0.2328481
0.203548 0.6665044 -0.14967677 0.055658158 0.7253438 0.39709303 0.628878 0.11601167
0.44830543 0.67157876 0.24604188 -0.019969624 0.39654315 0.13248466 -0.44312108 -0.21727636
0.117118314 -0.13804537 -0.52996594 0.0730149 -0.33461875 -0.18561117 0.5276493 0.00922261
-0.10537556 -0.18954751 0.5776578 0.40929592 -0.33687687 -0.48207197 -0.009226898 -0.03796651
-0.068091914 0.11099385 -0.008284037 -0.16724968 0.09388977 -0.24251287 -0.13792472 0.04999156
-0.058063626 -0.09334775 0.02762489 0.118410096 -0.117621176 -0.24974427 0.02006279 -0.14722471
-0.5447889 0.01423905 0.1723133 -0.23483263 0.34759578 -0.05032639 0.4913712 0.5206938
-0.057382897 -0.026172644 0.2965471 0.25004613 -0.18714285 -0.012479551 -0.17130922 0.4475101
-0.10898009 -0.20874189 -0.11822551 0.2678309 -0.015810043 0.004782113 -0.15313008 -0.308045
-0.17667012 0.41921037 -0.3210085 -0.2654352 0.80866086 0.23871331 0.16091579 0.15999638
-0.22321586 -0.44398317 0.1681068 0.14592487 -0.3852954 -0.29300964 0.33202124 0.18045273
0.022504292 -0.48910838 -0.506013 -0.17865776 -0.42225814 -0.12252657 -0.50149125 -0.5678985
-0.76436293 0.18589896 -0.28001016 0.51387703 0.045661 -0.42003965 -0.24284524 0.16564038
-0.2947521 0.20510277 0.495164 0.17015877 -0.23979835 -0.21570635 -0.5587595 -0.15864569
-0.079049595 0.28968912 -0.19360052 0.10652371 0.17015891 -0.42056435 -0.336501 0.11704992
-0.1373009 0.6597592 0.080025524 -0.601791 0.24734402 -0.35378227 0.18771386 -0.25272614
0.18604873 0.17889085 0.4672744 -0.003372124 0.21790878 -0.4445475 0.1419283 0.11943703
0.01685822 0.30277795 -0.16252948 0.10586646 -0.01412509 -0.28992334 0.44738644 -0.030373288
-0.087143324 -0.0064946506 0.15311448 0.096804105 0.10073542 -0.04148041 -0.3989815 0.2916769
0.3857146 -0.29125184 0.019253805 -0.34021947 0.27925366 -0.23331718 0.041785263 0.6913022
-0.24641362 0.021504698 -0.8001444 -0.026431208 0.23723185 0.17017613 -0.38556808 0.4315105
0.91436636 0.4449377 0.12911068 -0.35445282 0.20297574 -0.23835574 -0.30733752 0.09978326
0.12641601 -0.3698452 -0.0124065345 0.11398792 0.18328965 -0.51709634 -0.32240623 0.2760595
-0.16959596 0.48863932 -0.051167943 0.13798903 -0.16045547 -0.20323299 -0.18833306 0.11623927
-0.24280483 -0.5122324 -0.114811495 -0.3904432 -1.0551237 0.40215957 -0.91745377 0.18392101
0.05151318 -0.22966161 0.0035754684 0.11033037 -0.073013104 -0.71858704 0.6588857 -0.5745008

network_body.linear_encoder.seq_layers.0.bias f4 [256]
00000000: 0000 0000 0000 0000 0000 0000 0000 0000
00000010: 0000 0000 0000 0000 0000 0000 0000 0000
00000020: 0000 0000 0000 0000 0000 0000 0000 0000
00000030: 0000 0000 0000 0000 0000 0000 0000 0000
00000040: 0000 0000 0000 0000 0000 0000 0000 0000
00000050: 0000 0000 0000 0000 0000 0000 0000 0000
00000060: 0000 0000 0000 0000 0000 0000 0000 0000
00000070: 0000 0000 0000 0000 0000 0000 0000 0000
00000080: 0000 0000 0000 0000 0000 0000 0000 0000
00000090: 0000 0000 0000 0000 0000 0000 0000 0000
000000a0: 0000 0000 0000 0000 0000 0000 0000 0000
000000b0: 0000 0000 0000 0000 0000 0000 0000 0000
000000c0: 0000 0000 0000 0000 0000 0000 0000 0000
000000d0: 0000 0000 0000 0000 0000 0000 0000 0000
000000e0: 0000 0000 0000 0000 0000 0000 0000 0000
000000f0: 0000 0000 0000 0000 0000 0000 0000 0000
00000100: 0000 0000 0000 0000 0000 0000 0000 0000
00000110: 0000 0000 0000 0000 0000 0000 0000 0000
00000120: 0000 0000 0000 0000 0000 0000 0000 0000
00000130: 0000 0000 0000 0000 0000 0000 0000 0000
00000140: 0000 0000 0000 0000 0000 0000 0000 0000
00000150: 0000 0000 0000 0000 0000 0000 0000 0000
00000160: 0000 0000 0000 0000 0000 0000 0000 0000
00000170: 0000 0000 0000 0000 0000 0000 0000 0000
00000180: 0000 0000 0000 0000 0000 0000 0000 0000
00000190: 0000 0000 0000 0000 0000 0000 0000 0000
000001a0: 0000 0000 0000 0000 0000 0000 0000 0000
000001b0: 0000 0000 0000 0000 0000 0000 0000 0000
000001c0: 0000 0000 0000 0000 0000 0000 0000 0000
000001d0: 0000 0000 0000 0000 0000 0000 0000 0000
000001e0: 0000 0000 0000 0000 0000 0000 0000 0000
000001f0: 0000 0000 0000 0000 0000 0000 0000 0000
00000200: 0000 0000 0000 0000 0000 0000 0000 0000
00000210: 0000 0000 0000 0000 0000 0000 0000 0000
00000220: 0000 0000 0000 0000 0000 0000 0000 0000
00000230: 0000 0000 0000 0000 0000 0000 0000 0000
00000240: 0000 0000 0000 0000 0000 0000 0000 0000
00000250: 0000 0000 0000 0000 0000 0000 0000 0000
00000260: 0000 0000 0000 0000 0000 0000 0000 0000
00000270: 0000 0000 0000 0000 0000 0000 0000 0000
00000280: 0000 0000 0000 0000 0000 0000 0000 0000
00000290: 0000 0000 0000 0000 0000 0000 0000 0000
000002a0: 0000 0000 0000 0000 0000 0000 0000 0000
000002b0: 0000 0000 0000 0000 0000 0000 0000 0000
000002c0: 0000 0000 0000 0000 0000 0000 0000 0000
000002d0: 0000 0000 0000 0000 0000 0000 0000 0000
000002e0: 0000 0000 0000 0000 0000 0000 0000 0000
000002f0: 0000 0000 0000 0000 0000 0000 0000 0000
00000300: 0000 0000 0000 0000 0000 0000 0000 0000
00000310: 0000 0000 0000 0000 0000 0000 0000 0000
00000320: 0000 0000 0000 0000 0000 0000 0000 0000
00000330: 0000 0000 0000 0000 0000 0000 0000 0000
00000340: 0000 0000 0000 0000 0000 0000 0000 0000
00000350: 0000 0000 0000 0000 0000 0000 0000 0000
00000360: 0000 0000 0000 0000 0000 0000 0000 0000
00000370: 0000 0000 0000 0000 0000 0000 0000 0000
00000380: 0000 0000 0000 0000 0000 0000 0000 0000
00000390: 0000 0000 0000 0000 0000 0000 0000 0000
000003a0: 0000 0000 0000 0000 0000 0000 0000 0000
000003b0: 0000 0000 0000 0000 0000 0000 0000 0000
000003c0: 0000 0000 0000 0000 0000 0000 0000 0000
000003d0: 0000 0000 0000 0000 0000 0000 0000 0000
000003e0: 0000 0000 0000 0000 0000 0000 0000 0000
000003f0: 0000 0000 0000 0000 0000 0000 0000 0000
0.0 0.0 0.0 0.0 0.0 0.0 0.0 0.0
0.0 0.0 0.0 0.0 0.0 0.0 0.0 0.0
0.0 0.0 0.0 0.0 0.0 0.0 0.0 0.0
0.0 0.0 0.0 0.0 0.0 0.0 0.0 0.0
0.0 0.0 0.0 0.0 0.0 0.0 0.0 0.0
0.0 0.0 0.0 0.0 0.0 0.0 0.0 0.0
0.0 0.0 0.0 0.0 0.0 0.0 0.0 0.0
0.0 0.0 0.0 0.0 0.0 0.0 0.0 0.0
0.0 0.0 0.0 0.0 0.0 0.0 0.0 0.0
0.0 0.0 0.0 0.0 0.0 0.0 0.0 0.0
0.0 0.0 0.0 0.0 0.0 0.0 0.0 0.0
0.0 0.0 0.0 0.0 0.0 0.0 0.0 0.0
0.0 0.0 0.0 0.0 0.0 0.0 0.0 0.0
0.0 0.0 0.0 0.0 0.0 0.0 0.0 0.0
0.0 0.0 0.0 0.0 0.0 0.0 0.0 0.0
0.0 0.0 0.0 0.0 0.0 0.0 0.0 0.0
0.0 0.0 0.0 0.0 0.0 0.0 0.0 0.0
0.0 0.0 0.0 0.0 0.0 0.0 0.0 0.0
0.0 0.0 0.0 0.0 0.0 0.0 0.0 0.0
0.0 0.0 0.0 0.0 0.0 0.0 0.0 0.0
0.0 0.0 0.0 0.0 0.0 0.0 0.0 0.0
0.0 0.0 0.0 0.0 0.0 0.0 0.0 0.0
0.0 0.0 0.0 0.0 0.0 0.0 0.0 0.0
0.0 0.0 0.0 0.0 0.0 0.0 0.0 0.0
0.0 0.0 0.0 0.0 0.0 0.0 0.0 0.0
0.0 0.0 0.0 0.0 0.0 0.0 0.0 0.0
0.0 0.0 0.0 0.0 0.0 0.0 0.0 0.0
0.0 0.0 0.0 0.0 0.0 0.0 0.0 0.0
0.0 0.0 0.0 0.0 0.0 0.0 0.0 0.0
0.0 0.0 0.0 0.0 0.0 0.0 0.0 0.0
0.0 0.0 0.0 0.0 0.0 0.0 0.0 0.0
0.0 0.0 0.0 0.0 0.0 0.0 0.0 0.0

network_body.linear_encoder.seq_layers.2.weight f4 [256, 256]
00000000: 0229 69bd 230a 663c faa2 bb3d a1ac 8d3d
00000010: 28cc 80bc 8581 5a3d dd84 d33c beea 39bb
00000020: 4fe7 9abd 5c2d 663d 8470 edbc 3534 d4bd
00000030: 7418 033e 9c7b 613d d1f7 9dbb 3022 1ebd
00000040: a58b e6bd 7e67 19be aa7c 523d ecbd d3bd
00000050: b8ba e83d 1184 b03c 745b 05bd 7a50 a63d
00000060: 7273 7e3c 8e37 e8bc 9506 84bd 8c07 85bd
00000070: f190 09bd 52f5 373e 2e51 17bb c593 8a3c
00000080: 39b3 0c3e d1b7 8e3d b882 143d 49be 04bb
00000090: 4847 b63c 0468 1ebc f0f2 80bd 11f9 be3d
000000a0: 5064 333c dafa 0dbc 693b b7bd bed5 d8bc
000000b0: 7e17 dcbd 1bd8 153d 7a6d 31bb 5c2e bbbb
000000c0: 98fd 153d 2771 edbc 3986 873d d82d b33c
000000d0: f949 10bb f1a3 9ebd 4448 abbb 9270 753d
000000e0: e2d3 45bb 0e09 8cbc 6260 8bbd 501a e03d
000000f0: 1987 553c a34d 97bc f6a4 7a3d baf4 e53c
00000100: 3131 e53d d411 fcbc 2006 4b3d f794 5bbd
00000110: cac5 71bd 392a 99bd a4f9 25bd 2850 acbd
00000120: 2931 f3bc 3f96 c33c abc9 96bb 1a94 8dbc
00000130: 155b b93d 679f 003d c919 56bd 1b37 afbc
00000140: 1240 00bd bf07 63bd 198c 813d 7bc6 cebc
00000150: 009f d13b af72 423c 7269 df3d 12ee 74bb
00000160: 710c 14bc b0a2 bf3d d470 e73a e458 213d
00000170: e518 af3d 1465 febd fc8b a3bd 52cb edbd
00000180: ed6d 9d3d 4263 f7bc 5d4a f33d cbc2 f23d
00000190: 9964 f63c ba70 243e db21 fcbc 5f6e efbc
000001a0: c404 9d3d 5ce8 35bd ec98 5e3c 9fbd 733d
000001b0: 2fbb 88bd bbeb 903d c057 e3bd daae d73c
000001c0: 3893 87bc 9600 47bd e9cb 61bd 5fcf 753d
000001d0: 7139 193d 4b9d 753d 8d71 0f3c f420 82bb
000001e0: 8f15 9039 b500 3dbd 5fbe 1a3d 7614 ca3c
000001f0: e7b0 a43d 4021 20bc 0991 a63d 2462 30bd
00000200: 417f debc bafa 873d 9d5f 223d 2e99 383c
00000210: 1c11 e2b9 8dec 02bc 1c15 d83c 4bd7 9f3d
00000220: a3db 9e3d 6a3a 443d 3ba2 1e3d dba3 983d
00000230: 5f41 233d b231 1bbe ade1 e03d a8a4 84bc
00000240: 1369 a0bd b647 03be 79f3 ecbd 37c5 28bd
00000250: ed0b 0a3d 2315 03be 97b1 fb3c 1ee4 053d
00000260: 6b40 d33b c005 f53c c2ac 25bd 52a8 023c
00000270: 4cba 9a3d 5437 7abd ce24 10bd f8fd 65bd
00000280: aa3d aabc f3a7 52bd 6db4 84bc 325d b83c
00000290: d922 9fbd 42c3 81bd 1605 a13d 61c2 843b
000002a0: 6d82 a23b 2561 bf3c be9c 8bbd cd1d c2bc
000002b0: 4b49 9dbd e363 463d 3759 423d 835b e9bd
000002c0: 4153 86bc bfa6 bdbc 01a6 05bc f37d 1b3d
000002d0: b25c 12bd 1166 7a3c 6863 3bbd 78c5 a0bd
000002e0: ba47 2a3e 82ac b5bc 5fdc 48bd 1e29 183c
000002f0: d8ca 6abd c381 21bd 67c8 1a3d 8a0f da3c
00000300: 69f0 773c 8953 b63d 0afb 343b a162 b53d
00000310: c1d5 d13d 9caa 0b3e 5466 48bd f7e7 923c
00000320: 4e9a 843d 7863 723d 79d5 9b3d 6029 91bd
00000330: 254c 77bd 8f24 eb3c 713f f5ba f06a 95bc
00000340: 21e2 2dbd 702e 46bd b50e a5bc f5c4 a33c
00000350: f880 d6bd 87e1 35bd b7f1 1e3c a545 dfbc
00000360: 0b28 08bd 9573 fcbd 1cc9 c5bb 7970 893c
00000370: 8a95 16be 7afa 6ebd 2069 683d a641 973c
00000380: ae95 b6bc 9616 91bd 7a37 57bd 9714 013d
00000390: 5483 d2bb 8c49 a3bd 2bde 223c 3c9f 1fbc
000003a0: cade 3d3e 8a02 3dbd b778 4c3d 04b7 803d
000003b0: db9e a93c 8b60 793d f959 42bd c0a0 123d
000003c0: 359e 8abb b9bb 853c 51e7 90bd ccd6 463d
000003d0: 01d0 e1bd 5014 5dbd bbf7 f8bb cdb0 babc
000003e0: 554b f53c 7546 3fbd cbcc 0f3d b1bf 63bd
000003f0: f5c0 44bd 6fb2 8f3d 1f5e 573c 64bd 573c
-0.056923874 0.014040503 0.09161945 0.06917692 -0.01572235 0.053346176 0.02582019 -0.0028368677
-0.0756365 0.0561956 -0.028984316 -0.1036152 0.12802297 0.055049524 -0.004820802 -0.038606822
-0.11257104 -0.14980885 0.05138842 -0.10338959 0.11363739 0.02154735 -0.03255792 0.081208184
0.015530454 -0.028346803 -0.06446568 -0.0649558 -0.033585493 0.17964676 -0.0023089158 0.016916165
0.13740243 0.06968654 0.036257476 -0.002025502 0.022250786 -0.009668354 -0.06296337 0.093248494
0.010949209 -0.008665765 -0.089468785 -0.026469108 -0.10746668 0.036583047 -0.002707331 -0.0057123136
0.0366188 -0.02898462 0.06617398 0.021872446 -0.0022016747 -0.07746113 -0.0052271206 0.05992181
-0.0030186106 -0.017094161 -0.06805493 0.10942519 0.013032698 -0.018469637 0.061192475 0.028070796
0.11191023 -0.03077022 0.049566388 -0.05360886 -0.059026517 -0.074787565 -0.04052128 -0.08413726
-0.029686527 0.023875354 -0.0046016774 -0.017282534 0.09050576 0.031402018 -0.052270684 -0.021388581
-0.031311102 -0.05542731 0.0632555 -0.025241127 0.006397128 0.011868163 0.10908784 -0.0037373346
-0.009036169 0.09357202 0.0017657527 0.039391413 0.0854967 -0.12421623 -0.07985684 -0.11611046
0.07686982 -0.030198697 0.11879418 0.1185356 0.030077266 0.16058627 -0.030777862 -0.029227434
0.076669246 -0.04441105 0.013586264 0.05950701 -0.066763274 0.07076212 -0.11100721 0.026328493
-0.016549692 -0.048584543 -0.055126105 0.060012218 0.037408296 0.05996446 0.0087551 -0.0039712135
0.00027481883 -0.046143252 0.03777921 0.02466796 0.08041554 -0.009773552 0.08133132 -0.043062344
-0.027160289 0.06639619 0.039641965 0.01126699 -0.00043118827 -0.007990968 0.026377253 0.07804736
0.07756736 0.04790727 0.038728934 0.07453128 0.039857265 -0.15155676 0.10980544 -0.016191795
-0.07832541 -0.12820324 -0.11569876 -0.041203704 0.03370278 -0.12801032 0.03072433 0.032688253
0.006446888 0.029909968 -0.040447958 0.007974701 0.075550646 -0.06108792 -0.03519135 -0.056150407
-0.020781357 -0.0514297 -0.016199315 0.022505376 -0.077703185 -0.063360706 0.07862298 0.004051492
0.0049593956 0.023361752 -0.068170056 -0.02369585 -0.07679995 0.048435103 0.047448363 -0.113944076
-0.01639712 -0.0231508 -0.008157254 0.03796191 -0.035732932 0.015283124 -0.045749098 -0.07850164
0.16628924 -0.022176985 -0.049038287 0.009287147 -0.057322353 -0.03943039 0.037788775 0.026618738
0.015133002 0.08902652 0.0027615451 0.088567026 0.102458484 0.13639301 -0.048925713 0.017932875
0.06474744 0.059176892 0.07609076 -0.0708797 -0.06037535 0.028703956 -0.0018710924 -0.018239468
-0.04245198 -0.04838413 -0.020148614 0.019991377 -0.104738176 -0.044404533 0.009701184 -0.027254889
-0.033241313 -0.12326733 -0.006035937 0.016777264 -0.14705482 -0.05834434 0.05674088 0.01846392
-0.02228817 -0.07084386 -0.05254314 0.031513777 -0.006424347 -0.07973012 0.009940664 -0.009742554
0.18542019 -0.046145 0.04991981 0.062849075 0.020705631 0.060883086 -0.047449086 0.035797834
-0.0042302855 0.016324865 -0.0707537 0.04854469 -0.11026002 -0.05397445 -0.007597891 -0.022789383
0.029943148 -0.046698052 0.035107415 -0.055602733 -0.04803558 0.070164554 0.013144999 0.013167713

network_body.linear_encoder.seq_layers.2.bias f4 [256]
00000000: 0000 0000 0000 0000 0000 0000 0000 0000
00000010: 0000 0000 0000 0000 0000 0000 0000 0000
00000020: 0000 0000 0000 0000 0000 0000 0000 0000
00000030: 0000 0000 0000 0000 0000 0000 0000 0000
00000040: 0000 0000 0000 0000 0000 0000 0000 0000
00000050: 0000 0000 0000 0000 0000 0000 0000 0000
00000060: 0000 0000 0000 0000 0000 0000 0000 0000
00000070: 0000 0000 0000 0000 0000 0000 0000 0000
00000080: 0000 0000 0000 0000 0000 0000 0000 0000
00000090: 0000 0000 0000 0000 0000 0000 0000 0000
000000a0: 0000 0000 0000 0000 0000 0000 0000 0000
000000b0: 0000 0000 0000 0000 0000 0000 0000 0000
000000c0: 0000 0000 0000 0000 0000 0000 0000 0000
000000d0: 0000 0000 0000 0000 0000 0000 0000 0000
000000e0: 0000 0000 0000 0000 0000 0000 0000 0000
000000f0: 0000 0000 0000 0000 0000 0000 0000 0000
00000100: 0000 0000 0000 0000 0000 0000 0000 0000
00000110: 0000 0000 0000 0000 0000 0000 0000 0000
00000120: 0000 0000 0000 0000 0000 0000 0000 0000
00000130: 0000 0000 0000 0000 0000 0000 0000 0000
00000140: 0000 0000 0000 0000 0000 0000 0000 0000
00000150: 0000 0000 0000 0000 0000 0000 0000 0000
00000160: 0000 0000 0000 0000 0000 0000 0000 0000
00000170: 0000 0000 0000 0000 0000 0000 0000 0000
00000180: 0000 0000 0000 0000 0000 0000 0000 0000
00000190: 0000 0000 0000 0000 0000 0000 0000 0000
000001a0: 0000 0000 0000 0000 0000 0000 0000 0000
000001b0: 0000 0000 0000 0000 0000 0000 0000 0000
000001c0: 0000 0000 0000 0000 0000 0000 0000 0000
000001d0: 0000 0000 0000 0000 0000 0000 0000 0000
000001e0: 0000 0000 0000 0000 0000 0000 0000 0000
000001f0: 0000 0000 0000 0000 0000 0000 0000 0000
00000200: 0000 0000 0000 0000 0000 0000 0000 0000
00000210: 0000 0000 0000 0000 0000 0000 0000 0000
00000220: 0000 0000 0000 0000 0000 0000 0000 0000
00000230: 0000 0000 0000 0000 0000 0000 0000 0000
00000240: 0000 0000 0000 0000 0000 0000 0000 0000
00000250: 0000 0000 0000 0000 0000 0000 0000 0000
00000260: 0000 0000 0000 0000 0000 0000 0000 0000
00000270: 0000 0000 0000 0000 0000 0000 0000 0000
00000280: 0000 0000 0000 0000 0000 0000 0000 0000
00000290: 0000 0000 0000 0000 0000 0000 0000 0000
000002a0: 0000 0000 0000 0000 0000 0000 0000 0000
000002b0: 0000 0000 0000 0000 0000 0000 0000 0000
000002c0: 0000 0000 0000 0000 0000 0000 0000 0000
000002d0: 0000 0000 0000 0000 0000 0000 0000 0000
000002e0: 0000 0000 0000 0000 0000 0000 0000 0000
000002f0: 0000 0000 0000 0000 0000 0000 0000 0000
00000300: 0000 0000 0000 0000 0000 0000 0000 0000
00000310: 0000 0000 0000 0000 0000 0000 0000 0000
00000320: 0000 0000 0000 0000 0000 0000 0000 0000
00000330: 0000 0000 0000 0000 0000 0000 0000 0000
00000340: 0000 0000 0000 0000 0000 0000 0000 0000
00000350: 0000 0000 0000 0000 0000 0000 0000 0000
00000360: 0000 0000 0000 0000 0000 0000 0000 0000
00000370: 0000 0000 0000 0000 0000 0000 0000 0000
00000380: 0000 0000 0000 0000 0000 0000 0000 0000
00000390: 0000 0000 0000 0000 0000 0000 0000 0000
000003a0: 0000 0000 0000 0000 0000 0000 0000 0000
000003b0: 0000 0000 0000 0000 0000 0000 0000 0000
000003c0: 0000 0000 0000 0000 0000 0000 0000 0000
000003d0: 0000 0000 0000 0000 0000 0000 0000 0000
000003e0: 0000 0000 0000 0000 0000 0000 0000 0000
000003f0: 0000 0000 0000 0000 0000 0000 0000 0000
0.0 0.0 0.0 0.0 0.0 0.0 0.0 0.0
0.0 0.0 0.0 0.0 0.0 0.0 0.0 0.0
0.0 0.0 0.0 0.0 0.0 0.0 0.0 0.0
0.0 0.0 0.0 0.0 0.0 0.0 0.0 0.0
0.0 0.0 0.0 0.0 0.0 0.0 0.0 0.0
0.0 0.0 0.0 0.0 0.0 0.0 0.0 0.0
0.0 0.0 0.0 0.0 0.0 0.0 0.0 0.0
0.0 0.0 0.0 0.0 0.0 0.0 0.0 0.0
0.0 0.0 0.0 0.0 0.0 0.0 0.0 0.0
0.0 0.0 0.0 0.0 0.0 0.0 0.0 0.0
0.0 0.0 0.0 0.0 0.0 0.0 0.0 0.0
0.0 0.0 0.0 0.0 0.0 0.0 0.0 0.0
0.0 0.0 0.0 0.0 0.0 0.0 0.0 0.0
0.0 0.0 0.0 0.0 0.0 0.0 0.0 0.0
0.0 0.0 0.0 0.0 0.0 0.0 0.0 0.0
0.0 0.0 0.0 0.0 0.0 0.0 0.0 0.0
0.0 0.0 0.0 0.0 0.0 0.0 0.0 0.0
0.0 0.0 0.0 0.0 0.0 0.0 0.0 0.0
0.0 0.0 0.0 0.0 0.0 0.0 0.0 0.0
0.0 0.0 0.0 0.0 0.0 0.0 0.0 0.0
0.0 0.0 0.0 0.0 0.0 0.0 0.0 0.0
0.0 0.0 0.0 0.0 0.0 0.0 0.0 0.0
0.0 0.0 0.0 0.0 0.0 0.0 0.0 0.0
0.0 0.0 0.0 0.0 0.0 0.0 0.0 0.0
0.0 0.0 0.0 0.0 0.0 0.0 0.0 0.0
0.0 0.0 0.0 0.0 0.0 0.0 0.0 0.0
0.0 0.0 0.0 0.0 0.0 0.0 0.0 0.0
0.0 0.0 0.0 0.0 0.0 0.0 0.0 0.0
0.0 0.0 0.0 0.0 0.0 0.0 0.0 0.0
0.0 0.0 0.0 0.0 0.0 0.0 0.0 0.0
0.0 0.0 0.0 0.0 0.0 0.0 0.0 0.0
0.0 0.0 0.0 0.0 0.0 0.0 0.0 0.0

action_model._discrete_distribution.branches.0.weight f4 [6, 256]
00000000: c6f2 2dbc 658d 70ba bcc1 ba3b af24 d5bb
00000010: 46f1 9e3a ef70 c53b 61e9 83bb b1ad cb3b
00000020: 7383 febb 86f7 a6bb ade4 7bbb fb85 033b
00000030: 621e 23bb a054 a7bb 7a93 ebbb 9435 28bc
00000040: b1e8 993b 6ace ed3b f188 3fba 63d4 723b
00000050: 799d c23b ba6d 54bb c607 2bbc 679a 363c
00000060: b3d9 543b 9a6f aa3b 2f3c 483b 10a2 f1bb
00000070: 6df6 30b8 1310 e93a 7a7b 3aba 0353 0abb
00000080: d329 afbb 78a5 e7bb 53b5 893b 8e30 033c
00000090: 12a6 10bc 474c 1f3b 9790 35bb cb94 313c
000000a0: 4f59 783c 9f19 043b f313 e039 0353 f3ba
000000b0: 1fc6 163c 89e6 453b 371f c73b b743 4a3c
000000c0: 1284 853b a10d c33a 402a f1bb 3f2a 4bbc
000000d0: dd58 bdbb f1a9 2abb 7058 183c 75aa 233c
000000e0: 593a 433b fb8b 343b 76b5 1c3c 1dc9 2d3c
000000f0: f42d 303c ae6a 333b 546e 453b 6f25 9f3b
00000100: dd40 e1bb e52f b5bb 94cb 273c 9f2d 81bb
00000110: bbb5 953b a7b1 4ebb ba8e 01bc 5645 9a3b
00000120: 0514 263b 5769 94bb 6335 75bc 50f8 f1bb
00000130: ee31 ca3b d2da d9ba 37db e53b f7b9 8eba
00000140: fa10 0fbc 62da 8abb 249b 06bc 107f 2fbb
00000150: e0a1 a3b9 7a9d 083c acc3 9dbb 73c8 a7bb
00000160: 2a5a 733b 9761 083a d777 713b db2b 96bb
00000170: 3b5a 32bb 7549 053b 806c ddbb f725 c23b
00000180: a778 0cbc 13e9 5b3b e54f 683b d284 06bc
00000190: 0032 d03a 43d5 333b f670 82bb 0ed6 c4b9
000001a0: 8fe2 db3a ddc3 0a3c 17f6 05ba eb3d 7aba
000001b0: b581 e5bb 3db0 693b 9337 c2ba 61ab 31bb
000001c0: f7ad 1abb 851e ce3a caec 58bb 3e20 aa39
000001d0: 409b 893b 2f4b 5c3b ebd6 853b 42ec cdbb
000001e0: 5253 f9ba 7129 16bc 9d2e 87bb 3dbe dc3b
000001f0: 4855 f13b e9a1 ab3a 1bf0 b73a 3322 7fba
00000200: eaed 95bb 9fa9 13bb 5df6 f5b9 b7a5 01bb
00000210: 5bc9 a1bb 2d3b 813b 7806 f13b 1c09 c43a
00000220: ec33 333c 280c 19bb 7ba3 19bc 0339 1c3b
00000230: 14e0 223c 373c 3c3b 9263 d9bb c8f7 5839
00000240: 1fa6 dbbb d83b 9cbb 6aff 5abb b308 0fbc
00000250: bb74 51ba 7a62 b93b 1889 dc3b cd42 8cbb
00000260: 65be c43a 7728 cabb f21a 363c a1db 203b
00000270: d10a 87bb 8ca2 c9bb 5b68 313c 3f35 d6bb
00000280: bbd6 d23b 9481 a23b 6738 8cbb 9b79 f4ba
00000290: 6682 2a3a d723 eabb d8bc 4bba 4f11 79ba
000002a0: 8b2d 83bc 1805 82bb 1aa8 1fbc 1b8a 9dba
000002b0: c334 35bc d84f dbbb 2617 80bb 4f09 063c
000002c0: 4f4d ed3b d2d8 aebb b964 063b 34f4 863b
000002d0: e385 593b 3724 28bb 3b11 163a 1dee 763a
000002e0: 78cc f53a 72fa c7bb ccb1 a9b8 e334 4abb
000002f0: 2716 e3bb 4839 a5bb 9890 19bc 9b52 06bc
00000300: 5c75 a1bb 38e9 7bba 383c c2ba ac88 003c
00000310: bfa7 1abc f7ae 083b 23cb fb3a 5a55 b2ba
00000320: 536b b1bb aedf 13ba a031 22bc 2f5e 41bb
00000330: 5997 c437 599f 19bb c843 be3b 5273 cd3b
00000340: dce2 173c 62fb 313c b45f 483b 2bd1 b13b
00000350: f71f 413c a77d deb8 77f2 033c 92f7 6c3b
00000360: 0a30 283c 9052 d53b 47b9 333c 1385 40bb
00000370: 7f8b 99ba 2522 eabb 5b47 443c fd00 b5bb
00000380: c5c8 3ebb dce5 b5b9 4ba0 d6bb 187b 9bbb
00000390: 0aa1 b5bb 78c7 9abb cd2d f63b b4db ae3a
000003a0: 0589 343a a5d3 2f3b 6a16 bb3b 5776 203c
000003b0: 7b3b 81bb aa5f 84bb bf52 52bb 4d9d a6ba
000003c0: ce09 99bc ee1d 203b 630b 743a b081 9bba
000003d0: 12ee b63a 0e94 babb c3fa f43b 1c69 8cbb
000003e0: 95b7 3f3c 0c83 8cba 8cdb 253b cfcf 5cbc
000003f0: 40a5 e53b c3cc 623a c7fc a33b 831c 3bbc
-0.010616964 -0.0009176343 0.0056993645 -0.006504617 0.0012126348 0.0060254256 -0.0040256237 0.006215774
-0.007767135 -0.005095425 -0.0038435862 0.0020068872 -0.0024889936 -0.0051065236 -0.0071892114 -0.01026668
0.0046969284 0.0072572725 -0.00073064776 0.0037052862 0.0059391824 -0.0032414035 -0.010438865 0.011145211
0.0032478392 0.005201292 0.003055345 -0.0073740557 -4.219117e-05 0.001778128 -0.00071137364 -0.0021106608
-0.005345562 -0.007069286 0.0042025237 0.008007182 -0.008828657 0.002430694 -0.002770459 0.010838698
0.015158012 0.0020156873 0.00042739473 -0.0018564168 0.009202509 0.0030197224 0.006076719 0.012345246
0.004074582 0.0014881381 -0.007359773 -0.012400209 -0.0057784156 -0.0026041234 0.009298429 0.009989371
0.0029789417 0.0027549255 0.009564748 0.010607031 0.010753144 0.0027376818 0.0030125575 0.0048567574
-0.0068741874 -0.005529391 0.010241408 -0.003942206 0.004568783 -0.0031538995 -0.007907564 0.0047079725
0.0025341522 -0.004529159 -0.014966342 -0.0073843375 0.006170503 -0.0016621 0.007014658 -0.0010889162
-0.008732075 -0.004237459 -0.008215699 -0.0026778616 -0.0003121039 0.008338327 -0.0048145857 -0.005120331
0.00371326 0.00052025303 0.0036845112 -0.0045828647 -0.0027214426 0.0020337973 -0.006757319 0.005924936
-0.008573688 0.003355567 0.0035448011 -0.008210378 0.0015884042 0.0027440346 -0.003980751 -0.00037543516
0.0016775894 0.008469549 -0.00051102176 -0.00095459697 -0.0070039877 0.0035658025 -0.0014817588 -0.0027110206
-0.0023602226 0.0015725648 -0.0033100122 0.0003244895 0.0041994154 0.003361415 0.004084458 -0.0062842676
-0.0019022024 -0.009165154 -0.00412543 0.0067365454 0.0073649026 0.0013094518 0.0014033349 -0.0009732574
-0.0045754807 -0.0022531522 -0.00046913596 -0.0019782612 -0.0049373335 0.003943822 0.0073555075 0.0014956328
0.010937672 -0.0023353193 -0.009377356 0.0023837693 0.00994112 0.0028722414 -0.006634184 0.00020691671
-0.006703153 -0.004767876 -0.0033416399 -0.008730101 -0.00079901115 0.0056574913 0.00673021 -0.004280424
0.0015010355 -0.0061693746 0.011114823 0.0024544972 -0.0041211625 -0.0061534103 0.010828103 -0.006537109
0.0064342893 0.0049592946 -0.0042791846 -0.0018651964 0.0006504416 -0.0071453857 -0.00077719754 -0.00095011754
-0.016012928 -0.0039678924 -0.009744668 -0.0012019308 -0.011059943 -0.0066928677 -0.0039090095 0.00818093
0.007241882 -0.0053359056 0.0020506813 0.0041184667 0.0033191375 -0.0025656351 0.00057246134 0.0009419637
0.0018752953 -0.0061028535 -8.091665e-05 -0.0030854277 -0.006930131 -0.005042229 -0.009372853 -0.008198406
-0.0049273204 -0.00096096424 -0.0014818972 0.007845085 -0.009439408 0.002085624 0.001921032 -0.0013605759
-0.0054144054 -0.0005640936 -0.009899527 -0.00295056 2.3435497e-05 -0.0023440926 0.00580642 0.006269851
0.009270396 0.010863157 0.0030574622 0.005426546 0.011787406 -0.000106091895 0.008053414 0.0036158306
0.01026536 0.0065100864 0.0109694665 -0.0029376193 -0.0011714547 -0.0071451836 0.011979903 -0.0055237995
-0.0029111367 -0.0003469427 -0.00654987 -0.0047448985 -0.005542879 -0.0047234856 0.007512784 0.0013340623
0.00068868726 0.002682903 0.005709459 0.009793839 -0.003943858 -0.0040397244 -0.0032092778 -0.0012711674
-0.018681433 0.0024431902 0.0009309558 -0.0011864211 0.0013956449 -0.005693919 0.007476182 -0.004284991
0.011701484 -0.0010720207 0.0025307862 -0.01347728 0.0070082247 0.00086517277 0.0050044986 -0.011420372

action_model._discrete_distribution.branches.0.bias f4 [6]
00000000: 0000 0000 0000 0000 0000 0000 0000 0000
00000010: 0000 0000 0000 0000
0.0 0.0 0.0 0.0 0.0 0.0

critic.network_body.vector_processors.0.normalizer.running_mean f4 [9]
00000000: 7a2c b5bf 62ed f93f 0000 0000 6299 743f
00000010: 62ed f93f 0000 0000 c156 0e3d d613 813c
00000020: b5ba 553e
-1.4154198 1.9525568 0.0 0.95546544 1.9525568 0.0 0.034750704 0.015756529
0.20872004

critic.network_body.vector_processors.0.normalizer.running_variance f4 [9]
00000000: 06a9 5e45 6178 9a40 0000 803f cc43 a645
00000010: 6178 9a40 0000 803f b767 1c43 16b3 9142
00000020: bc8a 3f44
3562.564 4.8271947 1.0 5320.4746 4.8271947 1.0 156.40514 72.84978
766.1677

critic.network_body.linear_encoder.seq_layers.0.weight f4 [256, 9]
00000000: 1398 31bf d6d1 2abf e2ad 983d 761a 86be
00000010: 0864 f1bd 445f 04be 94e7 ca3e 1a64 e0be
00000020: 2ea1 55be 8faa 44be e622 023c ac22 60bb
00000030: 94fa babd 06f2 5f3e db52 c93d 98eb fb3e
00000040: a3b6 d43e ff9c 5ebc eb81 c63d fa29 07bd
00000050: e053 a7bd ddbb 253f 72e2 65bf 6826 913d
00000060: 3b7a 6e3d 1b78 603c 1417 e43e 3a50 8f3d
00000070: fe6f f03d f80c c5bd 880c 19be cfd2 843d
00000080: 5573 9abe e6cd c9bb 5488 7ebc e612 133f
00000090: 35dc 18be 3628 db3d 28a1 14be c413 013f
000000a0: eb5a 6d3e 1eb8 623e 7a16 10bf f432 85be
000000b0: 58eb 763e 6ba3 7e3e 8cc3 cabe 0354 adbd
000000c0: 626b e7bc 0bde e23e 0a47 3e3f d3bf cdbe
000000d0: 6cde 98bb 3bda e1bb 9e9b c8bc d76c 403d
000000e0: ce65 db3d 6af1 1cbf 24d7 b0bd 4605 103d
000000f0: 266e ec3d e844 0b3e fd9a 2abe aed1 32be
00000100: 4249 f4bc 281d bc3e 638d 3b3e 9de2 1ebe
00000110: faa0 90be e740 dfbe 17c2 7cb9 5478 c53e
00000120: d813 99be 7a59 cebe dfe0 43be 624e ee3a
00000130: 22ca 623d 2029 fa3d 82d5 7b3e 1e48 0b3d
00000140: 1426 e4bd 765f a1be 2ab5 b03c 54bc 8d3e
00000150: 9abe b03e 70d6 293e 4bf3 c83e bce1 f7bd
00000160: 2bd0 533d a8fb 89bf 0464 253d 243c 933e
00000170: b135 1fbe 2212 093e b08d 07be 7fe3 42be
00000180: 2eec 2abf 1315 efbe 266b 2e3e 080e 7cbd
00000190: 04b2 a93e 3f59 c6bd 7a94 a8be 2a4f 74be
000001a0: 7eba 5fbc f4b5 1ebe 8005 603e 8546 253e
000001b0: a8ab de3e 6bec ddbe bae2 b4be 553e 8c3e
000001c0: 3e3d 323e 003e 53be b0da e5be 6f09 b2be
000001d0: c330 ef3e 1225 60be e6bd f6be 2496 dd3e
000001e0: 8447 d93d 1e48 733e dffc 513e 8870 893e
000001f0: b6a9 e7bd e299 323e 4e87 aa3e 2cb9 083e
00000200: 2f8c 6b3d cf27 763e c26b f03d fa33 b0be
00000210: 5613 8fbe 5c7b 8cbd 3288 f73e c379 273e
00000220: dc44 8dbe 9a82 abbd da43 04be faa0 e2bd
00000230: 2173 a03d db05 85bd 000f 92bd 125e 553e
00000240: 64b0 adbe 1a80 423f 0a6f 313d fe96 243f
00000250: 3352 7cbe 3afa 9ebd c07b 753e 1990 063f
00000260: e27b 263d a4dd 053f 4252 8d3e dc58 ad3e
00000270: c881 e8be bd54 a23e 3f3b 1c3f f08c 4fbe
00000280: 9027 e63e 3984 293f a0c6 acbe 3a67 89be
00000290: bab6 a33c 6444 b23d 74e5 ea3e aaca 45bf
000002a0: 66be fb3d 0c07 013f 63b0 313e fa20 c33d
000002b0: 0e73 13bd 166d 3bbe 6a44 ee3e 2c4f 713e
000002c0: db35 47be 1263 1a3f 7cac 75be 9f3f 043f
000002d0: bb26 423f e109 10bf 3814 96be 6630 3ebe
000002e0: 7a15 8a3d 1829 463d a02a 70be 9004 c4be
000002f0: 0fd8 fa3e 03d8 fa3c 0883 4abe 54f8 b53d
00000300: 6e8f dabe c494 93be ce48 683e 77e6 9bbe
00000310: 0e36 ca3e 22bd 86bb 6a26 323e 0bc4 bd3e
00000320: c801 813d d357 b23e 4454 a43e d066 823c
00000330: 38e1 893e 7b34 c4be ccf1 50be eb0e 7f3d
00000340: e436 b63e f275 59bd 5c61 ac3d 7c7a 063f
00000350: 18df 1e3f 0ec5 01bf 22a6 24bf 2098 bdbd
00000360: eee1 123d a2e2 a13e e3d0 48bd de2e eabd
00000370: e391 d83e 148e 4d3f b4fb 2bbe b08a dbbd
00000380: 4e5e adbd e052 11bf 5677 963e 0aba 5f3e
00000390: 0843 e73e 6465 373f 56da 6b3e be22 2a3d
000003a0: 9a98 903e 27e6 aebd 1b34 61be 448f c5bb
000003b0: 7be7 abbe b070 93be 2fdb df3d f0ae 943e
000003c0: aaad 143d 1b92 5c3e 62df 643e 3121 0fbe
000003d0: 9faa 86bd 066b 5e3e c4ff 103f cfae 863e
000003e0: 6a7b 393d 8072 0ebf 52ff a93d 1b5a 093f
000003f0: b0ba 863e 4b72 043e 6790 373d 8e28 02bf
-0.6937267 -0.66726434 0.074550405 -0.26192063 -0.117866576 -0.12926966 0.39629805 -0.4382637
-0.20862266 -0.19205688 0.007942891 -0.0034200354 -0.09129825 0.21869668 0.098302566 0.4920318
0.4154559 -0.0135872355 0.09692749 -0.032999016 -0.08170295 0.6473978 -0.89798653 0.070874035
0.058222037 0.01370051 0.44548857 0.06997724 0.11740111 -0.09621614 -0.14946187 0.06485521
-0.30166116 -0.006158578 -0.015535433 0.5745071 -0.14927752 0.10701029 -0.14514601 0.50420785
0.23179214 0.22140548 -0.56284297 -0.26015437 0.24113214 0.24867027 -0.39602315 -0.084632896
-0.028249446 0.4431003 0.74327147 -0.40185413 -0.0046651866 -0.00689247 -0.024488267 0.046978798
0.10712777 -0.6130587 -0.08634785 0.03516128 0.11544447 0.13600504 -0.16660686 -0.17462799
-0.029820088 0.36740994 0.18315654 -0.15516134 -0.28247815 -0.43604204 -0.00024104897 0.38568366
-0.29897952 -0.4030264 -0.1912875 0.0018181319 0.05536855 0.12214875 0.24593166 0.034004323
-0.11140075 -0.31518143 0.02157076 0.27682745 0.34520417 0.16585708 0.39248118 -0.12103602
0.051712196 -1.0779924 0.040378585 0.2875682 -0.15547825 0.13385823 -0.13237643 -0.19032095
-0.6676663 -0.46695766 0.17033061 -0.06153682 0.33143628 -0.09684991 -0.3292578 -0.23858324
-0.013655303 -0.15499097 0.21877098 0.16140182 0.43490338 -0.43344435 -0.3532923 0.27391306
0.17406175 -0.2062912 -0.44893408 -0.34772822 0.4671689 -0.21889141 -0.48191756 0.4327861
0.10609344 0.2375798 0.20506619 0.26843667 -0.11311667 0.17441514 0.33306354 0.13351887
0.057506736 0.24038623 0.11739303 -0.34414655 -0.2794444 -0.068594664 0.48346096 0.16355042
-0.27591598 -0.0837452 -0.12916508 -0.1106586 0.07834459 -0.064952575 -0.07131767 0.20836666
-0.33923638 0.7597672 0.043318786 0.64292896 -0.24640732 -0.07762571 0.23972988 0.52563626
0.040645488 0.5229132 0.2760182 0.33856857 -0.45411515 0.31705275 0.610279 -0.20268607
0.4495206 0.6621738 -0.3374529 -0.26836568 0.019984592 0.08704451 0.45878184 -0.77262366
0.12292175 0.5040138 0.17352442 0.09527774 -0.035998397 -0.18303332 0.4653657 0.23565358
-0.19454138 0.6030742 -0.23991579 0.5165958 0.7584035 -0.56265074 -0.293123 -0.1857315
0.067423776 0.048379034 -0.2345376 -0.3828473 0.48992965 0.03062058 -0.19776547 0.088852555
-0.42687553 -0.28824437 0.22684023 -0.30449268 0.39494365 -0.004111902 0.17397466 0.3706363
0.06299168 0.3483263 0.3209554 0.015918165 0.2692964 -0.3832129 -0.20404738 0.062270086
0.35588753 -0.053090997 0.08417007 0.52530646 0.62059164 -0.50691307 -0.64316 -0.09257531
0.035859995 0.3161822 -0.049027335 -0.114347205 0.42298803 0.8029492 -0.16795236 -0.10719812
-0.08465253 -0.5676708 0.2938792 0.21848312 0.45168328 0.71639085 0.23032507 0.04153704
0.28241426 -0.08539992 -0.21992533 -0.0060290415 -0.33575043 -0.2879691 0.10930478 0.29039717
0.03629843 0.2154011 0.22350839 -0.13977505 -0.06575512 0.21720514 0.5664027 0.26305243
0.045283712 -0.55643463 0.083006516 0.53653115 0.26314306 0.12934224 0.044815447 -0.5084313

critic.network_body.linear_encoder.seq_layers.0.bias f4 [256]
00000000: 0000 0000 0000 0000 0000 0000 0000 0000
00000010: 0000 0000 0000 0000 0000 0000 0000 0000
00000020: 0000 0000 0000 0000 0000 0000 0000 0000
00000030: 0000 0000 0000 0000 0000 0000 0000 0000
00000040: 0000 0000 0000 0000 0000 0000 0000 0000
00000050: 0000 0000 0000 0000 0000 0000 0000 0000
00000060: 0000 0000 0000 0000 0000 0000 0000 0000
00000070: 0000 0000 0000 0000 0000 0000 0000 0000
00000080: 0000 0000 0000 0000 0000 0000 0000 0000
00000090: 0000 0000 0000 0000 0000 0000 0000 0000
000000a0: 0000 0000 0000 0000 0000 0000 0000 0000
000000b0: 0000 0000 0000 0000 0000 0000 0000 0000
000000c0: 0000 0000 0000 0000 0000 0000 0000 0000
000000d0: 0000 0000 0000 0000 0000 0000 0000 0000
000000e0: 0000 0000 0000 0000 0000 0000 0000 0000
000000f0: 0000 0000 0000 0000 0000 0000 0000 0000
00000100: 0000 0000 0000 0000 0000 0000 0000 0000
00000110: 0000 0000 0000 0000 0000 0000 0000 0000
00000120: 0000 0000 0000 0000 0000 0000 0000 0000
00000130: 0000 0000 0000 0000 0000 0000 0000 0000
00000140: 0000 0000 0000 0000 0000 0000 0000 0000
00000150: 0000 0000 0000 0000 0000 0000 0000 0000
00000160: 0000 0000 0000 0000 0000 0000 0000 0000
00000170: 0000 0000 0000 0000 0000 0000 0000 0000
00000180: 0000 0000 0000 0000 0000 0000 0000 0000
00000190: 0000 0000 0000 0000 0000 0000 0000 0000
000001a0: 0000 0000 0000 0000 0000 0000 0000 0000
000001b0: 0000 0000 0000 0000 0000 0000 0000 0000
000001c0: 0000 0000 0000 0000 0000 0000 0000 0000
000001d0: 0000 0000 0000 0000 0000 0000 0000 0000
000001e0: 0000 0000 0000 0000 0000 0000 0000 0000
000001f0: 0000 0000 0000 0000 0000 0000 0000 0000
00000200: 0000 0000 0000 0000 0000 0000 0000 0000
00000210: 0000 0000 0000 0000 0000 0000 0000 0000
00000220: 0000 0000 0000 0000 0000 0000 0000 0000
00000230: 0000 0000 0000 0000 0000 0000 0000 0000
00000240: 0000 0000 0000 0000 0000 0000 0000 0000
00000250: 0000 0000 0000 0000 0000 0000 0000 0000
00000260: 0000 0000 0000 0000 0000 0000 0000 0000
00000270: 0000 0000 0000 0000 0000 0000 0000 0000
00000280: 0000 0000 0000 0000 0000 0000 0000 0000
00000290: 0000 0000 0000 0000 0000 0000 0000 0000
000002a0: 0000 0000 0000 0000 0000 0000 0000 0000
000002b0: 0000 0000 0000 0000 0000 0000 0000 0000
000002c0: 0000 0000 0000 0000 0000 0000 0000 0000
000002d0: 0000 0000 0000 0000 0000 0000 0000 0000
000002e0: 0000 0000 0000 0000 0000 0000 0000 0000
000002f0: 0000 0000 0000 0000 0000 0000 0000 0000
00000300: 0000 0000 0000 0000 0000 0000 0000 0000
00000310: 0000 0000 0000 0000 0000 0000 0000 0000
00000320: 0000 0000 0000 0000 0000 0000 0000 0000
00000330: 0000 0000 0000 0000 0000 0000 0000 0000
00000340: 0000 0000 0000 0000 0000 0000 0000 0000
00000350: 0000 0000 0000 0000 0000 0000 0000 0000
00000360: 0000 0000 0000 0000 0000 0000 0000 0000
00000370: 0000 0000 0000 0000 0000 0000 0000 0000
00000380: 0000 0000 0000 0000 0000 0000 0000 0000
00000390: 0000 0000 0000 0000 0000 0000 0000 0000
000003a0: 0000 0000 0000 0000 0000 0000 0000 0000
000003b0: 0000 0000 0000 0000 0000 0000 0000 0000
000003c0: 0000 0000 0000 0000 0000 0000 0000 0000
000003d0: 0000 0000 0000 0000 0000 0000 0000 0000
000003e0: 0000 0000 0000 0000 0000 0000 0000 0000
000003f0: 0000 0000 0000 0000 0000 0000 0000 0000
0.0 0.0 0.0 0.0 0.0 0.0 0.0 0.0
0.0 0.0 0.0 0.0 0.0 0.0 0.0 0.0
0.0 0.0 0.0 0.0 0.0 0.0 0.0 0.0
0.0 0.0 0.0 0.0 0.0 0.0 0.0 0.0
0.0 0.0 0.0 0.0 0.0 0.0 0.0 0.0
0.0 0.0 0.0 0.0 0.0 0.0 0.0 0.0
0.0 0.0 0.0 0.0 0.0 0.0 0.0 0.0
0.0 0.0 0.0 0.0 0.0 0.0 0.0 0.0
0.0 0.0 0.0 0.0 0.0 0.0 0.0 0.0
0.0 0.0 0.0 0.0 0.0 0.0 0.0 0.0
0.0 0.0 0.0 0.0 0.0 0.0 0.0 0.0
0.0 0.0 0.0 0.0 0.0 0.0 0.0 0.0
0.0 0.0 0.0 0.0 0.0 0.0 0.0 0.0
0.0 0.0 0.0 0.0 0.0 0.0 0.0 0.0
0.0 0.0 0.0 0.0 0.0 0.0 0.0 0.0
0.0 0.0 0.0 0.0 0.0 0.0 0.0 0.0
0.0 0.0 0.0 0.0 0.0 0.0 0.0 0.0
0.0 0.0 0.0 0.0 0.0 0.0 0.0 0.0
0.0 0.0 0.0 0.0 0.0 0.0 0.0 0.0
0.0 0.0 0.0 0.0 0.0 0.0 0.0 0.0
0.0 0.0 0.0 0.0 0.0 0.0 0.0 0.0
0.0 0.0 0.0 0.0 0.0 0.0 0.0 0.0
0.0 0.0 0.0 0.0 0.0 0.0 0.0 0.0
0.0 0.0 0.0 0.0 0.0 0.0 0.0 0.0
0.0 0.0 0.0 0.0 0.0 0.0 0.0 0.0
0.0 0.0 0.0 0.0 0.0 0.0 0.0 0.0
0.0 0.0 0.0 0.0 0.0 0.0 0.0 0.0
0.0 0.0 0.0 0.0 0.0 0.0 0.0 0.0
0.0 0.0 0.0 0.0 0.0 0.0 0.0 0.0
0.0 0.0 0.0 0.0 0.0 0.0 0.0 0.0
0.0 0.0 0.0 0.0 0.0 0.0 0.0 0.0
0.0 0.0 0.0 0.0 0.0 0.0 0.0 0.0

critic.network_body.linear_encoder.seq_layers.2.weight f4 [256, 256]
00000000: 7d3e 70bd 6de3 a63d 057f f03c 68a5 31bd
00000010: 1bc6 4cbd 3fb2 2cbd 88d0 3a3d a616 7fbc
00000020: 92af 163c 60ac 893d cb5d 37bd a398 623c
00000030: 095c 30bc fb4d a5bd b3a5 e8bc c3e6 323d
00000040: 9e9d f03d 554f 983d ccc6 153d 922e 3ebc
00000050: 6d43 083d 2fc5 e63b a398 bb3d f9c5 bdbd
00000060: b26e d6bc 4043 a2bc df5b d93d 6f4c aa3d
00000070: 005c aa3d 22e3 99bd e09f 2d3b 4f6e 463d
00000080: f2f4 893d 9027 163d fe49 0abe 88da 5ebd
00000090: c71b 81bd f9c7 5fbd 4948 05bc 03f2 2dbd
000000a0: 8ab1 aebd 4e98 7a3c 6d6f 2f3b 9862 343d
000000b0: 28ec b8bd eaf1 edbc 69a1 033d 8fb6 1e3b
000000c0: 7f39 cbbd 15a8 193d 9cac 8cbc 9e58 023c
000000d0: bc41 8bbd 1c43 06bc 0f28 f6ba f54a d93c
000000e0: 0f61 44bd a59f 88bd 9b44 573d 87d4 1dbe
000000f0: d596 64bc c7e6 e5bc f606 00bd ad40 053d
00000100: 4d0e 35bd 6e36 803d 415c 703d a596 43bd
00000110: 5c42 a1bd 987f cf3d d51a 4cbd 678a cc3b
00000120: 3538 4c3b 7ec3 17bd 9698 bfbd 72b0 813b
00000130: 580f b5bb 2e06 f6bd 6b6c 873d 1811 2abc
00000140: e967 a43c b21d 02be 1d10 3d3c 15ee 173d
00000150: 039f e9bd 9591 d4bd 32c6 8c3c a1d9 373d
00000160: 60c6 43bd dc90 913d 01f8 1abd 1d35 873d
00000170: 6647 efbb b075 2b3d 8fad 3e3d e112 a13c
00000180: 5ad1 6a3d 301d 283e e542 d93c 6974 653d
00000190: 6614 6ebd 04cd 4ebd c842 ad3b 8f60 0c3e
000001a0: 9606 1bbd 4e94 12bd 0fb2 6c3d a0d3 a3bd
000001b0: c9c7 9a3d 3578 c1bc 2efd d7bd d9fb c7bc
000001c0: f634 10be 2fee 0cbb c7c8 bfbd 5aef 823d
000001d0: acad d43d ee4d 4f3c fd68 b0bd d393 9d3b
000001e0: f578 8dbb f37a 16bd 6b1d f2bd b5f5 303d
000001f0: 72cf 00bd 1a7f 643d fc65 0fbd ba21 09bd
00000200: a6d9 093d 3672 cb3d c9e7 b23d e2db a1bd
00000210: 626c 913d f7ac ae3c 0fe1 963a 3c8d c93d
00000220: b4fe 1a3e 0bbc e43d 0177 163d 18c1 c93d
00000230: 5156 e8bd 00cc 913d 911e f5bc 7ddf 88bd
00000240: 50df 03bd 315c a13d f4be 953d a318 c93c
00000250: c859 68bd 5278 d83d 3ebc c7bb 54eb 463b
00000260: 4b9d adbd 2585 763c 4d66 073c 8fdb debc
00000270: 62b1 c93d 928a 0e3d eca2 e53d 3e6a 20bd
00000280: 0f08 4039 b6cd 2cbd e6a4 72bd c6d4 99bd
00000290: c8a2 9f3d 8278 48bd 789c 4d3d 42df 8a3d
000002a0: 8c9e c3bd d14f b03d e6ef e43d ee46 9abc
000002b0: fc40 f0bc 101c 0bbd fd45 623d ba01 9a3c
000002c0: 8d8a 2fbc fac9 023d b80a 2e3c 2f82 6c3d
000002d0: bc67 df3d 4575 91bd 29e5 c63c 3561 9f3d
000002e0: 92c8 603d 4ba8 373d 4d6d a0bc 9e81 babc
000002f0: 6b1a 993d 13c1 183d b52a ccbd c21d 963c
00000300: cb96 293d 123e d93c 973d 6e3d a0d1 78bd
00000310: 7c5e 4f3c 5b52 f0bc eca9 9b3c 1644 e0bb
00000320: 8aed 13bc 98a8 82bb 7e35 99bb c5f6 793d
00000330: 58f6 45bd 7a3f efbc 4cb9 9f3c fdc9 93bd
00000340: 6fad 163d c4d0 8f3c fdf2 2abc bfe9 e3bc
00000350: 6587 c0bd 1f13 9abd 6d2e 32bd b937 76bd
00000360: 8004 e1bb db9a 1abd 0fa3 c93b cdf4 5f3d
00000370: b7b8 153e 069f 613c add1 083c 8ebe d93d
00000380: 93e1 4f3c f603 943d d9bc 913a b046 073d
00000390: b5ef 963d d2c9 93bb de0e 753d 9b6d 13bd
000003a0: 12f5 71bc 98ba ae3c cdef fdbc eb8e 5ebe
000003b0: 431f 953b 9e87 05bd 529e 113d ccde c1bc
000003c0: ec94 9d3d feef 423d e3b8 edbc d455 bbbd
000003d0: 8692 18bc 4ef6 f43c 5ad2 8bbd f49b 67bd
000003e0: 4d0f 5c3d 80fe 8c3d 26b0 99bd b222 88bd
000003f0: d335 a5bd 3deb 813d 3c70 5f3d fe03 0b3c
-0.058653343 0.08148847 0.029357443 -0.043370634 -0.049993616 -0.042162176 0.045609027 -0.015569365
0.009197133 0.06722331 -0.044767182 0.013830337 -0.01076413 -0.08071514 -0.028399324 0.043677103
0.11748813 0.074370064 0.03656654 -0.011607783 0.033267427 0.007042549 0.091599725 -0.09266276
-0.02617583 -0.019807458 0.10613226 0.0831536 0.08318329 -0.07514025 0.0026492998 0.048445042
0.06736173 0.036658823 -0.13504788 -0.054407626 -0.06304126 -0.05463407 -0.00813491 -0.04246713
-0.08529957 0.015295101 0.0026769296 0.04403934 -0.09029418 -0.029046018 0.032136355 0.00242177
-0.09923076 0.03751381 -0.01717215 0.007955698 -0.06799647 -0.008194711 -0.0018780249 0.026525
-0.047944125 -0.06671075 0.05255566 -0.15413104 -0.013951977 -0.028064145 -0.03125664 0.032532383
-0.04420309 0.06260382 0.05868173 -0.047751088 -0.07873985 0.101317585 -0.049830277 0.006242085
0.0031161432 -0.03705167 -0.09355275 0.0039578015 -0.0055255108 -0.120128974 0.06612476 -0.010380052
0.02006908 -0.1270664 0.011539486 0.037092287 -0.11407282 -0.1037933 0.01718435 0.04488528
-0.047796607 0.07107708 -0.03783417 0.066019274 -0.0073022125 0.041860282 0.046552237 0.019662322
0.05732856 0.16417384 0.026521156 0.05601922 -0.058124922 -0.050488487 0.005287502 0.13708709
-0.037848078 -0.035785966 0.057786997 -0.07999349 0.07557637 -0.02361689 -0.10546337 -0.024412083
-0.14082703 -0.0021504273 -0.09364467 0.06393309 0.10384688 0.012652857 -0.08613775 0.004808882
-0.0043173977 -0.036738347 -0.11822017 0.043203074 -0.031447835 0.055785276 -0.03500937 -0.03347943
0.03365483 0.099338934 0.08735616 -0.079032674 0.071007505 0.02132271 0.0011511164 0.098413914
0.15136224 0.11168679 0.036734585 0.09851283 -0.113445885 0.07118988 -0.029921802 -0.06683252
-0.03219539 0.07878912 0.07311812 0.02454788 -0.056726247 0.10569824 -0.0060954383 0.003035267
-0.08477267 0.015046393 0.0082641365 -0.027204303 0.09848286 0.03480012 0.112127155 -0.03916382
0.00018313549 -0.04218837 -0.05923929 -0.075112864 0.0779472 -0.04894305 0.05019805 0.06780864
-0.09551725 0.08608974 0.111785695 -0.01883265 -0.029327862 -0.03396231 0.055242527 0.018799651
-0.010714185 0.0319309 0.010622673 0.05774134 0.10908458 -0.071024455 0.024279194 0.07782213
0.05487878 0.04483823 -0.019583369 -0.022766884 0.07475742 0.037293505 -0.09969083 0.018324737
0.041403573 0.026518855 0.058164205 -0.06074679 0.012656804 -0.029336145 0.019001924 -0.006844054
-0.009028802 -0.003987383 -0.004675566 0.061026353 -0.048330635 -0.029205073 0.019497536 -0.072162606
0.036786493 0.017555602 -0.0104339095 -0.02782142 -0.094008245 -0.07523178 -0.043501306 -0.060111735
-0.0068669915 -0.037745338 0.0061534713 0.05467682 0.14621244 0.013770824 0.008350772 0.106320485
0.012688058 0.07227318 0.0011118903 0.033026397 0.07369939 -0.004510143 0.05982863 -0.0359932
-0.014767902 0.02132921 -0.030998135 -0.21734206 0.004550846 -0.032600038 0.035551377 -0.023665808
0.0769442 0.047592156 -0.029018825 -0.0914723 -0.009312278 0.029902603 -0.06827231 -0.056545213
0.05372553 0.068844795 -0.07504301 -0.066472426 -0.08066907 0.06343696 0.054550394 0.0084848385

critic.network_body.linear_encoder.seq_layers.2.bias f4 [256]
00000000: 0000 0000 0000 0000 0000 0000 0000 0000
00000010: 0000 0000 0000 0000 0000 0000 0000 0000
00000020: 0000 0000 0000 0000 0000 0000 0000 0000
00000030: 0000 0000 0000 0000 0000 0000 0000 0000
00000040: 0000 0000 0000 0000 0000 0000 0000 0000
00000050: 0000 0000 0000 0000 0000 0000 0000 0000
00000060: 0000 0000 0000 0000 0000 0000 0000 0000
00000070: 0000 0000 0000 0000 0000 0000 0000 0000
00000080: 0000 0000 0000 0000 0000 0000 0000 0000
00000090: 0000 0000 0000 0000 0000 0000 0000 0000
000000a0: 0000 0000 0000 0000 0000 0000 0000 0000
000000b0: 0000 0000 0000 0000 0000 0000 0000 0000
000000c0: 0000 0000 0000 0000 0000 0000 0000 0000
000000d0: 0000 0000 0000 0000 0000 0000 0000 0000
000000e0: 0000 0000 0000 0000 0000 0000 0000 0000
000000f0: 0000 0000 0000 0000 0000 0000 0000 0000
00000100: 0000 0000 0000 0000 0000 0000 0000 0000
00000110: 0000 0000 0000 0000 0000 0000 0000 0000
00000120: 0000 0000 0000 0000 0000 0000 0000 0000
00000130: 0000 0000 0000 0000 0000 0000 0000 0000
00000140: 0000 0000 0000 0000 0000 0000 0000 0000
00000150: 0000 0000 0000 0000 0000 0000 0000 0000
00000160: 0000 0000 0000 0000 0000 0000 0000 0000
00000170: 0000 0000 0000 0000 0000 0000 0000 0000
00000180: 0000 0000 0000 0000 0000 0000 0000 0000
00000190: 0000 0000 0000 0000 0000 0000 0000 0000
000001a0: 0000 0000 0000 0000 0000 0000 0000 0000
000001b0: 0000 0000 0000 0000 0000 0000 0000 0000
000001c0: 0000 0000 0000 0000 0000 0000 0000 0000
000001d0: 0000 0000 0000 0000 0000 0000 0000 0000
000001e0: 0000 0000 0000 0000 0000 0000 0000 0000
000001f0: 0000 0000 0000 0000 0000 0000 0000 0000
00000200: 0000 0000 0000 0000 0000 0000 0000 0000
00000210: 0000 0000 0000 0000 0000 0000 0000 0000
00000220: 0000 0000 0000 0000 0000 0000 0000 0000
00000230: 0000 0000 0000 0000 0000 0000 0000 0000
00000240: 0000 0000 0000 0000 0000 0000 0000 0000
00000250: 0000 0000 0000 0000 0000 0000 0000 0000
00000260: 0000 0000 0000 0000 0000 0000 0000 0000
00000270: 0000 0000 0000 0000 0000 0000 0000 0000
00000280: 0000 0000 0000 0000 0000 0000 0000 0000
00000290: 0000 0000 0000 0000 0000 0000 0000 0000
000002a0: 0000 0000 0000 0000 0000 0000 0000 0000
000002b0: 0000 0000 0000 0000 0000 0000 0000 0000
000002c0: 0000 0000 0000 0000 0000 0000 0000 0000
000002d0: 0000 0000 0000 0000 0000 0000 0000 0000
000002e0: 0000 0000 0000 0000 0000 0000 0000 0000
000002f0: 0000 0000 0000 0000 0000 0000 0000 0000
00000300: 0000 0000 0000 0000 0000 0000 0000 0000
00000310: 0000 0000 0000 0000 0000 0000 0000 0000
00000320: 0000 0000 0000 0000 0000 0000 0000 0000
00000330: 0000 0000 0000 0000 0000 0000 0000 0000
00000340: 0000 0000 0000 0000 0000 0000 0000 0000
00000350: 0000 0000 0000 0000 0000 0000 0000 0000
00000360: 0000 0000 0000 0000 0000 0000 0000 0000
00000370: 0000 0000 0000 0000 0000 0000 0000 0000
00000380: 0000 0000 0000 0000 0000 0000 0000 0000
00000390: 0000 0000 0000 0000 0000 0000 0000 0000
000003a0: 0000 0000 0000 0000 0000 0000 0000 0000
000003b0: 0000 0000 0000 0000 0000 0000 0000 0000
000003c0: 0000 0000 0000 0000 0000 0000 0000 0000
000003d0: 0000 0000 0000 0000 0000 0000 0000 0000
000003e0: 0000 0000 0000 0000 0000 0000 0000 0000
000003f0: 0000 0000 0000 0000 0000 0000 0000 0000
0.0 0.0 0.0 0.0 0.0 0.0 0.0 0.0
0.0 0.0 0.0 0.0 0.0 0.0 0.0 0.0
0.0 0.0 0.0 0.0 0.0 0.0 0.0 0.0
0.0 0.0 0.0 0.0 0.0 0.0 0.0 0.0
0.0 0.0 0.0 0.0 0.0 0.0 0.0 0.0
0.0 0.0 0.0 0.0 0.0 0.0 0.0 0.0
0.0 0.0 0.0 0.0 0.0 0.0 0.0 0.0
0.0 0.0 0.0 0.0 0.0 0.0 0.0 0.0
0.0 0.0 0.0 0.0 0.0 0.0 0.0 0.0
0.0 0.0 0.0 0.0 0.0 0.0 0.0 0.0
0.0 0.0 0.0 0.0 0.0 0.0 0.0 0.0
0.0 0.0 0.0 0.0 0.0 0.0 0.0 0.0
0.0 0.0 0.0 0.0 0.0 0.0 0.0 0.0
0.0 0.0 0.0 0.0 0.0 0.0 0.0 0.0
0.0 0.0 0.0 0.0 0.0 0.0 0.0 0.0
0.0 0.0 0.0 0.0 0.0 0.0 0.0 0.0
0.0 0.0 0.0 0.0 0.0 0.0 0.0 0.0
0.0 0.0 0.0 0.0 0.0 0.0 0.0 0.0
0.0 0.0 0.0 0.0 0.0 0.0 0.0 0.0
0.0 0.0 0.0 0.0 0.0 0.0 0.0 0.0
0.0 0.0 0.0 0.0 0.0 0.0 0.0 0.0
0.0 0.0 0.0 0.0 0.0 0.0 0.0 0.0
0.0 0.0 0.0 0.0 0.0 0.0 0.0 0.0
0.0 0.0 0.0 0.0 0.0 0.0 0.0 0.0
0.0 0.0 0.0 0.0 0.0 0.0 0.0 0.0
0.0 0.0 0.0 0.0 0.0 0.0 0.0 0.0
0.0 0.0 0.0 0.0 0.0 0.0 0.0 0.0
0.0 0.0 0.0 0.0 0.0 0.0 0.0 0.0
0.0 0.0 0.0 0.0 0.0 0.0 0.0 0.0
0.0 0.0 0.0 0.0 0.0 0.0 0.0 0.0
0.0 0.0 0.0 0.0 0.0 0.0 0.0 0.0
0.0 0.0 0.0 0.0 0.0 0.0 0.0 0.0
