config/results/NewRun2/My Behavior/My Behavior-2297.onnx (onnx, 282099 bytes, 8 tensors)

58 f4 [9]
1.4478111 0.04579115 0.020860514 1.0366787 0.04579115 0.020860514 0.13400911 0.020860514
0.42877164
00000000: e051 b93f 808f 3b3d abe3 aa3c e3b1 843f
00000010: 808f 3b3d abe3 aa3c af39 093e abe3 aa3c
00000020: f587 db3e

action_model._discrete_distribution.branches.0.bias f4 [6]
0.0 0.0 0.0 0.0 0.0 0.0
00000000: 0000 0000 0000 0000 0000 0000 0000 0000
00000010: 0000 0000 0000 0000

action_model._discrete_distribution.branches.0.weight f4 [6, 256]
-0.01235153 0.005665854 -0.0038161476 -0.005771883 -0.009417146 -0.008086849 0.00085245114 -0.00073540764
0.006416046 0.004933797 -0.011518175 -0.0028775705 -0.009321078 0.011578186 0.0023643947 0.0020941563
0.00011938496 -0.00022805492 -0.0076152007 -0.007025331 0.0028486408 -0.00075198815 -0.000785434 -0.00316646
-0.0025502983 0.0053840177 -0.0067291516 0.0010937653 0.00090701703 0.005374692 -0.0059246793 -0.0104704015
-0.0014170271 -0.0006476993 -0.0035970972 -0.0071614804 -0.0016436216 0.002329462 0.00067053596 -0.00019325594
-0.0086358795 -0.006927272 -0.0008318255 -0.00077420095 -0.0018529221 -0.0047330125 0.0053532836 -0.009709678
-0.0041864305 -0.0055005057 0.011577058 0.0066642025 0.018484442 0.002418405 0.005030276 2.5951898e-05
-0.002714743 -0.01001749 -0.015965907 0.0024571088 0.004600547 0.0060475576 0.008671618 -0.002587682
0.0075025507 0.008968732 -0.00011113652 -0.001827113 -0.002105944 -0.002331339 -0.007909522 0.0031296785
-0.0005241257 -0.0015294229 0.0039699143 -0.0004510724 -0.00016512851 0.003876324 0.0029668843 -0.00021528025
-0.0018168957 -0.004027641 -0.009290133 -0.0024719208 0.0055362913 -0.012058952 0.00045923181 -0.0063551427
-0.0010641142 -0.008527901 -0.0033364457 -0.008702889 -0.008621666 0.0012380137 0.003557785 0.0037436124
0.0032172624 -0.0035344993 0.00399194 0.00215083 0.006877221 -0.001060633 -0.0024666688 0.005904622
0.004264047 0.0058573484 0.0065029003 -0.00044429628 -0.01011707 -0.0040872446 0.009588523 -0.0029003352
-0.0003605853 -0.003426299 -0.0049324716 -0.008617553 -0.0036631336 -0.014873944 0.0076004923 -0.0021062067
-0.00931251 -0.0016460456 -0.015476522 0.0065019876 -0.006396445 -0.0030332243 0.0055476325 0.009467051
0.003002184 0.0007674847 0.0056436877 0.0035088768 0.004010303 0.0008421586 0.0052027274 -0.004600681
-0.0065962025 -0.0065689567 -0.002788774 0.002136902 0.0009608992 0.005508782 0.00042208887 0.012575827
0.00048363983 -0.0018918271 -0.0008451176 0.001108352 -0.008820574 -0.0060097496 -0.0010177958 -0.0037604035
0.011035669 0.0053658597 0.004467862 -0.0070403437 -0.0040743644 0.015618729 0.007812882 0.00042940304
0.0044625183 0.006075566 -0.010128862 7.0182046e-05 0.010079461 0.011745232 0.0048931944 0.0026739351
-0.0067118295 -0.004207748 -0.008314769 -0.006023132 0.007205152 0.009879171 0.003058822 -0.003852546
-0.003419963 -0.004029729 -0.0027224422 0.0043485877 0.0005131882 -0.013482771 -0.015478845 -0.003070602
-0.0023620143 0.0015623522 -0.0073454217 0.0074000447 0.0006757531 0.0028898665 0.008091496 -0.009227533
-0.008724257 0.008194475 -0.010403145 -0.00466489 0.0016390238 0.006601527 0.0009737676 -0.0029486052
0.012249625 -0.0025094072 0.0047687492 -0.001282165 -0.0029729218 0.0094496375 0.0053631566 0.00092014484
-0.01206525 -0.009632075 -0.0012070502 -0.0025553522 -0.003383113 0.0030133612 -0.0039876522 -0.000576607
0.0034897868 -0.012331079 0.0014120988 0.0023954136 0.004850073 -0.0006474735 -0.0042521693 -0.0103517305
-0.0007431986 -0.0070393085 0.015210872 0.011948885 0.008105791 0.0048873555 0.0054421867 -0.010466783
-0.0025022826 0.0037973577 0.0007907686 0.011507682 0.00024962958 -0.013469643 -0.00047023027 0.008713977
-0.0035908266 0.0039778603 -0.0047069774 0.007855865 0.0022352787 0.0036610272 -0.0036276826 -0.0069799623
-0.0068325833 0.00063083495 0.0029559936 -0.009597963 0.004784462 -0.00071075023 0.0065635866 -0.0065800385
00000000: 125e 4abc a1a8 b93b 5518 7abb 1022 bdbb
00000010: 604a 1abc b47e 04bc 0777 5f3a 5fc8 40ba
00000020: b23d d23b b0ab a13b bab6 3cbc 9f95 3cbb
00000030: 6fb7 18bc 6fb2 3d3c f6f3 1a3b 1d3e 093b
00000040: 505e fa38 0722 6fb9 ef88 f9bb bf34 e6bb
00000050: 43b0 3a3b 1221 45ba 95e5 4dba 6284 4fbb
00000060: e822 27bb 6a6c b03b 3780 dcbb ac5c 8f3a
00000070: e2c4 6d3a 2f1e b03b d023 c2bb 0c8c 2bbc
00000080: 8abb b9ba 5dca 29ba 47bd 6bbb daaa eabb
00000090: ca6e d7ba e3a9 183b e8c6 2f3a bfa4 4ab9
000000a0: 817d 0dbc 2bfe e2bb dd0e 5aba bff3 4aba
000000b0: c0dd f2ba 6317 9bbb 996a af3b 5715 1fbc
000000c0: 532e 89bb 963d b4bb b3ad 3d3c 625f da3b
000000d0: af6c 973c 1a7e 1e3b 03d5 a43b 47b3 d937
000000e0: d4e9 31bb 6620 24bc efca 82bc 7207 213b
000000f0: 2fc0 963b 972a c63b 6713 0e3c 1a96 29bb
00000100: f5d7 f53b 97f1 123c f711 e9b8 bd7b efba
00000110: e103 0abb 61c9 18bb f196 01bc 4b1b 4d3b
00000120: 7b65 09ba eb76 c8ba 0e16 823b ea7d ecb9
00000130: 5926 2db9 ed09 7e3b 0f70 423b dabc 61b9
00000140: e724 eeba 4dfa 83bb a435 18bc f3ff 21bb
00000150: c769 b53b e992 45bc 0dc5 f039 cd3e d0bb
00000160: bf79 8bba 9cb8 0bbc 45a8 5abb 9096 0ebc
00000170: e341 0dbc d944 a23a ba29 693b 6557 753b
00000180: b5d8 523b 0fa3 67bb d2ce 823b f1f4 0c3b
00000190: 505a e13b f004 8bba d6a7 21bb 8f7b c13b
000001a0: 6bb9 8b3b 00ef bf3b 4816 d53b 70f0 e8b9
000001b0: 11c2 25bc 4bee 85bb 2e19 1d3c 8d13 3ebb
000001c0: f10c bdb9 c28b 60bb 92a0 a1bb a330 0dbc
000001d0: 2f11 70bb d8b1 73bc 8d0d f93b 4908 0abb
000001e0: 7f93 18bc 20c0 d7ba 3d91 7dbc a00e d53b
000001f0: 4599 d1bb 0fc9 46bb eac8 b53b b11b 1b3c
00000200: 4ac0 443b 0731 493a afee b83b 2ff5 653b
00000210: dc68 833b 4fc4 5c3a a47b aa3b 4fc1 96bb
00000220: f524 d8bb 6740 d7bb ddc3 36bb 440b 0c3b
00000230: dbe4 7b3a 0383 b43b cf4b dd39 d70a 4e3c
00000240: 0a91 fd39 2ff7 f7ba e28a 5dba 1f46 913a
00000250: 2b84 10bc 6fed c4bb 8f67 85ba 1a71 76bb
00000260: f3ce 343c 18d4 af3b 2567 923b afb2 e6bb
00000270: 3f82 85bb b3e5 7f3c 9a01 003c 8021 e139
00000280: 513a 923b 8b15 c73b 87f3 25bc b32e 9338
00000290: 5324 253c 136f 403c 1757 a03b 303d 2f3b
000002a0: e8ee dbbb 26e1 89bb ab3a 08bc b15d c5bb
000002b0: 3219 ec3b 3fdc 213c 8476 483b ff7a 7cbb
000002c0: 7521 60bb d10b 84bb 006b 32bb 997e 8e3b
000002d0: 7a87 063a d7e6 5cbc fb9a 7dbc 273c 49bb
000002e0: 06cc 1abb d7c7 cc3a ddb1 f0bb 137c f23b
000002f0: 0625 313a ea63 3d3b 3292 043c 142f 17bc
00000300: 30f0 0ebc 1f42 063c f471 2abc efdb 98bb
00000310: 83d4 d63a 9f51 d83b 7044 7f3a 633d 41bb
00000320: a7b2 483c de74 24bb 2b43 9c3b 510e a8ba
00000330: 5ad5 42bb a7d2 1a3c 6bbd af3b e035 713a
00000340: 54ad 45bc dacf 1dbc e235 9eba b277 27bb
00000350: 38b7 5dbb d07b 453b daaa 82bb 7127 17ba
00000360: e8b4 643b 4b08 4abc 2c16 b93a 5ffc 1c3b
00000370: 5ced 9e3b 36bb 29ba c855 8bbb 4e9a 29bc
00000380: 37d3 42ba 00aa e6bb 0537 793c 42c5 433c
00000390: 27ce 043c 1c26 a03b 5f54 b23b df7c 2bbc
000003a0: 56fd 23bb 17dd 783b 954b 4f3a b78a 3c3c
000003b0: b7e0 8239 c7af 5cbc 3d89 f6b9 12c5 0e3c
000003c0: 1354 6bbb b658 823b fd3c 9abb e3b5 003c
000003d0: c17d 123b d8ed 6f3b 6abe 6dbb 2bb8 e4bb
000003e0: dde3 dfbb 9e5e 253a 58b9 413b c640 1dbc
000003f0: fac6 9c3b a451 3aba 5b13 d73b 5d9d d7bb

network_body.linear_encoder.seq_layers.0.bias f4 [256]
0.0 0.0 0.0 0.0 0.0 0.0 0.0 0.0
0.0 0.0 0.0 0.0 0.0 0.0 0.0 0.0
0.0 0.0 0.0 0.0 0.0 0.0 0.0 0.0
0.0 0.0 0.0 0.0 0.0 0.0 0.0 0.0
0.0 0.0 0.0 0.0 0.0 0.0 0.0 0.0
0.0 0.0 0.0 0.0 0.0 0.0 0.0 0.0
0.0 0.0 0.0 0.0 0.0 0.0 0.0 0.0
0.0 0.0 0.0 0.0 0.0 0.0 0.0 0.0
0.0 0.0 0.0 0.0 0.0 0.0 0.0 0.0
0.0 0.0 0.0 0.0 0.0 0.0 0.0 0.0
0.0 0.0 0.0 0.0 0.0 0.0 0.0 0.0
0.0 0.0 0.0 0.0 0.0 0.0 0.0 0.0
0.0 0.0 0.0 0.0 0.0 0.0 0.0 0.0
0.0 0.0 0.0 0.0 0.0 0.0 0.0 0.0
0.0 0.0 0.0 0.0 0.0 0.0 0.0 0.0
0.0 0.0 0.0 0.0 0.0 0.0 0.0 0.0
0.0 0.0 0.0 0.0 0.0 0.0 0.0 0.0
0.0 0.0 0.0 0.0 0.0 0.0 0.0 0.0
0.0 0.0 0.0 0.0 0.0 0.0 0.0 0.0
0.0 0.0 0.0 0.0 0.0 0.0 0.0 0.0
0.0 0.0 0.0 0.0 0.0 0.0 0.0 0.0
0.0 0.0 0.0 0.0 0.0 0.0 0.0 0.0
0.0 0.0 0.0 0.0 0.0 0.0 0.0 0.0
0.0 0.0 0.0 0.0 0.0 0.0 0.0 0.0
0.0 0.0 0.0 0.0 0.0 0.0 0.0 0.0
0.0 0.0 0.0 0.0 0.0 0.0 0.0 0.0
0.0 0.0 0.0 0.0 0.0 0.0 0.0 0.0
0.0 0.0 0.0 0.0 0.0 0.0 0.0 0.0
0.0 0.0 0.0 0.0 0.0 0.0 0.0 0.0
0.0 0.0 0.0 0.0 0.0 0.0 0.0 0.0
0.0 0.0 0.0 0.0 0.0 0.0 0.0 0.0
0.0 0.0 0.0 0.0 0.0 0.0 0.0 0.0
00000000: 0000 0000 0000 0000 0000 0000 0000 0000
00000010: 0000 0000 0000 0000 0000 0000 0000 0000
00000020: 0000 0000 0000 0000 0000 0000 0000 0000
00000030: 0000 0000 0000 0000 0000 0000 0000 0000
00000040: 0000 0000 0000 0000 0000 0000 0000 0000
00000050: 0000 0000 0000 0000 0000 0000 0000 0000
00000060: 0000 0000 0000 0000 0000 0000 0000 0000
00000070: 0000 0000 0000 0000 0000 0000 0000 0000
00000080: 0000 0000 0000 0000 0000 0000 0000 0000
00000090: 0000 0000 0000 0000 0000 0000 0000 0000
000000a0: 0000 0000 0000 0000 0000 0000 0000 0000
000000b0: 0000 0000 0000 0000 0000 0000 0000 0000
000000c0: 0000 0000 0000 0000 0000 0000 0000 0000
000000d0: 0000 0000 0000 0000 0000 0000 0000 0000
000000e0: 0000 0000 0000 0000 0000 0000 0000 0000
000000f0: 0000 0000 0000 0000 0000 0000 0000 0000
00000100: 0000 0000 0000 0000 0000 0000 0000 0000
00000110: 0000 0000 0000 0000 0000 0000 0000 0000
00000120: 0000 0000 0000 0000 0000 0000 0000 0000
00000130: 0000 0000 0000 0000 0000 0000 0000 0000
00000140: 0000 0000 0000 0000 0000 0000 0000 0000
00000150: 0000 0000 0000 0000 0000 0000 0000 0000
00000160: 0000 0000 0000 0000 0000 0000 0000 0000
00000170: 0000 0000 0000 0000 0000 0000 0000 0000
00000180: 0000 0000 0000 0000 0000 0000 0000 0000
00000190: 0000 0000 0000 0000 0000 0000 0000 0000
000001a0: 0000 0000 0000 0000 0000 0000 0000 0000
000001b0: 0000 0000 0000 0000 0000 0000 0000 0000
000001c0: 0000 0000 0000 0000 0000 0000 0000 0000
000001d0: 0000 0000 0000 0000 0000 0000 0000 0000
000001e0: 0000 0000 0000 0000 0000 0000 0000 0000
000001f0: 0000 0000 0000 0000 0000 0000 0000 0000
00000200: 0000 0000 0000 0000 0000 0000 0000 0000
00000210: 0000 0000 0000 0000 0000 0000 0000 0000
00000220: 0000 0000 0000 0000 0000 0000 0000 0000
00000230: 0000 0000 0000 0000 0000 0000 0000 0000
00000240: 0000 0000 0000 0000 0000 0000 0000 0000
00000250: 0000 0000 0000 0000 0000 0000 0000 0000
00000260: 0000 0000 0000 0000 0000 0000 0000 0000
00000270: 0000 0000 0000 0000 0000 0000 0000 0000
00000280: 0000 0000 0000 0000 0000 0000 0000 0000
00000290: 0000 0000 0000 0000 0000 0000 0000 0000
000002a0: 0000 0000 0000 0000 0000 0000 0000 0000
000002b0: 0000 0000 0000 0000 0000 0000 0000 0000
000002c0: 0000 0000 0000 0000 0000 0000 0000 0000
000002d0: 0000 0000 0000 0000 0000 0000 0000 0000
000002e0: 0000 0000 0000 0000 0000 0000 0000 0000
000002f0: 0000 0000 0000 0000 0000 0000 0000 0000
00000300: 0000 0000 0000 0000 0000 0000 0000 0000
00000310: 0000 0000 0000 0000 0000 0000 0000 0000
00000320: 0000 0000 0000 0000 0000 0000 0000 0000
00000330: 0000 0000 0000 0000 0000 0000 0000 0000
00000340: 0000 0000 0000 0000 0000 0000 0000 0000
00000350: 0000 0000 0000 0000 0000 0000 0000 0000
00000360: 0000 0000 0000 0000 0000 0000 0000 0000
00000370: 0000 0000 0000 0000 0000 0000 0000 0000
00000380: 0000 0000 0000 0000 0000 0000 0000 0000
00000390: 0000 0000 0000 0000 0000 0000 0000 0000
000003a0: 0000 0000 0000 0000 0000 0000 0000 0000
000003b0: 0000 0000 0000 0000 0000 0000 0000 0000
000003c0: 0000 0000 0000 0000 0000 0000 0000 0000
000003d0: 0000 0000 0000 0000 0000 0000 0000 0000
000003e0: 0000 0000 0000 0000 0000 0000 0000 0000
000003f0: 0000 0000 0000 0000 0000 0000 0000 0000

network_body.linear_encoder.seq_layers.0.weight f4 [256, 9]
0.054511573 -0.31789243 0.07156425 -0.42295063 -0.1809688 0.44820142 -0.030870866 -0.025562799
-0.08681103 -0.34908426 -0.16654858 -0.10261299 0.48147094 -0.31954342 0.22865835 0.21598342
0.34496948 -0.30862376 0.08583563 -0.27613848 0.52590334 0.19897142 -0.60393894 0.11365162
-0.23091581 0.24274866 -0.39990538 0.2298913 -0.024779228 -0.12019073 -0.031879522 -0.18361536
-0.16956978 -0.12170833 -0.14553505 -0.016726594 0.84625405 -0.2667033 -0.28560427 -0.2588874
-0.16694358 -0.17855516 -0.7051462 -0.11479357 -0.038295962 0.26494896 -0.42783517 0.06344401
-0.07224542 0.084252745 -0.09957826 0.07980433 -0.69958824 -0.18754777 0.41868886 -0.19510214
-0.18242037 -0.36268902 -0.06888546 -0.1162118 -0.4286127 0.34204206 0.34185475 0.39992508
-0.23525839 -0.2895692 -0.08598176 -0.36705524 0.23697478 -0.07492811 -0.26659495 -0.12462114
0.5854875 0.03537514 -0.047607865 0.08984371 -0.20922618 -0.005245262 0.22203013 -0.14385018
-0.551002 -0.12972267 0.14832708 0.21149588 0.19071117 -0.027812047 -0.12185338 0.20129865
-0.087080926 -0.52777535 0.3423105 0.19271444 -0.03371881 -0.43468612 0.23763272 -0.24703042
0.4484424 -0.22915855 -0.2706717 0.44097936 0.07400324 0.06521947 0.35778615 0.3629875
-0.6262311 -0.48722947 -0.44753036 0.1835272 -0.4095579 -0.42181945 0.061774295 0.6857084
0.4858445 -0.10173869 0.011388174 -0.49660656 -0.40423864 0.667952 0.3844726 0.18057713
-0.030701768 -0.09491014 0.21277392 -0.08895188 -0.1889563 -0.106514625 0.26560804 -0.94215405
-0.04623724 0.3305764 0.4050326 -0.6646066 0.33534288 0.075802654 0.53947496 -0.4288531
-0.8493326 0.061237436 -0.08558565 0.07684097 -0.17594668 -0.512709 0.04962808 0.4922144
0.14230505 0.30804873 0.23952763 0.30515552 0.39158285 0.2361316 0.13564548 0.07321535
0.015288966 0.43502483 0.1790157 0.025727954 0.011744666 -0.38853884 -0.024832852 -0.06554638
0.10488324 -0.15310568 -0.3524637 -0.24671575 0.46359846 0.16980273 -0.22123276 0.17092353
-0.36413333 -0.42626977 0.16354237 0.17093694 -0.057535242 -0.51577574 0.15812644 0.20622924
0.21065168 0.62616146 -0.37997314 -0.05945737 0.23337714 0.03735859 0.4459817 0.9025971
-0.16211545 0.058964472 0.19616947 -0.07294752 0.21644555 -0.24854273 0.5034352 0.19817296
0.30353332 -0.17112118 0.48826095 -0.27365237 -0.07237095 -0.047247183 -0.13116466 -0.40599167
-0.11119577 -0.18563882 -0.22766642 0.05082369 0.2705807 -0.07218617 0.2457864 0.20605755
0.27748936 0.40764686 -0.2296822 -0.22847633 0.13001928 -0.104110464 0.36490476 -0.13185582
0.6412649 0.2153953 0.94326305 1.1235154 -0.4227004 0.055833783 0.19282931 0.23186825
-0.65371984 0.24932805 0.36814266 0.38284048 -0.11444401 -0.27027518 0.12730543 -0.10569604
-0.09778642 -0.033280738 -0.48382232 0.31936163 0.00214208 -0.41802916 -0.061168596 -0.47677383
-0.5460633 0.023848638 -0.37492222 0.03279692 0.34591347 -0.19175181 -0.5702777 -0.14950825
-0.577334 0.24374354 -0.17920439 0.57422686 0.049215928 -0.16683853 0.08271964 0.38648278
00000000: 8747 5f3d ccc2 a2be 4790 923d fc8c d8be
00000010: e34f 39be a87a e53e e6e4 fcbc 1369 d1bc
00000020: fbc9 b1bd 2cbb b2be b68b 2abe c226 d2bd
00000030: 5c83 f63e 329b a3be 6a25 6a3e c22a 5d3e
00000040: d79f b03e ef03 9ebe 97ca af3d 0662 8dbe
00000050: 9aa1 063f 2abf 4b3e be9b 1abf 2ec2 e83d
00000060: 3275 6cbe 1b93 783e 66c0 ccbe a068 6b3e
00000070: cffd cabc 8f26 f6bd 1a94 02bd aa05 3cbe
00000080: b3a3 2dbe 3842 f9bd 2407 15be 3606 89bc
00000090: 1ba4 583f 568d 88be b93a 92be e48c 84be
000000a0: 42f3 2abe 2ad7 36be 7684 34bf e418 ebbd
000000b0: 3adc 1cbd 64a7 873e 360d dbbe efee 813d
000000c0: 68f5 93bd b48c ac3d b0ef cbbd 7470 a33d
000000d0: 3718 33bf 860c 40be 635e d63e dbc8 47be
000000e0: 68cc 3abe 60b2 b9be d213 8dbd 7400 eebd
000000f0: 2073 dbbe 2320 af3e 9607 af3e fbc2 cc3e
00000100: 93e7 70be 6a42 94be 3417 b0bd aaee bbbe
00000110: 84a9 723e e973 99bd 227f 88be 5e39 ffbd
00000120: 82e2 153f 86e5 103d 7700 43bd fbff b73d
00000130: 633f 56be 72e0 abbb de5b 633e 764d 13be
00000140: 780e 0dbf 05d6 04be 0ee3 173e 6092 583e
00000150: ca49 433e 17d6 e3bc 448e f9bd 3c21 4e3e
00000160: 7c57 b2bd 491c 07bf 5243 af3e ef56 453e
00000170: bc1c 0abd 2e8f debe fe55 733e 8bf5 7cbe
00000180: 3e9a e53e 8aa8 6abe 7b95 8abe 0cc8 e13e
00000190: 038f 973d c991 853d bf2f b73e 7fd9 b93e
000001a0: ae50 20bf 2476 f9be b322 e5be 8eee 3b3e
000001b0: 93b1 d1be b8f8 d7be 0b07 7d3d 968a 2f3f
000001c0: 9cc0 f83e 605c d0bd 7795 3a3c 3743 febe
000001d0: 5ef8 cebe e7fe 2a3f 98d9 c43e 36e9 383e
000001e0: 4682 fbbc 3f60 c2bd 68e1 593e 672c b6bd
000001f0: c37d 41be 5724 dabd c7fd 873e 0231 71bf
00000200: 4363 3dbd 4f41 a93e 6f60 cf3e a823 2abf
00000210: 10b2 ab3e 6c3e 9b3d 081b 0a3f a292 dbbe
00000220: dc6d 59bf 1bd4 7a3d 8747 afbd cc5e 9d3d
00000230: 5e2b 34be e640 03bf d046 4b3d 8703 fc3e
00000240: 6ab8 113e 90b8 9d3e bb46 753e 583d 9c3e
00000250: 8c7d c83e 7bcc 713e a6e6 0a3e eef1 953d
00000260: 927e 7a3c 93bb de3e e44f 373e 6ec3 d23c
00000270: b36c 403c 90ee c6be 446e cbbc 2e3d 86bd
00000280: 06cd d63d bcc7 1cbe 1f76 b4be 0ea3 7cbe
00000290: c75c ed3e c4e0 2d3e d78a 62be 9406 2f3e
000002a0: af6f babe 0840 dabe a777 273e 180a 2f3e
000002b0: 13aa 6bbd e109 04bf e6eb 213e c22d 533e
000002c0: 13b5 573e 1e4c 203f d78b c2be 9289 73bd
000002d0: 6bfa 6e3e 5205 193d b757 e43e 9b10 673f
000002e0: 9801 26be bb84 713d a6e0 483e 8265 95bd
000002f0: e7a3 5d3e fc81 7ebe 21e1 003f daed 4a3e
00000300: b868 9b3e 643a 2fbe 57fd f93e 2a1c 8cbe
00000310: 3837 94bd 4386 41bd 0750 06be 24de cfbe
00000320: 9cba e3bd 1a18 3ebe 6321 69be 802c 503d
00000330: 8e89 8a3e 58d6 93bd 6eaf 7b3e c000 533e
00000340: 1613 8e3e 17b7 d03e d031 6bbe b3f5 69be
00000350: c623 053e de37 d5bd ccd4 ba3e 3605 07be
00000360: f029 243f 9690 5c3e b079 713f 5acf 8f3f
00000370: 306c d8be f7b1 643d 0c75 453e df6e 6d3e
00000380: 2f5a 27bf da4f 7f3e 327d bc3e ab03 c43e
00000390: 9f61 eabd 8261 8abe 5b5c 023e 2a77 d8bd
000003a0: 3f44 c8bd 6251 08bd 8fb7 f7be 5e83 a33e
000003b0: 2462 0c3b eb07 d6be ec8b 7abd b31b f4be
000003c0: ceca 0bbf 385e c33c cef5 bfbe 1056 063d
000003d0: 921b b13e 965a 44be b8fd 11bf b118 19be
000003e0: 29cc 13bf e897 793e 5b81 37be 8800 133f
000003f0: a496 493d b8d7 2abe ea68 a93d 12e1 c53e

network_body.linear_encoder.seq_layers.2.bias f4 [256]
0.0 0.0 0.0 0.0 0.0 0.0 0.0 0.0
0.0 0.0 0.0 0.0 0.0 0.0 0.0 0.0
0.0 0.0 0.0 0.0 0.0 0.0 0.0 0.0
0.0 0.0 0.0 0.0 0.0 0.0 0.0 0.0
0.0 0.0 0.0 0.0 0.0 0.0 0.0 0.0
0.0 0.0 0.0 0.0 0.0 0.0 0.0 0.0
0.0 0.0 0.0 0.0 0.0 0.0 0.0 0.0
0.0 0.0 0.0 0.0 0.0 0.0 0.0 0.0
0.0 0.0 0.0 0.0 0.0 0.0 0.0 0.0
0.0 0.0 0.0 0.0 0.0 0.0 0.0 0.0
0.0 0.0 0.0 0.0 0.0 0.0 0.0 0.0
0.0 0.0 0.0 0.0 0.0 0.0 0.0 0.0
0.0 0.0 0.0 0.0 0.0 0.0 0.0 0.0
0.0 0.0 0.0 0.0 0.0 0.0 0.0 0.0
0.0 0.0 0.0 0.0 0.0 0.0 0.0 0.0
0.0 0.0 0.0 0.0 0.0 0.0 0.0 0.0
0.0 0.0 0.0 0.0 0.0 0.0 0.0 0.0
0.0 0.0 0.0 0.0 0.0 0.0 0.0 0.0
0.0 0.0 0.0 0.0 0.0 0.0 0.0 0.0
0.0 0.0 0.0 0.0 0.0 0.0 0.0 0.0
0.0 0.0 0.0 0.0 0.0 0.0 0.0 0.0
0.0 0.0 0.0 0.0 0.0 0.0 0.0 0.0
0.0 0.0 0.0 0.0 0.0 0.0 0.0 0.0
0.0 0.0 0.0 0.0 0.0 0.0 0.0 0.0
0.0 0.0 0.0 0.0 0.0 0.0 0.0 0.0
0.0 0.0 0.0 0.0 0.0 0.0 0.0 0.0
0.0 0.0 0.0 0.0 0.0 0.0 0.0 0.0
0.0 0.0 0.0 0.0 0.0 0.0 0.0 0.0
0.0 0.0 0.0 0.0 0.0 0.0 0.0 0.0
0.0 0.0 0.0 0.0 0.0 0.0 0.0 0.0
0.0 0.0 0.0 0.0 0.0 0.0 0.0 0.0
0.0 0.0 0.0 0.0 0.0 0.0 0.0 0.0
00000000: 0000 0000 0000 0000 0000 0000 0000 0000
00000010: 0000 0000 0000 0000 0000 0000 0000 0000
00000020: 0000 0000 0000 0000 0000 0000 0000 0000
00000030: 0000 0000 0000 0000 0000 0000 0000 0000
00000040: 0000 0000 0000 0000 0000 0000 0000 0000
00000050: 0000 0000 0000 0000 0000 0000 0000 0000
00000060: 0000 0000 0000 0000 0000 0000 0000 0000
00000070: 0000 0000 0000 0000 0000 0000 0000 0000
00000080: 0000 0000 0000 0000 0000 0000 0000 0000
00000090: 0000 0000 0000 0000 0000 0000 0000 0000
000000a0: 0000 0000 0000 0000 0000 0000 0000 0000
000000b0: 0000 0000 0000 0000 0000 0000 0000 0000
000000c0: 0000 0000 0000 0000 0000 0000 0000 0000
000000d0: 0000 0000 0000 0000 0000 0000 0000 0000
000000e0: 0000 0000 0000 0000 0000 0000 0000 0000
000000f0: 0000 0000 0000 0000 0000 0000 0000 0000
00000100: 0000 0000 0000 0000 0000 0000 0000 0000
00000110: 0000 0000 0000 0000 0000 0000 0000 0000
00000120: 0000 0000 0000 0000 0000 0000 0000 0000
00000130: 0000 0000 0000 0000 0000 0000 0000 0000
00000140: 0000 0000 0000 0000 0000 0000 0000 0000
00000150: 0000 0000 0000 0000 0000 0000 0000 0000
00000160: 0000 0000 0000 0000 0000 0000 0000 0000
00000170: 0000 0000 0000 0000 0000 0000 0000 0000
00000180: 0000 0000 0000 0000 0000 0000 0000 0000
00000190: 0000 0000 0000 0000 0000 0000 0000 0000
000001a0: 0000 0000 0000 0000 0000 0000 0000 0000
000001b0: 0000 0000 0000 0000 0000 0000 0000 0000
000001c0: 0000 0000 0000 0000 0000 0000 0000 0000
000001d0: 0000 0000 0000 0000 0000 0000 0000 0000
000001e0: 0000 0000 0000 0000 0000 0000 0000 0000
000001f0: 0000 0000 0000 0000 0000 0000 0000 0000
00000200: 0000 0000 0000 0000 0000 0000 0000 0000
00000210: 0000 0000 0000 0000 0000 0000 0000 0000
00000220: 0000 0000 0000 0000 0000 0000 0000 0000
00000230: 0000 0000 0000 0000 0000 0000 0000 0000
00000240: 0000 0000 0000 0000 0000 0000 0000 0000
00000250: 0000 0000 0000 0000 0000 0000 0000 0000
00000260: 0000 0000 0000 0000 0000 0000 0000 0000
00000270: 0000 0000 0000 0000 0000 0000 0000 0000
00000280: 0000 0000 0000 0000 0000 0000 0000 0000
00000290: 0000 0000 0000 0000 0000 0000 0000 0000
000002a0: 0000 0000 0000 0000 0000 0000 0000 0000
000002b0: 0000 0000 0000 0000 0000 0000 0000 0000
000002c0: 0000 0000 0000 0000 0000 0000 0000 0000
000002d0: 0000 0000 0000 0000 0000 0000 0000 0000
000002e0: 0000 0000 0000 0000 0000 0000 0000 0000
000002f0: 0000 0000 0000 0000 0000 0000 0000 0000
00000300: 0000 0000 0000 0000 0000 0000 0000 0000
00000310: 0000 0000 0000 0000 0000 0000 0000 0000
00000320: 0000 0000 0000 0000 0000 0000 0000 0000
00000330: 0000 0000 0000 0000 0000 0000 0000 0000
00000340: 0000 0000 0000 0000 0000 0000 0000 0000
00000350: 0000 0000 0000 0000 0000 0000 0000 0000
00000360: 0000 0000 0000 0000 0000 0000 0000 0000
00000370: 0000 0000 0000 0000 0000 0000 0000 0000
00000380: 0000 0000 0000 0000 0000 0000 0000 0000
00000390: 0000 0000 0000 0000 0000 0000 0000 0000
000003a0: 0000 0000 0000 0000 0000 0000 0000 0000
000003b0: 0000 0000 0000 0000 0000 0000 0000 0000
000003c0: 0000 0000 0000 0000 0000 0000 0000 0000
000003d0: 0000 0000 0000 0000 0000 0000 0000 0000
000003e0: 0000 0000 0000 0000 0000 0000 0000 0000
000003f0: 0000 0000 0000 0000 0000 0000 0000 0000

network_body.linear_encoder.seq_layers.2.weight f4 [256, 256]
-0.029015264 -0.00015014954 0.05082068 0.03478805 0.05330488 0.121377304 -0.072082065 0.05818319
0.06658317 0.07736653 -0.0050986935 -0.009882113 0.013095475 -0.0920351 -0.06590246 -0.118924946
0.10894412 0.08177605 0.088980176 0.012297646 -0.03137341 0.03524413 0.011544204 0.058528956
-0.062430795 0.058881003 0.016909076 0.051308163 -0.018711928 -0.08888458 -0.02090834 -0.18440363
0.032050114 0.083501704 0.056838352 -0.0069965874 -0.012750763 -0.08414577 0.086757146 -0.02949107
-0.012669783 -0.010875096 -0.050535705 -0.08886755 0.10501378 -0.108039886 -0.039022826 -0.07859534
-0.106439345 0.057688657 -0.12430201 0.05324323 -0.111154065 0.035335954 0.02365966 -0.043844197
-0.0013707483 0.01104945 0.03510867 0.01729075 -0.08108429 0.017349347 -0.038728558 0.07708249
-0.064020194 0.024088813 0.014049054 0.022401107 0.025859568 -0.10131942 -0.07875285 -0.051183302
0.012961114 -0.018733274 0.050562736 0.02527664 0.091177635 -0.073988624 0.002107555 -0.024542576
-0.017352335 -0.0073197894 0.03953934 -0.012196742 0.024040943 0.09983531 -0.045602165 0.0016957811
0.071521506 -0.0041584936 0.13893382 0.10082541 0.069268875 -0.08308327 0.05477991 -0.053318746
0.03127144 0.04153511 -0.04926121 -0.0036513803 -0.039044272 0.014108221 0.0022509731 0.11212186
-0.16167542 0.042926744 0.06765545 0.029057376 -0.101873785 -0.010907524 -0.07708013 0.04107835
0.059935454 0.022023274 0.07651287 -0.023800416 -0.008410211 0.10240799 -0.08157535 0.047941037
-0.028942287 -0.0018944219 -0.037753563 -0.0017685638 -0.0085586915 0.1022681 -0.04423919 0.006199062
0.07721107 -0.025296696 -0.018511273 0.062702626 0.03326841 0.053072296 -0.0010603004 0.031045305
-0.13860062 0.009053871 -0.005099165 -0.03808428 0.028785987 0.035518683 0.084114306 0.008206045
0.019061457 0.03420791 0.034314442 -0.03366021 0.0037261827 0.020924687 -0.024694987 -0.11907884
-0.054895207 0.034196883 -0.04158097 0.050524723 0.11933088 0.08831357 0.07213743 0.020892642
0.068753995 0.037457556 0.04541222 0.005049553 -0.112250626 0.0011761733 0.017097319 0.0033539825
-0.09345806 -0.03332908 -0.07014374 -0.07671782 0.04340176 -0.061449442 0.025112266 0.04827832
0.026964214 0.046743706 -0.052167952 -0.024922257 -0.030650608 -9.5262e-05 -0.07068488 -0.07403909
-0.021627491 -0.09999082 0.0052323528 0.08265162 -0.045434125 -0.103973866 0.025330333 -0.0018907371
0.07196149 -0.05888363 0.008240261 0.006997154 0.0641485 -0.06383778 0.018585939 0.003119189
-0.12598088 0.09146293 -0.06918209 0.0582967 -0.012891078 0.06889919 0.082672656 -0.0053500994
-0.059087034 0.06414727 -0.021757904 0.04547874 0.09205753 -0.03558985 0.026341913 -0.04375711
0.004809005 0.042714305 -0.058778815 0.07949903 0.04984143 -0.06380873 0.083198525 -0.0070871934
0.066434346 -0.04822872 -0.010248732 0.040251855 -0.037361555 0.059892368 0.062136 -0.028442197
-0.0047715046 0.11136103 -0.02290299 0.0703355 -0.006481665 0.003753815 0.07067066 -0.020859538
0.024638567 -0.03870812 0.04764124 0.007419092 -0.11605259 0.01196046 -0.05730415 -0.086950794
0.019322563 0.058122873 0.0376941 -0.09201644 -0.1135046 -0.00035075797 -0.024829496 -0.076490216
00000000: 6bb1 edbc 7671 1db9 5829 503d ea7d 0e3d
00000010: 3856 5a3d aa94 f83d c39f 93bd 7f51 6e3d
00000020: c25c 883d 5872 9e3d f112 a7bb 96e8 21bc
00000030: 678e 563c e67c bcbd def7 86bd ec8e f3bd
00000040: 181e df3d 347a a73d 3d3b b63d 117c 493c
00000050: 6881 00bd 265c 103d e723 3d3c 0fbc 6f3d
00000060: 6fb7 7fbd 352d 713d e784 8a3c 8228 523d
00000070: c249 99bc 1e09 b6bd f847 abbc 4ed4 3cbe
00000080: fb46 033d f102 ab3d 55cf 683d a143 e5bb
00000090: 94e8 50bc 9e54 acbd bbad b13d 4297 f1bc
000000a0: ec94 4fbc 752d 32bc 87fe 4ebd 3100 b6bd
000000b0: 7711 d73d 0444 ddbd 66d6 1fbd 98f6 a0bd
000000c0: dffc d9bd f14a 6c3d 0d92 febd 9315 5a3d
000000d0: bea4 e3bd 6fbc 103d e7d1 c13c f995 33bd
000000e0: aeaa b3ba c108 353c 1cce 0f3d 55a5 8d3c
000000f0: 850f a6bd 3820 8e3c d6a1 1ebd 6ddd 9d3d
00000100: 051d 83bd e755 c53c 012e 663c 8782 b73c
00000110: 72d7 d33c 8e80 cfbd 2d49 a1bd 95a5 51bd
00000120: da5a 543c 8676 99bc df1a 4f3d f510 cf3c
00000130: 57bb ba3d 5987 97bd e81e 0a3b 830d c9bc
00000140: 7c26 8ebc d8da efbb 01f4 213d d8d4 47bc
00000150: 83f1 c43c 7476 cc3d 56c9 3abd f944 de3a
00000160: de79 923d f943 88bb ab44 0e3e 8d7d ce3d
00000170: d7dc 8d3d 9027 aabd e660 603d c264 5abd
00000180: 7b16 003d b820 2a3d 1fc6 49bd ff4b 6fbb
00000190: e3ec 1fbd 2b26 673c 1085 133b 25a0 e53d
000001a0: 3e8e 25be f4d3 2f3d f18e 8a3d bc09 ee3c
000001b0: 34a3 d0bd 79b5 32bc 30dc 9dbd c641 283d
000001c0: e17e 753d 276a b43c c8b2 9c3d 17f9 c2bc
000001d0: fbca 09bc 48bb d13d fa10 a7bd d25d 443d
000001e0: 6018 edbc 404e f8ba 7ba3 1abd 27cf e7ba
000001f0: c139 0cbc f071 d13d 2734 35bd 8021 cb3b
00000200: d620 9e3d 043b cfbc f4a4 97bc 3c6a 803d
00000210: 7544 083d 5662 593d c7f9 8aba b952 fe3c
00000220: 52ed 0dbe b056 143c e516 a7bb 43fe 1bbd
00000230: 97d0 eb3c 0a7c 113d 1f44 ac3d a672 063c
00000240: c626 9c3c 981d 0c3d 4d8d 0c3d 4adf 09bd
00000250: f932 743b 406a ab3c 244d cabc 9bdf f3bd
00000260: ccd9 60bd 0812 0c3d cf50 2abd 03f3 4e3d
00000270: c063 f43d bfdd b43d cabc 933d 0c27 ab3c
00000280: e5ce 8c3d 186d 193d 2a02 3a3d b876 a53b
00000290: a8e3 e5bd d429 9a3a ad0f 8c3c 7dce 5b3b
000002a0: f066 bfbd 1384 08bd 85a7 8fbd 3b1e 9dbd
000002b0: 0bc6 313d 69b2 7bbd 3db8 cd3c 7dbf 453d
000002c0: 0ee4 dc3c 5476 3f3d 10ae 55bd c329 ccbc
000002d0: fc16 fbbc 66c7 c7b8 3cc3 90bd cea1 97bd
000002e0: 232c b1bc fdc7 ccbd 2874 ab3b 4145 a93d
000002f0: 2219 3abd 40f0 d4bd 8f81 cf3c 9cd2 f7ba
00000300: 8c60 933d f62f 71bd 2902 073c 6248 e53b
00000310: 4a60 833d 62bd 82bd 8a41 983c 4f6b 4c3b
00000320: 2201 01be eb50 bb3d 57af 8dbd 85c8 6e3d
00000330: 1a35 53bc 051b 8d3d 4850 a93d e34f afbb
00000340: 3f05 72bd a55f 833d a23d b2bc ea47 3a3d
00000350: a988 bc3d aac6 11bd ffca d73c a83a 33bd
00000360: dc94 9d3b 32f5 2e3d 0ec2 70bd 63d0 a23d
00000370: 8726 4c3d 27ae 82bd fd63 aa3d b03b e8bb
00000380: bb0e 883d 7a8b 45bd 4cea 27bc 21df 243d
00000390: 6e08 19bd b351 753d 5182 7e3d 9cff e8bc
000003a0: 485a 9cbb 4011 e43d 0d9f bbbc 0f0c 903d
000003b0: 2664 d4bb 9102 763b c7bb 903d 9fe1 aabc
000003c0: d2d6 c93c 688c 1ebd 7623 433d db1b f33b
000003d0: fbac edbd cef5 433c c2b7 6abd 4213 b2bd
000003e0: 5a4a 9e3c 4012 6e3d 2165 1a3d 1e73 bcbd
000003f0: 1a75 e8bd f0e5 b7b9 3a67 cbbc e7a6 9cbd

network_body.vector_processors.0.normalizer.running_mean f4 [9]
-1.1138031 1.9521203 0.0 2.178338 1.9521203 0.0 0.017841602 0.0
0.24194953
00000000: 1a91 8ebf 14df f93f 0000 0000 e469 0b40
00000010: 14df f93f 0000 0000 8d28 923c 0000 0000
00000020: 9ec1 773e
