config/results/FighterUpdated4.1/My Behavior.onnx (onnx, 282099 bytes, 8 tensors)

58 f4 [9]
2.9490893 0.0032109157 0.00030584994 3.0426886 0.0032105043 0.00030584994 0.39846542 0.00030584994
0.20823792
00000000: e1bd 3c40 3a6e 523b 7c5a a039 69bb 4240
00000010: 5367 523b 7c5a a039 a903 cc3e 7c5a a039
00000020: 523c 553e

action_model._discrete_distribution.branches.0.bias f4 [6]
0.03784258 -0.04476472 -0.0032751784 0.090721756 -0.1280503 -0.026807962
00000000: d200 1b3d 365b 37bd 60a4 56bb 54cc b93d
00000010: 9e1f 03be 5f9c dbbc

action_model._discrete_distribution.branches.0.weight f4 [6, 256]
0.020697137 -0.023428956 -0.06583047 0.09637665 -0.026130758 0.0006281683 -0.014940234 0.019175125
0.028203761 0.050348178 -0.001998232 0.0636337 0.015216358 0.0060357573 0.016498078 0.100506425
0.028258389 0.0021031534 0.05146609 0.090427466 0.020840658 -0.005287351 0.0587737 0.05915375
-0.024690084 0.0413715 0.023967087 0.043414127 0.05835232 0.07482029 -0.00088346767 0.05062751
0.026573164 0.024565708 0.03354169 -0.01476933 0.06434434 0.063102834 0.07139566 0.020107744
0.0136624025 0.053223364 0.0040761605 0.035933774 -0.0053037372 -0.03942245 0.08405636 -0.012393785
0.064669296 0.06887536 0.013961873 0.032146003 0.012515884 0.00011913658 0.04828781 0.05354778
0.05794278 0.009333667 -0.06871349 0.034041215 0.03924698 0.02980608 0.017409392 0.021158148
0.075408734 0.049558815 0.012379538 -0.05742882 -0.031279586 0.065498784 -0.046558216 -0.01573658
-0.010785622 -0.027658165 -0.041375794 0.0020663776 0.05647281 0.026517741 -0.027411407 0.011997632
-0.012414705 -0.0012714181 -0.046388093 0.061336726 -0.022834176 -0.025024682 -0.045459453 0.015624932
-0.028220681 0.0143871745 -0.02845751 0.016198596 -0.02590998 0.029162537 0.02286486 -1.0511417e-05
0.009677047 0.06136242 -0.007451117 0.01626981 0.020199995 0.066046864 -0.10445211 0.0651754
0.09841489 -0.03285872 0.04832864 0.0135045815 0.124194965 0.013579166 -0.016823398 0.0027097345
0.055369344 -0.00076311314 0.006012493 0.060027257 0.028522765 -0.028430188 -0.066866376 0.0055627334
-0.0048209247 0.06468396 0.0046274075 -0.036390133 0.1353215 0.019323023 -0.017618276 0.03812979
0.034172382 0.026598332 0.019338563 -0.015288454 0.0068404293 -0.0016898412 0.057902314 0.011268503
0.037393868 -0.0071786293 0.0830488 -0.02632046 0.02406537 -0.0041976683 0.03079851 0.0021444554
-0.003326197 -0.03162082 -0.0532267 -0.03506536 0.05525646 -0.011370215 0.016905287 -0.028734319
-0.006504392 0.042262178 0.07976743 0.042899694 0.052812807 0.035939656 0.0044917576 0.0075056176
0.07658441 -0.04693631 -0.030390669 -0.0065695737 0.019717982 0.072829805 0.008681018 0.038694944
-0.02981154 -0.050065383 0.0022413067 0.06434298 -0.007631512 0.009679867 0.015686667 0.05288483
0.04848863 0.042329907 0.011539981 0.059782792 0.04584952 -0.0334368 0.036986012 -0.04821952
0.005504717 -0.022274474 0.0016687206 -0.01763126 0.005634286 0.02305937 0.035236962 -0.0153011475
0.055890102 0.016952489 0.038088806 0.036363274 0.021816809 0.045637053 0.014508869 -0.05526456
0.005830016 0.016978018 -0.02466634 0.10300886 0.016639676 -0.007834298 0.022853443 0.00059372565
0.054671496 0.0058628623 0.03551685 0.06548025 0.0327908 -0.06405752 0.045434467 0.038550433
0.03610951 -0.03189325 0.056770973 0.025992658 0.03365453 0.03814058 -0.060299095 -0.016323516
-0.0055648633 -0.010207155 0.009224488 0.04245436 -0.040569674 0.07452079 0.0037262551 -0.052771233
-0.038013402 0.09346566 0.01479952 0.009858615 0.045133844 0.014046777 -0.0074540083 -0.009734624
0.0031366805 -0.01961164 0.07072541 -0.044325482 -0.03571267 0.0552368 0.028841034 0.075582385
0.011171581 0.036821354 -0.00587498 -0.018362196 0.09680058 -0.003974797 0.006290771 -0.016335737
00000000: 0b8d a93c 15ee bfbc 20d2 86bd 1f61 c53d
00000010: 2c10 d6bc a9ab 243a e2c7 74bc 2715 9d3c
00000020: 930b e73c e439 4e3d c5f4 02bb 6352 823d
00000030: 084e 793c 9ac7 c53b fa26 873c 50d6 cd3d
00000040: 237e e73c 0fd5 093b 1bce 523d 0932 b93d
00000050: 07ba aa3c 8441 adbb b1bc 703d 344b 723d
00000060: dc42 cabc 2975 293d a056 c43c 03d3 313d
00000070: d802 6f3d 613b 993d 8398 67ba cb5e 4f3d
00000080: f7af d93c 063e c93c 0363 093d 0ffb 71bc
00000090: f7c6 833d 0f3c 813d e337 923d ffb8 a43c
000000a0: 45d8 5f3c be00 5a3d 5091 853b 4b2f 133d
000000b0: f9ca adbb 6f79 21bd be25 ac3d 4d0f 4bbc
000000c0: 5671 843d 860e 8d3d 57c0 643c 87ab 033d
000000d0: 6c0f 4d3c f7d8 f938 70c9 453d eb54 5b3d
000000e0: 6955 6d3d 3dec 183c a9b9 8cbd cd6e 0b3d
000000f0: 71c1 203d e12b f43c 249e 8e3c da53 ad3c
00000100: e56f 9a3d 2ffe 4a3d 8cd3 4a3c 7b3a 6bbd
00000110: 061f 00bd 3a24 863d d4b3 3ebd 00ea 80bc
00000120: 2db6 30bc 6093 e2bc aa79 29bd 106c 073b
00000130: 0950 673d bc3b d93c e38d e0bc b791 443c
00000140: 0c67 4bbc b6a5 a6ba 7101 3ebd 383c 7b3d
00000150: bd0e bbbc 9000 cdbc b133 3abd b7ff 7f3c
00000160: 0f2f e7bc 2fb8 6b3c b91f e9bc ebb2 843c
00000170: 2b41 d4bc 46e6 ee3c 164f bb3c 315a 30b7
00000180: 7a8c 1e3c 2957 7b3d 8028 f4bb 4448 853c
00000190: 767a a53c 9443 873d fdea d5bd ae7a 853d
000001a0: bf8d c93d dd96 06bd 41f4 453d 5242 5d3c
000001b0: ee59 fe3d 267b 5e3c 39d1 89bc cd95 313b
000001c0: f7ca 623d a80b 48ba 7204 c53b 24df 753d
000001d0: 93a8 e93c 6de6 e8bc 3df1 88bd 9747 b63b
000001e0: d9f8 9dbb 0679 843d 82a1 973b d20d 15bd
000001f0: b891 0a3e 514b 9e3c 3454 90bc fc2d 1c3d
00000200: 57f8 0b3d bfe4 d93c e86b 9e3c 6c7c 7abc
00000210: ae25 e03b a97d ddba fa2a 6d3d 879f 383c
00000220: 502a 193d b53a ebbb 7d15 aa3d 019e d7bc
00000230: bd24 c53c 988c 89bb 284d fc3c fe89 0c3b
00000240: 53fc 59bb d584 01bd 3d04 5abd b2a0 0fbd
00000250: 9954 623d 234a 3abc f57c 8a3c 3c64 ebbc
00000260: cb22 d5bb 1b1b 2d3d 1b5d a33d 97b7 2f3d
00000270: 3e52 583d 7635 133d 982f 933b aff1 f53b
00000280: 4ad8 9c3d 4a40 40bd daf5 f8bc 9445 d7bb
00000290: 9b87 a13c cb27 953d d43a 0e3c 977e 1e3d
000002a0: 5537 f4bc 5c11 4dbd e3e2 123b 41c6 833d
000002b0: c311 fabb 4e98 1e3c 5381 803c c39d 583d
000002c0: 049c 463d 2062 2d3d 3012 3d3c cdde 743d
000002d0: b5cc 3b3d 07f5 08bd a57e 173d d581 45bd
000002e0: ea60 b43b f578 b6bc f9b8 da3a 6f6f 90bc
000002f0: d19f b83b 01e7 bc3c a254 103d aab1 7abc
00000300: 05ed 643d f2df 8a3c 0203 1c3d a8f1 143d
00000310: 2ab9 b23c ebed 3a3d 9bb6 6d3c 175d 62bd
00000320: b809 bf3b 7c15 8b3c 1011 cabc 4ff6 d23d
00000330: ee4f 883c 6d5b 00bc 2537 bb3c 41a4 1b3a
00000340: 38ef 5f3d 411d c03b 1e7a 113d 821a 863d
00000350: a54f 063d 9730 83bd 7e19 3a3d 0fe7 1d3d
00000360: 91e7 133d 7fa2 02bd ae88 683d 8eee d43c
00000370: 55d9 093d 4c39 1c3d 2ffc 76bd e5b8 85bc
00000380: 7559 b6bb e93b 27bc 4f22 173c 9fe4 2d3d
00000390: 632c 26bd 5b9e 983d 3034 743b a626 58bd
000003a0: f1b3 1bbd ed6a bf3d b079 723c 0786 213c
000003b0: 44de 383d 7424 663c c140 f4bb f97d 1fbc
000003c0: c490 4d3b 97a8 a0bc 7cd8 903d a38e 35bd
000003d0: 7347 12bd fc3f 623d 0844 ec3c f0ca 9a3d
000003e0: 0209 373c fdd1 163d e782 c0bb 516c 96bc
000003f0: 623f c63d 043f 82bb d022 ce3b 86d2 85bc

network_body.linear_encoder.seq_layers.0.bias f4 [256]
0.15723489 0.056889784 -0.052137967 0.017218957 -0.12105833 0.12277149 0.11365861 -0.00026933075
-0.030200055 -0.032460544 0.088332534 0.13203354 0.14455473 0.17190528 0.06887552 0.1331352
0.07396517 -0.021296738 0.05690191 0.18516989 0.0925513 0.1426931 0.12852144 0.11904026
0.12388871 0.13117176 0.14683118 -0.06881892 -0.029593019 0.15239157 0.16337399 0.07280156
0.0058147465 0.03844093 0.05328627 -0.0516166 0.057211682 -0.07427465 0.09227424 -0.011254353
-0.04662991 0.16683267 0.13373347 0.16956958 0.15169325 -0.048167564 0.116015404 -0.001939397
0.12766746 0.07232816 0.016581926 0.08101048 0.10371113 0.0028476447 0.108792126 0.125043
-0.09574857 0.11707832 0.11033542 0.1278014 -0.0091996575 0.16715036 0.06883066 -0.09561203
-0.08698536 -0.12335374 0.067067534 0.0709891 -0.014123559 0.0020410314 -0.14408287 0.1674698
0.09783754 0.13644111 0.13854408 -0.045747798 0.065534756 0.10514437 -0.056806732 0.13805209
-0.1070256 0.13463466 -0.005140109 -0.058906727 -0.05054233 -0.06830197 -0.07589346 0.049818054
0.0534211 -0.050818942 0.06909908 0.005402169 0.053274535 -0.09717135 0.033142406 0.11729528
0.07261031 -0.000715997 0.034834646 0.03560701 -0.029678723 -0.06515887 0.017516563 0.049001545
0.07669711 0.10709583 0.096923366 0.05300829 0.1458286 0.06218969 -0.09909383 -0.01829342
-0.013796488 0.010011089 0.051408093 0.15847032 0.12667154 0.06715847 0.14453232 0.07659469
0.02214845 -0.06733105 0.14216796 -0.007836889 0.13678142 -0.035463613 -0.07669688 0.05880166
0.014292571 0.14865097 0.04202459 0.15130031 -0.08217362 0.14151108 -0.026042111 0.061671685
0.08700228 -0.019478641 0.07719785 0.037117954 0.030627182 -0.047697 0.12788747 0.1491598
0.09235057 -0.02678884 -0.047651313 0.10112723 0.12252929 -0.064261876 -0.05723864 0.048512604
-0.0793311 -0.018582279 0.018244056 0.11425062 0.12461569 0.064136416 0.08048187 0.02712444
-0.030223584 0.10315616 0.049891908 -0.049644083 0.1560109 0.093504 -0.049338646 0.15999795
-0.059263162 0.021734202 0.09697246 -0.019893905 0.16575459 0.09626372 0.011751695 0.11316931
0.14279011 -0.062750146 0.08126157 0.06763737 0.11466549 0.10816214 0.09218324 0.12627654
0.10483932 0.107499614 0.08864074 0.10529464 0.06254271 -0.06446187 0.11615495 0.04167986
0.10435088 0.08487525 0.17119189 -0.12243833 0.14921807 0.077470794 0.14613749 -0.013799416
-0.11877925 0.11706908 -0.03528234 0.03905587 -0.09028868 0.11347742 -0.080687344 0.14522354
0.13312861 0.08289275 0.030617062 0.034476202 0.17784987 0.15884082 -0.011622757 0.11820803
-0.008233886 -0.058950365 0.117876455 0.09097403 0.05139042 0.08316745 0.04975242 -0.0044976827
0.08830757 0.09710913 0.11390951 0.15755066 0.14928682 0.1205368 0.15904696 -0.015646867
0.089000426 0.08510734 0.08043956 0.17090823 -0.0021904067 -0.13547382 0.036015935 0.13112667
-0.016113147 -0.014470846 0.1513086 -0.044104587 0.19760695 0.033717398 0.15014769 0.03698964
0.049725555 -0.03506123 -0.007879681 -0.15185401 -0.027104376 0.06868187 0.13256866 0.11560181
00000000: 2f02 213e 4305 693d 9f8e 55bd c50e 8d3c
00000010: 6eed f7bd 9e6f fb3d d8c5 e83d f634 8db9
00000020: 1b66 f7bc 59f5 04bd b0e7 b43d cd33 073e
00000030: 2806 143e f007 303e 9c0e 8d3d 9854 083e
00000040: 0d7b 973d 7f76 aebc fa11 693d 2d9d 3d3e
00000050: 898b bd3d 241e 123e 209b 033e 61cb f33d
00000060: 5db9 fd3d e451 063e ea5a 163e eff0 8cbd
00000070: 0f6d f2bc 890c 1c3e 834b 273e fc18 953d
00000080: a189 be3b 3d74 1d3d b442 5a3d ee6b 53bd
00000090: cc56 6a3d 4f1d 98bd 47fa bc3d 2e64 38bc
000000a0: 01ff 3ebd 2fd6 2a3e 6df1 083e a6a3 2d3e
000000b0: 7a55 1b3e 5a4b 45bd 7c99 ed3d 5d33 feba
000000c0: 42bb 023e c920 943d d2d6 873c d3e8 a53d
000000d0: 8066 d43d 8d9f 3a3b 68ce de3d 460b 003e
000000e0: d417 c4bd c2c6 ef3d 89f7 e13d 5fde 023e
000000f0: 29ba 16bc 7729 2b3e 17f7 8c3d 3dd0 c3bd
00000100: 6125 b2bd e3a0 fcbd b45a 893d bc62 913d
00000110: 8066 67bc d3c2 053b 768a 13be 347d 2b3e
00000120: 0c5f c83d 38b7 0b3e 80de 0d3e 0b62 3bbd
00000130: 1637 863d ee55 d73d 2dae 68bd 875d 0d3e
00000140: 3d30 dbbd abdd 093e 5c6e a8bb 2e48 71bd
00000150: 7905 4fbd e7e1 8bbd 086e 9bbd 040e 4c3d
00000160: 15d0 5a3d 8627 50bd d283 8d3d ae04 b13b
00000170: 6636 5a3d c601 c7bd 55c0 073d 8238 f03d
00000180: b7b4 943d bfb1 3bba c6ae 0e3d a8d8 113d
00000190: cb20 f3bc 0372 85bd e57e 8f3c d8b5 483d
000001a0: 6013 9d3d 0f55 db3d c27f c63d 381f 593d
000001b0: 1854 153e 9eba 7e3d b5f1 cabd 15dc 95bc
000001c0: aa0a 62bc 8d05 243c 4b91 523d 0b46 223e
000001d0: 2fb6 013e 618a 893d 4800 143e addd 9c3d
000001e0: ab70 b53c dde4 89bd 7a94 113e 4b66 00bc
000001f0: 6e10 0c3e 4b42 11bd 4113 9dbd 02da 703d
00000200: 632b 6a3c f637 183e fa21 2c3d 78ee 1a3e
00000210: a54a a8bd 48e8 103e 4456 d5bc 739b 7c3d
00000220: 402e b23d ac91 9fbc e819 9e3d ff08 183d
00000230: dbe5 fa3c ee5d 43bd eff4 023e 59bd 183e
00000240: 4c22 bd3d 4574 dbbc 062e 43bd cb1b cf3d
00000250: a3f0 fa3d bb9b 83bd 1073 6abd 27b5 463d
00000260: 5878 a2bd dd39 98bc 8f74 953c 3bfc e93d
00000270: 8336 ff3d f459 833d aed3 a43d 1334 de3c
00000280: 7397 f7bc 8943 d33d 755b 4c3d 9857 4bbd
00000290: 52c1 1f3e 067f bf3d 5217 4abd 81d6 233e
000002a0: eebd 72bd ed0b b23c 7f99 c63d 8bf8 a2bc
000002b0: 92bb 293e ea25 c53d 2e8a 403c 50c5 e73d
000002c0: 9237 123e 2683 80bd 776c a63d 7685 8a3d
000002d0: bed5 ea3d 1d84 dd3d 91ca bc3d a34e 013e
000002e0: ffb5 d63d c228 dc3d 4789 b53d b7a4 d73d
000002f0: 6416 803d 9604 84bd a5e2 ed3d 80b8 2a3d
00000300: eab5 d53d 13d3 ad3d ed4c 2f3e f2c0 fabd
00000310: 9fcc 183e 02a9 9e3d 11a5 153e f216 62bc
00000320: 8942 f3bd eac1 ef3d 3784 10bd 0cf9 1f3d
00000330: 45e9 b8bd d966 e83d 683f a5bd 7bb5 143e
00000340: de52 083e adc3 a93d a2d0 fa3c eb36 0d3d
00000350: 471e 363e 2ba7 223e 606d 3ebc 0d17 f23d
00000360: 6ce7 06bc f075 71bd 3669 f13d 9850 ba3d
00000370: c37e 523d b253 aa3d 32c9 4b3d 4c61 93bb
00000380: 99da b43d 27e1 c63d 6449 e93d f654 213e
00000390: a5de 183e ffdb f63d 35dd 223e dc2d 80bc
000003a0: db45 b63d c24c ae3d 7fbd a43d 9102 2f3e
000003b0: ed8c 0fbb a6b9 0abe 7285 133d 1246 063e
000003c0: b8ff 83bc 2117 6dbc a4f0 1a3e 03a7 34bd
000003d0: 7a59 4a3e 411b 0a3d 51c0 193e 7382 173d
000003e0: 06ad 4b3d 5d9c 0fbd c719 01bc 9e7f 1bbe
000003f0: ff09 debc 15a9 8c3d 14c0 073e a4c0 ec3d

network_body.linear_encoder.seq_layers.0.weight f4 [256, 9]
0.023130467 0.42620662 -0.7148692 -0.48215762 -0.7215774 -0.1581502 -0.24800214 -0.053981297
-1.0794505 0.25396478 -0.25874138 -0.36536622 0.7239373 0.28018174 -0.18323539 0.12231702
-0.32256326 -0.14087811 -0.013038818 0.31010178 0.36176646 -0.45726323 -0.29582608 -0.061972614
0.58764505 0.62038493 0.46971253 0.37923273 0.3991644 0.010923794 0.32277748 -0.063159704
0.21296123 0.61473465 0.35348648 0.13734628 0.17678317 0.073755436 -0.61263686 0.40992543
0.021876194 0.15492523 0.16536258 0.5500063 -0.0061505623 0.007243925 0.46032032 0.13459574
0.28297564 -0.655133 0.17666066 -0.47756076 -0.30534065 0.60062885 -0.069130234 0.38285092
-0.06194338 -0.6418851 -0.4145188 -0.04585549 0.11448457 0.0085438015 0.02451868 -0.33701587
-0.24393655 0.40335461 0.35651472 0.40956247 -0.27516702 -0.2102661 -0.025202144 0.112878926
-0.2907443 0.40764496 -0.08261552 -0.2827817 0.19124661 -0.17522344 -0.1323605 -0.041838497
0.1477022 0.1701905 0.5318234 -0.52767867 0.67701644 0.24272272 -0.18081872 0.5001269
0.18746015 -0.44373786 0.55758667 -0.4927252 0.12339311 -0.28039873 0.054335088 -0.24096267
-0.11204677 0.65535045 0.68525904 0.07910611 0.29658425 -0.07713736 -0.5978608 -0.30658928
0.4960105 -0.5148535 -0.22599551 0.24427748 -0.41837862 0.18636508 0.15125984 -0.86291194
-0.7553163 -0.20917791 -0.3919722 0.13157162 -0.3714198 0.008743791 0.10885436 -0.060412437
-0.3985629 -0.5476737 0.13200521 -0.71413434 0.5825162 -0.31850496 0.4407375 -0.19018814
0.011417346 1.0806876 -0.5636025 -0.13410065 0.37339896 -0.25116688 0.05468899 -0.70918816
0.2560586 -0.31534517 0.48381045 0.07735456 -0.12822168 -0.47832835 0.45877635 -0.43547332
0.3748156 -0.32944295 0.0044931173 0.06685463 -0.25211418 0.49265942 -0.2568203 -0.2667472
-0.3161522 -0.3341632 0.35175663 -0.33249706 -0.47128397 0.15877633 -0.1029055 0.21586022
0.24769841 0.052655604 0.33755872 0.04852138 -0.08468651 0.2635498 0.61403143 -0.34132645
-0.2289826 -0.22426718 -0.52445656 0.4336964 -0.63700986 -0.5507358 0.9814536 -0.04730694
0.059057042 -0.17841332 -0.32907903 0.32750824 -0.07396052 -0.21257718 0.33665892 0.21132426
0.026931798 -0.20177667 0.14616184 0.3581432 -0.41300836 0.28584075 0.21952987 -0.119614005
0.56974506 0.040404513 0.12904292 -0.8471521 0.03343369 -0.68878174 0.46814814 0.15523721
0.12527622 -0.51803416 -0.04670502 0.29397893 -0.011949169 -0.3245932 -0.42504957 0.443502
-0.015195188 -0.06835404 -0.12313188 -0.050317045 -0.32031658 -0.40389434 0.1858478 0.050975833
-0.23655286 -0.42198825 -0.48358715 0.068401106 0.25265384 -0.356126 -0.95862156 0.100971445
0.19986996 0.077529944 -0.24363461 0.3283986 0.11170964 -0.10615848 -0.23726033 -0.28543782
-0.40949067 -0.13324952 -0.36553383 -0.2464878 -0.069259234 -0.23577651 -0.25671455 0.07754986
-1.1268005 0.093833655 0.5283854 0.20288889 -0.25995603 -0.45973748 0.32682362 0.19167025
-0.33798724 0.427036 0.053211868 -0.13586393 0.17094803 0.09388815 -0.39749378 -0.2812584
00000000: 1b7c bd3c c137 da3e ab01 37bf 5ddd f6be
00000010: 4cb9 38bf 20f2 21be 46f4 7dbe 7e1b 5dbd
00000020: 6f2b 8abf ac07 823e c079 84be 4811 bbbe
00000030: f453 393f fb73 8f3e 0fa2 3bbe 5981 fa3d
00000040: 0327 a5be 5a42 10be c4a0 55bc a9c5 9e3e
00000050: 7439 b93e 681e eabe 8476 97be ffd6 7dbd
00000060: e86f 163f 8cd1 1e3f 297e f03e cb2a c23e
00000070: 475f cc3e b6f9 323c 1743 a53e e059 81bd
00000080: 8212 5a3e 405f 1d3f 2efc b43e 81a4 0c3e
00000090: a606 353e 170d 973d c5d5 1cbf bfe1 d13e
000000a0: b435 b33c b8a4 1e3e cf54 293e 36cd 0c3f
000000b0: a88a c9bb 725e ed3b 1baf eb3e 77d3 093e
000000c0: 2fe2 903e ccb6 27bf 88e6 343e d882 f4be
000000d0: 9c55 9cbe d0c2 193f 2794 8dbd 0905 c43e
000000e0: 57b8 7dbd 9552 24bf cf3b d4be f7d2 3bbd
000000f0: e376 ea3d 4dfb 0b3c 66db c83c 588d acbe
00000100: 81ca 79be 7f84 ce3e 1989 b63e 2cb2 d13e
00000110: b1e2 8cbe ff4f 57be ba74 cebc 112d e73d
00000120: 70dc 94be d7b6 d03e 5332 a9bd c3c8 90be
00000130: 27d6 433e c66d 33be 8389 07be d85e 2bbd
00000140: 3f3f 173e 6b46 2e3e 9425 083f f315 07bf
00000150: f350 2d3f 4e8c 783e 8b28 39be 5108 003f
00000160: 8ef5 3f3e 9c31 e3be 00be 0e3f 7a46 fcbe
00000170: 87b5 fc3d 6c90 8fbe 788e 5e3d ebbe 76be
00000180: c778 e5bd 0cc5 273f 236d 2f3f 6202 a23d
00000190: e4d9 973e 31fa 9dbd 680d 19bf 45f9 9cbe
000001a0: 17f5 fd3e 70cd 03bf 5e6b 67be e023 7a3e
000001b0: b935 d6be 7dd6 3e3e dce3 1a3e cce7 5cbf
000001c0: 695c 41bf bc32 56be 95b0 c8be b6ba 063e
000001d0: bc2a bebe 1e42 0f3c 09ef de3d 0873 77bd
000001e0: 7010 ccbe 5834 0cbf 602c 073e 82d1 36bf
000001f0: c81f 153f 1513 a3be 58a8 e13e aec0 42be
00000200: d20f 3b3c f953 8a3f 4148 10bf ae51 09be
00000210: 262e bf3e f298 80be 9001 603d 5b8d 35bf
00000220: 1d1a 833e ec74 a1be 01b6 f73e 116c 9e3d
00000230: 8b4c 03be 74e7 f4be bce4 ea3e 5cf6 debe
00000240: d5e7 bf3e bfac a8be 003b 933b 15eb 883d
00000250: 1c15 81be db3d fc3e f37d 83be 1793 88be
00000260: b3de a1be 7017 abbe 7219 b43e 0e3d aabe
00000270: 224c f1be 4396 223e 1ec0 d2bd 760a 5d3e
00000280: a7a4 7d3e 67ad 573d 7fd4 ac3e 5bbe 463d
00000290: 1f70 adbd 00f0 863e 2a31 1d3f 57c2 aebe
000002a0: 6a7a 6abe 4ca6 65be c942 06bf 740d de3e
000002b0: 1413 23bf 05fd 0cbf 8b40 7b3f ecc4 41bd
000002c0: cce5 713d fbb1 36be 0c7d a8be 29af a73e
000002d0: 9d78 97bd d5ad 59be 8f5e ac3e 6365 583e
000002e0: 13a0 dc3c 8b9e 4ebe 73ab 153e 8c5e b73e
000002f0: d575 d3be b859 923e 70cc 603e 30f8 f4bd
00000300: d0da 113f 347f 253d d423 043e f6de 58bf
00000310: c4f1 083d 0054 30bf 1db1 ef3e 81f6 1e3e
00000320: 6948 003e e39d 04bf c34d 3fbd 6884 963e
00000330: 73c6 43bc 1431 a6be 19a0 d9be b212 e33e
00000340: 3df5 78bc 34fd 8bbd 912c fcbd 3f19 4ebd
00000350: 8900 a4be 3dcb cebe e34e 3e3e 09cc 503d
00000360: ea3a 72be d80e d8be bc98 f7be e115 8c3d
00000370: d85b 813e 2656 b6be 3968 75bf 1eca ce3d
00000380: b6aa 4c3e 05c8 9e3d 5a7b 79be dc23 a83e
00000390: 06c8 e43d 9e69 d9bd 5ff4 72be e824 92be
000003a0: c3a8 d1be 9072 08be 4027 bbbe 4c67 7cbe
000003b0: c9d7 8dbd 666f 71be 1770 83be 76d2 9e3d
000003c0: 003b 90bf dc2b c03d 4444 073f 1bc2 4f3e
000003d0: f518 85be b662 ebbe 6d55 a73e 3545 443e
000003e0: aa0c adbe 76a4 da3e b0f4 593d ea1f 0bbe
000003f0: 000d 2f3e 6e48 c03d 4e84 cbbe 1a01 90be

network_body.linear_encoder.seq_layers.2.bias f4 [256]
0.046346586 -0.044527147 -0.07332464 0.03457584 0.13813724 0.06753811 -0.07961762 0.15538229
-0.0579192 0.015507041 -0.09389868 0.08435773 -0.045154486 0.16415317 -0.02842323 0.017240804
0.0936034 0.07897462 -0.0454108 0.03550491 0.085218355 -0.05102758 0.03949377 -0.029050404
-0.054370787 -0.022374103 0.08287205 0.14894515 0.05238748 -0.0038394239 0.015028505 -0.030518644
0.10760757 0.005341813 -0.056837104 -0.055901352 0.047705926 0.0024901882 0.13023904 -0.05702495
0.05322569 0.13460039 -0.046033084 -0.0066326433 0.09572386 0.1802186 0.03822199 -0.09102211
0.09875161 -0.013731333 0.09795505 -0.008925889 0.07716604 -0.035618193 0.005324256 0.08348469
0.06034473 -0.0015734899 -0.043142125 -0.0030432167 -0.014446688 0.0782204 0.05553806 -0.07164893
0.02745197 0.15429391 0.0871283 -0.022243517 0.15076782 0.081591055 -0.02816849 0.07291297
0.13745542 -0.017801296 -0.05522273 -0.09570805 0.093458444 -0.013989914 0.14474562 -0.003496065
0.08877465 0.121711306 -0.099014826 0.14256066 -0.016612459 0.1450235 -0.04158687 0.072106265
0.05598992 0.016263757 0.17354548 -0.04073485 0.17445293 -0.039162725 0.09975013 -0.06602469
0.10190993 -0.022070184 0.1614981 -0.052150425 -0.027621688 -0.02033558 0.020141855 0.11840851
0.023943014 0.11867062 0.113934845 -0.07118205 0.046222292 0.10461873 -0.10466869 0.07837284
-0.025670689 0.008089698 0.09726307 0.15657133 -0.027838247 -0.09051027 -0.073376454 0.14601581
-0.01575809 0.017731795 -0.06794406 -0.035288934 0.050758176 0.047434613 -0.06242389 0.03995506
0.09307243 0.0572306 0.17818312 0.12186403 -0.09370878 0.16678804 0.13107629 -0.075057924
-0.017353669 -0.065197274 0.026639255 0.19754417 -0.039641973 0.117709264 0.15890856 -0.030210169
-0.09332403 -0.054921728 -0.029044807 -0.058386736 0.0709727 -0.103879005 0.100031085 -0.06363215
0.1370604 0.06091572 0.053294692 -0.019083776 0.12234845 -0.043060068 0.12031747 0.12263921
0.020978093 -0.050118614 -0.05962584 0.09964264 0.11662463 0.06687115 -0.042097975 0.08749982
-0.072837465 -0.039897267 -0.07208944 0.07440299 -0.077668965 0.08116928 0.1402382 0.059639357
0.15502778 -0.0460488 -0.06927646 0.08974345 0.090760365 0.11438283 0.09950136 -0.040105317
0.09689177 0.18906696 0.16799124 0.13617165 0.15200512 0.006253207 -0.0053463187 -0.059456076
0.13588025 0.105250016 0.08688064 0.12555909 0.094958395 0.08400181 0.1189349 -0.033959664
0.18487963 -0.023767406 0.08404364 0.006640131 0.11484588 0.032607272 0.04271651 0.10639701
0.02916577 0.057610225 0.067349106 0.029476712 -0.050438493 -0.06632324 0.09549994 0.1459067
0.047572702 -0.036255002 -0.04364907 0.13948074 -0.017852537 0.038363956 -0.08692532 -0.076694444
0.15038404 0.16854107 0.10711185 -0.042298835 -0.03401862 -0.0077369264 0.15351349 -0.041500635
-0.08378949 0.035455894 0.109161414 0.113572024 0.13839325 0.15758137 0.16748372 0.13287678
-0.06327394 0.12175502 0.06920832 -0.005528691 0.120609134 0.15730837 0.15376738 0.042862777
0.1572368 -0.052484114 0.1475994 -0.041361846 0.02010053 0.1339963 0.10976654 0.1857788
00000000: ebd5 3d3d 1962 36bd 3b2b 96bd 659f 0d3d
00000010: d973 0d3e 6c51 8a3d 900e a3bd 891c 1f3e
00000020: af3c 6dbd 3e11 7e3c f34d c0bd bfc3 ac3d
00000030: e9f3 38bd c517 283e d5d7 e8bc 963c 8d3c
00000040: 24b3 bf3d 72bd a13d ad00 3abd 996d 113d
00000050: f686 ae3d 4c02 51bd 38c4 213d 1dfb edbc
00000060: e7b3 5ebd e549 b7bc d2b8 a93d 1485 183e
00000070: 4194 563d d89e 7bbb 1e3a 763c 3c02 fabc
00000080: 5c61 dc3d 600a af3b 06ce 68bd d1f8 64bd
00000090: 4a67 433d 6d32 233b 625d 053e fe92 69bd
000000a0: 2e03 5a3d afd4 093e 308d 3cbd a556 d9bb
000000b0: df0a c43d 3a8b 383e a98e 1c3d cd69 babd
000000c0: 493e ca3d 63f9 60bc a89c c83d e43d 12bc
000000d0: 3b09 9e3d 62e4 11bd 1977 ae3b 05fa aa3d
000000e0: 092c 773d 8f3d ceba ccb5 30bd b470 47bb
000000f0: cdb1 6cbc 0432 a03d e07b 633d adbc 92bd
00000100: f4e2 e03c 39ff 1d3e 5270 b23d 0938 b6bc
00000110: e162 1a3e 3619 a73d 9bc1 e6bc 6553 953d
00000120: 1dc1 0c3e 06d4 91bc 3b31 62bd 9502 c4bd
00000130: 2467 bf3d f435 65bc 3238 143e 3d1e 65bb
00000140: 7ccf b53d c743 f93d 49c8 cabd 6cfb 113e
00000150: da16 88bc 0a81 143e fe56 2abd 73ac 933d
00000160: b055 653d 923b 853c e8b5 313e 96d9 26bd
00000170: caa3 323e 1869 20bd cc49 cc3d f437 87bd
00000180: 27b6 d03d 88cc b4bc c25f 253e af9b 55bd
00000190: e146 e2bc cd96 a6bc 8800 a53c 2980 f23d
000001a0: 2424 c43c 9509 f33d ac56 e93d e5c7 91bd
000001b0: 9653 3d3d 5842 d63d 8a5c d6bd f181 a03d
000001c0: 564b d2bc a78a 043c dc31 c73d 3c54 203e
000001d0: 090d e4bc 735d b9bd 6546 96bd 2b85 153e
000001e0: 1c17 81bc 4542 913c 4126 8bbd 218b 10bd
000001f0: cee7 4f3d cc4a 423d 31b0 7fbd eba7 233d
00000200: c29c be3d a26a 6a3d a375 363e d993 f93d
00000210: 64ea bfbd 7cca 2a3e dd38 063e f8b7 99bd
00000220: 4829 8ebc 2686 85bd 913a da3c 0549 4a3e
00000230: 9f5f 22bd 8e11 f13d edb8 223e 517b f7bc
00000240: ab20 bfbd 9bf5 60bd 60ef edbc ee26 6fbd
00000250: 235a 913d 84be d4bd 19dd cc3d 9351 82bd
00000260: 9059 0c3e c382 793d 894b 5a3d 9455 9cbc
00000270: d391 fa3d c15f 30bd 0169 f63d 442a fb3d
00000280: 40da ab3c 2d49 4dbd 3a3a 74bd 7111 cc3d
00000290: e5d8 ee3d bef3 883d ed6e 2cbd 1b33 b33d
000002a0: cf2b 95bd 516b 23bd a1a3 93bd 9860 983d
000002b0: e810 9fbd 143c a63d 9a9a 0f3e 6648 743d
000002c0: 9abf 1e3e ab9d 3cbd d1e0 8dbd 6acb b73d
000002d0: 92e0 b93d 8c41 ea3d 5ec7 cb3d 7945 24bd
000002e0: 316f c63d c59a 413e e505 2c3e 9570 0b3e
000002f0: 3ba7 1b3e b4e7 cc3b 2c30 afbb 3788 73bd
00000300: 3124 0b3e 528d d73d 7aee b13d 9092 003e
00000310: 8c79 c23d 2409 ac3d 2494 f33d 4a19 0bbd
00000320: 1651 3d3e ddb3 c2bc 121f ac3d 7595 d93b
00000330: 5134 eb3d 348f 053d 82f7 2e3d ade6 d93d
00000340: 0eed ee3c b3f8 6b3d 54ee 893d 2579 f13c
00000350: 9898 4ebd 7bd4 87bd 7995 c33d 9168 153e
00000360: 98db 423d 2080 14bd 5ec9 32bd 0ad4 0e3e
00000370: 7c3f 92bc 8623 1d3d e705 b2bd fa11 9dbd
00000380: 46fe 193e 0896 2c3e 755d db3d 8b41 2dbd
00000390: 1c57 0bbd 0b86 fdbb a432 1d3e 92fc 29bd
000003a0: d399 abbd 333a 113d 0590 df3d 7398 e83d
000003b0: f6b6 0d3e 035d 213e da80 2b3e da10 083e
000003c0: c495 81bd b25a f93d 17bd 8d3d 062a b5bb
000003d0: ec01 f73d 7215 213e 3275 1d3e e190 2f3d
000003e0: af02 213e 95f9 56bd 4c24 173e 0a6b 29bd
000003f0: dea9 a43c 5336 093e 48cd e03d cc3c 3e3e

network_body.linear_encoder.seq_layers.2.weight f4 [256, 256]
-0.04567229 0.08795764 -0.111892685 -0.10537807 -0.06019145 0.09032107 -0.0066227173 0.03192667
-0.007293162 0.038657762 0.024551665 -0.18131761 -0.12355264 -0.011407508 -0.008433428 0.08997367
0.074044704 0.013175779 0.046329193 0.09841003 -0.018112184 0.07118813 0.10204032 0.04018512
0.045743868 0.019429615 -0.036520313 -0.028795345 -0.038376715 -0.03589615 0.103827775 0.12034914
-0.08748784 0.153698 0.12519358 -0.048030008 0.041673116 -0.07520409 -0.12744653 0.014232675
0.10977585 0.039989233 -0.14250965 -0.04745126 0.03489089 0.16758057 -0.011016628 0.12567575
-0.023898937 0.060640898 0.054605342 0.0028029461 -0.018751552 0.09216592 -0.2300859 -0.08868461
0.10532595 0.1991508 0.007968803 0.052472074 -0.09299406 0.07684656 0.0012851416 0.020093152
0.014370918 -0.079167664 -0.039190162 -0.16447505 -0.10465745 0.021387942 0.014075973 0.059844643
-0.14514855 -0.085538246 -0.057121072 0.09643423 0.0888199 -0.011880117 0.056509588 -0.045345124
-0.00867887 0.036985774 0.020466924 -0.095906086 -0.020368747 0.023299927 0.072649635 -0.07684078
0.10791779 -0.0437686 0.12270725 0.009185176 -0.0033426268 0.03399821 0.07022666 0.025033867
0.19260475 0.06264715 0.052832387 0.058545332 0.0484255 0.07673071 0.012992676 0.011012758
-0.070293576 0.07752416 0.012557134 0.029406672 -0.15487814 0.0006085307 -0.0996457 0.15521327
-0.052099414 -0.23633628 -0.02199039 -0.10456346 0.017350689 -0.004559804 0.09892084 -0.043075435
-0.0066205515 -0.10189811 -0.06333193 -0.1575847 -0.31567454 -0.0040339553 -0.018082188 0.11794329
0.054433584 -0.10437091 -0.09051363 -0.15133315 0.023357911 -0.011973371 0.056012914 0.110102564
-0.09208835 -0.097472325 -0.10254802 0.066625714 -0.058896985 0.020449786 0.09722222 -0.09204735
-0.25112966 0.036060866 0.03205875 -0.18389973 0.048899304 -0.07499642 -0.07495239 -0.026506834
0.045258563 0.018114708 0.082506865 -0.097718805 -0.007607688 -0.0147642195 0.12080446 -0.048091713
0.050358612 0.14355099 -0.05252509 -0.06479778 0.12098461 0.055830836 -0.017444385 -0.08501252
-0.08020191 0.012106481 0.03525816 0.04769544 -0.036648724 -0.01689209 -0.14522722 -0.25120774
-0.23649047 0.06416311 0.13593002 0.15990373 -0.19282463 -0.22535306 -0.014090173 0.08146706
0.028143534 -0.08742538 -0.07331369 0.14080377 -0.07739898 -0.11961734 0.16143018 0.062749766
-0.1402287 0.016095906 -0.06674776 -0.08383597 0.044147152 0.029335704 -0.12705497 0.038029917
-0.09596003 0.111972734 0.04614108 -0.031667743 0.04815001 -0.10154897 0.105283454 0.1338306
-0.025140082 0.024829626 -0.18265852 0.0337827 -0.0714214 0.0005781034 -0.20366536 0.060396418
-0.079391286 0.015187245 0.10433291 0.0037570226 -0.111890696 0.028353117 -0.024233364 0.022386707
-0.105023906 0.03147371 -0.23420122 -0.009641862 0.010053829 -0.21290031 0.027339304 0.06862377
0.06014528 -0.07903392 -0.21344234 0.046039887 -0.13017412 -0.044514578 0.083533965 -0.029976076
-0.055565733 -0.091891706 0.050892193 -0.05693474 0.15304281 0.022325585 -0.003152485 -0.036162365
0.10582504 -0.1969676 -0.16796263 -0.044981867 0.13163215 0.14056008 0.016455898 0.011845522
00000000: de12 3bbd 2323 b43d fe27 e5bd 75d0 d7bd
00000010: 4f8b 76bd 41fa b83d 6103 d9bb 8ac5 023d
00000020: 7afb eebb 9a57 1e3d 9320 c93c 53ab 39be
00000030: 2b09 fdbd 8ee6 3abc 5c2c 0abc 1e44 b83d
00000040: c0a4 973d 39df 573c aec3 3d3d 338b c93d
00000050: 0160 94bc 15cb 913d 84fa d03d 2799 243d
00000060: ec5d 3b3d db2a 9f3c 5396 15bd 37e4 ebbc
00000070: e730 1dbd d707 13bd a8a3 d43d 9c79 f63d
00000080: d32c b3bd 0263 1d3e bf32 003e 1dbb 44bd
00000090: 6eb1 2a3d 9a04 9abd 5881 02be 2a30 693c
000000a0: 29d2 e03d c0cb 233d 0dee 11be 415c 42bd
000000b0: c0e9 0e3d 3e9a 2b3e 167f 34bc 25b1 003e
000000c0: b4c7 c3bc 9762 783d daa9 5f3d a2b1 373b
000000d0: db9c 99bc 7cc1 bc3d a39b 6bbe 47a0 b5bd
000000e0: 22b5 d73d 30ee 4b3e 958f 023c f5ec 563d
000000f0: ab73 bebd bb61 9d3d 3272 a83a 659a a43c
00000100: 0074 6b3c a822 a2bd dd85 20bd 266c 28be
00000110: a556 d6bd c435 af3c e99e 663c a81f 753d
00000120: d2a1 14be ad2e afbd c9f7 69bd 4f7f c53d
00000130: 35e7 b53d d2a4 42bc 9976 673d cfbb 39bd
00000140: d231 0ebc 657e 173d 40aa a73c 696a c4bd
00000150: 5cdc a6bc 7ddf be3c 55c9 943d b35e 9dbd
00000160: 0104 dd3d b446 33bd f04d fb3d 6c7d 163c
00000170: f90f 5bbb b541 0b3d ffd2 8f3d d313 cd3c
00000180: 2e3a 453e 264d 803d c666 583d 3bcd 6f3d
00000190: d159 463d fe24 9d3d 3cdf 543c db6e 343c
000001a0: 14f6 8fbd fdc4 9e3d 70bc 4d3c 43e6 f03c
000001b0: 6098 1ebe ce85 1f3a 0b13 ccbd 3af0 1e3e
000001c0: 3266 55bd 2302 72be 3125 b4bc 5e25 d6bd
000001d0: 0823 8e3c 696a 95bb 0297 ca3d de6f 30bd
000001e0: 36f1 d8bb f5af d0bd 2cb4 81bd e25d 21be
000001f0: 18a0 a1be 452f 84bb 1921 94bc 408c f13d
00000200: c0f5 5e3d 6ac0 d5bd 365f b9bd 14f7 1abe
00000210: 1759 bf3c f52b 44bc cc6d 653d 747d e13d
00000220: d198 bcbd 929f c7bd b204 d2bd 1073 883d
00000230: f73d 71bd 4f86 a73c 711c c73d 5283 bcbd
00000240: 1194 80be 8fb4 133d 0950 033d 3650 3cbe
00000250: a34a 483d b997 99bd a380 99bd dc24 d9bc
00000260: 0b61 393d 4c65 943c 5cf9 a83d cc20 c8bd
00000270: ea49 f9bb a0e5 71bc 5468 f73d d1fb 44bd
00000280: d544 4e3d 08ff 123e 8c24 57bd b3b4 84bd
00000290: c7c6 f73d e0ae 643d 87e7 8ebc 0b1b aebd
000002a0: e640 a4bd 435a 463c dc6a 103d 4b5c 433d
000002b0: f91c 16bd 4861 8abc 72b6 14be 4d9e 80be
000002c0: 8f2a 72be f367 833d 3d31 0b3e cebd 233e
000002d0: d273 45be f4c2 66be 78da 66bc 34d8 a63d
000002e0: 458d e63c 140c b3bd 7d25 96bd dd2e 103e
000002f0: 5b83 9ebd f0f9 f4bd f44d 253e f382 803d
00000300: 1d98 0fbe 90db 833c 0db3 88bd 31b2 abbd
00000310: a5d3 343d 6e51 f03c b31a 02be 42c5 1b3d
00000320: b186 c4bd f651 e53d 6efe 3c3d 09b6 01bd
00000330: f238 453d e8f8 cfbd da9e d73d e40a 093e
00000340: 93f2 cdbc 8067 cb3c d60a 3bbe ba5f 0a3d
00000350: 6245 92bd dd8b 173a a78d 50be 3c62 773d
00000360: e697 a2bd ecd3 783c 7eac d53d 6138 763b
00000370: f326 e5bd cc44 e83c 0c85 c6bc 5464 b73c
00000380: c616 d7bd 94ea 003d 72d2 6fbe e6f8 1dbc
00000390: d1b8 243c 8a02 5abe adf6 df3c 9e8a 8c3d
000003a0: e65a 763d 89dc a1bd a190 5abe 5294 3c3d
000003b0: 5d4c 05be eb54 36bd db13 ab3d 6390 f5bc
000003c0: e598 63bd b831 bcbd 5574 503d 6734 69bd
000003d0: 41b7 1c3e 25e4 b63c ec99 4ebb fd1e 14bd
000003e0: ccba d83d e0b1 49be 65fe 2bbe e83e 38bd
000003f0: 94ca 063e fbee 0f3e 85ce 863c b813 423c

network_body.vector_processors.0.normalizer.running_mean f4 [9]
-0.25346622 1.9529523 0.0 -0.23886327 1.9529575 0.0 0.19798239 0.0
0.04542548
00000000: 53c6 81be 57fa f93f 0000 0000 9398 74be
00000010: 83fa f93f 0000 0000 e5bb 4a3e 0000 0000
00000020: 1110 3a3d
