config/results/NewRun5/My Behavior.onnx (onnx, 282099 bytes, 8 tensors)

58 f4 [9]
00000000: 74c7 623f 24ae 033d fbc6 6f3c 2b56 a73f
00000010: 24ae 033d fbc6 6f3c dc9f 2b3e fbc6 6f3c
00000020: cd40 d73e
0.8858559 0.032148495 0.014634843 1.3073171 0.032148495 0.014634843 0.167602 0.014634843
0.42041627

action_model._discrete_distribution.branches.0.bias f4 [6]
00000000: 0000 0000 0000 0000 0000 0000 0000 0000
00000010: 0000 0000 0000 0000
0.0 0.0 0.0 0.0 0.0 0.0

action_model._discrete_distribution.branches.0.weight f4 [6, 256]
00000000: db74 0c3b d655 29bb 1e22 a43b d7fa 243c
00000010: fb42 fe3a c14e 87bb 3b71 2d3a c784 a9bb
00000020: ff63 063c 8206 69bb 0d2f a13b 1dab 8b3b
00000030: bf1f 2cbb c2a0 243b 2d44 81ba a632 003c
00000040: 4740 c73b d56b 303b bcce 883b 973a 06bc
00000050: 1822 7c3c 1c2a 023c e5bd f8b9 e3f6 963b
00000060: 7b30 93bb ee50 8d3b d4d0 b83b 8a24 db38
00000070: 0432 333b d7ca 883a 9a48 f73b 1a19 c0bb
00000080: 8015 d138 50e0 a3bc 9ffb c2bb 708f 30bc
00000090: f212 abbb 5ee8 153c e7bc 4dba 2d82 543b
000000a0: 5edc 32bb 9878 313c 019a 22bb 74bd ac3a
000000b0: 1d35 3abc a4c0 2dbc 2389 203c a7b6 7e3b
000000c0: f5c8 bebb 7b02 953c 1b90 e23b ef82 8fba
000000d0: f0bf 34bc 5856 033b f895 69bc a8e8 593c
000000e0: 2f53 483b f4c1 b2bb 774a 333b 7296 693c
000000f0: ede3 2dba b8c8 ffba b7f2 d03b 803a 71bc
00000100: 834a bf39 cfc3 203c 8ea0 39bb 6784 853a
00000110: bfd7 ac3a 9a80 51bb e3b3 cab9 3b52 843b
00000120: fbbc 73bc ba0f a7ba 5a90 ddbb 026a 553b
00000130: b0da 413c 9680 bfbb 03e8 7ebb 4357 093b
00000140: e5eb 63bb 9d7f 443c 604f 86bb e7af b63b
00000150: e8ed 1abc 4b9e 7ab9 2f7f f03b 0227 2b3b
00000160: 9ff6 953b 220d c43b 6f19 dd3a 0845 7c3c
00000170: 7320 c83b 40f2 d43a 6ba3 dbbb b8e9 d0ba
00000180: f97a ae3b ed0a 76bb 34cb 22bb 5985 16bb
00000190: fa80 fe3a cffb 14bc 550c 6a3b cbee ecb9
000001a0: a9f4 c53b ef8a dfbb 34fa 0dbc b0f9 7e3b
000001b0: b0ec 4ebb 4f74 20bc 471f a03b 6d11 083b
000001c0: fe04 c53a 83a3 183c 4833 6f3b 6f12 47bb
000001d0: 7f42 3e3b ac09 c8b9 dd17 233c 8b59 ac3b
000001e0: 7ad0 cebb bcde b7bb 68d7 c43a cb3d e7bb
000001f0: a300 8bba 9f3d 32bb 6701 35bc 63de d73a
00000200: a3a4 ed3b 471b 2aba 1961 bb39 1b54 a73b
00000210: 541f 08bc c2c7 b3b9 97c8 883c efd8 8e3b
00000220: c59e 0c3b 0e76 133b 4b76 6e3b 4065 60bc
00000230: 10d0 6dbb 8b72 b83a c647 99bb 5305 653b
00000240: ed47 313c 13f1 c63a c59b 9239 38bf a33b
00000250: eb35 b5ba c715 1c3c 4934 3ebc 70da eb3b
00000260: 3d48 6c3c e9a3 393c 9828 d33a 9a99 5cba
00000270: 80b4 16bc 4c65 09bc 0e96 113b 3265 da38
00000280: b4d8 4a3b 8ead 973b 1d9a 053b 5feb 8db9
00000290: 7cff 2ebb 5932 a8bb abf8 e73b 68de fb3b
000002a0: 08a7 ea3a 089c 6e3b 9764 813b a255 71ba
000002b0: aece 923b 9d9a fcbb 4349 22bb 7043 83ba
000002c0: 5533 fa3a a31c 7e3b 27c4 3c38 8afa 413b
000002d0: 5863 083b 2bc1 413b 4019 d3ba 5879 d5bb
000002e0: fb52 4039 f03f 39ba 8231 9aba 0af1 a53b
000002f0: 5c09 1b3c 62ef 5b3b bd4e a73a 6208 6aba
00000300: ec42 c93b 8245 64bb 80f1 37bb 4b36 bdbb
00000310: 3afe 0a3b ba28 7d3b be12 a339 cfa4 b2bb
00000320: 35e3 043b b08a 673a f083 97bb 70bc ea3b
00000330: aa76 32bb 039a 02bc da3a eeba 0ff2 0abb
00000340: 0192 ccbb dbd6 9bbb 8bc9 adbc 9da3 6dbb
00000350: d150 473b a06d aebb ebc3 e53b ad83 8bb9
00000360: 33b7 41ba efdf 90bc 3a84 603c 67d9 1239
00000370: 3df9 f5ba 079b 3c3c aadc 743b 05ae 55b9
00000380: 06e9 2a3c 479a 32bb 7905 9c3b ac05 87bb
00000390: fbbe 85ba 8759 2fbb c2b2 353c 495a 30bc
000003a0: 0fce a03b 3f24 193c af47 0ab9 bad9 f5ba
000003b0: 067f 83bb 370a 55bc 346e 0dbc a713 413b
000003c0: 6a8d 7abb bb65 2dbb ce0b 2ebb 2fb0 443b
000003d0: e52a 49bb 6f67 2d3c 93f7 f1bb f9f3 9b3b
000003e0: 3d23 dbba eb64 0838 b3e0 cfbb f11f a5ba
000003f0: 7a53 073b 8a5d cc3a 9ec8 cbba 8389 a13b
0.0021431956 -0.0025838516 0.00500895 0.0100695705 0.0019398624 -0.0041292612 0.0006616299 -0.005173299
0.008202552 -0.0035556857 0.004918939 0.0042623417 -0.002626404 0.0025120233 -0.0009862237 0.0078245755
0.0060806605 0.0026919742 0.0041750353 -0.00819268 0.015388988 0.00794461 -0.00047443729 0.004607068
-0.0044918633 0.004312626 0.0056401286 0.0001044954 0.0027343044 0.0010436428 0.0075464966 -0.0058623673
9.969901e-05 -0.020004421 -0.0059504057 -0.010776386 -0.0052207643 0.009149639 -0.0007848278 0.0032426224
-0.0027291994 0.010831974 -0.0024811032 0.001317902 -0.011365202 -0.010605011 0.009798321 0.0038866193
-0.005822296 0.01818966 0.0069141514 -0.0010949055 -0.01103209 0.0020040479 -0.014256947 0.0133000985
0.003056716 -0.00545525 0.0027357617 0.01425706 -0.000663339 -0.0019514775 0.00637659 -0.01472342
0.00036485874 0.009812309 -0.0028324458 0.0010186554 0.0013186856 -0.0031967522 -0.00038662468 0.004038123
-0.014876599 -0.0012745776 -0.006761593 0.0032564406 0.011831924 -0.005844186 -0.0038895614 0.0020956553
-0.0034778055 0.011993316 -0.0040988177 0.0055751684 -0.009456135 -0.00023900827 0.00733938 0.002611578
0.0045765187 0.005983011 0.0016868542 0.015397318 0.006107384 0.0016246513 -0.0067028305 -0.0015938794
0.005324718 -0.0037543133 -0.0024840357 -0.0022967665 0.00194171 -0.009093239 0.0035712917 -0.00045191342
0.0060411287 -0.006821982 -0.00866561 0.003890615 -0.0031574182 -0.009793355 0.004886541 0.002076234
0.0015031395 0.009316328 0.0036499072 -0.0030375978 0.0029031334 -0.0003815418 0.00995442 0.005259698
-0.0063114734 -0.005611269 0.0015017809 -0.007056927 -0.0010605048 -0.0027197374 -0.011047698 0.0016469475
0.0072522922 -0.000648905 0.00035739763 0.0051064617 -0.00830825 -0.00034290372 0.016697211 0.0043593566
0.0021456939 0.0022500786 0.0036386426 -0.013696015 -0.0036287345 0.0014072222 -0.0046777455 0.00349458
0.010820371 0.0015178047 0.00027963347 0.0049971603 -0.0013825273 0.0095266765 -0.011609145 0.0071976706
0.01442152 0.011330583 0.001611012 -0.00084152224 -0.009198308 -0.008385967 0.0022214684 0.00010413899
0.003095192 0.0046288436 0.0020386048 -0.0002706898 -0.0026702574 -0.005132955 0.007079204 0.007686425
0.0017902562 0.003640892 0.003948759 -0.00092061807 0.0044802045 -0.007708861 -0.0024762906 -0.0010014605
0.0019088784 0.0038774393 4.5005374e-05 0.0029598796 0.0020811167 0.00295646 -0.0016105548 -0.0065147094
0.0001834146 -0.00070667174 -0.0011764022 0.0050641345 0.009462681 0.0033559431 0.0012764555 -0.0008927641
0.006142011 -0.003483147 -0.002806753 -0.0057742945 0.002120866 0.0038629011 0.00031103747 -0.0054517756
0.0020277028 0.0008832617 -0.0046238825 0.007163577 -0.0027231374 -0.00797129 -0.0018175498 -0.0021201407
-0.006242991 -0.0047558374 -0.021214267 -0.0036260851 0.003041316 -0.005323127 0.0070118806 -0.00026610252
-0.00073896645 -0.017684905 0.0137034 0.00014004634 -0.0018766295 0.011511571 0.0037362971 -0.0002037809
0.010431534 -0.00272526 0.0047613946 -0.004120549 -0.0010204011 -0.0026756243 0.011089982 -0.010763713
0.0049073766 0.009347021 -0.0001318741 -0.0018756904 -0.004012945 -0.013002924 -0.0086322315 0.0029461177
-0.0038231262 -0.002645834 -0.002655733 0.003001224 -0.0030695733 0.0105837425 -0.0073842495 0.0047593084
-0.0016718876 3.2518914e-05 -0.006343925 -0.001259802 0.002064912 0.0015591842 -0.001554746 0.0049297228

network_body.linear_encoder.seq_layers.0.bias f4 [256]
00000000: 0000 0000 0000 0000 0000 0000 0000 0000
00000010: 0000 0000 0000 0000 0000 0000 0000 0000
00000020: 0000 0000 0000 0000 0000 0000 0000 0000
00000030: 0000 0000 0000 0000 0000 0000 0000 0000
00000040: 0000 0000 0000 0000 0000 0000 0000 0000
00000050: 0000 0000 0000 0000 0000 0000 0000 0000
00000060: 0000 0000 0000 0000 0000 0000 0000 0000
00000070: 0000 0000 0000 0000 0000 0000 0000 0000
00000080: 0000 0000 0000 0000 0000 0000 0000 0000
00000090: 0000 0000 0000 0000 0000 0000 0000 0000
000000a0: 0000 0000 0000 0000 0000 0000 0000 0000
000000b0: 0000 0000 0000 0000 0000 0000 0000 0000
000000c0: 0000 0000 0000 0000 0000 0000 0000 0000
000000d0: 0000 0000 0000 0000 0000 0000 0000 0000
000000e0: 0000 0000 0000 0000 0000 0000 0000 0000
000000f0: 0000 0000 0000 0000 0000 0000 0000 0000
00000100: 0000 0000 0000 0000 0000 0000 0000 0000
00000110: 0000 0000 0000 0000 0000 0000 0000 0000
00000120: 0000 0000 0000 0000 0000 0000 0000 0000
00000130: 0000 0000 0000 0000 0000 0000 0000 0000
00000140: 0000 0000 0000 0000 0000 0000 0000 0000
00000150: 0000 0000 0000 0000 0000 0000 0000 0000
00000160: 0000 0000 0000 0000 0000 0000 0000 0000
00000170: 0000 0000 0000 0000 0000 0000 0000 0000
00000180: 0000 0000 0000 0000 0000 0000 0000 0000
00000190: 0000 0000 0000 0000 0000 0000 0000 0000
000001a0: 0000 0000 0000 0000 0000 0000 0000 0000
000001b0: 0000 0000 0000 0000 0000 0000 0000 0000
000001c0: 0000 0000 0000 0000 0000 0000 0000 0000
000001d0: 0000 0000 0000 0000 0000 0000 0000 0000
000001e0: 0000 0000 0000 0000 0000 0000 0000 0000
000001f0: 0000 0000 0000 0000 0000 0000 0000 0000
00000200: 0000 0000 0000 0000 0000 0000 0000 0000
00000210: 0000 0000 0000 0000 0000 0000 0000 0000
00000220: 0000 0000 0000 0000 0000 0000 0000 0000
00000230: 0000 0000 0000 0000 0000 0000 0000 0000
00000240: 0000 0000 0000 0000 0000 0000 0000 0000
00000250: 0000 0000 0000 0000 0000 0000 0000 0000
00000260: 0000 0000 0000 0000 0000 0000 0000 0000
00000270: 0000 0000 0000 0000 0000 0000 0000 0000
00000280: 0000 0000 0000 0000 0000 0000 0000 0000
00000290: 0000 0000 0000 0000 0000 0000 0000 0000
000002a0: 0000 0000 0000 0000 0000 0000 0000 0000
000002b0: 0000 0000 0000 0000 0000 0000 0000 0000
000002c0: 0000 0000 0000 0000 0000 0000 0000 0000
000002d0: 0000 0000 0000 0000 0000 0000 0000 0000
000002e0: 0000 0000 0000 0000 0000 0000 0000 0000
000002f0: 0000 0000 0000 0000 0000 0000 0000 0000
00000300: 0000 0000 0000 0000 0000 0000 0000 0000
00000310: 0000 0000 0000 0000 0000 0000 0000 0000
00000320: 0000 0000 0000 0000 0000 0000 0000 0000
00000330: 0000 0000 0000 0000 0000 0000 0000 0000
00000340: 0000 0000 0000 0000 0000 0000 0000 0000
00000350: 0000 0000 0000 0000 0000 0000 0000 0000
00000360: 0000 0000 0000 0000 0000 0000 0000 0000
00000370: 0000 0000 0000 0000 0000 0000 0000 0000
00000380: 0000 0000 0000 0000 0000 0000 0000 0000
00000390: 0000 0000 0000 0000 0000 0000 0000 0000
000003a0: 0000 0000 0000 0000 0000 0000 0000 0000
000003b0: 0000 0000 0000 0000 0000 0000 0000 0000
000003c0: 0000 0000 0000 0000 0000 0000 0000 0000
000003d0: 0000 0000 0000 0000 0000 0000 0000 0000
000003e0: 0000 0000 0000 0000 0000 0000 0000 0000
000003f0: 0000 0000 0000 0000 0000 0000 0000 0000
0.0 0.0 0.0 0.0 0.0 0.0 0.0 0.0
0.0 0.0 0.0 0.0 0.0 0.0 0.0 0.0
0.0 0.0 0.0 0.0 0.0 0.0 0.0 0.0
0.0 0.0 0.0 0.0 0.0 0.0 0.0 0.0
0.0 0.0 0.0 0.0 0.0 0.0 0.0 0.0
0.0 0.0 0.0 0.0 0.0 0.0 0.0 0.0
0.0 0.0 0.0 0.0 0.0 0.0 0.0 0.0
0.0 0.0 0.0 0.0 0.0 0.0 0.0 0.0
0.0 0.0 0.0 0.0 0.0 0.0 0.0 0.0
0.0 0.0 0.0 0.0 0.0 0.0 0.0 0.0
0.0 0.0 0.0 0.0 0.0 0.0 0.0 0.0
0.0 0.0 0.0 0.0 0.0 0.0 0.0 0.0
0.0 0.0 0.0 0.0 0.0 0.0 0.0 0.0
0.0 0.0 0.0 0.0 0.0 0.0 0.0 0.0
0.0 0.0 0.0 0.0 0.0 0.0 0.0 0.0
0.0 0.0 0.0 0.0 0.0 0.0 0.0 0.0
0.0 0.0 0.0 0.0 0.0 0.0 0.0 0.0
0.0 0.0 0.0 0.0 0.0 0.0 0.0 0.0
0.0 0.0 0.0 0.0 0.0 0.0 0.0 0.0
0.0 0.0 0.0 0.0 0.0 0.0 0.0 0.0
0.0 0.0 0.0 0.0 0.0 0.0 0.0 0.0
0.0 0.0 0.0 0.0 0.0 0.0 0.0 0.0
0.0 0.0 0.0 0.0 0.0 0.0 0.0 0.0
0.0 0.0 0.0 0.0 0.0 0.0 0.0 0.0
0.0 0.0 0.0 0.0 0.0 0.0 0.0 0.0
0.0 0.0 0.0 0.0 0.0 0.0 0.0 0.0
0.0 0.0 0.0 0.0 0.0 0.0 0.0 0.0
0.0 0.0 0.0 0.0 0.0 0.0 0.0 0.0
0.0 0.0 0.0 0.0 0.0 0.0 0.0 0.0
0.0 0.0 0.0 0.0 0.0 0.0 0.0 0.0
0.0 0.0 0.0 0.0 0.0 0.0 0.0 0.0
0.0 0.0 0.0 0.0 0.0 0.0 0.0 0.0

network_body.linear_encoder.seq_layers.0.weight f4 [256, 9]
00000000: d228 af3d 7f95 08be 527f 66bd 3306 b2bd
00000010: f2bc 043e 5e7b fd3d 06f7 2ebd b2d5 df3e
00000020: af1c 333e bc97 11bf af1c 9e3d 3b3f 65bc
00000030: f3ff b63e 3275 71bf 1fc9 cfbe 62f3 5ebe
00000040: ec53 273e d0f5 febc 3fd6 f43e 8495 773d
00000050: 3cb8 be3e 0e41 ce3c ccca d4bd 7c5f 12be
00000060: 9d48 0c3e 484c 1e3e fa7b e5be e67b 893d
00000070: 6bf7 ecbd fce1 9b3c 94ba f3be f783 393e
00000080: e614 e93e 0c23 af3d 8a6f 083f 1769 bd3d
00000090: 7eea 23bd e343 71be 82a5 1b3e 9bf2 4c3e
000000a0: c6df 523e fb20 80be ae38 9f3e dd23 903d
000000b0: 0cc0 9fbe 13ad d23b d677 c1bd eece 293f
000000c0: 6320 ab3e b2c0 62be d338 dc3e 9447 78be
000000d0: e3dd 1b3d c332 fd3e cbe8 e23d 6665 edbd
000000e0: d89f b9be 724d 833e fad7 403f 405d 50bd
000000f0: e861 4dbe 1069 b9be 46b2 79be 2743 09bf
00000100: 33a2 d73d 841f 50be a975 18be ab27 553e
00000110: b3f2 2bbf 11ff 043f 1619 063f 424a 933e
00000120: 538a 69be 833d febe 1ab6 a73e bbe4 2c3e
00000130: c0d3 4a3e d6d3 b73d f770 15bf 72e8 b13c
00000140: fbd1 04bf 6aaa 4a3d c3b2 78be 9a38 6cbe
00000150: 34ce 24bf 38ee 2e3e 0e9d a13e bebb 343e
00000160: 1e0f 093f fefd de3d c016 ffbe e0c3 96be
00000170: 71cb 9bbe daea bb3d affc 673e 4019 1fbd
00000180: 88a9 0abe 53ea b73d 461b 38be b8cb 2bbe
00000190: 445f b43e b054 103f ae06 babd f0d3 01bf
000001a0: 6896 223e 948a 973e 1665 53be 78d8 eabc
000001b0: fa8e 163f 142b 26bc cfb5 0bbe 094c 1dbf
000001c0: cc94 5cbe ff5b 273f dd14 98bd 724b 2cbe
000001d0: a85d d13e 84b0 d8be d349 0cbf 6cb0 a33c
000001e0: 4ec4 c03c c601 5fbe 381f 853e 10a3 e53d
000001f0: 14d2 3d3e 305c adbe 44dd cbbc aeff 363f
00000200: 6858 e6be fd71 20be 3a62 00be d28a 7b3e
00000210: 8c67 2f3f 2c97 a8be eef9 a1bc dbdb f4be
00000220: 7a69 3c3d 5b05 75be a894 fabd 638e 4abf
00000230: c0be 643e db91 cfbe dec4 e3bd fc2f 113e
00000240: 6ecc 49be 02c0 24bf 5cb9 59bd f4f9 593e
00000250: bec4 e13b fe29 373e 6291 fabd 78a3 bd3e
00000260: 101f b33e e0b3 833d d129 a43d ddd0 22bc
00000270: f843 3dbe d3d6 52bf 4850 303e f89d 143e
00000280: dc17 54be 3ee5 1f3e 1aaf 343f bd02 2abf
00000290: 9e02 e63d 674a ed3d 9f32 3bbe 14e0 7dbe
000002a0: ff92 bf3d dc83 193c 069d 52be f6c0 bbbb
000002b0: 2ba1 9cbe deec 02be f780 10be 9f5b 60be
000002c0: 94fa adbd 8ac4 04bf 56f7 b63e fa88 b33e
000002d0: f6db bbbe 0419 bb3e 7bf8 19be 9b41 d83e
000002e0: b035 473e 1832 b93e f773 af3e a5b4 0d3d
000002f0: 1bcd 293d fa87 0cbe ae3a 363e 7610 b23d
00000300: 5855 9e3c 9611 c73c ab72 f0bd 7c25 bb3e
00000310: 8f9b a7be 2bb1 1dbd 9070 26be 13c7 483d
00000320: ccf6 ef3c d7f9 96be ecea 04bd 7744 fb3d
00000330: c787 86be ebc3 35be dace 043e f095 4bbf
00000340: baea a7be 9386 d4bd 12e1 a1bd a0b4 2d3f
00000350: 868a 48bd 443b 83bd 1237 d33e dab1 c93d
00000360: 282f 5e3f 5b75 cd3e b78b f2bd ce22 0d3e
00000370: 9fbe bc3e aa60 c03e d633 1e3f 8418 05bd
00000380: 721e 083f 4512 8ebd 03ba e83e 233f fc3d
00000390: 7c4c 503e af3b 1ebf 4007 d03c 805d 303e
000003a0: 3ac8 65be 28c9 0dbf 80b8 953d 68a3 423e
000003b0: f270 823d c2bf 26be 665f 0e3f dc66 0cbd
000003c0: 5a4f 8d3d 4989 a63e dbbb 9bbe 9e74 1a3e
000003d0: 3002 08be afee 2b3e be58 903e 8d26 0d3e
000003e0: 7235 08bd 78b2 ae3e 641b 193e 5613 b1bd
000003f0: 8115 14bf a009 07be c154 023f 5f3e 333d
0.08552708 -0.13338278 -0.056273766 -0.08692589 0.12962702 0.12377046 -0.04271605 0.43717724
0.1749141 -0.56872153 0.07720315 -0.013992126 0.3574215 -0.9431945 -0.4058313 -0.2177253
0.16340607 -0.031123072 0.47819707 0.060445324 0.37249935 0.025177505 -0.10390243 -0.14294237
0.13699575 0.15458786 -0.4482115 0.06713085 -0.11570629 0.019028656 -0.47603285 0.18116747
0.45523757 0.085516065 0.53295195 0.0924856 -0.04001855 -0.23561053 0.15199855 0.20014422
0.20593175 -0.25025162 0.3109793 0.070380904 -0.31201208 0.0064293235 -0.09446685 0.66331375
0.33423147 -0.2214382 0.43012103 -0.24246055 0.038053405 0.4945279 0.11079558 -0.11591606
-0.36254764 0.25645024 0.75329554 -0.05087018 -0.2005688 -0.3621297 -0.24384412 -0.5361809
0.10528984 -0.20324522 -0.14888634 0.20815913 -0.67167205 0.519517 0.5238203 0.28767592
-0.22806673 -0.49656305 0.3275612 0.16884129 0.19807339 0.089759514 -0.58375496 0.021717284
-0.51882905 0.049478926 -0.24286942 -0.23068467 -0.6437714 0.1708306 0.31565136 0.17649743
0.5353869 0.10888289 -0.49822044 -0.29446316 -0.3042865 0.09175654 0.22654985 -0.03884244
-0.13541234 0.08980241 -0.17979154 -0.16776931 0.35228932 0.5637922 -0.09083305 -0.50714016
0.15877688 0.29597914 -0.2064403 -0.028667673 0.58811915 -0.010142107 -0.13643573 -0.61444145
-0.21541137 0.6537475 -0.07425854 -0.16825655 0.40891767 -0.4232217 -0.54800147 0.019981585
0.023531105 -0.2177802 0.2600038 0.11212742 0.1853717 -0.33859396 -0.024885781 0.71483886
-0.44989324 -0.15668483 -0.1253747 0.24564674 0.68517375 -0.32927835 -0.019772496 -0.47823986
0.045999028 -0.23927824 -0.12235385 -0.79123515 0.2233839 -0.40540966 -0.11121534 0.14178461
-0.1970689 -0.6435548 -0.053155288 0.21286756 0.0068899086 0.17887112 -0.12234761 0.3703878
0.34984636 0.06430793 0.08015788 -0.009937492 -0.1848296 -0.82359046 0.17218125 0.14513385
-0.20712227 0.15614793 0.70579684 -0.6641043 0.11230968 0.11586457 -0.18281029 -0.2479251
0.09354209 0.009369817 -0.20567712 -0.00572979 -0.3059171 -0.1278567 -0.14111696 -0.2190995
-0.084950596 -0.51862395 0.35735577 0.35065442 -0.36691254 0.36542523 -0.15036194 0.42237553
0.19454074 0.3617103 0.34268162 0.034596104 0.04145537 -0.13723746 0.17795822 0.08694546
0.019327804 0.024300378 -0.11740621 0.36552036 -0.3273587 -0.03849904 -0.16253877 0.049017977
0.029292487 -0.29487488 -0.0324506 0.12268918 -0.26275465 -0.17750518 0.12969533 -0.7952566
-0.3279627 -0.103772305 -0.07904257 0.67853737 -0.04896023 -0.064077884 0.41252953 0.098483756
0.86790705 0.40128598 -0.11843055 0.13782808 0.36864182 0.3757375 0.61797845 -0.032494083
0.53171456 -0.069370784 0.45454416 0.1231673 0.20341676 -0.6180982 0.025394082 0.17223167
-0.22439662 -0.55385065 0.07310581 0.19007647 0.06369199 -0.16284087 0.55614316 -0.03427778
0.06899901 0.32526615 -0.3041676 0.15083548 -0.13282084 0.1679027 0.28192705 0.13784237
-0.033254094 0.34120536 0.14951855 -0.08646266 -0.5784531 -0.13187265 0.50910574 0.043760654

network_body.linear_encoder.seq_layers.2.bias f4 [256]
00000000: 0000 0000 0000 0000 0000 0000 0000 0000
00000010: 0000 0000 0000 0000 0000 0000 0000 0000
00000020: 0000 0000 0000 0000 0000 0000 0000 0000
00000030: 0000 0000 0000 0000 0000 0000 0000 0000
00000040: 0000 0000 0000 0000 0000 0000 0000 0000
00000050: 0000 0000 0000 0000 0000 0000 0000 0000
00000060: 0000 0000 0000 0000 0000 0000 0000 0000
00000070: 0000 0000 0000 0000 0000 0000 0000 0000
00000080: 0000 0000 0000 0000 0000 0000 0000 0000
00000090: 0000 0000 0000 0000 0000 0000 0000 0000
000000a0: 0000 0000 0000 0000 0000 0000 0000 0000
000000b0: 0000 0000 0000 0000 0000 0000 0000 0000
000000c0: 0000 0000 0000 0000 0000 0000 0000 0000
000000d0: 0000 0000 0000 0000 0000 0000 0000 0000
000000e0: 0000 0000 0000 0000 0000 0000 0000 0000
000000f0: 0000 0000 0000 0000 0000 0000 0000 0000
00000100: 0000 0000 0000 0000 0000 0000 0000 0000
00000110: 0000 0000 0000 0000 0000 0000 0000 0000
00000120: 0000 0000 0000 0000 0000 0000 0000 0000
00000130: 0000 0000 0000 0000 0000 0000 0000 0000
00000140: 0000 0000 0000 0000 0000 0000 0000 0000
00000150: 0000 0000 0000 0000 0000 0000 0000 0000
00000160: 0000 0000 0000 0000 0000 0000 0000 0000
00000170: 0000 0000 0000 0000 0000 0000 0000 0000
00000180: 0000 0000 0000 0000 0000 0000 0000 0000
00000190: 0000 0000 0000 0000 0000 0000 0000 0000
000001a0: 0000 0000 0000 0000 0000 0000 0000 0000
000001b0: 0000 0000 0000 0000 0000 0000 0000 0000
000001c0: 0000 0000 0000 0000 0000 0000 0000 0000
000001d0: 0000 0000 0000 0000 0000 0000 0000 0000
000001e0: 0000 0000 0000 0000 0000 0000 0000 0000
000001f0: 0000 0000 0000 0000 0000 0000 0000 0000
00000200: 0000 0000 0000 0000 0000 0000 0000 0000
00000210: 0000 0000 0000 0000 0000 0000 0000 0000
00000220: 0000 0000 0000 0000 0000 0000 0000 0000
00000230: 0000 0000 0000 0000 0000 0000 0000 0000
00000240: 0000 0000 0000 0000 0000 0000 0000 0000
00000250: 0000 0000 0000 0000 0000 0000 0000 0000
00000260: 0000 0000 0000 0000 0000 0000 0000 0000
00000270: 0000 0000 0000 0000 0000 0000 0000 0000
00000280: 0000 0000 0000 0000 0000 0000 0000 0000
00000290: 0000 0000 0000 0000 0000 0000 0000 0000
000002a0: 0000 0000 0000 0000 0000 0000 0000 0000
000002b0: 0000 0000 0000 0000 0000 0000 0000 0000
000002c0: 0000 0000 0000 0000 0000 0000 0000 0000
000002d0: 0000 0000 0000 0000 0000 0000 0000 0000
000002e0: 0000 0000 0000 0000 0000 0000 0000 0000
000002f0: 0000 0000 0000 0000 0000 0000 0000 0000
00000300: 0000 0000 0000 0000 0000 0000 0000 0000
00000310: 0000 0000 0000 0000 0000 0000 0000 0000
00000320: 0000 0000 0000 0000 0000 0000 0000 0000
00000330: 0000 0000 0000 0000 0000 0000 0000 0000
00000340: 0000 0000 0000 0000 0000 0000 0000 0000
00000350: 0000 0000 0000 0000 0000 0000 0000 0000
00000360: 0000 0000 0000 0000 0000 0000 0000 0000
00000370: 0000 0000 0000 0000 0000 0000 0000 0000
00000380: 0000 0000 0000 0000 0000 0000 0000 0000
00000390: 0000 0000 0000 0000 0000 0000 0000 0000
000003a0: 0000 0000 0000 0000 0000 0000 0000 0000
000003b0: 0000 0000 0000 0000 0000 0000 0000 0000
000003c0: 0000 0000 0000 0000 0000 0000 0000 0000
000003d0: 0000 0000 0000 0000 0000 0000 0000 0000
000003e0: 0000 0000 0000 0000 0000 0000 0000 0000
000003f0: 0000 0000 0000 0000 0000 0000 0000 0000
0.0 0.0 0.0 0.0 0.0 0.0 0.0 0.0
0.0 0.0 0.0 0.0 0.0 0.0 0.0 0.0
0.0 0.0 0.0 0.0 0.0 0.0 0.0 0.0
0.0 0.0 0.0 0.0 0.0 0.0 0.0 0.0
0.0 0.0 0.0 0.0 0.0 0.0 0.0 0.0
0.0 0.0 0.0 0.0 0.0 0.0 0.0 0.0
0.0 0.0 0.0 0.0 0.0 0.0 0.0 0.0
0.0 0.0 0.0 0.0 0.0 0.0 0.0 0.0
0.0 0.0 0.0 0.0 0.0 0.0 0.0 0.0
0.0 0.0 0.0 0.0 0.0 0.0 0.0 0.0
0.0 0.0 0.0 0.0 0.0 0.0 0.0 0.0
0.0 0.0 0.0 0.0 0.0 0.0 0.0 0.0
0.0 0.0 0.0 0.0 0.0 0.0 0.0 0.0
0.0 0.0 0.0 0.0 0.0 0.0 0.0 0.0
0.0 0.0 0.0 0.0 0.0 0.0 0.0 0.0
0.0 0.0 0.0 0.0 0.0 0.0 0.0 0.0
0.0 0.0 0.0 0.0 0.0 0.0 0.0 0.0
0.0 0.0 0.0 0.0 0.0 0.0 0.0 0.0
0.0 0.0 0.0 0.0 0.0 0.0 0.0 0.0
0.0 0.0 0.0 0.0 0.0 0.0 0.0 0.0
0.0 0.0 0.0 0.0 0.0 0.0 0.0 0.0
0.0 0.0 0.0 0.0 0.0 0.0 0.0 0.0
0.0 0.0 0.0 0.0 0.0 0.0 0.0 0.0
0.0 0.0 0.0 0.0 0.0 0.0 0.0 0.0
0.0 0.0 0.0 0.0 0.0 0.0 0.0 0.0
0.0 0.0 0.0 0.0 0.0 0.0 0.0 0.0
0.0 0.0 0.0 0.0 0.0 0.0 0.0 0.0
0.0 0.0 0.0 0.0 0.0 0.0 0.0 0.0
0.0 0.0 0.0 0.0 0.0 0.0 0.0 0.0
0.0 0.0 0.0 0.0 0.0 0.0 0.0 0.0
0.0 0.0 0.0 0.0 0.0 0.0 0.0 0.0
0.0 0.0 0.0 0.0 0.0 0.0 0.0 0.0

network_body.linear_encoder.seq_layers.2.weight f4 [256, 256]
00000000: 3ec6 923d de80 b1bd dbd4 c4bc b8d1 bebd
00000010: aecc 25bd c807 c53d f5bd f63c 984d 4bbd
00000020: 075c ab3d 0029 7d3d 65f7 2bbd 81ce 773d
00000030: 1823 263d 0ac5 153c f6dd a23d f3f6 213d
00000040: fba4 483c 03d6 53bd fbc6 0a3d 1f33 063c
00000050: a582 2d3d 7483 9c3b a429 12ba cd65 983d
00000060: 38fd 18bd c953 663d 1a4d 28bd 8987 613c
00000070: 59f5 273e bd99 1abc 397d 2abd 0392 b23c
00000080: 8442 bb3c c594 94bc 0fef b5bd b3af b43a
00000090: fe55 9dbd 8fc9 1d3d 8c00 edbc c3fd a0bd
000000a0: 2d17 213d 7fd6 14bc 5146 503d ce75 103c
000000b0: 9618 d9bd a83a 28bd 1a71 e43a e291 873d
000000c0: cfe0 4cbc 7126 e1bd fcc6 303d 0ea4 5ebd
000000d0: fc8b 7abc e27e 63bc 5add 08bc 37ea 46bd
000000e0: ab4f 813d 842e e13c 5e7d 01bd 98e7 303d
000000f0: 63cb 543c 818b e9bc b5d8 2abc 5506 643c
00000100: c2db 05bd 8d96 793d eb0d 23bc 66e0 023b
00000110: dfcd efbc e6f0 653c f5ba a9bc dbba 8f3b
00000120: 72b4 febc 96cd 33bc 59ab 813d aa82 20bd
00000130: 5584 203d e2c2 37bc 2ef6 e1bd 703d 96bd
00000140: 04b5 b63c 0806 343c decb b43d 4a28 3d3d
00000150: 10f2 c83c 0ae8 973d 4569 d23c b3a4 2ebd
00000160: aa99 f139 a684 4d3d 4b23 823d dfa6 acbc
00000170: 195d 003e d7ee 5f3d 59a1 6bbd d6ae e4bc
00000180: 6570 a2bd d859 b6bc 25c3 3c3b 1f3e bc3c
00000190: eafd 983d 52b7 a13c 5fd2 85ba 56df 773d
000001a0: baf1 4fbd 5627 b63c 9199 d83c 8dc4 9d3d
000001b0: 4310 ebbc e667 8fbd 1df7 953d ea07 a43d
000001c0: 0ccd 163d 77f6 363c 8395 773c 0079 cabc
000001d0: 4e3d 95bd 9009 c9bd 9cf0 82bb 2ab1 debc
000001e0: 17d9 193d c400 afbd 56d9 b43d 6225 15bd
000001f0: 8ab7 4ebd 3e79 1e3d bf2e 973d 30ab 1e3c
00000200: 0439 2abd c09e 36bd 97ee aa3d ef65 e1bd
00000210: afa2 d0bc 3f60 47bd 7b56 283d bc8c b6bb
00000220: db65 debc 2d1f eb3c 1706 973d e7ad 2fbd
00000230: a3c2 ad3d 5e80 b8bc 07d9 ca3d 0221 d73b
00000240: 494b f2bb 9faa 81bc fa10 c63d e378 0e3d
00000250: 6610 bdbc 318c 3ebb 6276 d93c d69f 88bd
00000260: e443 2ebd a2c4 d5bd 7fe5 cc3c 5c6e 853c
00000270: b9c2 903c 87da 133d f61c 603d be6f b7bc
00000280: a252 f2bc c6f2 653d c59c ce3c 2c58 eabd
00000290: c644 e13a 83c8 c1bd 361c 613d 7888 87bd
000002a0: ef6b 80bd 9ef3 993c 3cfe 013d fb05 823d
000002b0: 577b 103d 7175 a53c c3b2 a03c 349c 853d
000002c0: 4f2b e6bd aaa1 413d a6b9 f4bc 8f0e 4ebd
000002d0: 2a94 8a3c d6e0 613d 1c64 f0bd 977e 5e3d
000002e0: 4489 a5bd 24f1 a4bd 27ed 88bc 5f5e 8ebc
000002f0: 5884 173d 673f 2fbc 8fc2 9fbd 61ac 71bd
00000300: 499f edbd b56e 733a 7ee3 253d 78d4 163d
00000310: 9e0c ebbc 501c 953a 8ba6 063d 3f98 8e3c
00000320: 1ce2 3cbd 73c1 40bd 1086 95bd 8f3f 753d
00000330: 48d7 f238 6077 093d 5252 88ba 153e 05bb
00000340: 8fe2 b13d 1353 e83c 068e 803d fe1c 173e
00000350: ba80 5ebd 2661 513d 13b2 7ebb bcdb c63d
00000360: a2d8 21bd 882e 4e39 b6a5 373d 4ce1 163e
00000370: d13b 88bd bbfb e1bd 81e0 11bc af07 2ebc
00000380: 22a4 0f3e d646 1abd e8eb 84bd 3b07 5f3d
00000390: 1bef 13bd aed1 c8bc 146f 473c d4c6 1a3d
000003a0: be2d cb3d d854 47bd 309f 15be 5ee7 aa3b
000003b0: 6dc9 1a3d dea2 3abc ba31 9abd ea61 1a3b
000003c0: c990 02bd fdb2 323d bf5a 2d3c daed 21bc
000003d0: 032a c03d c542 a5bb f9ef c0bd d91e 903d
000003e0: 2fd5 163d f7ac cb3d 83d2 f3bd 76cd 9a3d
000003f0: af94 553d e8f0 073e 7994 e93c 4d98 3abd
0.07166718 -0.086671576 -0.024027279 -0.093173444 -0.0404784 0.09620625 0.030119875 -0.049634546
0.08367162 0.06180668 -0.04198398 0.06049967 0.04056081 0.009141216 0.07952492 0.03954215
0.012246366 -0.05171777 0.03388117 0.008190899 0.04236092 0.0047764126 -0.0005575663 0.07441292
-0.037350863 0.056232248 -0.041089155 0.013765224 0.16402186 -0.009436068 -0.041623328 0.02179814
0.022858866 -0.018137345 -0.088834874 0.0013785273 -0.07682417 0.0385223 -0.028930925 -0.07860901
0.039328743 -0.009084343 0.05084831 0.008817149 -0.106003925 -0.041071564 0.0017428726 0.06619622
-0.01250477 -0.1099366 0.043158516 -0.054355673 -0.015292164 -0.013885232 -0.008353556 -0.04856321
0.063140236 0.027488 -0.0316137 0.043189615 0.012987944 -0.028508903 -0.010427644 0.013917525
-0.03268028 0.060934592 -0.009952049 0.0019970178 -0.029272972 0.014034485 -0.02071903 0.0043862886
-0.031091902 -0.0109743085 0.0633151 -0.03918711 0.0391887 -0.011215897 -0.11033283 -0.07335937
0.022303112 0.010987766 0.08827947 0.046181 0.024529487 0.07417305 0.025684962 -0.04263754
0.0004608159 0.05017533 0.06354388 -0.021075664 0.12535514 0.054671135 -0.05752692 -0.0279154
-0.07931594 -0.022259638 0.0028802839 0.02297884 0.07470305 0.019740734 -0.001020979 0.060515724
-0.050767638 0.022235554 0.026440414 0.07703505 -0.028694278 -0.07002239 0.07322524 0.08009322
0.03681664 0.01116716 0.01511133 -0.0247159 -0.072870836 -0.09816277 -0.003995968 -0.027184088
0.03756055 -0.08545068 0.08830516 -0.036412604 -0.050468005 0.038689844 0.07381963 0.009684369
-0.04155828 -0.04458499 0.08346289 -0.110057704 -0.025468199 -0.04867577 0.0410981 -0.005570976
-0.027148178 0.02870139 0.073742084 -0.042890456 0.0848439 -0.022522148 0.09904676 0.006565214
-0.0073942286 -0.015828429 0.09671207 0.034783255 -0.023079108 -0.002907526 0.026545707 -0.06671111
-0.042545214 -0.10437895 0.025011776 0.016287975 0.017670976 0.036097076 0.05471512 -0.02239215
-0.029580418 0.05613973 0.025221238 -0.11442599 0.0017186634 -0.09462073 0.054958545 -0.06617826
-0.06270587 0.018792924 0.031736597 0.06348797 0.035273876 0.020197602 0.01961649 0.06523934
-0.11238729 0.047273315 -0.02987368 -0.050306853 0.016916353 0.05514606 -0.11737844 0.054319944
-0.08082822 -0.080538064 -0.016714646 -0.017378984 0.036991447 -0.010696269 -0.07800781 -0.059002284
-0.11602647 0.0009286211 0.040500157 0.03682372 -0.02869254 0.0011376236 0.03287367 0.017406581
-0.046114072 -0.047059488 -0.07300961 0.059875067 0.000115795585 0.03356111 -0.001040051 -0.0020331193
0.08685791 0.028359925 0.06277089 0.14757153 -0.054321982 0.05111804 -0.0038863465 0.0970988
-0.039513238 0.00019663025 0.04483577 0.14734381 -0.06652034 -0.11034342 -0.008903624 -0.010621949
0.14027455 -0.03766521 -0.06490308 0.054450255 -0.0361167 -0.024514046 0.012172479 0.037787274
0.09920834 -0.048664898 -0.14611506 0.0052155694 0.03778975 -0.01139137 -0.07529016 0.0023556896
-0.03187636 0.043627728 0.010580718 -0.009883368 0.09383013 -0.00504336 -0.09420771 0.07037134
0.0368244 0.099451 -0.11905386 0.0755872 0.05214375 0.13275492 0.02851318 -0.0455554

network_body.vector_processors.0.normalizer.running_mean f4 [9]
00000000: 5fac a23f 4fed f93f 0000 0000 72bf fabe
00000010: 4fed f93f 0000 0000 201c eb3c 0000 0000
00000020: b173 6a3e
1.2708853 1.9525546 0.0 -0.48974186 1.9525546 0.0 0.028699934 0.0
0.22895695
