config/results/NewRun4/My Behavior/My Behavior-2491.pt (torch, 564663 bytes, 15 tensors)

network_body.vector_processors.0.normalizer.running_mean f4 [9]
0.5411017 1.9521661 0.0 -1.9984432 1.9521661 0.0 0.023675762 0.0
0.23194222
00000000: a485 0a3f 94e0 f93f 0000 0000 fdcc ffbf
00000010: 94e0 f93f 0000 0000 acf3 c13c 0000 0000
00000020: 4382 6d3e

network_body.vector_processors.0.normalizer.running_variance f4 [9]
3728.8896 4.8171096 1.0 1034.0701 4.8171096 1.0 58.60313 1.0
444.93738
00000000: 3c0e 6945 c325 9a40 0000 803f 3e42 8144
00000010: c325 9a40 0000 803f 9b69 6a42 0000 803f
00000020: fc77 de43

network_body.linear_encoder.seq_layers.0.weight f4 [256, 9]
0.4243223 -0.09424746 0.27212855 -0.44876546 0.40114674 0.5496458 0.04386949 0.10094934
-0.36236006 0.48010346 -0.49436876 -0.77304494 -0.47938403 -0.3324879 0.3385701 0.06331514
-0.28984517 -0.40078864 0.03353911 -0.56282806 -0.0073969886 -0.31418228 -0.36491418 -0.35080156
-0.3161273 0.031624146 0.4719442 -0.09671506 0.1673548 0.48598954 0.117922276 0.15652305
-0.085335605 -0.4517498 -0.22307661 -0.110191226 -0.23812333 -0.29920045 -0.016980108 -0.4857012
0.10331561 0.30142215 -0.1621373 -0.08719003 0.26621878 0.23234867 -0.03682147 0.03729087
-0.14705598 -0.08242257 -0.0895805 -0.06941818 -0.34834206 -0.0750117 0.36564642 0.296328
-0.86346006 -0.1170653 0.119631946 0.22133414 -0.027072884 0.27794495 -0.3603663 -0.17715631
0.16305038 0.28241485 0.17870592 0.06343238 0.11231434 0.16779199 -0.67177933 -0.101329
-0.082759894 0.12746304 -0.35566735 0.047176845 -0.25116765 0.012641668 -0.12372583 0.3477072
0.6171416 0.6188936 -0.76626086 0.050402865 0.30589738 -0.3614428 -0.5503799 -0.31423408
-0.03977819 0.34010538 -0.3702441 0.39121374 -0.09883985 -0.27309483 0.07448825 0.58278215
-0.1581355 0.29959768 -0.5207727 -0.30659282 0.017976513 0.43144593 0.25548947 -0.078531705
-0.132844 0.46825248 0.055422373 0.49778017 0.6021956 0.43842253 -0.17549747 -0.17239964
0.38252783 0.25933325 0.8120588 0.7624749 -0.21541655 -0.0437846 -0.51295894 -0.17199844
0.11496921 0.19637 -0.039956383 0.5269754 -0.42426512 -0.21155062 0.18670212 0.13223422
-0.41901392 -0.09571515 -0.5516151 0.26174405 0.29624808 0.041305643 -0.01598786 -0.09739396
-0.48239392 -0.14962871 0.2991715 -0.186214 -0.11770138 -0.32080945 -0.27409938 0.018788185
-0.54142046 -0.022814995 0.21798661 0.10421336 0.32951236 -0.34767377 0.12800223 -0.0067155673
-0.11082961 -0.15954795 -0.33449572 0.267555 0.10119671 0.22582929 -0.89300156 -0.21504574
-0.5324951 0.01350766 0.33415848 -0.47908157 -0.21702026 -0.23626696 -0.016114846 0.51852304
0.32457557 0.24821141 -0.22505896 -0.0109455045 -0.034953043 0.14823443 -0.44887695 0.13794924
0.3425917 -0.09937352 0.13503717 -0.38120314 0.22308151 -0.3879124 -0.15004721 -0.06328416
-0.37377876 -0.32290894 -0.3242131 0.07528115 -0.17030188 0.3948269 -0.014041042 0.12408261
0.32471 0.17229354 0.5983993 -0.49299094 0.69798744 -0.2547031 -0.45509753 -0.13868232
0.21049355 0.15112017 0.053522155 -0.17860869 -0.42602238 -0.13850883 0.09439515 -0.48605484
-0.04042165 -0.14950337 -0.5612885 -0.22415929 -0.20050779 -0.083074845 -0.104518704 -0.24879813
-0.18092524 -0.58631563 0.094530985 -0.056390654 0.5136204 -0.56304896 -0.17144303 0.07623835
0.10149114 0.41154572 -0.19067565 -0.7026443 -0.7287818 -0.1217456 0.26066533 -0.39258504
-0.14787841 -0.52068543 0.6553729 0.056214698 0.32396665 0.6104098 -0.37767625 -0.13528216
-0.16085468 -0.07692266 -0.21687219 -0.2371403 0.209281 0.2079649 -0.2688937 0.19873431
-0.015023276 0.108967796 -0.1047964 0.22596161 -0.1775307 0.083787516 0.14142585 0.16721758
00000000: c640 d93e d004 c1bd 6f54 8b3e 96c4 e5be
00000010: 1b63 cd3e 96b5 0c3f 7fb0 333d 87be ce3d
00000020: 4287 b9be 1fd0 f53e e71d fdbe 46e6 45bf
00000030: d371 f5be db3b aabe 0f59 ad3e 5eab 813d
00000040: 9666 94be 2b34 cdbe 4e60 093d 8015 10bf
00000050: 7062 f2bb 80dc a0be 08d6 babe 439c b3be
00000060: 70db a1be 5288 013d aca2 f13e 8c12 c6bd
00000070: 0f5f 2b3e 9fd3 f83e 3c81 f13d 9447 203e
00000080: 6fc4 aebd c04b e7be 326e 64be f0ab e1bd
00000090: 9ad6 73be cd30 99be de19 8bbc d4ad f8be
000000a0: 2297 d33d 0154 9a3e 5207 26be b090 b2bd
000000b0: d44d 883e cfec 6d3e 1cd2 16bd 50be 183d
000000c0: d895 16be 2acd a8bd fb75 b7bd 1e2b 8ebd
000000d0: e459 b2be bc9f 99bd 0236 bb3e 4eb8 973e
000000e0: b80b 5dbf efbf efbd 9801 f53d 6ba5 623e
000000f0: f4c7 ddbc cd4e 8e3e ef81 b8be 7768 35be
00000100: aef6 263e ae98 903e affe 363e d6e8 813d
00000110: 1005 e63d aad1 2b3e bbf9 2bbf 9485 cfbd
00000120: 057e a9bd ac85 023e 081a b6be 823c 413d
00000130: 0c99 80be 001f 4f3c f863 fdbd ae06 b23e
00000140: fefc 1d3f d06f 1e3f ac29 44bf 3c73 4e3d
00000150: 959e 9c3e 080f b9be b2e5 0cbf 4ae3 a0be
00000160: 75ee 22bd 4b22 ae3e a290 bdbe 2b4d c83e
00000170: 8c6c cabd 16d3 8bbe 4c8d 983d 3631 153f
00000180: 46ee 21be de64 993e 5c51 05bf bcf9 9cbe
00000190: 7b43 933c 7be6 dc3e 84cf 823e 3bd5 a0bd
000001a0: 4208 08be cabe ef3e 9202 633d 0bdd fe3e
000001b0: 7e29 1a3f eb78 e03e 9cb5 33be 8889 30be
000001c0: b0da c33e 54c7 843e 16e3 4f3f 8e31 433f
000001d0: 2896 5cbe 7b57 33bd 4751 03bf 5c20 30be
000001e0: fa74 eb3d 3815 493e 4ea9 23bd dce7 063f
000001f0: 4739 d9be baa0 58be d72e 3f3e 6868 073e
00000200: fe88 d6be 4e06 c4bd a636 0dbf 5103 863e
00000210: d4ad 973e 1b30 293d f9f8 82bc 7c76 c7bd
00000220: 56fc f6be 4538 19be 022d 993e e2ae 3ebe
00000230: 6c0d f1bd 2341 a4be c156 8cbe aee9 993c
00000240: 889a 0abf 83e6 babc e237 5f3e d06d d53d
00000250: d8b5 a83e 4c02 b2be 0413 033e 430e dcbb
00000260: a2fa e2bd 8a60 23be 0643 abbe f8fc 883e
00000270: 3840 cf3d cb3f 673e c09b 64bf f334 5cbe
00000280: 9951 08bf 3b4f 5d3c d216 ab3e 2e4a f5be
00000290: 8f3a 5ebe f7ef 71be 4803 84bc edbd 043f
000002a0: c52e a63e 222b 7e3e db75 66be c654 33bc
000002b0: ec2a 0fbd c4ca 173e 33d3 e5be 9142 0d3e
000002c0: 2e68 af3e 5884 cbbd 2f47 0a3e 0f2d c3be
000002d0: 7b6f 643e 749c c6be faa5 19be 209b 81bd
000002e0: ee5f bfbe 5254 a5be 42ff a5be 012d 9a3d
000002f0: 9e63 2ebe c026 ca3e 660c 66bc 061f fe3d
00000300: 6440 a63e b86d 303e b230 193f 4f69 fcbe
00000310: 4eaf 323f 7268 82be 8b02 e9be bd02 0ebe
00000320: 9f8b 573e 3fbf 1a3e 0c3a 5b3d 32e5 36be
00000330: 9b1f dabe 42d5 0dbe 3f52 c13d 2edc f8be
00000340: 2c91 25bd 6917 19be 9ab0 0fbf 038a 65be
00000350: ea51 4dbe 2523 aabd e70d d6bd f0c4 7ebe
00000360: 7744 39be c818 16bf 7699 c13d e3f9 66bd
00000370: a07c 033f fa23 10bf c38e 2fbe da22 9c3d
00000380: 96da cf3d 1fb6 d23e 7a40 43be 7fe0 33bf
00000390: 7291 3abf c255 f9bd ed75 853e e800 c9be
000003a0: 706d 17be a44b 05bf 85c6 273f 6241 663d
000003b0: f5de a53e d143 1c3f c85e c1be 6887 0abe
000003c0: 17b7 24be a189 9dbd be13 5ebe e8d4 72be
000003d0: c24d 563e c0f4 543e 6fac 89be 0281 4b3e
000003e0: 3024 76bc 822a df3d 7f9f d6bd 7b62 673e
000003f0: 9cca 35be ca98 ab3d f0d1 103e 163b 2b3e

network_body.linear_encoder.seq_layers.0.bias f4 [256]
0.0 0.0 0.0 0.0 0.0 0.0 0.0 0.0
0.0 0.0 0.0 0.0 0.0 0.0 0.0 0.0
0.0 0.0 0.0 0.0 0.0 0.0 0.0 0.0
0.0 0.0 0.0 0.0 0.0 0.0 0.0 0.0
0.0 0.0 0.0 0.0 0.0 0.0 0.0 0.0
0.0 0.0 0.0 0.0 0.0 0.0 0.0 0.0
0.0 0.0 0.0 0.0 0.0 0.0 0.0 0.0
0.0 0.0 0.0 0.0 0.0 0.0 0.0 0.0
0.0 0.0 0.0 0.0 0.0 0.0 0.0 0.0
0.0 0.0 0.0 0.0 0.0 0.0 0.0 0.0
0.0 0.0 0.0 0.0 0.0 0.0 0.0 0.0
0.0 0.0 0.0 0.0 0.0 0.0 0.0 0.0
0.0 0.0 0.0 0.0 0.0 0.0 0.0 0.0
0.0 0.0 0.0 0.0 0.0 0.0 0.0 0.0
0.0 0.0 0.0 0.0 0.0 0.0 0.0 0.0
0.0 0.0 0.0 0.0 0.0 0.0 0.0 0.0
0.0 0.0 0.0 0.0 0.0 0.0 0.0 0.0
0.0 0.0 0.0 0.0 0.0 0.0 0.0 0.0
0.0 0.0 0.0 0.0 0.0 0.0 0.0 0.0
0.0 0.0 0.0 0.0 0.0 0.0 0.0 0.0
0.0 0.0 0.0 0.0 0.0 0.0 0.0 0.0
0.0 0.0 0.0 0.0 0.0 0.0 0.0 0.0
0.0 0.0 0.0 0.0 0.0 0.0 0.0 0.0
0.0 0.0 0.0 0.0 0.0 0.0 0.0 0.0
0.0 0.0 0.0 0.0 0.0 0.0 0.0 0.0
0.0 0.0 0.0 0.0 0.0 0.0 0.0 0.0
0.0 0.0 0.0 0.0 0.0 0.0 0.0 0.0
0.0 0.0 0.0 0.0 0.0 0.0 0.0 0.0
0.0 0.0 0.0 0.0 0.0 0.0 0.0 0.0
0.0 0.0 0.0 0.0 0.0 0.0 0.0 0.0
0.0 0.0 0.0 0.0 0.0 0.0 0.0 0.0
0.0 0.0 0.0 0.0 0.0 0.0 0.0 0.0
00000000: 0000 0000 0000 0000 0000 0000 0000 0000
00000010: 0000 0000 0000 0000 0000 0000 0000 0000
00000020: 0000 0000 0000 0000 0000 0000 0000 0000
00000030: 0000 0000 0000 0000 0000 0000 0000 0000
00000040: 0000 0000 0000 0000 0000 0000 0000 0000
00000050: 0000 0000 0000 0000 0000 0000 0000 0000
00000060: 0000 0000 0000 0000 0000 0000 0000 0000
00000070: 0000 0000 0000 0000 0000 0000 0000 0000
00000080: 0000 0000 0000 0000 0000 0000 0000 0000
00000090: 0000 0000 0000 0000 0000 0000 0000 0000
000000a0: 0000 0000 0000 0000 0000 0000 0000 0000
000000b0: 0000 0000 0000 0000 0000 0000 0000 0000
000000c0: 0000 0000 0000 0000 0000 0000 0000 0000
000000d0: 0000 0000 0000 0000 0000 0000 0000 0000
000000e0: 0000 0000 0000 0000 0000 0000 0000 0000
000000f0: 0000 0000 0000 0000 0000 0000 0000 0000
00000100: 0000 0000 0000 0000 0000 0000 0000 0000
00000110: 0000 0000 0000 0000 0000 0000 0000 0000
00000120: 0000 0000 0000 0000 0000 0000 0000 0000
00000130: 0000 0000 0000 0000 0000 0000 0000 0000
00000140: 0000 0000 0000 0000 0000 0000 0000 0000
00000150: 0000 0000 0000 0000 0000 0000 0000 0000
00000160: 0000 0000 0000 0000 0000 0000 0000 0000
00000170: 0000 0000 0000 0000 0000 0000 0000 0000
00000180: 0000 0000 0000 0000 0000 0000 0000 0000
00000190: 0000 0000 0000 0000 0000 0000 0000 0000
000001a0: 0000 0000 0000 0000 0000 0000 0000 0000
000001b0: 0000 0000 0000 0000 0000 0000 0000 0000
000001c0: 0000 0000 0000 0000 0000 0000 0000 0000
000001d0: 0000 0000 0000 0000 0000 0000 0000 0000
000001e0: 0000 0000 0000 0000 0000 0000 0000 0000
000001f0: 0000 0000 0000 0000 0000 0000 0000 0000
00000200: 0000 0000 0000 0000 0000 0000 0000 0000
00000210: 0000 0000 0000 0000 0000 0000 0000 0000
00000220: 0000 0000 0000 0000 0000 0000 0000 0000
00000230: 0000 0000 0000 0000 0000 0000 0000 0000
00000240: 0000 0000 0000 0000 0000 0000 0000 0000
00000250: 0000 0000 0000 0000 0000 0000 0000 0000
00000260: 0000 0000 0000 0000 0000 0000 0000 0000
00000270: 0000 0000 0000 0000 0000 0000 0000 0000
00000280: 0000 0000 0000 0000 0000 0000 0000 0000
00000290: 0000 0000 0000 0000 0000 0000 0000 0000
000002a0: 0000 0000 0000 0000 0000 0000 0000 0000
000002b0: 0000 0000 0000 0000 0000 0000 0000 0000
000002c0: 0000 0000 0000 0000 0000 0000 0000 0000
000002d0: 0000 0000 0000 0000 0000 0000 0000 0000
000002e0: 0000 0000 0000 0000 0000 0000 0000 0000
000002f0: 0000 0000 0000 0000 0000 0000 0000 0000
00000300: 0000 0000 0000 0000 0000 0000 0000 0000
00000310: 0000 0000 0000 0000 0000 0000 0000 0000
00000320: 0000 0000 0000 0000 0000 0000 0000 0000
00000330: 0000 0000 0000 0000 0000 0000 0000 0000
00000340: 0000 0000 0000 0000 0000 0000 0000 0000
00000350: 0000 0000 0000 0000 0000 0000 0000 0000
00000360: 0000 0000 0000 0000 0000 0000 0000 0000
00000370: 0000 0000 0000 0000 0000 0000 0000 0000
00000380: 0000 0000 0000 0000 0000 0000 0000 0000
00000390: 0000 0000 0000 0000 0000 0000 0000 0000
000003a0: 0000 0000 0000 0000 0000 0000 0000 0000
000003b0: 0000 0000 0000 0000 0000 0000 0000 0000
000003c0: 0000 0000 0000 0000 0000 0000 0000 0000
000003d0: 0000 0000 0000 0000 0000 0000 0000 0000
000003e0: 0000 0000 0000 0000 0000 0000 0000 0000
000003f0: 0000 0000 0000 0000 0000 0000 0000 0000

network_body.linear_encoder.seq_layers.2.weight f4 [256, 256]
0.11623364 0.06616874 -0.009042335 0.040334154 0.08545567 0.014941227 0.033221338 -0.08155551
0.050361756 -0.03850633 0.018632755 0.021613574 0.01647145 0.042435568 0.03977419 -0.01375725
0.015543444 0.08686532 0.022819912 -0.055186804 0.12855576 -0.019471046 0.15238418 -0.08129667
0.006205395 0.025752222 0.026702875 0.07232259 0.027624128 -0.119635805 0.044942126 0.009619203
0.03704147 -0.06376721 -0.05632032 -0.054530684 -0.061674673 -0.024022589 0.004189397 0.030726494
-0.064264394 0.09128435 0.04144851 -0.010915512 -0.02728466 -0.027618377 0.003489076 -0.007202808
0.024934 -0.035279963 -0.020420773 -0.013843011 -0.020690102 0.006939582 0.012930132 0.07672562
0.0049250666 -0.12037402 -0.03105313 -0.09725394 -0.13381164 -0.06670028 0.023083787 0.05067896
-0.07950621 -0.056978025 -0.00038550157 -0.122226626 0.039141983 0.07298566 -0.060939178 0.051147416
-0.061666746 0.14660016 -0.030539539 -0.110905714 -0.009041664 0.03982515 0.004714776 0.06153686
-0.06366311 0.020931058 0.042180635 -0.05883106 -0.04929899 -0.02332068 0.0034507022 -0.015245089
-0.06671913 -0.003864544 -0.018160949 -0.030920144 -0.024947204 -0.080984876 0.07381835 0.042972397
-0.081658565 0.01571057 -0.08070622 0.018759187 -0.049264304 0.052981086 0.06273028 -0.093840465
-0.011819315 0.067762114 -0.081066586 -0.05774275 0.0005687572 -0.008817694 -0.03522901 -0.046690643
0.1403058 -0.07051115 -0.027672637 0.0074280165 0.054905135 -0.0774876 -0.1266153 0.07434244
0.016233495 0.030182658 -0.111172415 0.0806033 -0.02061465 -0.07716331 0.06347743 0.071039006
-0.027059527 -0.085917085 0.027067581 -0.0070160036 0.036199503 -0.03581442 0.0064993375 0.030169064
0.03876629 -0.055192735 -0.11640863 -0.042569827 0.00035685409 0.036886103 -0.059717074 0.09511236
0.06274064 0.010381183 -0.0949495 -0.019742101 0.048922755 -0.102518365 0.07794352 -0.10060887
-0.018640477 0.036821164 -0.0796506 0.010768421 -0.102401376 -0.035032213 0.039672375 0.16059265
-0.098064676 0.021587271 0.03987567 -0.04268084 0.033228934 -0.013495161 -0.025885226 0.017382657
0.040084332 -0.025531601 -0.021427697 -0.10870669 0.022380522 -0.032675143 -0.06600926 0.055854596
-0.03043507 -0.06772551 -0.032217506 0.024036506 0.03789647 0.0563132 0.027185887 0.0395627
-0.08159514 -0.03705511 -0.077633105 -0.009673549 0.03630792 0.0708759 0.04698528 -0.04193399
-0.031887855 0.012317717 -0.069981724 -0.020524593 0.03428811 0.07188368 -0.06291393 0.04640766
-0.11151047 -0.08308428 0.09413072 -0.02015954 -0.010404102 -0.001953178 -0.025204107 0.02428881
-0.084316514 0.040761247 0.10234562 -0.05483418 -0.00736344 -0.06402872 -0.0064473925 0.009450123
-0.002890425 0.11778071 -0.06557757 -0.08440856 -0.056691978 -0.0072719674 0.0043950765 0.10643896
0.020334784 -0.021340583 -7.513217e-05 -0.049436986 -0.06827682 -0.0937582 -0.056297462 -0.04603319
-0.09802785 0.023306029 0.044053074 0.08797542 0.009970677 0.06668841 0.07623492 -0.056146648
-0.009803957 0.015764374 -0.093931995 -0.04576987 0.08782438 -0.12603933 0.17082119 0.027098827
0.025575602 -0.023582358 0.10316742 0.038477037 -0.11668593 0.04705312 0.09614137 -0.0026382385
00000000: e70b ee3d 7a83 873d 4d26 14bc 6d35 253d
00000010: 6203 af3d 0ccc 743c 1913 083d 9306 a7bd
00000020: 2148 4e3d d0b8 1dbd b8a3 983c f30e b13c
00000030: 22ef 863c ebd0 2d3d 43ea 223d 1766 61bc
00000040: eea9 7e3c 72e6 b13d d3f0 ba3c 8f0b 62bd
00000050: 1fa4 033e be81 9fbc 990a 1c3e de7e a6bd
00000060: a056 cb3b 53f6 d23c fdbf da3c de1d 943d
00000070: ff4b e23c 9e03 f5bd 3c15 383d dd99 1d3c
00000080: ccb8 173d 6298 82bd 23b0 66bd 915b 5fbd
00000090: 959e 7cbd 05cb c4bc 3647 893b 21b6 fb3c
000000a0: 0d9d 83bd 4af3 ba3d eac5 293d fad6 32bc
000000b0: 1484 dfbc ef3f e2bc fba8 643b 8805 ecbb
000000c0: 6342 cc3c b981 10bd 7749 a7bc cccd 62bc
000000d0: 4a7e a9bc 6f65 e33b e8d8 533c 5222 9d3d
000000e0: 7462 a13b a786 f6bd 2263 febc 132d c7bd
000000f0: eb05 09be 289a 88bd 361a bd3c be94 4f3d
00000100: 27d4 a2bd ca61 69bd 251d cab9 f451 fabd
00000110: 5853 203d 8179 953d 5c9b 79bd f47f 513d
00000120: 4596 7cbd 5a1e 163e 0e2e fabc 8922 e3bd
00000130: 7d23 14bc b21f 233d 687e 9a3b 130e 7c3d
00000140: ce61 82bd 9c77 ab3c 9ac5 2c3d d6f8 70bd
00000150: bded 49bd 030b bfbc 2d25 623b 8ac6 79bc
00000160: 0aa4 88bd 4a44 7dbb 45c6 94bc 3e4c fdbc
00000170: 145e ccbc 66db a5bd 132e 973d d303 303d
00000180: 9b3c a7bd 74b3 803c 4d49 a5bd deac 993c
00000190: 5ec9 49bd b202 593d bc78 803d 6e2f c0bd
000001a0: cda5 41bc ddc6 8a3d 3d06 a6bd a983 6cbd
000001b0: a618 153a 1778 10bc 4b4c 10bd b03e 3fbd
000001c0: 53ac 0f3e 2668 90bd bab1 e2bc b866 f33b
000001d0: 35e4 603d d2b1 9ebd 71a7 01be d940 983d
000001e0: 1bfc 843c 9f41 f73c 5dae e3bd 5813 a53d
000001f0: 0ee0 a8bc cc07 9ebd 7400 823d e67c 913d
00000200: f1ab ddbc 4cf5 afbd d5bc dd3c 81e6 e5bb
00000210: ee45 143d 24b2 12bd 65f8 d43b 1d25 f73c
00000220: 67c9 1e3d c711 62bd a667 eebd b35d 2ebd
00000230: 2518 bb39 e215 173d e499 74bd 45ca c23d
00000240: 2a7e 803d d615 2a3c e274 c2bd 30ba a1bc
00000250: 3a63 483d 26f5 d1bd daa0 9f3d 060c cebd
00000260: eab3 98bc cad1 163d db1f a3bd 086e 303c
00000270: d0b7 d1bd f07d 0fbd 807f 223d 6672 243e
00000280: 22d6 c8bd cad7 b03c ac54 233d 1bd2 2ebd
00000290: 101b 083d cf1a 5dbc 410d d4bc 1366 8e3c
000002a0: 782f 243d a627 d1bc 2389 afbc 9da1 debd
000002b0: 5b57 b73c 5fd6 05bd dd2f 87bd cac7 643d
000002c0: f852 f9bc acb3 8abd 81f6 03bd 35e8 c43c
000002d0: 5439 1b3d aca8 663d f0b4 de3c 7f0c 223d
000002e0: 5a1b a7bd 19c7 17bd 1bfe 9ebd ce7d 1ebc
000002f0: 9db7 143d 6227 913d a373 403d fac2 2bbd
00000300: d79c 02bd 40d0 493c 9452 8fbd 3123 a8bc
00000310: b071 0c3d c037 933d 05d9 80bd f515 3e3d
00000320: 9a5f e4bd 1728 aabd 9bc7 c03d 9f25 a5bc
00000330: f775 2abc e400 00bb d878 cebc 54f9 c63c
00000340: 23ae acbd 44f5 263d 959a d13d ce99 60bd
00000350: 0349 f1bb 7d21 83bd a644 d3bb b0d4 1a3c
00000360: 496d 3dbb 0337 f13d 884d 86bd 65de acbd
00000370: d935 68bd af49 eebb 9304 903b abfc d93d
00000380: 2295 a63c 72d2 aebc 4790 9db8 707e 4abd
00000390: b8d4 8bbd 4d04 c0bd 2b98 66bd 4c8d 3cbd
000003a0: d3c2 c8bd 49ec be3c ff70 343d 752c b43d
000003b0: 0d5c 233c ef93 883d 0e21 9c3d 07fa 65bd
000003c0: c7a0 20bc 4a24 813c 6b5f c0bd 3079 3bbd
000003d0: 45dd b33d 7410 01be c0eb 2e3e 5cfe dd3c
000003e0: ed83 d13c ca2f c1bc 7149 d33d 199a 1d3d
000003f0: 08f9 eebd c6ba 403d c4e5 c43d 4ce6 2cbb

network_body.linear_encoder.seq_layers.2.bias f4 [256]
0.0 0.0 0.0 0.0 0.0 0.0 0.0 0.0
0.0 0.0 0.0 0.0 0.0 0.0 0.0 0.0
0.0 0.0 0.0 0.0 0.0 0.0 0.0 0.0
0.0 0.0 0.0 0.0 0.0 0.0 0.0 0.0
0.0 0.0 0.0 0.0 0.0 0.0 0.0 0.0
0.0 0.0 0.0 0.0 0.0 0.0 0.0 0.0
0.0 0.0 0.0 0.0 0.0 0.0 0.0 0.0
0.0 0.0 0.0 0.0 0.0 0.0 0.0 0.0
0.0 0.0 0.0 0.0 0.0 0.0 0.0 0.0
0.0 0.0 0.0 0.0 0.0 0.0 0.0 0.0
0.0 0.0 0.0 0.0 0.0 0.0 0.0 0.0
0.0 0.0 0.0 0.0 0.0 0.0 0.0 0.0
0.0 0.0 0.0 0.0 0.0 0.0 0.0 0.0
0.0 0.0 0.0 0.0 0.0 0.0 0.0 0.0
0.0 0.0 0.0 0.0 0.0 0.0 0.0 0.0
0.0 0.0 0.0 0.0 0.0 0.0 0.0 0.0
0.0 0.0 0.0 0.0 0.0 0.0 0.0 0.0
0.0 0.0 0.0 0.0 0.0 0.0 0.0 0.0
0.0 0.0 0.0 0.0 0.0 0.0 0.0 0.0
0.0 0.0 0.0 0.0 0.0 0.0 0.0 0.0
0.0 0.0 0.0 0.0 0.0 0.0 0.0 0.0
0.0 0.0 0.0 0.0 0.0 0.0 0.0 0.0
0.0 0.0 0.0 0.0 0.0 0.0 0.0 0.0
0.0 0.0 0.0 0.0 0.0 0.0 0.0 0.0
0.0 0.0 0.0 0.0 0.0 0.0 0.0 0.0
0.0 0.0 0.0 0.0 0.0 0.0 0.0 0.0
0.0 0.0 0.0 0.0 0.0 0.0 0.0 0.0
0.0 0.0 0.0 0.0 0.0 0.0 0.0 0.0
0.0 0.0 0.0 0.0 0.0 0.0 0.0 0.0
0.0 0.0 0.0 0.0 0.0 0.0 0.0 0.0
0.0 0.0 0.0 0.0 0.0 0.0 0.0 0.0
0.0 0.0 0.0 0.0 0.0 0.0 0.0 0.0
00000000: 0000 0000 0000 0000 0000 0000 0000 0000
00000010: 0000 0000 0000 0000 0000 0000 0000 0000
00000020: 0000 0000 0000 0000 0000 0000 0000 0000
00000030: 0000 0000 0000 0000 0000 0000 0000 0000
00000040: 0000 0000 0000 0000 0000 0000 0000 0000
00000050: 0000 0000 0000 0000 0000 0000 0000 0000
00000060: 0000 0000 0000 0000 0000 0000 0000 0000
00000070: 0000 0000 0000 0000 0000 0000 0000 0000
00000080: 0000 0000 0000 0000 0000 0000 0000 0000
00000090: 0000 0000 0000 0000 0000 0000 0000 0000
000000a0: 0000 0000 0000 0000 0000 0000 0000 0000
000000b0: 0000 0000 0000 0000 0000 0000 0000 0000
000000c0: 0000 0000 0000 0000 0000 0000 0000 0000
000000d0: 0000 0000 0000 0000 0000 0000 0000 0000
000000e0: 0000 0000 0000 0000 0000 0000 0000 0000
000000f0: 0000 0000 0000 0000 0000 0000 0000 0000
00000100: 0000 0000 0000 0000 0000 0000 0000 0000
00000110: 0000 0000 0000 0000 0000 0000 0000 0000
00000120: 0000 0000 0000 0000 0000 0000 0000 0000
00000130: 0000 0000 0000 0000 0000 0000 0000 0000
00000140: 0000 0000 0000 0000 0000 0000 0000 0000
00000150: 0000 0000 0000 0000 0000 0000 0000 0000
00000160: 0000 0000 0000 0000 0000 0000 0000 0000
00000170: 0000 0000 0000 0000 0000 0000 0000 0000
00000180: 0000 0000 0000 0000 0000 0000 0000 0000
00000190: 0000 0000 0000 0000 0000 0000 0000 0000
000001a0: 0000 0000 0000 0000 0000 0000 0000 0000
000001b0: 0000 0000 0000 0000 0000 0000 0000 0000
000001c0: 0000 0000 0000 0000 0000 0000 0000 0000
000001d0: 0000 0000 0000 0000 0000 0000 0000 0000
000001e0: 0000 0000 0000 0000 0000 0000 0000 0000
000001f0: 0000 0000 0000 0000 0000 0000 0000 0000
00000200: 0000 0000 0000 0000 0000 0000 0000 0000
00000210: 0000 0000 0000 0000 0000 0000 0000 0000
00000220: 0000 0000 0000 0000 0000 0000 0000 0000
00000230: 0000 0000 0000 0000 0000 0000 0000 0000
00000240: 0000 0000 0000 0000 0000 0000 0000 0000
00000250: 0000 0000 0000 0000 0000 0000 0000 0000
00000260: 0000 0000 0000 0000 0000 0000 0000 0000
00000270: 0000 0000 0000 0000 0000 0000 0000 0000
00000280: 0000 0000 0000 0000 0000 0000 0000 0000
00000290: 0000 0000 0000 0000 0000 0000 0000 0000
000002a0: 0000 0000 0000 0000 0000 0000 0000 0000
000002b0: 0000 0000 0000 0000 0000 0000 0000 0000
000002c0: 0000 0000 0000 0000 0000 0000 0000 0000
000002d0: 0000 0000 0000 0000 0000 0000 0000 0000
000002e0: 0000 0000 0000 0000 0000 0000 0000 0000
000002f0: 0000 0000 0000 0000 0000 0000 0000 0000
00000300: 0000 0000 0000 0000 0000 0000 0000 0000
00000310: 0000 0000 0000 0000 0000 0000 0000 0000
00000320: 0000 0000 0000 0000 0000 0000 0000 0000
00000330: 0000 0000 0000 0000 0000 0000 0000 0000
00000340: 0000 0000 0000 0000 0000 0000 0000 0000
00000350: 0000 0000 0000 0000 0000 0000 0000 0000
00000360: 0000 0000 0000 0000 0000 0000 0000 0000
00000370: 0000 0000 0000 0000 0000 0000 0000 0000
00000380: 0000 0000 0000 0000 0000 0000 0000 0000
00000390: 0000 0000 0000 0000 0000 0000 0000 0000
000003a0: 0000 0000 0000 0000 0000 0000 0000 0000
000003b0: 0000 0000 0000 0000 0000 0000 0000 0000
000003c0: 0000 0000 0000 0000 0000 0000 0000 0000
000003d0: 0000 0000 0000 0000 0000 0000 0000 0000
000003e0: 0000 0000 0000 0000 0000 0000 0000 0000
000003f0: 0000 0000 0000 0000 0000 0000 0000 0000

action_model._discrete_distribution.branches.0.weight f4 [6, 256]
-0.007815897 0.0108840745 0.004677481 0.0057796217 0.008165728 0.010703131 -0.0072593535 -0.006906496
0.0060682637 -0.002054851 0.0078365095 -0.0015897086 0.0013085316 0.00516991 -0.0015073189 0.002896077
0.0006044032 -0.009265415 -0.010723213 0.0073203496 -0.008326888 -0.009015757 -0.0002674154 -0.008800301
0.009683351 0.003439062 -0.008816553 0.0070197135 0.001367263 -0.00714723 0.0056125033 -0.0049864766
-0.004045525 -0.0097744465 0.00565166 0.016258372 -0.010953351 -0.006852973 0.005857101 0.0047164825
0.001411692 0.0055384575 0.005346683 0.004365429 0.0049669733 -0.0012258646 0.010747571 -0.00054467504
-0.004974091 0.001503554 0.0024679552 -0.004395615 0.008580803 -0.001927772 -0.00026337523 -0.010686013
0.0022799682 0.0017898086 0.0033823873 -0.0054921475 -0.007453999 -1.8827363e-05 -0.0006355405 -0.007285699
0.0029073358 0.011802799 -0.0033180825 -0.008994353 0.01295012 -0.0040187947 -0.00017460939 -0.004621604
0.01122024 0.0024224983 -0.006108697 -0.0018980306 0.003004261 -0.012203877 0.010778788 0.0027124886
-0.011318038 -0.002084891 0.0040402296 0.004580853 -0.009104697 0.012665144 -0.008558131 -0.001515879
-0.0019270327 0.00063671666 -0.0035368756 0.007902817 0.00854787 0.00075084413 -0.008757803 -0.0024358572
-0.0025402175 -0.0057987194 -0.002303722 -0.0039379634 -0.0035874117 0.005539769 0.0019223919 0.0038190165
-0.0018058924 0.0020308557 -0.010261647 0.00943751 0.008330566 -0.0018074906 0.008933035 0.016703939
-0.002672739 -0.0070004608 0.008344514 0.0053115613 -0.0049764733 0.0021560737 -0.002505355 0.0027056865
0.0028931666 0.0016178311 0.0023422302 -0.0035628423 -0.0047584455 -0.0010656284 0.0022685628 -0.0014336252
0.015304155 -0.005048082 0.0009520095 -0.00051597203 -0.004219009 -0.0026289038 0.0076673734 0.0023875718
-0.0044941003 0.0031835071 -0.011539747 -0.0041560126 -0.0036163204 -0.00011405697 -0.00021624115 -0.0030948075
0.0006243934 0.0039998796 0.0020211954 -0.0059330366 0.0070747556 -0.006156158 0.0030966082 -0.0040195244
-0.006827482 -0.00030952328 0.001645769 0.002383595 0.0012331873 -0.0070922235 0.00043008337 -0.003076732
-0.0026516165 -0.0045901127 -0.0016329525 -0.0001023852 -0.0069547333 0.0026608387 0.0028339266 -0.009936585
-0.0046829972 0.0065045664 -0.000108944674 -0.0029292672 -0.0005157132 -0.0076174 -0.007255902 0.01386222
-0.0056239227 0.0026176015 0.00744909 0.0029542993 0.003120932 0.00079552876 0.007702376 -0.012211763
0.002089307 -0.0049821655 -0.006831236 0.010963711 0.0062144226 0.0014779551 -0.0028377648 -0.0105356
-0.005639442 0.0028132638 0.004562076 -0.00689635 -0.0061204075 -0.00019729084 0.0048934408 -0.009891724
0.0013477596 -0.002535018 0.000979271 -0.005114436 0.004268642 0.012018998 0.0029707456 0.0039544334
-0.008109302 0.0038729652 -0.002695929 -0.008847726 0.0070231417 -0.0032874837 0.0011505618 0.0025658135
0.0012515691 0.0012402931 0.0054815607 -0.0026067772 -0.0073330896 -0.0001738963 0.0034098488 -0.0018373386
-0.017482763 -0.0051459204 0.0077336566 -0.003635902 0.0082433475 0.012713621 0.009307587 0.0053089587
0.0077613443 -0.00025338327 0.011057317 0.0034816011 0.0028543612 0.004922757 0.0066940947 0.0032573752
-0.0074811727 -0.0006207199 0.011633654 -0.008782221 -0.0011682741 -0.007371331 -0.0067351507 -0.006761758
0.000585271 -0.012031818 -0.0083992 0.004443414 -0.0004703696 0.008420364 -0.0038502614 0.004365298
00000000: 400e 00bc 1e53 323c 8e45 993b fb62 bd3b
00000010: 8cc9 053c 2f5c 2f3c dfdf edbb e34f e2bb
00000020: 49d8 c63b aeaa 06bb b464 003c c55d d0ba
00000030: 0983 ab3a 5968 a93b 3b91 c5ba 1ccc 3d3b
00000040: d070 1e3a f8cd 17bc 6ab0 2fbc 8bdf ef3b
00000050: 806d 08bc d3b6 13bc e333 8cb9 232f 10bc
00000060: eba6 1e3c e361 613b 4e73 10bc a005 e63b
00000070: bc35 b33a 5033 eabb 17e9 b73b 9965 a3bb
00000080: 5390 84bb 0025 20bc 8f31 b93b 4730 853c
00000090: af75 33bc e78e e0bb edec bf3b b98c 9a3b
000000a0: 8608 b93a f37b b53b 3a33 af3b df0b 8f3b
000000b0: fec1 a23b 31ad a0ba 9416 303c 86c8 0eba
000000c0: b3fd a2bb e712 c53a 6bbd 213b 1709 90bb
000000d0: 7f96 0c3c 4bad fcba a015 8ab9 6314 2fbc
000000e0: 856b 153b 0398 ea3a 0bab 5d3b 79f7 b3bb
000000f0: ad40 f4bb 74ef 9db7 679a 26ba dfbc eebb
00000100: 0089 3e3b 8760 413c 3074 59bb 0d5d 13bc
00000110: bd2c 543c 18b0 83bb 5a17 37b9 d370 97bb
00000120: 19d5 373c c7c2 1e3b 772b c8bb 57c7 f8ba
00000130: 23e3 443b c5f2 47bc 8399 303c 02c4 313b
00000140: 4b6f 39bc aba2 08bb e763 843b fb1a 963b
00000150: de2b 15bc 7781 4f3c 6737 0cbc 75b0 c6ba
00000160: 7d94 fcba 55e9 263a edca 67bb d17a 013c
00000170: 5e0c 0c3c 4cd4 443a e37c 0fbc e7a2 1fbb
00000180: c779 26bb 2f03 bebb 0bfa 16bb 080a 81bb
00000190: c81a 6bbb f386 b53b c5f8 fb3a 7748 7a3b
000001a0: b2b3 ecba 1b18 053b 7820 28bc c99f 1a3c
000001b0: ed7c 083c 52e9 ecba dd5b 123c b3d6 883c
000001c0: 1f29 2fbb 1f64 e5bb 6eb7 083c 9b0c ae3b
000001d0: af11 a3bb ea4c 0d3b e230 24bb e351 313b
000001e0: 489b 3d3b 670d d43a 1a80 193b 937e 69bb
000001f0: bcec 9bbb 8eac 8bba 2bac 143b 7be8 bbba
00000200: 47be 7a3c 626a a5bb 4790 793a 4c42 07ba
00000210: 9d3f 8abb b049 2cbb 973e fb3b cf78 1c3b
00000220: 3f43 93bb 63a2 503b 3511 3dbc 292f 88bb
00000230: caff 6cbb df31 efb8 cbbe 62b9 41d2 4abb
00000240: 55ae 233a 6c11 833b 0876 043b eb69 c2bb
00000250: 5ad3 e73b 99b9 c9bb 77f0 4a3b 37b6 83bb
00000260: 12b9 dfbb 8347 a2b9 d8b6 d73a 1736 1c3b
00000270: e6a2 a13a e265 e8bb d07c e139 ffa2 49bb
00000280: bec6 2dbb a868 96bb cb08 d6ba a3b7 d6b8
00000290: 88e4 e3bb 7761 2e3b 66b9 393b 0fcd 22bc
000002a0: d473 99bb 4224 d53b 3a79 e4b8 f3f8 3fbb
000002b0: ed30 07ba 629b f9bb ebc2 edbb 5d1e 633c
000002c0: e248 b8bb 118c 2b3b 7f17 f43b eb9c 413b
000002d0: 8d88 4c3b 088b 503a 3764 fc3b d913 48bc
000002e0: c1ec 083b 6f41 a3bb 90d8 dfbb 23a1 333c
000002f0: 5ba2 cb3b f2b7 c13a cbf9 39bb 829d 2cbc
00000300: 11cb b8bb bc5e 383b 787d 953b c7fa e1bb
00000310: b38d c8bb dbdf 4eb9 2859 a03b e610 22bc
00000320: 4fa7 b03a 8b22 26bb e25a 803a 0097 a7bb
00000330: f7df 8b3b 55eb 443c d7b0 423b 3194 813b
00000340: e1dc 04bc 93d1 7d3b 2fae 30bb 0df6 10bc
00000350: 6222 e63b d372 57bb 73ce 963a 3527 283b
00000360: b10b a43a 5591 a23a aa9e b33b 77d6 2abb
00000370: 6a4a f0bb ef57 36b9 c577 5f3b dad2 f0ba
00000380: 0338 8fbc 1c9f a8bb 9d6a fd3b 5048 6ebb
00000390: 1b0f 073c cb4c 503c d97e 183c c6f6 ad3b
000003a0: e052 fe3b 87d8 84b9 c029 353c 932b 643b
000003b0: 3c10 3b3b 144f a13b 235a db3b b079 553b
000003c0: a024 f5bb cfb7 22ba 159b 3e3c 4ee3 0fbc
000003d0: c620 99ba 358b f1bb 8ab2 dcbb bd91 ddbb
000003e0: df6c 193a 1a21 45bc cc9c 09bc 0f9a 913b
000003f0: f09b f6b9 91f5 093c ab54 7cbb c60a 8f3b

action_model._discrete_distribution.branches.0.bias f4 [6]
0.0 0.0 0.0 0.0 0.0 0.0
00000000: 0000 0000 0000 0000 0000 0000 0000 0000
00000010: 0000 0000 0000 0000

critic.network_body.vector_processors.0.normalizer.running_mean f4 [9]
0.5411017 1.9521661 0.0 -1.9984432 1.9521661 0.0 0.023675762 0.0
0.23194222
00000000: a485 0a3f 94e0 f93f 0000 0000 fdcc ffbf
00000010: 94e0 f93f 0000 0000 acf3 c13c 0000 0000
00000020: 4382 6d3e

critic.network_body.vector_processors.0.normalizer.running_variance f4 [9]
3728.8896 4.8171096 1.0 1034.0701 4.8171096 1.0 58.60313 1.0
444.93738
00000000: 3c0e 6945 c325 9a40 0000 803f 3e42 8144
00000010: c325 9a40 0000 803f 9b69 6a42 0000 803f
00000020: fc77 de43

critic.network_body.linear_encoder.seq_layers.0.weight f4 [256, 9]
0.097440094 0.08746599 0.0056448053 0.5706907 0.050001808 -0.056491397 -0.55252117 0.2812616
-0.38535845 0.0796121 0.08312912 0.40198573 0.48224849 -0.088956855 0.22917444 -0.28022596
0.1823022 -0.0108813085 0.15423742 -0.12536305 0.21144876 -0.18469879 0.45279908 -0.08845138
-0.10347628 0.061228465 0.35480446 0.1318643 0.2755896 0.16418979 -0.8628549 -0.05442412
0.104553506 0.35410362 -0.26364842 -0.07111455 0.06283227 0.7128121 -0.53100365 -0.03493314
0.13304777 -0.057718392 -0.52474517 0.41642472 0.49622238 -0.58168423 -0.4984345 -0.04309849
-0.009449308 0.3776091 -0.34490836 -0.082875974 0.06444835 -0.32227692 -0.39293116 -0.060979616
0.2136037 -0.42649147 -0.5066481 0.207941 -0.22357762 -0.5906262 0.023550091 0.8259468
-0.43859586 0.024164673 -0.58880067 0.072758004 0.032048702 0.07240881 -0.14693125 -0.04831601
-0.28084365 0.14281937 0.13367088 0.58171964 -0.17065293 0.45204696 -0.21891081 -0.47564813
-0.07552895 -0.21847123 0.23729017 -0.34673092 -0.15115929 0.24818504 -0.038347747 0.32536379
-0.19943613 0.25146908 0.040880922 0.76142526 -0.42173967 -0.6242753 -0.012605365 -0.5346321
0.06972205 0.47175896 -0.02271669 0.5689981 -0.22980627 -0.16089252 0.15051825 -0.40224302
0.09577896 0.21401916 0.03155224 -0.027412832 0.59342206 -0.0096146865 0.054234765 0.016692448
0.41232607 0.16550186 -0.02374662 0.35983652 0.13576953 -0.15434581 -0.1379456 0.46968037
0.5159043 0.028210904 0.13065703 -0.039914336 0.34361705 -0.05570848 -0.15609747 -0.25572503
-0.18063402 0.72618073 -0.18822394 -0.16790998 -0.05875931 0.38567802 0.39917165 -0.135788
0.11862381 -0.16764711 -0.4788937 0.3582402 -0.09154745 0.25328395 -0.15695444 0.014622412
-0.29588413 0.5664729 0.61560607 -0.30091783 0.48273373 0.36347207 -0.12008389 0.32988754
-0.5191289 0.07363992 -0.069637865 -0.568398 -0.4765006 -0.2062085 -0.44540268 -0.0051251967
-0.21195684 0.2357325 0.12112161 0.72312444 -0.1555031 0.109353945 -0.5829526 -0.098066166
-0.18799701 -0.47807845 -0.2011175 0.19350791 -0.4419971 -0.044348247 -0.117381945 0.04811965
-0.28998923 -0.12663032 -0.38912186 0.048674043 0.22463655 -0.18240604 0.16166492 0.0500743
0.36668575 0.12695643 0.8186803 0.09026925 -0.25120896 -0.35754725 -0.022097817 0.09514341
-0.45736492 -0.39855057 0.106637105 0.2766986 -0.081130624 0.33118457 0.24196473 -0.23449442
-0.38321325 -0.056996144 -0.4945564 -0.5618522 -0.23359928 0.5390364 0.10285958 0.38490993
-0.6827883 0.030731833 0.4409685 0.0036493526 -0.5396545 0.00051746273 -0.6513148 -0.35916507
-0.06435606 -0.14003181 0.049374133 0.2303181 0.6949415 0.30252635 0.34642753 0.2064211
-0.7290398 -0.09960892 0.19633293 0.10724217 0.3755691 -0.60110974 0.011362041 -0.108541034
0.8450319 0.5919801 0.5947846 0.6026193 -0.29958135 -0.011310845 0.34343475 -0.2422821
0.17909911 0.1841772 -0.014306618 -0.2866604 0.20418648 -0.0031684972 -0.32005548 -0.5195784
-0.31414527 0.2731064 -0.6563946 0.013344418 0.08424464 0.27244118 0.033147022 -0.5113535
00000000: ac8e c73d 5e21 b33d 0ff8 b83b c918 123f
00000010: b2ce 4c3d 8663 67bd 0772 0dbf 8501 903e
00000020: b44d c5be ab0b a33d 9a3f aa3d 13d1 cd3e
00000030: 46e9 f63e 032f b6bd b4ac 6a3e c779 8fbe
00000040: 6ead 3a3e 8447 32bc 6af0 1d3e 2c5f 00be
00000050: 0686 583e ae21 3dbe 48d5 e73e ff25 b5bd
00000060: 5feb d3bd b3ca 7a3d eea8 b53e 6f07 073e
00000070: 141a 8d3e 5e21 283e 0fe4 5cbf d3eb 5ebd
00000080: 2620 d63d 124d b53e edfc 86be 81a4 91bd
00000090: 35ae 803d db7a 363f dbef 07bf 0d16 0fbd
000000a0: ad3d 083e 1f6a 6cbd b355 06bf 9f35 d53e
000000b0: dc10 fe3e 42e9 14bf cf32 ffbe 0b88 30bd
000000c0: 45d1 1abc fb55 c13e d497 b0be e1ba a9bd
000000d0: 7ffd 833d 7b01 a5be 462e c9be c3c5 79bd
000000e0: eeba 5a3e 175d dabe b1b3 01bf 7cee 543e
000000f0: 88f1 64be 4733 17bf 1fec c03c 4071 533f
00000100: a38f e0be fef4 c53c a4bb 16bf 2602 953d
00000110: 8045 033d 124b 943d 2575 16be 02e7 45bd
00000120: bdca 8fbe 3e3f 123e 05e1 083e 94eb 143f
00000130: a4bf 2ebe b372 e73e 282a 60be 2788 f3be
00000140: ecae 9abd ecb6 5fbe 32fc 723e b786 b1be
00000150: 80c9 1abe 3824 7e3e 8712 1dbd 1596 a63e
00000160: fc38 4cbe 8ec0 803e c172 273d c4ec 423f
00000170: 43ee d7be 82d0 1fbf bc86 4ebc a6dd 08bf
00000180: 6fca 8e3d 648a f13e 5a18 babc dca9 113f
00000190: 5652 6bbe 02c1 24be 7521 1a3e ccf2 cdbe
000001a0: c227 c43d d727 5b3e ec3c 013d e090 e0bc
000001b0: 82ea 173f eb86 1dbc 4625 5e3d 9abe 883c
000001c0: 671c d33e 5279 293e 4688 c2bc 7e3c b83e
000001d0: 2b07 0b3e d40c 1ebe 9d41 0dbe f279 f03e
000001e0: 4e12 043f 8e1a e73c f5ca 053e 377d 23bd
000001f0: 93ee af3e 932e 64bd 04d8 1fbe 64ee 82be
00000200: 20f8 38be fbe6 393f c7bd 40be 98f0 2bbe
00000210: 9aad 70bd 9777 c53e 3a60 cc3e 020c 0bbe
00000220: 0af1 f23d afab 2bbe 8e31 f5be 426b b73e
00000230: 3b7d bbbd 6fae 813e aab8 20be d792 6f3c
00000240: 207e 97be 5e04 113f 5c98 1d3f e711 9abe
00000250: e028 f73e 0319 ba3e 8bee f5bd 05e7 a83e
00000260: a2e5 04bf 87d0 963d 4c9e 8ebd 8882 11bf
00000270: e3f7 f3be 5228 53be d20b e4be 44f1 a7bb
00000280: 370b 59be dc63 713e 9b0e f83d af1e 393f
00000290: 343c 1fbe f6f4 df3d 623c 15bf ead6 c8bd
000002a0: 4a82 40be b3c6 f4be bff1 4dbe f026 463e
000002b0: 724d e2be 82a6 35bd f265 f0bd 1c19 453d
000002c0: 7879 94be 61ab 01be fb3a c7be 6f5e 473d
000002d0: 2007 663e a6c8 3abe 7d8b 253e b61a 4d3d
000002e0: 3cbe bb3e de00 023e 0895 513f 16df b83d
000002f0: 769e 80be 6f10 b7be 7b06 b5bc 8cda c23d
00000300: bc2b eabe d20e ccbe 8e64 da3d 70ab 8d3e
00000310: d027 a6bd 0691 a93e 9ac5 773e 4e1f 70be
00000320: 8734 c4be ca74 69bd 7f36 fdbe 8cd5 0fbf
00000330: a634 6fbe 4afe 093f 0ba8 d23d ea12 c53e
00000340: 37cb 2ebf 53c1 fb3c a0c6 e13e fa29 6f3b
00000350: cc26 0abf 56a6 073a 91bc 26bf 7ce4 b7be
00000360: 1ccd 83bd 8064 0fbe 883c 4a3d 82d8 6b3e
00000370: b0e7 313f bce4 9a3e f35e b13e 0e60 533e
00000380: 5aa2 3abf c3ff cbbd 800b 493e c8a1 db3d
00000390: 984a c03e 54e2 19bf db27 3a3c c34a debd
000003a0: 0354 583f 028c 173f ce43 183f 4245 1a3f
000003b0: ba62 99be 1f51 39bc aed6 af3e cc18 78be
000003c0: c265 373e f398 3c3e 4e66 6abc 27c5 92be
000003d0: 4316 513e 90a6 4fbb 50de a3be 1703 05bf
000003e0: a6d7 a0be 9ad4 8b3e 7a09 28bf 8ca2 5a3c
000003f0: 7488 ac3d 697d 8b3e 2cc5 073d 10e8 02bf

critic.network_body.linear_encoder.seq_layers.0.bias f4 [256]
0.0 0.0 0.0 0.0 0.0 0.0 0.0 0.0
0.0 0.0 0.0 0.0 0.0 0.0 0.0 0.0
0.0 0.0 0.0 0.0 0.0 0.0 0.0 0.0
0.0 0.0 0.0 0.0 0.0 0.0 0.0 0.0
0.0 0.0 0.0 0.0 0.0 0.0 0.0 0.0
0.0 0.0 0.0 0.0 0.0 0.0 0.0 0.0
0.0 0.0 0.0 0.0 0.0 0.0 0.0 0.0
0.0 0.0 0.0 0.0 0.0 0.0 0.0 0.0
0.0 0.0 0.0 0.0 0.0 0.0 0.0 0.0
0.0 0.0 0.0 0.0 0.0 0.0 0.0 0.0
0.0 0.0 0.0 0.0 0.0 0.0 0.0 0.0
0.0 0.0 0.0 0.0 0.0 0.0 0.0 0.0
0.0 0.0 0.0 0.0 0.0 0.0 0.0 0.0
0.0 0.0 0.0 0.0 0.0 0.0 0.0 0.0
0.0 0.0 0.0 0.0 0.0 0.0 0.0 0.0
0.0 0.0 0.0 0.0 0.0 0.0 0.0 0.0
0.0 0.0 0.0 0.0 0.0 0.0 0.0 0.0
0.0 0.0 0.0 0.0 0.0 0.0 0.0 0.0
0.0 0.0 0.0 0.0 0.0 0.0 0.0 0.0
0.0 0.0 0.0 0.0 0.0 0.0 0.0 0.0
0.0 0.0 0.0 0.0 0.0 0.0 0.0 0.0
0.0 0.0 0.0 0.0 0.0 0.0 0.0 0.0
0.0 0.0 0.0 0.0 0.0 0.0 0.0 0.0
0.0 0.0 0.0 0.0 0.0 0.0 0.0 0.0
0.0 0.0 0.0 0.0 0.0 0.0 0.0 0.0
0.0 0.0 0.0 0.0 0.0 0.0 0.0 0.0
0.0 0.0 0.0 0.0 0.0 0.0 0.0 0.0
0.0 0.0 0.0 0.0 0.0 0.0 0.0 0.0
0.0 0.0 0.0 0.0 0.0 0.0 0.0 0.0
0.0 0.0 0.0 0.0 0.0 0.0 0.0 0.0
0.0 0.0 0.0 0.0 0.0 0.0 0.0 0.0
0.0 0.0 0.0 0.0 0.0 0.0 0.0 0.0
00000000: 0000 0000 0000 0000 0000 0000 0000 0000
00000010: 0000 0000 0000 0000 0000 0000 0000 0000
00000020: 0000 0000 0000 0000 0000 0000 0000 0000
00000030: 0000 0000 0000 0000 0000 0000 0000 0000
00000040: 0000 0000 0000 0000 0000 0000 0000 0000
00000050: 0000 0000 0000 0000 0000 0000 0000 0000
00000060: 0000 0000 0000 0000 0000 0000 0000 0000
00000070: 0000 0000 0000 0000 0000 0000 0000 0000
00000080: 0000 0000 0000 0000 0000 0000 0000 0000
00000090: 0000 0000 0000 0000 0000 0000 0000 0000
000000a0: 0000 0000 0000 0000 0000 0000 0000 0000
000000b0: 0000 0000 0000 0000 0000 0000 0000 0000
000000c0: 0000 0000 0000 0000 0000 0000 0000 0000
000000d0: 0000 0000 0000 0000 0000 0000 0000 0000
000000e0: 0000 0000 0000 0000 0000 0000 0000 0000
000000f0: 0000 0000 0000 0000 0000 0000 0000 0000
00000100: 0000 0000 0000 0000 0000 0000 0000 0000
00000110: 0000 0000 0000 0000 0000 0000 0000 0000
00000120: 0000 0000 0000 0000 0000 0000 0000 0000
00000130: 0000 0000 0000 0000 0000 0000 0000 0000
00000140: 0000 0000 0000 0000 0000 0000 0000 0000
00000150: 0000 0000 0000 0000 0000 0000 0000 0000
00000160: 0000 0000 0000 0000 0000 0000 0000 0000
00000170: 0000 0000 0000 0000 0000 0000 0000 0000
00000180: 0000 0000 0000 0000 0000 0000 0000 0000
00000190: 0000 0000 0000 0000 0000 0000 0000 0000
000001a0: 0000 0000 0000 0000 0000 0000 0000 0000
000001b0: 0000 0000 0000 0000 0000 0000 0000 0000
000001c0: 0000 0000 0000 0000 0000 0000 0000 0000
000001d0: 0000 0000 0000 0000 0000 0000 0000 0000
000001e0: 0000 0000 0000 0000 0000 0000 0000 0000
000001f0: 0000 0000 0000 0000 0000 0000 0000 0000
00000200: 0000 0000 0000 0000 0000 0000 0000 0000
00000210: 0000 0000 0000 0000 0000 0000 0000 0000
00000220: 0000 0000 0000 0000 0000 0000 0000 0000
00000230: 0000 0000 0000 0000 0000 0000 0000 0000
00000240: 0000 0000 0000 0000 0000 0000 0000 0000
00000250: 0000 0000 0000 0000 0000 0000 0000 0000
00000260: 0000 0000 0000 0000 0000 0000 0000 0000
00000270: 0000 0000 0000 0000 0000 0000 0000 0000
00000280: 0000 0000 0000 0000 0000 0000 0000 0000
00000290: 0000 0000 0000 0000 0000 0000 0000 0000
000002a0: 0000 0000 0000 0000 0000 0000 0000 0000
000002b0: 0000 0000 0000 0000 0000 0000 0000 0000
000002c0: 0000 0000 0000 0000 0000 0000 0000 0000
000002d0: 0000 0000 0000 0000 0000 0000 0000 0000
000002e0: 0000 0000 0000 0000 0000 0000 0000 0000
000002f0: 0000 0000 0000 0000 0000 0000 0000 0000
00000300: 0000 0000 0000 0000 0000 0000 0000 0000
00000310: 0000 0000 0000 0000 0000 0000 0000 0000
00000320: 0000 0000 0000 0000 0000 0000 0000 0000
00000330: 0000 0000 0000 0000 0000 0000 0000 0000
00000340: 0000 0000 0000 0000 0000 0000 0000 0000
00000350: 0000 0000 0000 0000 0000 0000 0000 0000
00000360: 0000 0000 0000 0000 0000 0000 0000 0000
00000370: 0000 0000 0000 0000 0000 0000 0000 0000
00000380: 0000 0000 0000 0000 0000 0000 0000 0000
00000390: 0000 0000 0000 0000 0000 0000 0000 0000
000003a0: 0000 0000 0000 0000 0000 0000 0000 0000
000003b0: 0000 0000 0000 0000 0000 0000 0000 0000
000003c0: 0000 0000 0000 0000 0000 0000 0000 0000
000003d0: 0000 0000 0000 0000 0000 0000 0000 0000
000003e0: 0000 0000 0000 0000 0000 0000 0000 0000
000003f0: 0000 0000 0000 0000 0000 0000 0000 0000

critic.network_body.linear_encoder.seq_layers.2.weight f4 [256, 256]
0.013231781 0.10499589 -0.017277112 -0.0694299 0.008054053 -0.0035383871 -0.008661224 -0.0075744195
0.07871564 -0.12701558 -0.038955297 -0.045620922 0.04497951 -0.09594876 -0.03866832 -0.02719322
-0.055810887 -0.08020107 0.033569437 -0.0075321915 -0.0051097632 0.02837795 0.0068330085 0.04767687
0.090405 0.013216111 -0.01592958 0.026100557 0.0631506 -0.01064601 0.04087233 0.08626646
-0.020114513 0.03711356 0.06121123 0.053961877 -0.025328895 0.07375294 -0.03150717 -0.06867455
-0.018627757 0.019382084 -0.02482043 0.08317624 -0.02103038 0.057092223 0.03240694 0.049221054
0.058453463 -0.06944773 0.101056404 0.004920876 0.016582616 -0.025422815 -0.0095950635 0.03271777
0.03018385 0.03370002 -0.0710824 -0.100652285 0.040803626 0.10330997 0.03345042 -0.0053740637
-0.017579557 -0.07180723 0.027100172 0.10223471 0.099199615 0.014862601 -0.010262557 -0.03896533
-0.06925356 0.0027283386 -0.008700374 -0.0011447186 -0.00084263197 -0.08753206 0.08252334 0.036429554
-0.06023676 0.14092521 -0.036125068 0.018277582 0.08545385 -0.07747051 -0.030807402 -0.033352368
-0.028635396 0.12792587 0.096331194 0.08791108 -0.06239624 0.07971261 0.014485704 0.06103064
0.025857253 0.0061417557 0.06415363 -0.08286439 -0.22310215 -0.08828608 -0.029042475 0.010447024
-0.059275713 -0.061800197 -0.06268373 0.080709204 -0.02186689 0.035338167 0.09053652 0.0022764574
0.055530224 0.05823035 0.06753602 -0.021836054 -0.12369105 -0.04500666 0.086168736 0.0038488847
-0.0951506 0.093420126 -0.040665526 0.048268966 0.09254645 -0.00023343296 0.0475908 0.102737516
-0.054819524 -0.11607711 0.01986811 -0.019546596 0.1224566 0.068955995 0.06772413 -0.07732921
0.12069881 -0.096359 0.058455873 -0.0055109314 -0.024388693 0.12428762 -0.04718266 0.0015552227
-0.01829356 0.12215503 0.040501133 0.11277563 -0.036471188 -0.018224008 0.00052904803 -0.033652857
-0.05667981 0.032997347 -0.025868032 0.029188726 -0.0899538 0.021610018 -0.010825629 0.06399008
-0.015551804 -0.023700366 -0.0936186 -0.044525705 -0.015610989 0.036643464 0.013114137 -0.04522762
0.02735487 0.02159777 -0.01724041 -0.015402309 0.082876764 0.058253452 0.04255245 0.00309093
-0.019424463 0.039129216 0.119781494 0.003763716 0.11179357 -0.038696337 -0.10149016 0.012946824
0.01977976 0.005674321 -0.02615672 0.03034371 -0.011325654 0.11511374 -0.08353457 -0.02051095
-0.031005008 -0.028353289 0.17288138 0.05907461 -0.038039263 0.012653275 0.09448544 -0.059916265
-0.054401673 0.03330955 -0.08246376 0.004492075 0.057426855 0.04605535 -0.0229677 -0.0012800497
0.028271878 0.051343624 0.037839875 0.06149373 -0.07273966 -0.10565527 -0.043736514 0.07051359
-0.023755513 0.01819897 0.027811322 -0.012672833 -0.0075638704 -0.051171806 -0.085921824 0.0068884026
0.02094325 0.025325641 0.0733894 -0.10027131 -0.079593986 0.077814855 -0.08061701 0.04872329
-0.054094046 0.017120546 0.023088573 -0.093447596 -0.037058387 -0.003292941 0.054681253 -0.1018225
-0.0944845 0.10563027 0.008993648 0.049166735 -0.01800933 -0.031064985 -0.0966183 -0.08277335
0.05768467 -0.02889835 -0.0142499665 0.04460199 0.017091155 -0.030373298 0.013281342 0.02420808
00000000: 1dca 583c 1608 d73d bb88 8dbc 4331 8ebd
00000010: 26f5 033c 49e4 67bb cee7 0dbc d632 f8bb
00000020: aa35 a13d 5f10 02be 978f 1fbd 01dd 3abd
00000030: 6f3c 383d c980 c4bd ac62 1ebd 51c4 debc
00000040: f599 64bd 7540 a4bd 1b80 093d 9ad0 f6bb
00000050: cd6f a7bb e078 e83c 6ee7 df3b d248 433d
00000060: 4226 b93d 6388 583c c07e 82bc d6d0 d53c
00000070: 1a55 813d 9a6c 2ebc bf69 273d 78ac b03d
00000080: 31c7 a4bc 6304 183d a0b8 7a3d 2107 5d3d
00000090: 8b7e cfbc c80b 973d aa0d 01bd 3ea5 8cbd
000000a0: 3d99 98bc 2dc7 9e3c 3754 cbbc 4e58 aa3d
000000b0: e747 acbc 89d9 693d 24bd 043d 049c 493d
000000c0: e66c 6f3d 9d3a 8ebd a9f6 ce3d 4d3f a13b
000000d0: 44d8 873c 8243 d0bc 9d34 1dbc 1203 063d
000000e0: 1f44 f73c 0809 0a3d a693 91bd c922 cebd
000000f0: b421 273d 2d94 d33d 4f03 093d ea18 b0bb
00000100: 0103 90bc ab0f 93bd 2e01 de3c 6e60 d13d
00000110: 2b29 cb3d 4482 733c 4924 28bc 1c9a 1fbd
00000120: cfd4 8dbd edcd 323b 038c 0ebc 620a 96ba
00000130: 13e4 5cba 0244 b3bd ff01 a93d 2837 153d
00000140: d2ba 76bd b34e 103e e1f7 13bd deba 953c
00000150: 6e02 af3d dca8 9ebd ce5f fcbc 7e9c 08bd
00000160: c794 eabc 00ff 023e 4a49 c53d b90a b43d
00000170: 3393 7fbd 5d40 a33d 7255 6d3c 44fb 793d
00000180: 97d2 d33c c840 c93b fa62 833d ceb4 a9bd
00000190: e474 64be 55cf b4bd 7cea edbc ff29 2b3c
000001a0: 17cb 72bd 3422 7dbd 5460 80bd de4a a53d
000001b0: 3122 b3bc c1be 103d 366b b93d 9e30 153b
000001c0: a973 633d f382 6e3d 5350 8a3d 86e1 b2bc
000001d0: bc51 fdbd e758 38bd 3c79 b03d 923d 7c3b
000001e0: 51de c2bd 0d53 bf3d e590 26bd aeb5 453d
000001f0: fe88 bd3d afc5 74b9 92ee 423d 0c68 d23d
00000200: 708a 60bd d6b9 edbd 72c2 a23c 2f20 a0bc
00000210: 87ca fa3d cd38 8d3d f3b2 8a3d c75e 9ebd
00000220: f030 f73d de57 c5bd 6d6f 6f3d 0b95 b4bb
00000230: ccca c7bc 828a fe3d 9b42 41bd 9dd8 cb3a
00000240: 60dc 95bc 6b2c fa3d 84e4 253d e9f6 e63d
00000250: d062 15bd 844a 95bc d0af 0a3a 94d7 09bd
00000260: 1729 68bd 3a28 073d 32e9 d3bc 321d ef3c
00000270: b339 b8bd 7e07 b13c fb5d 31bc 3b0d 833d
00000280: fecc 7ebc 4527 c2bc 1cbb bfbd 9660 36bd
00000290: 3cc5 7fbc 7517 163d addc 563c 9940 39bd
000002a0: 5217 e03c ceed b03c c33b 8dbc f759 7cbc
000002b0: 4bbb a93d 2c9b 6e3d 7a4b 2e3d 3391 4a3b
000002c0: 0d20 9fbc f545 203d 0050 f53d ada8 763b
000002d0: 07f4 e43d 0d80 1ebd 13da cfbd ea1e 543c
000002e0: 2a09 a23c a8ef b93b 9e46 d6bc 5f93 f83c
000002f0: 3c8f 39bc c1c0 eb3d 2c14 abbd 9406 a8bc
00000300: 37fe fdbc 2845 e8bc d107 313e 38f8 713d
00000310: 0fcf 1bbd af4f 4f3c 9581 c13d c26a 75bd
00000320: 4ad4 5ebd 986f 083d c3e2 a8bd 4232 933b
00000330: 6c38 6b3d 89a4 3c3d c226 bcbc 57c7 a7ba
00000340: 6d9a e73c b14d 523d fcfd 1a3d d9e0 7b3d
00000350: 88f8 94bd ca61 d8bd 0f25 33bd 6e69 903d
00000360: ec9a c2bc 0216 953c 92d4 e33c b7a1 4fbc
00000370: 58da f7bb 8799 51bd c8f7 afbd 1cb8 e13b
00000380: 2e91 ab3c b877 cf3c 2f4d 963d 0b5b cdbd
00000390: 2c02 a3bd 655d 9f3d 881a a5bd 1392 473d
000003a0: b891 5dbd 6340 8c3c 3f24 bd3c 7461 bfbd
000003b0: 89ca 17bd 62ce 57bb 73f9 5f3d 5188 d0bd
000003c0: 1781 c1bd af54 d83d 185a 133c 0f63 493d
000003d0: 4d88 93bc ff7b febc d1df c5bd 1385 a9bd
000003e0: c346 6c3d 3cbc ecbc b178 69bc 94b0 363d
000003f0: c002 8c3c 6cd1 f8bc fc99 593c 0650 c63c

critic.network_body.linear_encoder.seq_layers.2.bias f4 [256]
0.0 0.0 0.0 0.0 0.0 0.0 0.0 0.0
0.0 0.0 0.0 0.0 0.0 0.0 0.0 0.0
0.0 0.0 0.0 0.0 0.0 0.0 0.0 0.0
0.0 0.0 0.0 0.0 0.0 0.0 0.0 0.0
0.0 0.0 0.0 0.0 0.0 0.0 0.0 0.0
0.0 0.0 0.0 0.0 0.0 0.0 0.0 0.0
0.0 0.0 0.0 0.0 0.0 0.0 0.0 0.0
0.0 0.0 0.0 0.0 0.0 0.0 0.0 0.0
0.0 0.0 0.0 0.0 0.0 0.0 0.0 0.0
0.0 0.0 0.0 0.0 0.0 0.0 0.0 0.0
0.0 0.0 0.0 0.0 0.0 0.0 0.0 0.0
0.0 0.0 0.0 0.0 0.0 0.0 0.0 0.0
0.0 0.0 0.0 0.0 0.0 0.0 0.0 0.0
0.0 0.0 0.0 0.0 0.0 0.0 0.0 0.0
0.0 0.0 0.0 0.0 0.0 0.0 0.0 0.0
0.0 0.0 0.0 0.0 0.0 0.0 0.0 0.0
0.0 0.0 0.0 0.0 0.0 0.0 0.0 0.0
0.0 0.0 0.0 0.0 0.0 0.0 0.0 0.0
0.0 0.0 0.0 0.0 0.0 0.0 0.0 0.0
0.0 0.0 0.0 0.0 0.0 0.0 0.0 0.0
0.0 0.0 0.0 0.0 0.0 0.0 0.0 0.0
0.0 0.0 0.0 0.0 0.0 0.0 0.0 0.0
0.0 0.0 0.0 0.0 0.0 0.0 0.0 0.0
0.0 0.0 0.0 0.0 0.0 0.0 0.0 0.0
0.0 0.0 0.0 0.0 0.0 0.0 0.0 0.0
0.0 0.0 0.0 0.0 0.0 0.0 0.0 0.0
0.0 0.0 0.0 0.0 0.0 0.0 0.0 0.0
0.0 0.0 0.0 0.0 0.0 0.0 0.0 0.0
0.0 0.0 0.0 0.0 0.0 0.0 0.0 0.0
0.0 0.0 0.0 0.0 0.0 0.0 0.0 0.0
0.0 0.0 0.0 0.0 0.0 0.0 0.0 0.0
0.0 0.0 0.0 0.0 0.0 0.0 0.0 0.0
00000000: 0000 0000 0000 0000 0000 0000 0000 0000
00000010: 0000 0000 0000 0000 0000 0000 0000 0000
00000020: 0000 0000 0000 0000 0000 0000 0000 0000
00000030: 0000 0000 0000 0000 0000 0000 0000 0000
00000040: 0000 0000 0000 0000 0000 0000 0000 0000
00000050: 0000 0000 0000 0000 0000 0000 0000 0000
00000060: 0000 0000 0000 0000 0000 0000 0000 0000
00000070: 0000 0000 0000 0000 0000 0000 0000 0000
00000080: 0000 0000 0000 0000 0000 0000 0000 0000
00000090: 0000 0000 0000 0000 0000 0000 0000 0000
000000a0: 0000 0000 0000 0000 0000 0000 0000 0000
000000b0: 0000 0000 0000 0000 0000 0000 0000 0000
000000c0: 0000 0000 0000 0000 0000 0000 0000 0000
000000d0: 0000 0000 0000 0000 0000 0000 0000 0000
000000e0: 0000 0000 0000 0000 0000 0000 0000 0000
000000f0: 0000 0000 0000 0000 0000 0000 0000 0000
00000100: 0000 0000 0000 0000 0000 0000 0000 0000
00000110: 0000 0000 0000 0000 0000 0000 0000 0000
00000120: 0000 0000 0000 0000 0000 0000 0000 0000
00000130: 0000 0000 0000 0000 0000 0000 0000 0000
00000140: 0000 0000 0000 0000 0000 0000 0000 0000
00000150: 0000 0000 0000 0000 0000 0000 0000 0000
00000160: 0000 0000 0000 0000 0000 0000 0000 0000
00000170: 0000 0000 0000 0000 0000 0000 0000 0000
00000180: 0000 0000 0000 0000 0000 0000 0000 0000
00000190: 0000 0000 0000 0000 0000 0000 0000 0000
000001a0: 0000 0000 0000 0000 0000 0000 0000 0000
000001b0: 0000 0000 0000 0000 0000 0000 0000 0000
000001c0: 0000 0000 0000 0000 0000 0000 0000 0000
000001d0: 0000 0000 0000 0000 0000 0000 0000 0000
000001e0: 0000 0000 0000 0000 0000 0000 0000 0000
000001f0: 0000 0000 0000 0000 0000 0000 0000 0000
00000200: 0000 0000 0000 0000 0000 0000 0000 0000
00000210: 0000 0000 0000 0000 0000 0000 0000 0000
00000220: 0000 0000 0000 0000 0000 0000 0000 0000
00000230: 0000 0000 0000 0000 0000 0000 0000 0000
00000240: 0000 0000 0000 0000 0000 0000 0000 0000
00000250: 0000 0000 0000 0000 0000 0000 0000 0000
00000260: 0000 0000 0000 0000 0000 0000 0000 0000
00000270: 0000 0000 0000 0000 0000 0000 0000 0000
00000280: 0000 0000 0000 0000 0000 0000 0000 0000
00000290: 0000 0000 0000 0000 0000 0000 0000 0000
000002a0: 0000 0000 0000 0000 0000 0000 0000 0000
000002b0: 0000 0000 0000 0000 0000 0000 0000 0000
000002c0: 0000 0000 0000 0000 0000 0000 0000 0000
000002d0: 0000 0000 0000 0000 0000 0000 0000 0000
000002e0: 0000 0000 0000 0000 0000 0000 0000 0000
000002f0: 0000 0000 0000 0000 0000 0000 0000 0000
00000300: 0000 0000 0000 0000 0000 0000 0000 0000
00000310: 0000 0000 0000 0000 0000 0000 0000 0000
00000320: 0000 0000 0000 0000 0000 0000 0000 0000
00000330: 0000 0000 0000 0000 0000 0000 0000 0000
00000340: 0000 0000 0000 0000 0000 0000 0000 0000
00000350: 0000 0000 0000 0000 0000 0000 0000 0000
00000360: 0000 0000 0000 0000 0000 0000 0000 0000
00000370: 0000 0000 0000 0000 0000 0000 0000 0000
00000380: 0000 0000 0000 0000 0000 0000 0000 0000
00000390: 0000 0000 0000 0000 0000 0000 0000 0000
000003a0: 0000 0000 0000 0000 0000 0000 0000 0000
000003b0: 0000 0000 0000 0000 0000 0000 0000 0000
000003c0: 0000 0000 0000 0000 0000 0000 0000 0000
000003d0: 0000 0000 0000 0000 0000 0000 0000 0000
000003e0: 0000 0000 0000 0000 0000 0000 0000 0000
000003f0: 0000 0000 0000 0000 0000 0000 0000 0000
