config/results/FighterUpdated3/My Behavior.onnx (onnx, 282099 bytes, 8 tensors)

58 f4 [9]
0	0x40adc002	5.4296885
1	0x3ad1e52e	0.0016013735
2	0x397384f8	0.0002322382
3	0x40aec328	5.461323
4	0x3ad209a2	0.0016024599
5	0x397384f8	0.0002322382
6	0x3e4c62ac	0.19959515
7	0x397384f8	0.0002322382
8	0x3ea24a11	0.31697133

action_model._discrete_distribution.branches.0.bias f4 [6]
0	0x3d23333b	0.03984378
1	0x3d3d7bf7	0.0462608
2	0xbcac8a0b	-0.021061918
3	0x3d09cf7a	0.03364513
4	0xbd89dfe7	-0.06732159
5	0xbdb13625	-0.086529054

action_model._discrete_distribution.branches.0.weight f4 [6, 256]
0	0xbba07ae1	-0.004897461
1	0x3d6f8296	0.058474146
2	0x3d21fdde	0.039548747
3	0x3d2cb44a	0.042164125
4	0x3ccdd703	0.02512694
5	0x3d399d77	0.045316186
6	0x3d30fc3c	0.0432093
7	0x3c178f40	0.009250462
8	0x3d385029	0.04499832
9	0x3d7aab33	0.061198425
10	0x3d25f830	0.040519893
11	0x3d15bbf3	0.036556195
12	0x3c2595ce	0.010106517
13	0x3d7a656d	0.061131883
14	0x3d490445	0.049076337
15	0xbcc4337b	-0.023950329
16	0x3cd443ef	0.0259113
17	0xbd3cff84	-0.046142116
18	0x3d80465f	0.06263422
19	0x3cf460f7	0.029831393
20	0x3d6c1793	0.05763967
21	0x3d84adf8	0.064784944
22	0x3cf35f62	0.029708568
23	0x3d70351c	0.0586444
24	0x3d805615	0.06266419
25	0xbcb4b58f	-0.02205923
26	0x3d2da78f	0.042396124
27	0x3d6051d4	0.054765537
28	0x3d39d8c9	0.045372758
29	0x3d538a85	0.051645774
30	0xbcf54f7c	-0.029945128
31	0x3d770377	0.06030604
32	0x3d0f9b69	0.03506032
33	0x3d801beb	0.06255325
34	0x3d72186f	0.059105333
35	0x3d2dc0b5	0.042420108
36	0xbabebb50	-0.0014551673
37	0x3d58279b	0.052772146
38	0x3d27380f	0.040824946
39	0x3d317b26	0.043330334
40	0x3d599ee2	0.053130038
41	0x3d57005e	0.052490585
42	0x3cb60f8a	0.022224206
43	0x3c0fa885	0.0087682055
44	0x3d810595	0.06299893
45	0xbc49e367	-0.012322283
46	0x3a1b6b1f	0.0005928743
47	0x3d2506f7	0.040289845
48	0x3d415cec	0.047207758
49	0x3d3f4eb7	0.046705928
50	0x3d710c53	0.058849644
51	0x3d3f429d	0.046694387
52	0x3c65047b	0.013978119
53	0x3d40913b	0.047013503
54	0x3cf511e7	0.029915763
55	0x3ab09477	0.001347198
56	0x3d645da5	0.05575337
57	0xbd81dc36	-0.0634083
58	0x3c0ab1cf	0.008465244
59	0x3d953332	0.07285155
60	0x3d026cbe	0.031841986
61	0x3c52857e	0.01284921
62	0x3c12c4d2	0.008958058
63	0x3caf056e	0.021364894
64	0x3d79219d	0.06082307
65	0x3d63deec	0.055632517
66	0x3c09b7b7	0.008405617
67	0x3d4589ea	0.04822723
68	0x3d14a578	0.036290616
69	0xbc985f43	-0.018600112
70	0x3d515c2d	0.051113296
71	0x3d1b4d3c	0.037915453
72	0x3d27de5d	0.040983547
73	0x3cc59639	0.024119483
74	0x3cd822ac	0.02638372
75	0x3cdf21b7	0.027237756
76	0x3c4c3420	0.012463599
77	0x3c8f2610	0.017474204
78	0x3d81aa74	0.063313395
79	0x3cc1a423	0.023637837
80	0x3cf97e8f	0.030455856
81	0xbc44854f	-0.011994674
82	0x3d2f5e98	0.04281482
83	0x3cb8c9aa	0.022557098
84	0x3cd29785	0.025707016
85	0xbd02b15b	-0.03190742
86	0xbccb8519	-0.02484374
87	0x3cad32d2	0.021142397
88	0x3ae15f71	0.0017194581
89	0x3d3febb8	0.04685566
90	0xbd30d3f7	-0.043170895
91	0x3d575ef8	0.052580804
92	0xbce07c4b	-0.027403018
93	0x3bac2072	0.005252891
94	0x3a9383d8	0.0011254502
95	0xbbb1ab5a	-0.005422038
96	0x3cc190be	0.023628589
97	0x3d59a63a	0.05313704
98	0x3d829398	0.063758075
99	0x3ce4de2d	0.027937973
100	0x3d65e84c	0.05612974
101	0x3d2a3987	0.04155877
102	0x3d094fe5	0.03352346
103	0x3d247886	0.040154003
104	0x3d07cc38	0.033153743
105	0x3c01bdcc	0.007918786
106	0x3cc2308b	0.023704788
107	0xbd0d436c	-0.034488127
108	0x3d15f399	0.036609266
109	0x3b8acc91	0.004235812
110	0xbb9d1ede	-0.0047949394
111	0xbba5b4c5	-0.00505695
112	0x3c9fdc17	0.019514127
113	0x3ce26356	0.027635258
114	0xbc3f8f83	-0.011691931
115	0x3d501856	0.05080446
116	0x3d288cad	0.041149784
117	0xbc88af6e	-0.016685214
118	0x3d31560e	0.04329496
119	0x3d0e63b6	0.03476306
120	0xbb1fc34a	-0.0024377876
121	0x3d24b817	0.040214624
122	0x3cdbf938	0.026852235
123	0x3d60ff30	0.054930866
124	0x3cebe6d8	0.028796598
125	0x3d3d6761	0.046241168
126	0x3d20ee7e	0.039289944
127	0x3cffc1f1	0.031220408
128	0x3d34c947	0.044137266
129	0x3d42457c	0.047429547
130	0x3d4e8a49	0.050424848
131	0x3d3af4c0	0.045643568
132	0xbb910853	-0.004426041
133	0xbd87c304	-0.06628993
134	0x3d1c622f	0.038179573
135	0x3d64a767	0.05582371
136	0x3cfa487e	0.030552145
137	0x3b24d7f1	0.0025153125
138	0x3c80613c	0.015671365
139	0x3d95b4d2	0.07309879
140	0x3c97ad9c	0.0185154
141	0xbd262e1f	-0.04057133
142	0xbd27d675	-0.040976007
143	0x3d1613a8	0.03663984
144	0x3dc84062	0.09777905
145	0x3d75f75b	0.06005035
146	0x3d39ec83	0.04539157
147	0x3d7117fa	0.058860756
148	0xbd82dab1	-0.06389368
149	0x3d70bcca	0.058773793
150	0x3c01e2a9	0.007927575
151	0x3c86aca8	0.01643975
152	0x3d3cadcd	0.046064187
153	0x3d5db221	0.054124955
154	0x3d09cbf7	0.03364178
155	0x3d0c719a	0.034288026
156	0x3c2bcfd5	0.010486563
157	0x3d5f28eb	0.05448238
158	0xba989a8a	-0.0011642736
159	0x3d91f9b7	0.071277075
160	0x3cc6c8f7	0.02426575
161	0x3d43db6f	0.04781669
162	0x3d852998	0.06502074
163	0xbd1b0cb6	-0.03785392
164	0x3d8b9c6f	0.06816947
165	0xbc6ee8d6	-0.01458188
166	0x3d44a838	0.04801199
167	0x3d4313cf	0.047626313
168	0x3d3e2239	0.046419356
169	0x3cd294c7	0.025705708
170	0x3c8140ac	0.015777908
171	0x3d64b3a4	0.05583538
172	0x3cd8a8c0	0.026447654
173	0x3d546f41	0.051863912
174	0x3c5fc0cf	0.013656809
175	0xbc83813e	-0.016052838
176	0xbd628721	-0.05530465
177	0x3d277728	0.04088512
178	0x3bebd637	0.0071971673
179	0x3d3ece27	0.04658332
180	0x3ceedec7	0.029158963
181	0x3d77afcb	0.060470384
182	0x3ce28b48	0.027654305
183	0xbd0063c9	-0.031345163
184	0xbba1caa4	-0.0049374867
185	0xbd82aa30	-0.06380117
186	0xbaaa4eac	-0.0012993417
187	0x3d662243	0.05618502
188	0x3d40ebd0	0.04709989
189	0x3b6ab147	0.0035811232
190	0x3cf90d9d	0.030402
191	0x3d1880f4	0.037232354
192	0xbbbd20a6	-0.0057717143
193	0x3ce0e1f3	0.027451491
194	0x3cbba4a0	0.022905648
195	0x3d2f9ec5	0.042876024
196	0x3da0ee6c	0.07857975
197	0x3d2ea596	0.042638384
198	0x3d4f1c4b	0.05056409
199	0x3d038195	0.032106
200	0xbd39e807	-0.045387294
201	0xbbe16794	-0.0068788026
202	0x3d801519	0.06254024
203	0x3d162264	0.03665389
204	0x3d408f66	0.047011755
205	0xbce4b8ae	-0.027920093
206	0x3d0d4918	0.034493536
207	0x3c8e1263	0.017342752
208	0x3abda5fb	0.0014469022
209	0x3ce3db57	0.02781455
210	0x3d1af0ee	0.037827425
211	0x3cc94cf7	0.024572833
212	0x3d7b1cf1	0.061306898
213	0x3c5370c0	0.0129053
214	0x3d5a6c60	0.05332601
215	0x3d5e637c	0.054294094
216	0xbbbe4b8f	-0.005807347
217	0xb888743b	-6.506635e-05
218	0xbc9e3bc5	-0.01931561
219	0x3d5064de	0.050877444
220	0x3d98c853	0.07460084
221	0x3d424187	0.047425773
222	0x3d0fa767	0.035071757
223	0x3d22d39e	0.039752595
224	0x3d3adee3	0.045622718
225	0x3d25eb4e	0.040507607
226	0x3d3b036e	0.045657568
227	0x3d49b4af	0.04924458
228	0x3d807ecf	0.06274187
229	0x3d6ad10a	0.05732826
230	0x3c0f91cc	0.008762788
231	0x3d86e441	0.06586505
232	0x3d623d91	0.055234496
233	0x3d1c215c	0.03811775
234	0x3d864cce	0.06557618
235	0x3c666a6d	0.01406346
236	0x3d04bcb2	0.032406516
237	0x3c9bd132	0.01902065
238	0x3d582977	0.05277392
239	0x3d8efd6c	0.0698193
240	0x3d966186	0.0734282
241	0x3d1d0ffc	0.038345322
242	0xbd109a2d	-0.035303283
243	0x3d542393	0.05179174
244	0xbd94a31f	-0.072576754
245	0xba83c281	-0.0010052474
246	0x3d34f03e	0.044174425
247	0x3d72ba8f	0.059259947
248	0x3cf51567	0.029917432
249	0x3d02ebe6	0.03196325
250	0x3d1f238d	0.038852263
251	0x3cf966c4	0.03044451
252	0x3d600fc2	0.054702528
253	0xbb7a2bc3	-0.0038173057
254	0x3d1b8ca4	0.037975922
255	0xbcd1830f	-0.025575189

network_body.linear_encoder.seq_layers.0.bias f4 [256]
0	0x3d94f2c2	0.07272865
1	0x3e0b2908	0.13589871
2	0x3da1cb54	0.0790011
3	0x3dc52ef4	0.09628096
4	0xbdb5b3bf	-0.088721745
5	0xbd98ee22	-0.07467295
6	0xbdd6774b	-0.10471972
7	0x3daefee7	0.085447125
8	0x3db06d18	0.08614558
9	0xbc41e718	-0.011834882
10	0xbd64af83	-0.055831444
11	0xbd939953	-0.07206979
12	0xbe04b710	-0.12960458
13	0x3dbd2995	0.09236447
14	0x3da69c4f	0.08135282
15	0x3d99baa9	0.07506306
16	0xbc93b70c	-0.01803162
17	0xbdc7d592	-0.09757532
18	0xbb0981bd	-0.002098187
19	0x3d738a5a	0.059458114
20	0x3df897b2	0.121383086
21	0xbddf7115	-0.109102406
22	0xbc6d4dd0	-0.014483884
23	0x3dc1e1ec	0.09466919
24	0x3e23c3c3	0.15992646
25	0x3d7e8166	0.062135123
26	0xbd89c937	-0.06727832
27	0xbdca6fb1	-0.09884585
28	0x3d2336e2	0.039847262
29	0x3e022ebf	0.12713145
30	0xbdd5c2a8	-0.10437518
31	0x3d7292ed	0.05922215
32	0xbdde5c3d	-0.10857437
33	0xbe025da4	-0.12731034
34	0x3c345728	0.011007108
35	0xbdf2af56	-0.11849849
36	0xbdbb016c	-0.091311306
37	0xbc40be62	-0.011764141
38	0x3d7ba943	0.061440717
39	0xbdd931ab	-0.106051765
40	0xbdccbe86	-0.09997277
41	0x3d842f91	0.06454385
42	0x3dd9fa55	0.1064345
43	0x3d8b7375	0.06809131
44	0x3ddaa86d	0.10676656
45	0xbcb46403	-0.022020346
46	0x3c3cea75	0.011530508
47	0xbdd080d9	-0.10180826
48	0x3bfaa3fe	0.007648944
49	0x3d4e5793	0.050376486
50	0x3d9dfc2a	0.07714112
51	0x3c94f6e2	0.01818413
52	0x3d22f2da	0.039782383
53	0x3e13acd7	0.14421402
54	0x3d88e05d	0.06683419
55	0x3d8e4429	0.06946594
56	0x3e04b3d3	0.12959222
57	0xbd7d472e	-0.06183546
58	0x3df7e5e9	0.12104399
59	0xbdcde81f	-0.10054039
60	0x3b3b2692	0.0028556925
61	0x3d2de437	0.04245397
62	0x3cd78f05	0.026313314
63	0xbc76eba5	-0.0150708305
64	0x3de5ec11	0.11226667
65	0x3d9b1d08	0.07573897
66	0x3dda2654	0.10651842
67	0x3d64d97b	0.055871468
68	0x3d031202	0.031999595
69	0xbdba824e	-0.09106885
70	0x3d0cfe5b	0.03442226
71	0x3d569833	0.052391242
72	0xbd448b0f	-0.04798418
73	0x3d0ef1d4	0.034898594
74	0x3c1b5e5c	0.009482946
75	0x3d82345f	0.06357645
76	0xbcfc0acc	-0.030766867
77	0x3d95d61e	0.0731623
78	0xbdc3c763	-0.095595144
79	0x3d9dcaa5	0.07704667
80	0x3da48ce1	0.08034683
81	0xbd45c734	-0.048285678
82	0x3ca05c2c	0.019575201
83	0x3d8fb195	0.07016293
84	0x3e1fa456	0.15590033
85	0x3d0ffa14	0.035150602
86	0xbdb12127	-0.086489014
87	0xbd45db72	-0.048304982
88	0x3d3de270	0.046358526
89	0x3d82fc7d	0.063958146
90	0x3de7e1e1	0.1132238
91	0x3d71028a	0.058840312
92	0xbdc2963c	-0.09501311
93	0xbd84a76e	-0.06477247
94	0xbd3f22c3	-0.04666401
95	0xbda56216	-0.08075349
96	0xbdde8eef	-0.10867106
97	0x3d752686	0.059851192
98	0xbd2aed5f	-0.04173028
99	0x3e0e3ed1	0.1389115
100	0x3da187d2	0.07887234
101	0xbd84bf11	-0.064817555
102	0xbd8ff351	-0.07028831
103	0x3dbb5d46	0.0914865
104	0xbdf2bfee	-0.11853014
105	0x3dc2d30a	0.09512909
106	0xbdeb7460	-0.11496806
107	0x3d9658c8	0.073411524
108	0x3db7b0d1	0.08969272
109	0xbdb8c93e	-0.09022759
110	0xbdd1c14c	-0.102419466
111	0x3da4cc6f	0.08046805
112	0x3dbfaa64	0.09358671
113	0x3e0d271c	0.1378445
114	0xbcbeb718	-0.023280665
115	0xbb63e3ac	-0.0034773154
116	0x3de4aca0	0.11165738
117	0xbdb9d948	-0.09074646
118	0xbd025492	-0.031818934
119	0x3d7cdf94	0.06173666
120	0x3db7025b	0.08935996
121	0xbcd10a2a	-0.025517542
122	0xbda9a1d4	-0.082828194
123	0x3e09cc32	0.134568
124	0xbde59030	-0.11209142
125	0x3d4d9fa9	0.050201092
126	0x3e0fc274	0.14039022
127	0x3dab6275	0.083683886
128	0x3e014406	0.12623605
129	0x3ca4ced3	0.020118153
130	0xbda642be	-0.08118199
131	0xbdd71009	-0.10501105
132	0x3d837d3f	0.06420373
133	0x3d187a27	0.03722587
134	0x3dc78f50	0.097441316
135	0xbd996784	-0.07490447
136	0x3df97656	0.12180774
137	0xbdcda8c5	-0.10041956
138	0x3e0000c9	0.125003
139	0x3ded1d90	0.11577904
140	0x3d936441	0.07196856
141	0x3dab2898	0.08357352
142	0x3db54378	0.08850759
143	0x3cd57491	0.02605656
144	0x3dfd636b	0.12372478
145	0x3d4f5c11	0.05062491
146	0xbc115a74	-0.008871663
147	0x3dd5cf25	0.104399
148	0xbdd2cd94	-0.10293117
149	0x3d8f49f3	0.069965266
150	0xbc0b3fe8	-0.008499123
151	0x3d9ae634	0.07563439
152	0x3ddf453e	0.10901879
153	0x3d20b392	0.03923375
154	0xbe0daf3a	-0.13836375
155	0xbdba2ee6	-0.090909764
156	0x3d785181	0.060624603
157	0x3d8548e7	0.06508046
158	0x3dd1580b	0.10221871
159	0x3da29f34	0.07940522
160	0x3df6d2a9	0.12051899
161	0x3e00c87e	0.12576482
162	0x3e18f07a	0.14935485
163	0x3d93492f	0.07191693
164	0x3dcb0676	0.09913342
165	0xbcd9bd1e	-0.026579436
166	0x3dd15aee	0.102224216
167	0x3dab44e2	0.08362748
168	0x3dd9656e	0.10615049
169	0x3da763ad	0.081733085
170	0x3de9f92f	0.11424481
171	0x3d99eb30	0.075155616
172	0xbe06660b	-0.13124864
173	0x3d961e11	0.073299535
174	0xbd97312f	-0.07382428
175	0x3d220136	0.039551936
176	0x3e095d26	0.1341444
177	0xbd90c81c	-0.07069418
178	0x3d9fd2c0	0.07803869
179	0x3dfa5586	0.122233436
180	0x3dc9e73f	0.0985856
181	0x3de3ecf3	0.11129179
182	0xbd83a3da	-0.064277366
183	0xbdf5f07c	-0.120087594
184	0x3d3ea6fc	0.046545967
185	0xbd76dead	-0.060270954
186	0xbdd3da5e	-0.103443846
187	0x3d46da30	0.048547924
188	0x3dca0eac	0.0986608
189	0xbd2b23ab	-0.041782063
190	0x3df49566	0.11942558
191	0x3da2427c	0.07922837
192	0xbcf5a3a8	-0.029985264
193	0x3c1ba219	0.009499096
194	0xbdd84a6b	-0.10561069
195	0xbdd3ff7d	-0.10351465
196	0x3d8c7ff3	0.06860342
197	0xbdc54122	-0.09631564
198	0xbd20ed69	-0.039288912
199	0xbd5133b5	-0.051074702
200	0x3dfb12fd	0.12259481
201	0x3da038d9	0.07823343
202	0x3dfbc649	0.12293679
203	0x3d94e840	0.07270861
204	0x3d63103f	0.055435415
205	0x3b50c8cc	0.0031857966
206	0xbd6351a3	-0.055497777
207	0x3d93f818	0.072250545
208	0x3d178328	0.036990315
209	0x3dfefac3	0.12450173
210	0xbdca8560	-0.098887205
211	0xbd9a17ad	-0.07524047
212	0x3d5789ad	0.052621532
213	0x3da0ea71	0.07857216
214	0xbdecb382	-0.11557676
215	0x3d96e731	0.07368315
216	0x3d184a80	0.037180424
217	0xbd20c617	-0.039251413
218	0x3e07dbc5	0.13267429
219	0xbb7a2e6a	-0.0038174638
220	0xbd406e27	-0.04698005
221	0x3e0e89ad	0.13919707
222	0xbd067bba	-0.03283284
223	0xbd72db7e	-0.059291355
224	0xbcb8f604	-0.022578247
225	0xbd24f925	-0.040276665
226	0xbd44eaaf	-0.048075374
227	0x3dd141f1	0.102176555
228	0x3d0f8fbf	0.035049196
229	0x3def015a	0.1167018
230	0xbd510f2e	-0.051039867
231	0xbd672fe9	-0.056442175
232	0x3d8034b5	0.06260053
233	0x3d626311	0.05527026
234	0xbdc83986	-0.09776597
235	0x3d94192f	0.07231366
236	0x3c6a96e7	0.0143182045
237	0x3d8e6e90	0.06954682
238	0xbd66f6dd	-0.05638777
239	0x3d9e2404	0.07721713
240	0x3dabd26d	0.08389745
241	0x3dbdc801	0.09266663
242	0x3d82be6d	0.06383977
243	0xbe0d15e1	-0.13777877
244	0x3dc625b5	0.09675161
245	0xbc98cd21	-0.0186525
246	0xbd61b8a4	-0.055107728
247	0x3de39c13	0.11113753
248	0xbd526a34	-0.051370814
249	0xbd70596f	-0.05867904
250	0x3cbde241	0.023179175
251	0x3e0ef519	0.13960685
252	0x3deca477	0.11554807
253	0xbd37e5f0	-0.04489702
254	0x3dd5e8e7	0.10444813
255	0x3dbb7054	0.09152284

network_body.linear_encoder.seq_layers.0.weight f4 [256, 9]
0	0xbebc33ac	-0.36758173
1	0xbe842cc2	-0.25815398
2	0x3ee110f4	0.43958247
3	0x3ea32951	0.3186746
4	0xbebc75b4	-0.3680855
5	0x3e7b92ff	0.24567793
6	0x3e5ae484	0.21376234
7	0x3e8de678	0.27714896
8	0x3d22a5ff	0.039709087
9	0x3e5daacd	0.21647187
10	0xbf2fb3ca	-0.6863371
11	0x3ce02bf0	0.027364701
12	0x3e33b807	0.1755067
13	0x3e04ca39	0.12967767
14	0x3da361b6	0.07977621
15	0xbf1ccd75	-0.61251
16	0x3d221330	0.03956908
17	0xbf430eae	-0.76194274
18	0xbec51ca7	-0.38498423
19	0x3e84f051	0.25964597
20	0x3e527512	0.20552471
21	0x3e24155b	0.16023771
22	0x3ddbe6b3	0.10737362
23	0x3e869fd8	0.26293826
24	0xbe5453dc	-0.20735115
25	0xbdb4a134	-0.088198096
26	0xbdf2b883	-0.11851599
27	0xbeebf27e	-0.46083444
28	0x3dff30dd	0.12460492
29	0x3d9980e8	0.0749529
30	0x3f10f4ef	0.5662374
31	0x3dd2cf8f	0.10293495
32	0xbe8a4ca3	-0.27011594
33	0x3e213d06	0.15745935
34	0xbef38050	-0.47558832
35	0x3ee307cb	0.44341883
36	0x3f46f3c9	0.77715737
37	0xbebc5a1f	-0.36787507
38	0x3eaa873b	0.33306298
39	0xbe831696	-0.2560317
40	0xbe691894	-0.22763282
41	0x3eb0c848	0.34527802
42	0xbe33413f	-0.17505358
43	0x3d08c638	0.03339216
44	0xbdb5a27a	-0.088688806
45	0x3f6011e1	0.8752728
46	0x3df7a142	0.12091304
47	0x3f018e88	0.5060811
48	0xbe9842f8	-0.29738593
49	0xbd5a26b3	-0.053259563
50	0xbea0e05b	-0.3142117
51	0xbdd884f0	-0.10572231
52	0xbea0a379	-0.3137472
53	0xbee86137	-0.4538667
54	0x3f104726	0.56358564
55	0x3de7259b	0.112864695
56	0x3eb0c812	0.34527642
57	0xbe3fa766	-0.18716201
58	0x3e01cdae	0.12676117
59	0xbe27670c	-0.16347903
60	0xbcebb8a8	-0.028774574
61	0x3e54adcf	0.20769428
62	0xbe423cdf	-0.18968533
63	0xbcf397aa	-0.029735405
64	0x3ea2313b	0.31678185
65	0x3b4f8c0c	0.0031669168
66	0xbe5c955c	-0.21541351
67	0xbdb59b49	-0.08867509
68	0xbe991370	-0.29897642
69	0xbedbd3b4	-0.42934954
70	0x3e1062dc	0.14100212
71	0x3ea45ed8	0.3210361
72	0xbdea33ca	-0.11435659
73	0x3e768850	0.24075437
74	0xbcd6b4f3	-0.02620933
75	0xbd58239d	-0.05276834
76	0x3d8f9d0f	0.070123784
77	0xbd4372ac	-0.04771678
78	0xbe99306f	-0.29919764
79	0xbf28b11e	-0.6589526
80	0xbe7a5cf3	-0.2444952
81	0xbea3bd2e	-0.3198027
82	0xbd95e59d	-0.07319186
83	0x3b7d3b3c	0.0038640043
84	0xbeeaed65	-0.45884243
85	0x3ee056f7	0.4381635
86	0xbc4b0202	-0.012390615
87	0xbdd4735d	-0.10373566
88	0xbdb9af64	-0.09066656
89	0xbed7b71f	-0.42131898
90	0xbe39c03a	-0.18139735
91	0xbeb19412	-0.3468328
92	0x3df85b1b	0.12126752
93	0x3e0f4ebf	0.13994883
94	0xbe5a1ba5	-0.21299608
95	0x3e6d8332	0.23194578
96	0x3f1b240a	0.60601866
97	0x3c829670	0.015940875
98	0x3d4059e5	0.04696073
99	0xbdb6c0e1	-0.089235075
100	0x3f344877	0.7042307
101	0x3efcffd8	0.49413943
102	0xbe42b374	-0.19013768
103	0xbe26d7bb	-0.16293232
104	0x3c33b61a	0.010968709
105	0x3d919b50	0.07109702
106	0x3efe27c0	0.49639702
107	0x3ea70407	0.3262026
108	0x3f07b204	0.53006005
109	0xbed9c98e	-0.42536587
110	0x3f01e813	0.5074474
111	0xbe4201a3	-0.18945937
112	0xbc195322	-0.009358199
113	0x3db103ef	0.086433284
114	0x3ed0f506	0.40811938
115	0xbe5d3944	-0.21603876
116	0x3e6e42a6	0.23267612
117	0xbe8d787b	-0.27630982
118	0xbeeb19f1	-0.4591823
119	0xbea93872	-0.33050877
120	0x3d974660	0.0738647
121	0xbd965fd7	-0.07342499
122	0x3dcddccc	0.10051879
123	0xbdec67cc	-0.11543235
124	0x3dba4968	0.090960324
125	0x3d15670b	0.036475223
126	0xbe5272a1	-0.2055154
127	0xbc14d49e	-0.009083895
128	0x3e27a8fa	0.16373053
129	0x3eb8efe7	0.3612053
130	0x3db5a2f5	0.08868972
131	0x3e4fc8d4	0.20291454
132	0x3e953fea	0.29150325
133	0x3caa91d4	0.02082149
134	0x3e332d14	0.17497665
135	0xbf10b015	-0.5651868
136	0x3eace3d1	0.3376756
137	0xbcb2c40e	-0.021822002
138	0x3e1174f8	0.14204776
139	0x3e262e70	0.16228652
140	0x3ea2647a	0.31717283
141	0x3d812d05	0.06307415
142	0xbee2da93	-0.44307384
143	0xbed20f75	-0.41027418
144	0x3e212cad	0.15739699
145	0xbe2b218f	-0.1671202
146	0xbd84b441	-0.06479693
147	0xbe787105	-0.24261864
148	0x3f0643f5	0.52447444
149	0xbf206692	-0.6265651
150	0x3f33d81a	0.7025162
151	0x3d124c06	0.035717033
152	0xbf189bfc	-0.59613013
153	0x3db0e725	0.08637837
154	0x3d705cfc	0.058682427
155	0xbdc1243c	-0.09430739
156	0xbf09f308	-0.5388646
157	0xbe71cc97	-0.23613201
158	0xbe168acb	-0.14701383
159	0x3e214313	0.15748243
160	0xbe274edb	-0.16338675
161	0x3ed296fd	0.4113082
162	0x3d092895	0.033485968
163	0x3eb62d78	0.35581565
164	0x3e10371c	0.14083523
165	0xbf4bca1c	-0.7960527
166	0xbe1597c1	-0.14608671
167	0xbecc7332	-0.39931637
168	0xbf12cc41	-0.57342917
169	0xbee8d0a7	-0.4547169
170	0xbe984431	-0.29739526
171	0xbf2ea460	-0.68219566
172	0xbe1e6f35	-0.1547211
173	0xba55befa	-0.0008153763
174	0x3ea64f62	0.3248244
175	0x3e44f219	0.19232978
176	0xbea1751e	-0.31534666
177	0x3dabeb75	0.08394519
178	0xbe1ab5b4	-0.15108377
179	0xbe0299c1	-0.12753965
180	0xbe30086a	-0.1719071
181	0xbe018b3f	-0.12650774
182	0x3ea97e0d	0.33103982
183	0x3f13058d	0.57430345
184	0xbd959a8d	-0.07304869
185	0x3e3dc25f	0.18531178
186	0xbc464ed5	-0.012103756
187	0x3df2c004	0.1185303
188	0xbe15c751	-0.14626814
189	0x3ea78625	0.32719532
190	0x3e40f187	0.18842135
191	0x3f72010e	0.9453286
192	0xbef9ea6b	-0.4881166
193	0xbd89a54a	-0.067209795
194	0xbe428718	-0.18996847
195	0x3c4abb43	0.012373748
196	0xbe95008d	-0.29101983
197	0xbe6ea1af	-0.23303865
198	0x3db336c1	0.08750678
199	0x3f325bff	0.69671625
200	0xbdf1ccbe	-0.118066296
201	0xbddb3df2	-0.107051745
202	0xbdc4a6c0	-0.096021175
203	0xbe8a724c	-0.27040327
204	0xbe3dbcfe	-0.18529126
205	0xbf159540	-0.5843086
206	0xbed51208	-0.4161532
207	0x3e6b5211	0.22980525
208	0x3eb23810	0.34808397
209	0x3d8d5776	0.069014475
210	0x3e9d1691	0.3068128
211	0x3ec4e0a9	0.38452652
212	0xbed2e69a	-0.4119156
213	0xbea5b832	-0.32367092
214	0x3d47fd14	0.04882534
215	0xbde2fd76	-0.110835
216	0x3f13c1b5	0.5771745
217	0x3f61e0f1	0.8823386
218	0xbd3dee26	-0.046369694
219	0x3eef2330	0.46706533
220	0xbf18c0ff	-0.5966949
221	0xbeb746fa	-0.35796338
222	0x3d34f3fb	0.04417799
223	0xbee06f4e	-0.4383492
224	0x3f4b2276	0.7934946
225	0xbeb253d7	-0.3482959
226	0x3eacf0c1	0.3377743
227	0xbe97c228	-0.29640317
228	0x3e6facf7	0.23405825
229	0x3eb7b622	0.35881144
230	0x3d1a0aec	0.037608072
231	0xbe19ba50	-0.15012479
232	0x3e12ef5e	0.14349124
233	0x3dc8dfb8	0.09808296
234	0x3c95b160	0.018273056
235	0xbceb7c5a	-0.028745819
236	0x3e0c8fff	0.13726805
237	0xbca053df	-0.019571243
238	0xbeff4179	-0.4985464
239	0x3eecbfd4	0.46240103
240	0x3f3440b8	0.7041125
241	0x3eaa0a49	0.33210972
242	0xbdeabc1b	-0.114616595
243	0x3ea10f7c	0.31457126
244	0x3e68364a	0.2267696
245	0x3e75ff2b	0.2402312
246	0xbeecbfc8	-0.46240067
247	0x3ec81135	0.39075628
248	0x3ec7032e	0.38869613
249	0xbc0c158e	-0.008550061
250	0x3f1cc93e	0.6124457
251	0xbd89d544	-0.0673013
252	0xbf19ddf5	-0.60104305
253	0x3ea1f16b	0.316295
254	0x3b04c030	0.0020256154
255	0xbe3c9606	-0.18416604

network_body.linear_encoder.seq_layers.2.bias f4 [256]
0	0x3d818950	0.063250184
1	0x3cba7959	0.022762941
2	0xbdb7b8c4	-0.08970788
3	0xbba08d3e	-0.00489965
4	0x3b9140d5	0.0044327774
5	0xbd78877c	-0.060676083
6	0xbde0ce26	-0.1097682
7	0xbdd88a1c	-0.10573217
8	0xbbc67179	-0.0060560075
9	0x3cd7dd51	0.02635065
10	0x3d96750d	0.073465444
11	0x3da8ef8f	0.08248817
12	0x3c3f596c	0.011679035
13	0xbd945b0b	-0.072439276
14	0xbd6ace50	-0.05732566
15	0x3d7a015c	0.061036453
16	0xbd4604fd	-0.0483446
17	0x3dedbe90	0.116086125
18	0xbcf6b3df	-0.030115066
19	0x3d7697dc	0.060203418
20	0xbdc7386b	-0.09727558
21	0x3dfc59b7	0.12321799
22	0x3e061257	0.13092934
23	0xbce55e95	-0.027999202
24	0xbd5fcac8	-0.054636747
25	0x3d94258a	0.072337225
26	0xbd138ff6	-0.036025964
27	0xbb449ab3	-0.0029999434
28	0xbdae0453	-0.084969185
29	0x3d8980be	0.06714009
30	0x3da4fbb4	0.08055821
31	0x3b14b891	0.0022693018
32	0x3df11fb8	0.11773628
33	0xbdcfd5bb	-0.10148188
34	0xbdb7b1a8	-0.08969432
35	0xbcecd4c1	-0.028910043
36	0xbcb1c3ac	-0.021699749
37	0x3cff43c0	0.031160235
38	0xbbc0aaf9	-0.0058797565
39	0xbc592ea6	-0.013255751
40	0x3cd8705a	0.02642076
41	0xbd894600	-0.067028046
42	0xbe0ba389	-0.13636602
43	0xbd383395	-0.044971067
44	0xbd2ecf35	-0.042678077
45	0x3d339e93	0.0438524
46	0xbcac5f92	-0.021041665
47	0x3dcc45be	0.0997424
48	0x3dbb857f	0.09156322
49	0xbda96429	-0.08271057
50	0x3db2b6c8	0.08726269
51	0x3d90bcbe	0.0706725
52	0x3cf06a06	0.02934743
53	0x3cd0b0bb	0.025474897
54	0xbd12e5d8	-0.035863727
55	0x3d836788	0.064162314
56	0x3ce816ea	0.028331239
57	0x3d3fd143	0.046830427
58	0x3d92f61f	0.0717585
59	0x3cbb6a89	0.022877948
60	0xbe0dc435	-0.13844378
61	0xbd87c9b6	-0.0663027
62	0xbe0619e8	-0.1309582
63	0xbc80190a	-0.01563694
64	0xbd90a0aa	-0.07061894
65	0xbdbdd383	-0.09268858
66	0x3dc2f990	0.095202565
67	0xbe0242ea	-0.12720838
68	0xbdf79397	-0.120886974
69	0x3d8a3989	0.06749255
70	0x3dc4b7c0	0.0960536
71	0xbd3320af	-0.04373234
72	0xbd821824	-0.06352261
73	0x3cd98bf7	0.026555998
74	0x3d68072e	0.056647472
75	0x3d75e5cd	0.06003361
76	0x3debdf5c	0.11517212
77	0xbe08eca9	-0.13371529
78	0x3dcfae79	0.101407
79	0xbddde493	-0.10834613
80	0xbe1f5d31	-0.15562893
81	0x3df86d53	0.12130227
82	0xbd9cd0e4	-0.0765703
83	0xbd7a6ef0	-0.061140954
84	0xbd7edcad	-0.06222217
85	0xbcaf260d	-0.021380449
86	0x3dfa0743	0.12208416
87	0xbd1015d2	-0.03517706
88	0x3e15063e	0.14553162
89	0xbd833c94	-0.06408039
90	0x3dab6ee2	0.083707586
91	0xbd87e14c	-0.06634769
92	0x3dc28b12	0.09499182
93	0x3d8f069b	0.06983682
94	0x3d1552dc	0.036455974
95	0xbd6c7220	-0.057726026
96	0x3e046f3b	0.12933056
97	0x3df13f3f	0.11779641
98	0x3ddc09a1	0.10744024
99	0x3ce739e7	0.028225852
100	0x3dfcf50d	0.12351427
101	0x3db9ab8a	0.090659216
102	0x3de1c23a	0.11023374
103	0xbdeecdcc	-0.116603464
104	0xbe154fd5	-0.14581235
105	0x3dd62c68	0.104576886
106	0xbc8e102e	-0.0173417
107	0x3db279ad	0.08714614
108	0x3d834974	0.064104944
109	0x3ca68cc4	0.020330794
110	0x3d256e3d	0.040388335
111	0x3d9ad663	0.07560422
112	0x3c6c7805	0.014432912
113	0xbd2fe7e8	-0.042945772
114	0x3e0d2e31	0.13787152
115	0x3dc6d53e	0.097086415
116	0x3d84ceb7	0.0648474
117	0xbbcf1478	-0.0063195787
118	0xbd8d5cba	-0.06902452
119	0x3d36bff3	0.04461665
120	0x3d0297ec	0.031883165
121	0xbd8c3500	-0.068460464
122	0xbb3da3d0	-0.0028936751
123	0xbd456f8d	-0.048202086
124	0xbdce820b	-0.100833975
125	0x3e0797d7	0.13241516
126	0xbd119094	-0.03553827
127	0xbd8c7764	-0.068587095
128	0x3c5f42a4	0.013626728
129	0xbd6061e5	-0.05478086
130	0x3e04ae90	0.12957215
131	0x3cdc9b33	0.026929474
132	0x3d4d9f6e	0.050200872
133	0x3ce37ea6	0.027770352
134	0xbca2c407	-0.019868864
135	0x3d8e1ede	0.06939481
136	0xbd011eb0	-0.031523407
137	0xbd60d919	-0.05489454
138	0x3b6d9d0e	0.0036256942
139	0xbcf64743	-0.030063277
140	0x3da76bf3	0.081748866
141	0xbd1a022b	-0.037599724
142	0x3ae9e6c6	0.0017845265
143	0xbdbeb95e	-0.093127
144	0xbd2e8ed4	-0.04261668
145	0x3bfd23f8	0.007725235
146	0xbdaf62c8	-0.08563763
147	0xbca88d83	-0.02057529
148	0x3d8db967	0.06920128
149	0xbc8e4c2d	-0.017370308
150	0xbc911db8	-0.017714366
151	0xbd7b87a1	-0.061408643
152	0x3d93593a	0.07194753
153	0x3db7e2c0	0.08978796
154	0x3db38d0b	0.08767136
155	0xbd712b4e	-0.05887919
156	0xbcadb9b1	-0.021206709
157	0x3c99ebf0	0.018789262
158	0x3d8b5ce9	0.068048306
159	0x3d87c86b	0.066300236
160	0xbce63657	-0.028102083
161	0x3e054a1b	0.1301655
162	0xbd957f25	-0.072996415
163	0xbcaaa429	-0.02083023
164	0x3bf5d6c2	0.0075024078
165	0xbd9bf506	-0.07615094
166	0x3d71085e	0.05884587
167	0x3d5c24d9	0.05374608
168	0x3d9a92ed	0.07547555
169	0xbe0895d8	-0.13338411
170	0xbd4d21db	-0.050081115
171	0x3d6daa4d	0.05802374
172	0x3c30f4d0	0.010800555
173	0x3d74ddc1	0.059781794
174	0x3da4c3fe	0.08045195
175	0x3d78268f	0.060583647
176	0x3b8beae5	0.004269945
177	0x3d862e02	0.06551744
178	0x3b5ec46e	0.0033991593
179	0xbd7ac11d	-0.061219323
180	0xbdb32876	-0.08747952
181	0x3d7e770c	0.06212525
182	0xbba72f16	-0.0051020486
183	0x3d419b7f	0.047267433
184	0x3e08ce28	0.13359892
185	0xbd9e94c8	-0.077432215
186	0xbd4a2f19	-0.049361322
187	0xbde014ec	-0.109414905
188	0x3c2f8707	0.010713345
189	0x3df0a304	0.11749843
190	0xbd340531	-0.043950263
191	0xbdb4e08d	-0.08831892
192	0xbbc01739	-0.0058621434
193	0x3e05be68	0.13060915
194	0x3d8847ce	0.06654321
195	0xbdf30ac7	-0.1186729
196	0x3d9cf8c6	0.07664637
197	0xbd94fb78	-0.07274526
198	0xbdcfa0d3	-0.10138097
199	0x3d83c83f	0.06434678
200	0xbdf6235c	-0.12018463
201	0x3cba32d1	0.02272931
202	0xbc570fc9	-0.013126322
203	0xbe0654d9	-0.13118304
204	0xbdb0afe8	-0.086273015
205	0xbe29c701	-0.1657982
206	0xbdfeab7c	-0.12435052
207	0xbb2ec598	-0.0026668068
208	0xbdf5b651	-0.11997665
209	0xbd5377f7	-0.05162808
210	0x3db32d5d	0.08748887
211	0x3dbf3baf	0.093375556
212	0x3dc7d666	0.0975769
213	0x3decac16	0.1155626
214	0x3dc60dde	0.09670614
215	0xbd8b4043	-0.06799366
216	0xbc565b50	-0.013083294
217	0xbd391bef	-0.045192655
218	0xbdbaadc2	-0.09115173
219	0x3e046cf3	0.12932186
220	0x3d10ba15	0.03533371
221	0xbb80ac31	-0.003926777
222	0xbcd67d46	-0.026182782
223	0x3ddaffce	0.10693322
224	0x3d7a78f4	0.061150506
225	0x3d684c7e	0.056713574
226	0xbd9c3f54	-0.076292664
227	0xbd037901	-0.03209782
228	0xbd21bfed	-0.039489675
229	0x3d80c797	0.06288069
230	0x3d607096	0.05479487
231	0xbd92d77a	-0.07170005
232	0xbdb1d68e	-0.08683501
233	0x3de38f87	0.1111136
234	0x3d8e33d5	0.0694348
235	0x3db6ede8	0.08932096
236	0xbde2d0db	-0.11074992
237	0x3d98b137	0.07455676
238	0xbd62b93b	-0.05535243
239	0xbd50c96d	-0.050973345
240	0x3dc5f882	0.0966654
241	0x3daaff09	0.08349425
242	0x3dde51d8	0.10855454
243	0x3bd8d6fa	0.006617424
244	0x3dd8f004	0.10592654
245	0x3e00f390	0.12592912
246	0xbdfe0eed	-0.124051906
247	0xbd93573a	-0.071943715
248	0xbd13a76c	-0.036048338
249	0xbdc2cda2	-0.095118776
250	0x3d8cdd85	0.06878189
251	0xbde57ead	-0.11205802
252	0x3de97930	0.11400068
253	0x3dce1df5	0.100643076
254	0x3d5d4b89	0.054027114
255	0x3e00e69a	0.12587968

network_body.linear_encoder.seq_layers.2.weight f4 [256, 256]
0	0xbdd92299	-0.10602302
1	0x3ca86397	0.0205553
2	0xbcea2722	-0.028583113
3	0xbe1dcbbd	-0.15409751
4	0xbd60b5da	-0.054860927
5	0xbdf663da	-0.12030764
6	0x3baabdb8	0.0052106045
7	0x3d2e40b7	0.042542186
8	0x3d8f4955	0.06996409
9	0x3cfe1a5c	0.031018429
10	0xbdc13994	-0.0943481
11	0xbdd36345	-0.103216685
12	0xbde26dff	-0.11056136
13	0x3c27922b	0.01022772
14	0xbdfb2db2	-0.12264575
15	0xbd261cbb	-0.040554743
16	0xbd8697af	-0.065719
17	0xbdf6c783	-0.120497726
18	0x3dc7f5fb	0.09763714
19	0x3d711310	0.05885607
20	0xbe00c519	-0.12575187
21	0x3d6ba851	0.057533566
22	0x3d2e19f2	0.042505212
23	0xbd31b26c	-0.043383047
24	0x3dd68abf	0.104756825
25	0x3ca111b2	0.019661758
26	0xbd878418	-0.06616992
27	0x3cb8c29f	0.02255374
28	0x3df9c6d9	0.1219613
29	0xbe1688ce	-0.14700624
30	0xbdc3cf2e	-0.09561001
31	0x3d14d762	0.036338218
32	0xbd324774	-0.043525174
33	0xbe3f1d21	-0.18663456
34	0xbb2d1f51	-0.002641637
35	0xbd93badc	-0.07213375
36	0xbe069ba2	-0.13145307
37	0xbe368bb3	-0.17826729
38	0xbe2152aa	-0.1575419
39	0x3dac30a1	0.08407713
40	0x3dd2b967	0.10289269
41	0xbc51a9ed	-0.012796861
42	0xbc916ca0	-0.017751992
43	0x3d5667df	0.052345153
44	0xbd57b1f6	-0.05265995
45	0xbc505c65	-0.012717341
46	0x3d5a804c	0.05334501
47	0xbe4bdf56	-0.19909415
48	0xbdaed174	-0.08536044
49	0x3d2108e2	0.039315112
50	0xbbfa737d	-0.007643162
51	0xbc7761f0	-0.015099034
52	0x3d31d344	0.04341437
53	0xbc65fbb3	-0.014037061
54	0xbd880f26	-0.06643514
55	0xbde48844	-0.11158803
56	0x3da11197	0.07864683
57	0xbe0fb77b	-0.14034836
58	0x3d6f85d3	0.058477234
59	0xbdcc500b	-0.099762045
60	0x3cc932c3	0.024560338
61	0x3be8f3ab	0.0071091256
62	0xbe0a6d3e	-0.13518235
63	0xbd2e84fd	-0.042607296
64	0x3b0b281a	0.002123362
65	0x3d346d3e	0.044049494
66	0x3cc64ffe	0.024208065
67	0x3d021f02	0.031767853
68	0x3dccdeb9	0.100034185
69	0xbe0a1ef6	-0.13488373
70	0x3c848d98	0.016180798
71	0xbc145c75	-0.009055247
72	0xbdde776b	-0.10862621
73	0xb96812ce	-0.0002213225
74	0x3c91eb83	0.017812496
75	0xbd7292f6	-0.059222184
76	0x3da99355	0.082800545
77	0xbe1eb5f5	-0.15499099
78	0xbe7e4ef8	-0.24834812
79	0xbaba0bf5	-0.0014194237
80	0x3d06fa10	0.032953322
81	0x3a802872	0.0009777679
82	0x3ce590a7	0.028023077
83	0x3cd22e75	0.025656918
84	0x3cb00ff4	0.021491982
85	0xbc843351	-0.01613775
86	0xbdf409f8	-0.11915964
87	0xbd829294	-0.06375614
88	0xbd73d780	-0.05953169
89	0x3c6b3be3	0.01435754
90	0x3ad455cc	0.0016199886
91	0x3de391d1	0.11111797
92	0xbe186cb0	-0.14885211
93	0xbbce7a0c	-0.00630117
94	0x3d518a12	0.051157065
95	0xbd4d58ab	-0.05013339
96	0xbc270290	-0.010193482
97	0xbcae717e	-0.021294352
98	0xbe4ef3ea	-0.20210233
99	0x3d5c903f	0.0538485
100	0xbcdb3b98	-0.026761815
101	0xbe0f58f9	-0.13998784
102	0xbda548e6	-0.08070545
103	0x3d0231db	0.031785827
104	0xbda13406	-0.07871251
105	0xbe064936	-0.13113865
106	0xbd29a9c1	-0.041421656
107	0xbcee18fe	-0.029064652
108	0xbdd7fb8f	-0.10546028
109	0xbe54c4d7	-0.20778213
110	0xbc569bea	-0.013098696
111	0x3cdb1dab	0.026747545
112	0x3da177eb	0.07884201
113	0x3dc06d9a	0.09395905
114	0x3c96d16a	0.018410403
115	0xbda5aafc	-0.08089253
116	0xbd8a97b4	-0.06767216
117	0xbdd83fbb	-0.105590306
118	0xbe031490	-0.12800813
119	0xbd25e94d	-0.040505696
120	0xbd9a6470	-0.07538688
121	0x3b64b550	0.003489811
122	0xbe1ddac5	-0.15415485
123	0xbd5d5496	-0.054035746
124	0xbdd7e55d	-0.105417944
125	0x3c0290ec	0.007969122
126	0x3cb8b4bf	0.022547124
127	0x3d35ea96	0.04441317
128	0xbd440ba3	-0.04786266
129	0xbc6536bc	-0.0139901005
130	0x3d67e839	0.05661795
131	0xbc5af039	-0.013362938
132	0x3d90f4e3	0.070779584
133	0x3dc3ee00	0.09566879
134	0xbcbd845b	-0.023134401
135	0xbde2b725	-0.11070088
136	0xbe084fec	-0.13311738
137	0xbe180e23	-0.14849143
138	0xbde8897e	-0.113543496
139	0x3d370022	0.04467786
140	0xbd81d4c3	-0.06339409
141	0xbcfd86a2	-0.030947987
142	0xbbe939e5	-0.0071174973
143	0xbda03bff	-0.07823943
144	0xbcd5e4fc	-0.026110165
145	0x3c1b4a45	0.009478156
146	0x3d7de41e	0.061985128
147	0x3def0734	0.11671296
148	0xbdb61a6d	-0.08891759
149	0x3b9dea1e	0.0048191687
150	0x3bddc0b9	0.006767359
151	0x3d912cad	0.07088599
152	0x3cb79211	0.022408517
153	0xbe0b7245	-0.13617809
154	0xbe2a3425	-0.16621454
155	0xbd75bf93	-0.059997153
156	0xbd9b9883	-0.07597449
157	0x3d91cd3b	0.07119223
158	0x3e2bf1ce	0.1679146
159	0x3d3dec44	0.0463679
160	0xbdae4e38	-0.08511013
161	0x3df30820	0.11866784
162	0xbd35acf0	-0.04435438
163	0xbdee50b9	-0.116364904
164	0xbd94c759	-0.07264585
165	0xbdf2c126	-0.118532464
166	0x3d0a6b27	0.033793595
167	0xbd7585d0	-0.059942067
168	0xbd33b4b8	-0.04387352
169	0x3d543ab4	0.051813796
170	0x3cdb3bf0	0.026761979
171	0xbd2a0142	-0.041505106
172	0xbd5c84df	-0.053837653
173	0x3d1fa12d	0.03897207
174	0x3c7c00fb	0.015381093
175	0xbe2d4203	-0.16919713
176	0x3d6ff274	0.05858083
177	0xbda44610	-0.08021176
178	0x3dc05654	0.09391466
179	0xbd483444	-0.04887797
180	0xbd2f8506	-0.04285147
181	0xbd3df8d9	-0.046379898
182	0xbe2cf614	-0.16890746
183	0xbe8890cd	-0.26672974
184	0xbcfb92eb	-0.030709704
185	0xbd07ec48	-0.03318432
186	0xbd92b853	-0.07164063
187	0xbced468f	-0.028964309
188	0x3dbbcf5f	0.09170412
189	0x3db770e1	0.08957077
190	0x3cfa1ead	0.030532205
191	0xbd8cd389	-0.06876285
192	0xbc97c7e1	-0.018527927
193	0xbdb9db4a	-0.09075029
194	0xbd36bcf7	-0.044613805
195	0xbe44222f	-0.19153665
196	0xbc9469f9	-0.018116938
197	0xbda0f9a1	-0.07860113
198	0xbdc47de8	-0.09594327
199	0xbd8dfefa	-0.069333985
200	0x3db84646	0.089977786
201	0x3d5b6867	0.053566363
202	0x3b062cc5	0.0020473462
203	0x3d73c6d0	0.059515774
204	0x3b3c5487	0.0028736906
205	0xbceb90ee	-0.028755631
206	0xbc18f302	-0.009335281
207	0xbc17432e	-0.0092323255
208	0xbe37a950	-0.17935681
209	0x3a491e12	0.00076720223
210	0xbe204204	-0.15650183
211	0xbe19c793	-0.15017538
212	0x3d7034c7	0.058644082
213	0xbc367537	-0.011136345
214	0xbcab5865	-0.020916173
215	0x3d88a54d	0.066721536
216	0xbd4e9680	-0.050436497
217	0xbd143b86	-0.03618958
218	0x3da0368c	0.07822904
219	0xbcb6f215	-0.02233223
220	0xbde863d3	-0.11347165
221	0x3d52ff26	0.05151286
222	0xbc33140e	-0.010930074
223	0x3cce62ee	0.025193658
224	0xbcefde34	-0.02928076
225	0x3c39e1be	0.011345325
226	0xbcd7e26a	-0.02635308
227	0xbbcb68c1	-0.006207556
228	0xbd8cac2e	-0.06868778
229	0xbdc4d8e6	-0.096116826
230	0xbd11f004	-0.035629287
231	0x3dc74392	0.09729685
232	0xbe381295	-0.17975838
233	0x3d045dfd	0.032316197
234	0xbb564a6f	-0.0032698174
235	0x3e166c58	0.14689767
236	0x3b7ce632	0.0038589356
237	0xbddb6702	-0.107130066
238	0xbd85eac8	-0.065389216
239	0x3deeb101	0.116548546
240	0xbd2ca20a	-0.04214672
241	0xbc805846	-0.015667092
242	0xbdfc1085	-0.12307838
243	0xbdf5048b	-0.11963757
244	0xbc38f8a1	-0.0112897465
245	0x3c4387df	0.01193425
246	0x3ccfe800	0.02537918
247	0x3c960160	0.018311203
248	0x3ca07624	0.019587584
249	0xbdf301ee	-0.118656024
250	0xbc9f3190	-0.019432813
251	0x3d7af3c5	0.061267633
252	0x3c215394	0.009846587
253	0xbdc73377	-0.09726613
254	0x3da26d36	0.079309866
255	0x3bfd5c18	0.0077319257

network_body.vector_processors.0.normalizer.running_mean f4 [9]
0	0xbd149ae3	-0.036280524
1	0x3ff9fbe8	1.9530001
2	0x00000000	0.0
3	0xbd16fcee	-0.036862306
4	0x3ff9fbcd	1.9529969
5	0x00000000	0.0
6	0x3d2a40fb	0.041565876
7	0x00000000	0.0
8	0x3de80eee	0.113309726
