config/results/FighterUpdated4.1/My Behavior/My Behavior-9999916.onnx (onnx, 282099 bytes, 8 tensors)

58 f4 [9]
3.0389392 0.003248668 0.0003162291 3.1355698 0.0032482345 0.0003162291 0.39333266 0.0003162291
0.21493582
00000000: fb7d 4240 9be7 543b 8dcb a539 2dad 4840
00000010: 55e0 543b 8dcb a539 e662 c93e 8dcb a539
00000020: 2318 5c3e

action_model._discrete_distribution.branches.0.bias f4 [6]
0.031987652 -0.038879596 -0.002607187 0.08871036 -0.12600595 -0.02424051
00000000: 7c05 033d 3640 1fbd 57dd 2abb c7ad b53d
00000010: b407 01be 0994 c6bc

action_model._discrete_distribution.branches.0.weight f4 [6, 256]
0.019534346 -0.023075929 -0.06552844 0.092183724 -0.03607761 -0.00045853906 -0.010553709 0.016291887
0.032844156 0.04713639 -0.0010083254 0.060494937 0.017013991 0.0016048606 0.020223225 0.09825573
0.026028665 0.0001222633 0.055142544 0.08726215 0.02367922 -0.0015597673 0.056609903 0.05799117
-0.02068006 0.039035153 0.020458532 0.03547262 0.053925008 0.07102712 0.0010076591 0.047558613
0.023077425 0.025541157 0.03785371 -0.008504698 0.060322374 0.06235546 0.06452742 0.024809834
0.012471448 0.043771897 0.005503582 0.034082685 -0.0074688154 -0.047892615 0.08085799 -0.007096717
0.06004009 0.06790257 0.0092813745 0.034202684 0.010882789 -3.8928978e-05 0.048635054 0.051795356
0.05612585 0.009481818 -0.06911163 0.03387543 0.036258675 0.030484743 0.017341375 0.020840999
0.07232515 0.042320583 0.009922265 -0.04857108 -0.038811445 0.061783675 -0.041087914 -0.008309497
-0.01730851 -0.021207353 -0.03434662 0.0068499385 0.049114868 0.025946558 -0.034631282 0.01448454
-0.018153412 -0.0052348953 -0.036010902 0.05361482 -0.014666679 -0.031304378 -0.04030755 0.011235963
-0.026434459 0.018366707 -0.03819842 0.017212158 -0.03350987 0.028695753 0.017860204 -0.0016702185
0.008729673 0.05880986 -0.012822111 0.01745342 0.02038968 0.061800905 -0.104829736 0.056725595
0.09619275 -0.038447026 0.044736482 0.010508554 0.12062965 0.011639669 -0.008587479 6.5841064e-05
0.052588526 -0.00073467864 0.0041780495 0.053215403 0.029639482 -0.022549206 -0.061996102 0.0015019884
-0.00074721646 0.062656865 0.0029583252 -0.031232677 0.13114467 0.023543477 -0.011088164 0.03429935
0.026892051 0.031124773 0.016395688 -0.019771995 0.010786215 -0.0058005517 0.053515643 0.012287947
0.034728896 -0.0008809408 0.07861662 -0.034745857 0.028516702 -0.010666344 0.025082707 0.0055528954
-0.002931889 -0.024312653 -0.046757605 -0.025336338 0.04758434 -0.0022485622 0.013011339 -0.020948255
-0.0115481205 0.03691115 0.07592316 0.046155985 0.04583465 0.03350054 0.0013700123 0.0029747025
0.07237026 -0.040737327 -0.023413893 -0.01054665 0.013912869 0.06914531 0.01056234 0.03712653
-0.02024411 -0.0441677 0.0056894794 0.059511777 -0.0022362184 0.005351792 0.011961703 0.046826854
0.040372793 0.03865892 0.015683688 0.054903217 0.03950772 -0.0399407 0.03456185 -0.041431587
0.0032406903 -0.027553111 -0.0024001407 -0.02345262 0.0013077913 0.023628015 0.03421334 -0.009478296
0.049315054 0.012453689 0.036322813 0.030867396 0.016091146 0.042372685 0.01296327 -0.05937834
0.0009217291 0.020392686 -0.027294852 0.09946548 0.015067266 -0.003707929 0.024202738 -0.0027169872
0.05140954 0.0037446627 0.026035674 0.061766904 0.032708816 -0.057513196 0.038295817 0.033134487
0.034485944 -0.026436118 0.05043746 0.021312194 0.03288415 0.036356963 -0.05660931 -0.010544289
-0.012352478 -0.018059451 0.0044101547 0.040221848 -0.033769663 0.071966596 0.00033527124 -0.046163987
-0.030962747 0.090409495 0.009969242 0.007295257 0.037969522 0.009069883 -0.012947229 -0.012999142
0.0085537825 -0.02400441 0.06732005 -0.03417933 -0.039959304 0.047551237 0.026026152 0.071923114
0.0077352817 0.030428693 -0.0097198505 -0.012826706 0.09472932 -0.007270243 0.004608836 -0.025321405
00000000: 7e06 a03c bb09 bdbc c633 86bd d2ca bc3d
00000010: 1ec6 13bd 1268 f0b9 77e9 2cbc 9076 853c
00000020: 9887 063d 1612 413d c929 84ba 8ac9 773d
00000030: ed60 8b3c 305a d23a 2dab a53c 4d3a c93d
00000040: 113a d53c ce33 0039 26dd 613d 80b6 b23d
00000050: ecfa c13c 1b71 ccba c9df 673d 2688 6d3d
00000060: 3b69 a9bc 53e3 1f3d a798 a73c bd4b 113d
00000070: 78e0 5c3d ab76 913d 6e13 843a d2cc 423d
00000080: de0c bd3c b03b d13c 7e0c 1b3d 4a57 0bbc
00000090: 9814 773d 7068 7f3d f426 843d fe3d cb3c
000000a0: 0b55 4c3c 294a 333d 6457 b43b 499a 0b3d
000000b0: f7bc f4bb 0c2b 44bd e098 a53d 948b e8bb
000000c0: 99ec 753d 8110 8b3d e810 183c 1d18 0c3d
000000d0: ba4d 323c ac47 23b8 8d35 473d 5e27 543d
000000e0: 38e4 653d a159 1b3c 668a 8dbd f6c0 0a3d
000000f0: fa83 143d 24bb f93c 800f 8e3c beba aa3c
00000100: 351f 943d 5958 2d3d ff90 223c 78f2 46bd
00000110: c0f8 1ebd e110 7d3d cd4b 28bd 8e24 08bc
00000120: 94ca 8dbc 0bbb adbc 0baf 0cbd 7375 e03b
00000130: ac2c 493d e08d d43c 88d9 0dbd 9050 6d3c
00000140: 77b6 94bc 7c89 abbb 2b80 13bd 379b 5b3d
00000150: 834c 70bc 0539 00bd 8819 25bd 0b17 383c
00000160: 148d d8bc c775 963c f275 1cbd 8300 8d3c
00000170: a541 09bd 5b13 eb3c 904f 923c 3ceb daba
00000180: e706 0f3c 9ce2 703d d513 52bc 7afa 8e3c
00000190: 4208 a73c f222 7d3d f9b0 d6bd 1959 683d
000001a0: b400 c53d a17a 1dbd 9a3d 373d 122c 2c3c
000001b0: ae0c f73d 4fb4 3e3c 7fb2 0cbc 2714 8a38
000001c0: 1167 573d 7397 40ba 05e8 883b 65f8 593d
000001d0: 80ce f23c 1db9 b8bc a0ef 7dbd 5ede c43a
000001e0: d9e0 43ba 3e52 803d 76e0 413b acdb ffbc
000001f0: ca4a 063e 40de c03c 21ab 35bc 7a7d 0c3d
00000200: b84c dc3c 61f9 fe3c 4050 863c e1f8 a1bc
00000210: aab8 303c 8e12 bebb 3833 5b3d 6353 493c
00000220: e33f 0e3d f0ee 66ba c001 a13d ac51 0ebd
00000230: dc9b e93c e4c1 2ebc 407a cd3c 10f5 b53b
00000240: ef24 40bb 542b c7bc e784 3fbd 278e cfbc
00000250: cce7 423d 9d5c 13bb 832d 553c ad9b abbc
00000260: 5434 3dbc 2530 173d 9a7d 9b3d 0f0e 3d3d
00000270: 1dbd 3b3d dd37 093d fc91 b33a 3af3 423b
00000280: dc36 943d 2fdc 26bd 7ece bfbc dbcb 2cbc
00000290: cdf2 633c 0e9c 8d3d aa0d 2d3c fd11 183d
000002a0: fad6 a5bc 31e9 34bd d06e ba3b 9fc2 733d
000002b0: 858d 12bb 165e af3b 05fb 433c 84cd 3f3d
000002c0: f15d 253d d158 1e3d 147b 803c 32e2 603d
000002d0: d9d2 213d dc98 23bd ba90 0d3d 2bb4 29bd
000002e0: c361 543b 10b7 e1bc ae4b 1dbb b51f c0bc
000002f0: 326a ab3a 8a8f c13c 4a23 0c3d db4a 1bbc
00000300: 95fe 493d 8f0a 4c3c 3bc7 143d 9fdd fc3c
00000310: 94d1 833c fb8e 2d3d e563 543c b436 73bd
00000320: 31a0 713a 900e a73c 7499 dfbc 8fb4 cb3d
00000330: b2dc 763c ba00 73bb d244 c63c 7b0f 32bb
00000340: cf92 523d 0469 753b c448 d53c 4bff 7c3d
00000350: aef9 053d f592 6bbd 13dc 1c3d 07b8 073d
00000360: 2241 0d3d 8f90 d8bc 8397 4e3d e996 ae3c
00000370: 88b1 063d 0aeb 143d 2adf 67bd f4c1 2cbc
00000380: 0c62 4abc 6af1 93bc 0f83 903b aabf 243d
00000390: 0f52 0abd 3963 933d 58c7 af39 7316 3dbd
000003a0: 96a5 fdbc 9d28 b93d 0856 233c 0d0d ef3b
000003b0: ee85 1b3d d999 143c 9d20 54bc 5afa 54bc
000003c0: 2a25 0c3c e5a4 c4bc 18df 893d a0ff 0bbd
000003d0: 5eac 23bd 16c5 423d cc34 d53c 6d4c 933d
000003e0: 3f78 fd3b 9845 f93c 0240 1fbc 1b27 52bc
000003f0: 7201 c23d 383b eebb b805 973b d66e cfbc

network_body.linear_encoder.seq_layers.0.bias f4 [256]
0.15601538 0.054528974 -0.052295063 0.012586385 -0.12227102 0.12102673 0.11332395 -0.00030007696
-0.030317243 -0.03498392 0.08998944 0.13204807 0.143473 0.17080215 0.06540048 0.13181601
0.07331504 -0.02180906 0.055969518 0.18261452 0.090559736 0.14084722 0.12814479 0.11896053
0.12143095 0.13000116 0.14502044 -0.07124684 -0.030196294 0.15067108 0.16143323 0.07325994
0.005964342 0.03733865 0.050863437 -0.050927803 0.054587957 -0.07345963 0.09177355 -0.010676204
-0.04575384 0.16606788 0.1324644 0.16892254 0.15005617 -0.04992923 0.11563365 -0.0024656355
0.12594691 0.073715374 0.014279275 0.0812268 0.102840446 0.0036262074 0.10796482 0.12366967
-0.096016906 0.114599444 0.1100454 0.12762144 -0.010680835 0.16468525 0.06882464 -0.09738999
-0.08568679 -0.12294543 0.06636472 0.07047562 -0.016545279 0.00074245164 -0.14389347 0.16583082
0.09804713 0.1356949 0.13679598 -0.047096837 0.06679313 0.10423853 -0.05792049 0.13791719
-0.10686758 0.13439256 -0.00813246 -0.060102835 -0.050470416 -0.06864041 -0.07779162 0.049733527
0.052328307 -0.05125681 0.070022464 0.0038822663 0.05318403 -0.097910605 0.03012531 0.115612596
0.07189877 -0.0017615313 0.03567943 0.03547163 -0.029201312 -0.06604708 0.01302249 0.048473336
0.07527136 0.10830495 0.094788864 0.053462144 0.14484963 0.062871546 -0.09831583 -0.019697325
-0.013153207 0.010162008 0.050873894 0.1582006 0.12594661 0.06611156 0.14308 0.07672206
0.021890724 -0.06634131 0.1400439 -0.007784978 0.13546345 -0.035271917 -0.07746388 0.05759632
0.013835125 0.14671628 0.042550653 0.15003365 -0.08147524 0.14002827 -0.025070721 0.06014278
0.086362995 -0.02017869 0.07530881 0.036295865 0.029432286 -0.048145384 0.12606698 0.14926682
0.09205563 -0.025312187 -0.04697441 0.1001729 0.12098166 -0.063346595 -0.057416108 0.04885779
-0.0792653 -0.01904268 0.019744057 0.11378393 0.12294698 0.062198326 0.08008594 0.026084887
-0.034041565 0.10308561 0.049325272 -0.05250128 0.15393265 0.09260241 -0.048750993 0.15854056
-0.05989661 0.019824808 0.09705599 -0.019128054 0.16558917 0.095659666 0.01126014 0.112057775
0.14103995 -0.06509491 0.07985578 0.06590985 0.11438987 0.10743663 0.08794648 0.12478754
0.104257345 0.105936915 0.089170516 0.10415529 0.061338827 -0.06473877 0.11484862 0.03701024
0.10329996 0.08231102 0.16944551 -0.12258203 0.1481737 0.07451022 0.14528733 -0.015903467
-0.118099935 0.115055814 -0.036626857 0.039519798 -0.0883927 0.11319013 -0.08024418 0.14352037
0.1314068 0.079919256 0.029265145 0.0342046 0.1763111 0.15663074 -0.011063369 0.11818557
-0.00789419 -0.06027665 0.1167799 0.08977791 0.051143687 0.084543794 0.050069105 -0.0069406824
0.08772864 0.09541223 0.11286893 0.15610687 0.14771064 0.11913103 0.1575373 -0.017061058
0.08977799 0.08325687 0.07883096 0.16906464 -0.0069949096 -0.13445377 0.032721896 0.13030584
-0.015003576 -0.014946807 0.1500284 -0.042848486 0.19552463 0.034540307 0.14831747 0.034993596
0.047298037 -0.03551381 -0.007745825 -0.15105402 -0.027277192 0.06722731 0.13161664 0.114889234
00000000: 7fc2 1f3e c659 5f3d 5933 56bd 2037 4e3c
00000010: 3b69 fabd dddc f73d 6316 e83d a653 9db9
00000020: de5b f8bc 4d4b 0fbd 624c b83d 9c37 073e
00000030: 96ea 123e c2e6 2e3e b0f0 853d c7fa 063e
00000040: 3226 963d eaa8 b2bc 4b40 653d 4dff 3a3e
00000050: 6277 b93d 413a 103e 6338 033e 94a1 f33d
00000060: cab0 f83d 061f 053e 3d80 143e dde9 91bd
00000070: 385e f7bc 8549 1a3e c14e 253e 4f09 963d
00000080: 8770 c33b 6af0 183d 2e56 503d ac99 50bd
00000090: 9f97 5f3d 0172 96bd c5f3 bb3d 3feb 2ebc
000000a0: 6168 3bbd b30d 2a3e bfa4 073e 08fa 2c3e
000000b0: 53a8 193e 9882 4cbd 56d1 ec3d 8096 21bb
000000c0: 3af8 003e 16f8 963d 9ff3 693c 3d5a a63d
000000d0: 039e d23d aaa5 6d3b a91c dd3d 8646 fd3d
000000e0: 83a4 c4bd 1db3 ea3d 7c5f e13d 32af 023e
000000f0: abfe 2ebc 40a3 283e eff3 8c3d 6774 c7bd
00000100: 8e7c afbd d0ca fbbd 3aea 873d 8655 903d
00000110: f789 87bc 16a1 423a cf58 13be 8ecf 293e
00000120: efcc c83d 9bf3 0a3e 3f14 0c3e 9de8 40bd
00000130: d6ca 883d 037b d53d 093e 6dbd 2a3a 0d3e
00000140: 64dd dabd 349e 093e 023e 05bc 642e 76bd
00000150: 11ba 4ebd 5893 8cbd 3651 9fbd 62b5 4b3d
00000160: 3556 563d a9f2 51bd f067 8f3d 9f6d 7e3b
00000170: 7fd7 593d 5b85 c8bd 5bc9 f63c 4cc6 ec3d
00000180: aa3f 933d 2fe3 e6ba 9824 123d b34a 113d
00000190: 9737 efbc b143 87bd 485c 553c fa8b 463d
000001a0: df27 9a3d fcce dd3d aa20 c23d 1ffb 5a3d
000001b0: 7653 143e ccc2 803d cf59 c9bd 495c a1bc
000001c0: 8c80 57bc 8d7e 263c 2561 503d 57ff 213e
000001d0: 26f8 003e 7f65 873d 9083 123e 7520 9d3d
000001e0: 2d54 b33c f4dd 87bd ab67 0f3e 2119 ffbb
000001f0: eeb6 0a3e 4979 10bd 62a5 9ebd 1eea 6b3d
00000200: b8ac 623c cb3c 163e 9849 2e3d 6ca2 193e
00000210: 7edc a6bd 9263 0f3e 1d61 cdbc 4758 763d
00000220: 15df b03d c84d a5bc 813b 9a3d f9aa 143d
00000230: fa1b f13c 1834 45bd b417 013e 67d9 183e
00000240: aa87 bc3d 815b cfbc 3d68 40bd 7327 cd3d
00000250: 3cc5 f73d dcbb 81bd 272d 6bbd 1b1f 483d
00000260: d855 a2bd 65ff 9bbc 4abe a13c 8d07 e93d
00000270: a0cb fb3d acc3 7e3d 1904 a43d f9af d53c
00000280: 2b6f 0bbd 8c1e d33d 4c09 4a3d 950b 57bd
00000290: 85a0 1d3e 55a6 bd3d 1faf 47bd 7558 223e
000002a0: 2656 75bd a367 a23c 4ac5 c63d 70b2 9cbc
000002b0: 3590 293e 37e9 c33d 737c 383c 8c7e e53d
000002c0: c76c 103e 7b50 85bd 6d8b a33d befb 863d
000002d0: 3c45 ea3d bc07 dc3d 491d b43d 9c90 ff3d
000002e0: e084 d53d 74f5 d83d 089f b63d 5e4f d53d
000002f0: 6c3e 7b3d c395 84bd c135 eb3d 0d98 173d
00000300: ee8e d33d ae92 a83d 2083 2d3e 4a0c fbbd
00000310: d9ba 173e d098 983d 34c6 143e fd47 82bc
00000320: 61de f1bd 62a2 eb3d 0b06 16bd 83df 213d
00000330: 3b07 b5bd 3ad0 e73d 1057 a4bd 01f7 123e
00000340: 818f 063e b5ac a33d 75bd ef3c 1f1a 0c3d
00000350: e68a 343e cf63 203e 2243 35bc 470b f23d
00000360: a256 01bc a6e4 76bd 4d2a ef3d 7bdd b73d
00000370: 0b7c 513d 4c25 ad3d 4315 4d3d aa6e e3bb
00000380: 13ab b33d 7d67 c33d d327 e73d 7bda 1f3e
00000390: 7541 173e f8fa f33d 7551 213e a2c3 8bbc
000003a0: 86dd b73d 9482 aa3d 2072 a13d 481f 2d3e
000003b0: 8e35 e5bb 40ae 09be 6507 063d e56e 053e
000003c0: 8fd1 75bc 74e3 74bc 0ba1 193e e581 2fbd
000003d0: 9c37 483e 237a 0d3d 89e0 173e 7255 0f3d
000003e0: 96bb 413d ee76 11bd b1d0 fdbb e8ad 1abe
000003f0: 6b74 dfbc 79ae 893d 83c6 063e 0c4b eb3d

network_body.linear_encoder.seq_layers.0.weight f4 [256, 9]
0.032725796 0.428321 -0.7148692 -0.47819975 -0.71948147 -0.1581502 -0.24751848 -0.053981297
-1.0782393 0.2460285 -0.26004678 -0.36536622 0.7176275 0.27892143 -0.18323539 0.12520891
-0.32256326 -0.1385438 -0.013422744 0.31293157 0.36176646 -0.45504773 -0.29299536 -0.061972614
0.5847421 0.62038493 0.4684961 0.36711454 0.40284902 0.010923794 0.3152361 -0.05944845
0.21296123 0.61153406 0.35348648 0.14156984 0.16790031 0.06854861 -0.61263686 0.40366668
0.016707825 0.15492523 0.16772372 0.5500063 -0.004469419 0.002275696 0.45790026 0.13459574
0.27784374 -0.6571679 0.17666066 -0.47557878 -0.30534065 0.6023304 -0.0639696 0.3862477
-0.06194338 -0.63676995 -0.41113716 -0.04585549 0.11398818 0.0085438015 0.024150228 -0.3438308
-0.24954608 0.40335461 0.35115394 0.40397444 -0.27516702 -0.21009369 -0.025202144 0.11375099
-0.28344625 0.4084907 -0.08261552 -0.27558026 0.19209011 -0.17522344 -0.1318318 -0.041838497
0.14687952 0.1610364 0.5320616 -0.52767867 0.670163 0.24298732 -0.18081872 0.5010373
0.18746015 -0.4413493 0.56065863 -0.50098664 0.12339311 -0.2742949 0.046469558 -0.24096267
-0.115429804 0.65535045 0.6831817 0.0876374 0.30416238 -0.07713736 -0.5921133 -0.29931486
0.4960105 -0.5150575 -0.22599551 0.24331269 -0.40949738 0.186344 0.15125984 -0.8575221
-0.75521606 -0.20917791 -0.39049917 0.13157162 -0.370451 0.019625157 0.109138384 -0.060412437
-0.39451405 -0.5472945 0.13200521 -0.71307 0.5825162 -0.31753176 0.43104708 -0.18725137
0.011417346 1.0735772 -0.5605618 -0.13410065 0.3767963 -0.25116688 0.058375224 -0.7137666
0.24472779 -0.31534517 0.47760484 0.06610398 -0.12822168 -0.4783333 0.45877635 -0.4342024
0.3733426 -0.33282655 0.0044931173 0.069040485 -0.2551704 0.49265942 -0.25676918 -0.2667472
-0.31550676 -0.32966536 0.35548958 -0.33249706 -0.4655068 0.16251133 -0.1029055 0.21684633
0.24769841 0.052609872 0.33455923 0.05270559 -0.08468651 0.26407573 0.61822385 -0.34132645
-0.22718021 -0.22426718 -0.523549 0.42613825 -0.6344549 -0.5507358 0.9757038 -0.04471844
0.059057042 -0.17496234 -0.32907903 0.3305364 -0.07818014 -0.21423244 0.33665892 0.20708549
0.025450075 -0.20177667 0.14720799 0.3581432 -0.41109538 0.28228718 0.21974234 -0.119614005
0.56759256 0.040671792 0.12904292 -0.84510875 0.03343369 -0.6870094 0.4745136 0.16158706
0.12527622 -0.5135283 -0.040363252 0.29397893 -0.014561014 -0.3245932 -0.42458975 0.44657055
-0.010644236 -0.06835404 -0.119627334 -0.045818023 -0.32031658 -0.40464133 0.1858478 0.050669644
-0.23745778 -0.4229711 -0.48358715 0.0668729 0.25191474 -0.356126 -0.95615906 0.100971445
0.2020975 0.076601304 -0.24515608 0.3283986 0.111623764 -0.10743055 -0.23726033 -0.28386724
-0.40949067 -0.13207449 -0.35439494 -0.24586774 -0.069259234 -0.23070998 -0.25595698 0.07754986
-1.1246212 0.093833655 0.52878296 0.19251068 -0.25844312 -0.45973748 0.32000116 0.19320033
-0.33798724 0.42629912 0.053211868 -0.13347822 0.17258923 0.096380785 -0.39749378 -0.27787158
00000000: 7c0b 063d e44c db3e ab01 37bf 99d6 f4be
00000010: f02f 38bf 20f2 21be 7c75 7dbe 7e1b 5dbd
00000020: bf03 8abf e5ee 7b3e da24 85be 4811 bbbe
00000030: 70b6 373f cace 8e3e 0fa2 3bbe c436 003e
00000040: 0327 a5be 6dde 0dbe 12eb 5bbc 9138 a03e
00000050: 7439 b93e 04fc e8be 7d03 96be ffd6 7dbd
00000060: a9b1 153f 8cd1 1e3f b9de ef3e 70f6 bb3e
00000070: 3a42 ce3e b6f9 323c a066 a13e 3880 73bd
00000080: 8212 5a3e 7f8d 1c3f 2efc b43e aff7 103e
00000090: 0fee 2b3e 3763 8c3d c5d5 1cbf 66ad ce3e
000000a0: d9de 883c b8a4 1e3e c4bf 2b3e 36cd 0c3f
000000b0: 3474 92bb d823 153b e771 ea3e 77d3 093e
000000c0: 8941 8e3e 283c 28bf 88e6 343e 107f f3be
000000d0: 9c55 9cbe 5332 1a3f 7e02 83bd 42c2 c53e
000000e0: 57b8 7dbd 5b03 23bf 9280 d2be f7d2 3bbd
000000f0: a372 e93d 4dfb 0b3c b3d6 c53c 970a b0be
00000100: 0289 7fbe 7f84 ce3e 73ca b33e bdd5 ce3e
00000110: b1e2 8cbe cd22 57be ba74 cebc 47f6 e83d
00000120: de1f 91be b125 d13e 5332 a9bd db18 8dbe
00000130: 45b3 443e c66d 33be eafe 06be d85e 2bbd
00000140: 9667 163e bae6 243e 3035 083f f315 07bf
00000150: cd8f 2b3f abd1 783e 8b28 39be fb43 003f
00000160: 8ef5 3f3e 89f8 e1be 5387 0f3f a940 00bf
00000170: 87b5 fc3d 6270 8cbe dd56 3e3d ebbe 76be
00000180: 7666 ecbd 0cc5 273f ffe4 2e3f 3d7b b33d
00000190: 2cbb 9b3e 31fa 9dbd bd94 17bf cc3f 99be
000001a0: 17f5 fd3e cfda 03bf 5e6b 67be f626 793e
000001b0: a4a9 d1be f6d0 3e3e dce3 1a3e 9186 5bbf
000001c0: d755 41bf bc32 56be 82ef c7be b6ba 063e
000001d0: c1ab bdbe f0c4 a03c f283 df3d 0873 77bd
000001e0: bffd c9be 7e1b 0cbf 602c 073e c18b 36bf
000001f0: c81f 153f 8693 a2be 34b2 dc3e d3be 3fbe
00000200: d20f 3b3c fa6a 893f fa80 0fbf ae51 09be
00000210: 72eb c03e f298 80be dc1a 6f3d 68b9 36bf
00000220: ec99 7a3e ec74 a1be 9f88 f43e 8661 873d
00000230: 8b4c 03be 1ae8 f4be bce4 ea3e c74f debe
00000240: c326 bf3e 3e68 aabe 003b 933b 1965 8d3d
00000250: b2a5 82be db3d fc3e 4077 83be 1793 88be
00000260: 1a8a a1be e6c9 a8be bb02 b63e 0e3d aabe
00000270: e856 eebe 5f69 263e 1ec0 d2bd f70c 5e3e
00000280: a7a4 7d3e 737d 573d 594b ab3e d1e1 573d
00000290: 1f70 adbd ef34 873e eb43 1e3f 57c2 aebe
000002a0: eea1 68be 4ca6 65be 4f07 06bf cb2e da3e
000002b0: a36b 22bf 05fd 0cbf b9c7 793f af2a 37bd
000002c0: cce5 713d 5429 33be 0c7d a8be 113c a93e
000002d0: e91c a0bd c05f 5bbe 8f5e ac3e 380e 543e
000002e0: ad7c d03c 8b9e 4ebe b1bd 163e 8c5e b73e
000002f0: 187b d2be f287 903e 2304 613e 30f8 f4bd
00000300: bf4d 113f 7797 263d d423 043e 0c59 58bf
00000310: c4f1 083d d9df 2fbf 72f3 f23e 1477 253e
00000320: 6948 003e 9776 03bf f053 25bd 6884 963e
00000330: 5291 6ebc 1431 a6be d463 d9be e5a4 e43e
00000340: 2965 2ebc 34fd 8bbd 2dff f4bd aeab 3bbd
00000350: 8900 a4be 262d cfbe e34e 3e3e f98a 4f3d
00000360: 2228 73be ab8f d8be bc98 f7be a9f4 883d
00000370: f8fa 803e 2656 b6be d7c6 74bf 1eca ce3d
00000380: a6f2 4e3e 25e1 9c3d 320a 7bbe dc23 a83e
00000390: 009b e43d 8c04 dcbd 5ff4 72be 0c57 91be
000003a0: c3a8 d1be 893e 07be 4173 b5be c1c4 7bbe
000003b0: c9d7 8dbd 3d3f 6cbe cb0c 83be 76d2 9e3d
000003c0: 96f3 8fbf dc2b c03d 525e 073f 8521 453e
000003d0: a852 84be b662 ebbe 31d7 a33e 4fd6 453e
000003e0: aa0c adbe e143 da3e b0f4 593d 84ae 08be
000003f0: 3bbb 303e 4a63 c53d 4e84 cbbe 2f45 8ebe

network_body.linear_encoder.seq_layers.2.bias f4 [256]
0.044381138 -0.044313263 -0.07214467 0.030349031 0.13436188 0.06751866 -0.07767843 0.15349875
-0.057605725 0.013602585 -0.09665449 0.0811089 -0.04531085 0.16256033 -0.027603673 0.017172825
0.09159125 0.07649231 -0.044538654 0.03167073 0.082363784 -0.049601465 0.0382267 -0.03138339
-0.05306468 -0.023715775 0.08031686 0.1461468 0.05028345 -0.0064985943 0.015931223 -0.033294182
0.106201135 0.0024071364 -0.055831924 -0.055660598 0.0431024 0.003552535 0.12687305 -0.056566235
0.05041785 0.13128886 -0.04055365 -0.00549385 0.09433609 0.178218 0.03386752 -0.09174599
0.09233097 -0.014359172 0.09513039 -0.008299585 0.074768275 -0.036830112 0.005091515 0.081022985
0.05678206 0.00013884105 -0.04058973 -0.0014621298 -0.015715798 0.07398562 0.052936897 -0.06946448
0.024388883 0.15124513 0.08597287 -0.020547992 0.1486662 0.07840583 -0.02693231 0.07359904
0.1356763 -0.014466134 -0.056832183 -0.09678813 0.08748544 -0.011369684 0.14279044 -0.0005236376
0.08730951 0.12009985 -0.09437655 0.13953464 -0.01190914 0.14341202 -0.040274896 0.069320135
0.054506987 0.01760553 0.17030041 -0.035703346 0.17233272 -0.037987377 0.097295865 -0.06822791
0.1013302 -0.025285719 0.1594992 -0.047813624 -0.028202169 -0.024057226 0.02344492 0.115165815
0.02362632 0.117037915 0.10562719 -0.07447207 0.041693814 0.10304048 -0.108694136 0.079219796
-0.028183013 0.009974286 0.09595848 0.15344703 -0.028157197 -0.08448387 -0.0738724 0.1441324
-0.014201907 0.018155606 -0.06775539 -0.034950342 0.046891555 0.045062613 -0.06295125 0.035152104
0.09000457 0.056265905 0.17646363 0.12011041 -0.09434982 0.1651777 0.12388536 -0.07781185
-0.018508352 -0.06517669 0.022961723 0.19546412 -0.039053496 0.11557686 0.15681572 -0.028780302
-0.09614275 -0.05339953 -0.027834272 -0.05879273 0.06741677 -0.10514457 0.09795802 -0.06363711
0.13536996 0.057131235 0.049103316 -0.017753711 0.119001456 -0.043820783 0.11894224 0.12097947
0.020136427 -0.05019223 -0.05833552 0.098129645 0.114677005 0.06366328 -0.040323198 0.084806174
-0.07427304 -0.038441468 -0.071323514 0.067319885 -0.079904 0.07785246 0.13840733 0.055840753
0.15232389 -0.050005697 -0.0700009 0.083005846 0.087802894 0.113023296 0.09734263 -0.040470276
0.09572174 0.18734415 0.16624327 0.13419613 0.14992566 0.007936407 -0.005720307 -0.058493096
0.13181323 0.10354778 0.08366192 0.12144338 0.09287602 0.07884111 0.1178084 -0.032633487
0.18283117 -0.024685636 0.08369075 0.0025193747 0.11311373 0.033867974 0.04298364 0.105072394
0.027480643 0.05570651 0.064154334 0.024677005 -0.047758263 -0.06621782 0.09191399 0.14390196
0.046019718 -0.034982838 -0.048011955 0.13777712 -0.016126852 0.035311457 -0.0867462 -0.07715237
0.14805292 0.16542163 0.1054285 -0.044509612 -0.032625344 -0.012792502 0.15202312 -0.03950967
-0.08449975 0.03189382 0.10769787 0.112117484 0.1344471 0.15592009 0.16579062 0.13130929
-0.062240142 0.12077666 0.06811158 -0.00018820116 0.11953008 0.15434907 0.15185452 0.041857347
0.15530589 -0.05706794 0.14614314 -0.0415564 0.020389684 0.1324138 0.10881663 0.18176404
00000000: ffc8 353d d381 35bd 96c0 93bd 889e f83c
00000010: 2996 093e 3947 8a3d de15 9fbd c72e 1d3e
00000020: fbf3 6bbd 60dd 5e3c caf2 c5bd 6c1c a63d
00000030: df97 39bd 3776 263e 1921 e2bc 06ae 8c3c
00000040: 3194 bb3d 00a8 9c3d 2a6e 36bd 2bb9 013d
00000050: 58ae a83d e82a 4bbd 9a93 1c3d df8b 00bd
00000060: 5a5a 59bd 9647 c2bc 2a7d a43d 82a7 153e
00000070: 05f6 4d3d 29f2 d4bb 3282 823c 7b5f 08bd
00000080: fb7f d93d 0cc1 1d3b 04b0 64bd 5efc 63bd
00000090: 248c 303d a6d1 683b 02eb 013e ffb1 67bd
000000a0: f382 4e3d 9670 063e 961b 26bd c105 b4bb
000000b0: 4833 c13d c87e 363e abb8 0a3d 52e5 bbbd
000000c0: 0518 bd3d bc42 6bbc b9d3 c23d fcfa 07bc
000000d0: 1c20 993d 2cdb 16bd b9d6 a63b 61ef a53d
000000e0: 4e94 683d dc95 1139 6b41 26bd efa4 bfba
000000f0: 6bbe 80bc c685 973d 5cd4 583d 6543 8ebd
00000100: 32cb c73c 01e0 1a3e 8b12 b03d 4354 a8bc
00000110: f43b 183e 3c93 a03d 26a1 dcbc 18bb 963d
00000120: baee 0a3e 5d03 6dbc ddc8 68bd db38 c6bd
00000130: 912b b33d e947 3abc a837 123e b944 09ba
00000140: 54cf b23d e9f6 f53d 7e48 c1bd 2be2 0e3e
00000150: 8e1e 43bc 9ada 123e 4af7 24bd b7f7 8d3d
00000160: b842 5f3d 7939 903c 3b63 2e3e ac3d 12bd
00000170: fd77 303e a798 1bbd 0e43 c73d 13bb 8bbd
00000180: 3586 cf3d ff23 cfbc c253 233e 38d8 43bd
00000190: 3c08 e7bc a913 c5bc 900f c03c 0edc eb3d
000001a0: fc8b c13c 93b1 ef3d 1153 d83d d084 98bd
000001b0: 22c7 2a3d e306 d33d 089b debd fd3d a23d
000001c0: 10e0 e6bc 306b 233c e185 c43d 3821 1d3e
000001d0: eca9 e6bc e105 adbd 6a4a 97bd 7297 133e
000001e0: 1eaf 68bc 11bb 943c 57c3 8abd 1728 0fbd
000001f0: 5c11 403d 9393 383d 96ec 80bd a7fb 0f3d
00000200: 5154 b83d 1477 663d e2b2 343e 72fc f53d
00000210: 7a3a c1bd 5824 293e 9cb7 fd3d d25b 9fbd
00000220: d49e 97bc 5b7b 85bd 391a bc3c bf27 483e
00000230: 8ff6 1fbd 90b3 ec3d 4d94 203e abc4 ebbc
00000240: 7de6 c4bd 77b9 5abd b304 e4bc a5d0 70bd
00000250: ce11 8a3d 0956 d7bd 379e c83d 2c54 82bd
00000260: 6c9e 0a3e 7102 6a3d 8f20 493d 3b70 91bc
00000270: 09b7 f33d 6c7d 33bd fd97 f33d 16c4 f73d
00000280: 26f5 a43c 5e96 4dbd 3af1 6ebd 32f8 c83d
00000290: c7db ea3d e561 823d f029 25bd dcae ad3d
000002a0: 771c 98bd cd74 1dbd 1012 92bd 02df 893d
000002b0: b5a4 a3bd 1c71 9f3d a7ba 0d3e 46b9 643d
000002c0: cbfa 1b3e c6d2 4cbd a25c 8fbd f8fe a93d
000002d0: 01d2 b33d c278 e73d 935b c73d 29c4 25bd
000002e0: c209 c43d 25d7 3f3e ad3b 2a3e b66a 093e
000002f0: 1d86 193e b407 023c 6a71 bbbb 7596 6fbd
00000300: 0cfa 063e dc10 d43d f156 ab3d 4fb7 f83d
00000310: c835 be3d 7377 a13d 8845 f13d b1aa 05bd
00000320: 1838 3b3e 8839 cabc 0e66 ab3d 181c 253b
00000330: 2ca8 e73d 25b9 0a3d 9d0f 303d 3230 d73d
00000340: 161f e13c 822c 643d 5963 833d 6e27 ca3c
00000350: 2b9e 43bd 359d 87bd 673d bc3d 095b 133e
00000360: 2c7f 3c3d 2a4a 0fbd 2fa8 44bd 7215 0d3e
00000370: 761c 84bc bfa2 103d fea7 b1bd 1002 9ebd
00000380: 2f9b 173e 4a64 293e e6ea d73d b64f 36bd
00000390: 27a2 05bd a497 51bc f3ab 1b3e e4d4 21bd
000003a0: 340e adbd 18a3 023d b390 dc3d da9d e53d
000003b0: 80ac 093e 84a9 1f3e 04c5 293e f175 063e
000003c0: 85ef 7ebd c159 f73d 167e 8b3d dd57 45b9
000003d0: 30cc f43d af0d 1e3e c07f 1b3e 9c72 2b3d
000003e0: 8208 1f3e 12c0 69bd 8ca6 153e 0b37 2abd
000003f0: 4408 a73c 7c97 073e 41db de3d 5a20 3a3e

network_body.linear_encoder.seq_layers.2.weight f4 [256, 256]
-0.046724927 0.07946504 -0.10747333 -0.104325905 -0.064816535 0.08743054 6.5496155e-05 0.032150783
0.00030392437 0.03570074 0.01911028 -0.18131629 -0.11371675 -0.012942853 -0.01771922 0.09006735
0.064621106 0.020169212 0.03674543 0.08968262 -0.01889336 0.06520625 0.09495013 0.030267978
0.045179963 0.015238117 -0.034392104 -0.028061045 -0.035953075 -0.03351471 0.10018807 0.11178698
-0.0846965 0.15259153 0.09776688 -0.044406332 0.034746803 -0.066343434 -0.12992121 0.023970857
0.11501704 0.037078936 -0.13400741 -0.05032775 0.033738762 0.16351335 -0.012889408 0.12563854
-0.033131607 0.05252129 0.054519575 0.0024035412 -0.028021727 0.09913885 -0.20785028 -0.09304673
0.10317583 0.18507701 0.005657281 0.042609446 -0.09969829 0.076582305 0.0043816674 0.023270845
0.02100278 -0.07614873 -0.038336683 -0.1562698 -0.101760656 0.017624587 0.017484136 0.055836078
-0.14662886 -0.08340996 -0.06574046 0.09070267 0.078716636 -0.012041293 0.051637247 -0.041303337
-0.0056213555 0.035918955 0.016619226 -0.092920355 -0.018354218 0.026581954 0.07490494 -0.08526752
0.093366936 -0.042168584 0.1251356 0.004831833 -0.01236395 0.037622645 0.066367686 0.022886805
0.19418062 0.06471153 0.054159347 0.061805196 0.048554014 0.083114155 0.009381815 0.02368852
-0.06560155 0.07166413 0.0077800895 0.026459845 -0.15423848 0.0036966794 -0.09582206 0.15218207
-0.05003609 -0.21987556 -0.031583227 -0.10634598 0.005212263 -0.009123571 0.09282334 -0.04215281
-0.017218085 -0.09689563 -0.06174033 -0.15015393 -0.30299473 0.0056371354 -0.013312623 0.117461234
0.044962723 -0.10669957 -0.088420995 -0.15092666 0.027333196 -0.014887896 0.065344445 0.11084589
-0.078372724 -0.09343282 -0.1143985 0.06603874 -0.06075663 0.020021895 0.09492181 -0.09424264
-0.23558713 0.047766104 0.039890014 -0.1728014 0.042807057 -0.06788834 -0.073927 -0.024546597
0.046149503 0.016314663 0.075192414 -0.09190268 -0.01090329 -0.014601319 0.117969625 -0.04438947
0.051627237 0.13117376 -0.045987807 -0.06942008 0.11881121 0.04660986 -0.015909037 -0.0815883
-0.071558714 0.006647235 0.025151093 0.05228908 -0.040598694 -0.012706297 -0.11919294 -0.23452352
-0.23156576 0.06036489 0.13633354 0.1548439 -0.18050991 -0.21767609 -0.00028808985 0.0791639
0.02198982 -0.09369674 -0.07666125 0.13913232 -0.06677141 -0.11367162 0.16141658 0.05910456
-0.12977493 0.0065483972 -0.070704184 -0.084608324 0.039514214 0.026302088 -0.12085741 0.04544612
-0.096478455 0.11704818 0.05308241 -0.017500864 0.052921273 -0.09973062 0.10909279 0.12552397
-0.027862875 0.029729953 -0.16708615 0.039483726 -0.074720524 -0.0012182412 -0.20465745 0.05865175
-0.07658198 0.0131452065 0.08528016 -0.00061448786 -0.10616587 0.013811423 -0.035096683 0.025246367
-0.09342704 0.024156163 -0.20928183 -0.014529981 0.0056175 -0.19529933 0.021814775 0.06325047
0.051658846 -0.08315181 -0.17934899 0.041159436 -0.12644763 -0.04481558 0.080318026 -0.030647421
-0.048717003 -0.09306076 0.04005228 -0.058542844 0.1499504 0.022081843 -0.0073332894 -0.043486524
0.110886656 -0.190045 -0.1625077 -0.042082407 0.13145722 0.13717392 0.009148868 0.018067343
00000000: a362 3fbd 91be a23d fa1a dcbd d2a8 d5bd
00000010: 88be 84bd c80e b33d fb5a 8938 8ab0 033d
00000020: 0a58 9f39 f03a 123d 298d 9c3c faaa 39be
00000030: 54e4 e8bd 430e 54bc e627 91bc 3b75 b83d
00000040: 1258 843d e739 a53c 6082 163d 85ab b73d
00000050: 3fc6 9abc db8a 853d 3775 c23d 8df4 f73c
00000060: a00e 393d 4ca9 793c bcde 0cbd 47e0 e5bc
00000070: 8843 13bd b846 09bd 672f cd3d 92f0 e43d
00000080: 5c75 adbd f440 1c3e 013a c83d 6ae3 35bd
00000090: aa52 0e3d 11df 87bd 110a 05be 885e c43c
000000a0: 0e8e eb3d 15e0 173d 3d39 09be 7924 4ebd
000000b0: a831 0a3d 0b70 273e 182e 53bc 64a7 003e
000000c0: 02b5 07bd 9020 573d eb4f 5f3d bb84 1d3b
000000d0: d28d e5bc 4f09 cb3d b4d6 54be 498f bebd
000000e0: d94d d33d d484 3d3e b660 b93b 3e87 2e3d
000000f0: 9e2e ccbd 2fd7 9c3d 1794 8f3b 80a2 be3c
00000100: 060e ac3c def3 9bbd ed06 1dbd 3105 20be
00000110: e467 d0bd 7061 903c e43a 8f3c 5fb4 643d
00000120: e025 16be d7d2 aabd efa2 86bd 52c2 b93d
00000130: 3036 a13d d848 45bc 9481 533d b02d 29bd
00000140: 5933 b8bb c11f 133d 0b25 883c 074d bebd
00000150: 965b 96bc 66c2 d93c c367 993d bda0 aebd
00000160: 2a37 bf3d f7b8 2cbd 8c23 003e 5a54 9e3b
00000170: 2a92 4abc 341a 1a3d c8eb 873d 1c7d bb3c
00000180: 49d7 463e 7b87 843d 31d6 5d3d 7227 7d3d
00000190: 93e0 463d c137 aa3d 2fb6 193c 6d0e c23c
000001a0: 1b5a 86bd a5c4 923d 1ff0 fe3b 51c2 d83c
000001b0: b1f0 1dbe fd43 723b 5b3e c4bd 9ed5 1b3e
000001c0: a5f2 4cbd 0f27 61be 6a5d 01bd eccb d9bd
000001d0: a2cb aa3b 087b 15bc 2a1a be3d 6da8 2cbd
000001e0: f10c 8dbc 3771 c6bd 6ee3 7cbd f4c1 19be
000001f0: 2022 9bbe b8b7 b83b 301d 5abc 848f f03d
00000200: d52a 383d 4e85 dabd 1116 b5bd 858c 1abe
00000210: dee9 df3c 5dec 73bc 4fd3 853d 2c03 e33d
00000220: e181 a0bd b559 bfbd c349 eabd 523f 873d
00000230: f2db 78bd f504 a43c 5e66 c23d 4902 c1bd
00000240: c13d 71be 64a6 433d b663 233d daf2 30be
00000250: 7456 2f3d 0b09 8bbd 0a67 97bd f215 c9bc
00000260: 4307 3d3d 54a6 853c 7bfe 993d 7937 bcbd
00000270: b6a3 32bc 5f3a 6fbc 0f9a f13d bcd1 35bd
00000280: 1577 533d 6a52 063e b65d 3cbd 1d2c 8ebd
00000290: 4b53 f33d fbe9 3e3d ab53 82bc c417 a7bd
000002a0: 608d 92bd 0cd1 d93b aa09 ce3c 132d 563d
000002b0: d14a 26bd 132e 50bc 6e1b f4bd ef26 70be
000002c0: 931f 6dbe 2d41 773d 059b 0b3e 668f 1e3e
000002d0: 97d7 38be 7be6 5ebe c40a 97b9 af20 a23d
000002e0: ff23 b43c 14e4 bfbd 9300 9dbd b478 0e3e
000002f0: 73bf 88bd abcc e8bd 634a 253e a017 723d
00000300: b8e3 04be f093 d63b 5bcd 90bd 2147 adbd
00000310: a8d9 213d 7a77 d73c 1784 f7bd b625 3a3d
00000320: 7f96 c5bd f5b6 ef3d f16c 593d f95d 8fbc
00000330: fac3 583d 913f ccbd 0a6c df3d 5b89 003e
00000340: af40 e4bc 3b8c f33c a218 2bbe b0b9 213d
00000350: 1307 99bd 64ad 9fba b991 51be d13c 703d
00000360: 03d7 9cbd fe5e 573c 5da7 ae3d 9515 21ba
00000370: 7e6d d9bd 4f49 623c 8ac1 0fbd 78d1 ce3c
00000380: ad56 bfbd 25e3 c53c fa4d 56be 280f 6ebc
00000390: 0113 b83b 8cfc 47be e6b4 b23c 7689 813d
000003a0: 3a98 533d 7f4b aabd 43a7 37be cc96 283d
000003b0: 7d7b 01be 8b90 37bd c77d a43d 4d10 fbbc
000003c0: 7b8b 47bd a496 bebd dc0d 243d 9fca 6fbd
000003d0: 998c 193e fbe4 b43c 174c f0bb ed1e 32bd
000003e0: 8b18 e33d 289b 42be 6b68 26be 9a5e 2cbd
000003f0: b99c 063e 5277 0c3e 22e5 153c f701 943c

network_body.vector_processors.0.normalizer.running_mean f4 [9]
-0.2703561 1.9529523 0.0 -0.26443878 1.9529575 0.0 0.19131821 0.0
0.048556153
00000000: 1d6c 8abe 57fa f93f 0000 0000 8564 87be
00000010: 83fa f93f 0000 0000 ece8 433e 0000 0000
00000020: d1e2 463d
