config/results/FighterUpdated4.1/My Behavior/My Behavior-8999994.onnx (onnx, 282099 bytes, 8 tensors)

58 f4 [9]
3.185114 0.0032640656 0.00033333342 3.286911 0.0032635885 0.00033333342 0.3844904 0.00033333342
0.22590536
00000000: e8d8 4b40 efe9 553b 41c3 ae39 c05c 5240
00000010: eee1 553b 41c3 ae39 eddb c43e 41c3 ae39
00000020: bc53 673e

action_model._discrete_distribution.branches.0.bias f4 [6]
0.029398847 -0.031512953 0.00023839367 0.0832555 -0.115823984 -0.026526244
00000000: dad5 f03c ba13 01bd 50f9 7939 dc81 aa3d
00000010: 2035 edbd 914d d9bc

action_model._discrete_distribution.branches.0.weight f4 [6, 256]
0.0201943 -0.029356284 -0.07048557 0.08361747 -0.035022724 0.0031456654 -0.011586964 0.019255187
0.035597485 0.039959542 -0.0025511407 0.052216582 0.014431655 0.001743485 0.024030663 0.09019509
0.027825726 0.015271359 0.057073034 0.07998208 0.032861058 -0.0011609374 0.050522964 0.050699197
-0.012857392 0.032689326 0.030022271 0.031285815 0.04833523 0.064357385 0.0025336083 0.03923766
0.021580951 0.024266278 0.041132513 -0.0031560168 0.05455337 0.05718281 0.059824713 0.027670585
0.0143934935 0.03669293 0.001975185 0.027976913 -0.005619824 -0.047232613 0.0713879 -0.0077750403
0.053212047 0.06392126 0.015769532 0.02847588 0.012942434 0.003371021 0.04574072 0.051511023
0.05229513 0.0065744137 -0.07319591 0.031326745 0.029221559 0.029017866 0.01964926 0.015287638
0.06635767 0.03821496 0.011753725 -0.04141101 -0.037544996 0.05569125 -0.03366587 -0.0013256148
-0.017700406 -0.016661927 -0.02742821 0.008734217 0.04207875 0.020721463 -0.033884134 0.011292577
-0.018108886 -0.003929247 -0.0328783 0.048920877 -0.010732256 -0.030418172 -0.033372097 0.010597497
-0.015219973 0.018768055 -0.040106647 0.013441011 -0.03273847 0.023255033 0.027417816 -0.0070288936
0.011290443 0.050824024 -0.0119557725 0.012874596 0.017212737 0.052688297 -0.10927021 0.050797127
0.08932605 -0.03800182 0.03900141 0.004378001 0.11249264 0.013206507 -0.005877291 -0.004315962
0.046278235 -0.0041478514 0.0073898975 0.047992084 0.026305627 -0.020256303 -0.054127917 0.0030438013
-0.0006407228 0.054779686 -0.0028879433 -0.02506789 0.122690484 0.025867194 -0.00914334 0.02723781
0.023655733 0.03668638 0.019271443 -0.018822256 0.007869527 -0.0039516096 0.045882527 0.008582166
0.02868119 0.0030473452 0.07115857 -0.035391428 0.03165596 -0.010719437 0.02309925 0.00840512
-0.004704223 -0.02081143 -0.03848714 -0.01533273 0.041286115 0.0013098235 0.022187058 -0.018266195
-0.010961827 0.032747634 0.068905234 0.04542891 0.040103745 0.028211249 0.002371252 0.0029073423
0.06510438 -0.03351073 -0.020600416 -0.009144458 0.012627851 0.062368024 0.008528518 0.03775204
-0.015100422 -0.036411628 0.003216704 0.05292933 -0.00080506544 0.016753186 0.0128738955 0.042032413
0.03538506 0.030481959 0.015370444 0.048312824 0.033394556 -0.039542556 0.035326134 -0.033579234
0.006700166 -0.026138164 -0.0013664189 -0.022973811 0.002800157 0.020901827 0.030250272 -0.008264914
0.041760374 0.012060809 0.037256364 0.028839402 0.011701611 0.036013424 0.01572436 -0.06520001
0.0018149362 0.020127062 -0.025735404 0.09094352 0.01641617 -0.0003077539 0.024831494 -0.0016156937
0.043857574 0.005964009 0.029151557 0.05345636 0.02763223 -0.04897709 0.033516243 0.031423096
0.0322081 -0.019359758 0.039781835 0.020407777 0.027381852 0.03610184 -0.04958048 -0.008865407
-0.01189845 -0.018811973 0.004109132 0.032842446 -0.026291354 0.06338258 0.0012762251 -0.037800983
-0.024143012 0.08206191 0.010472926 0.009866785 0.03001348 0.0095864395 -0.011633117 -0.011222542
0.015955452 -0.022825852 0.062450923 -0.027309537 -0.038664296 0.04126009 0.029347027 0.06488691
0.009425136 0.02035357 -0.007791742 -0.0076349117 0.088306956 -0.005696883 0.0069167474 -0.0298128
00000000: 846e a53c 977c f0bc bd5a 90bd a33f ab3d
00000010: fd73 0fbd 8227 4e3b 40d7 3dbc 0ebd 9d3c
00000020: abce 113d 9eac 233d 0a31 27bb 0ee1 553d
00000030: c072 6c3c a685 e43a f4db c43c 34b8 b83d
00000040: c7f2 e33c b934 7a3c 6ac5 693d a5cd a33d
00000050: 5199 063d 982a 98ba 2bf1 4e3d f6a9 4f3d
00000060: d0a7 52bc 3ee5 053d 44f1 f53c 8e25 003d
00000070: 2afb 453d cecd 833d e50a 263b abb7 203d
00000080: 89ca b03c 13ca c63c 917a 283d 2dd5 4ebb
00000090: 5b73 5f3d 8638 6a3d c20a 753d 6cad e23c
000000a0: b0d2 6b3c 534b 163d 1b72 013b d72f e53c
000000b0: 8026 b8bb fc76 41bd d233 923d c4c5 febb
000000c0: e0f4 593d 26e9 823d 1b2f 813c 4046 e93c
000000d0: 810c 543c 59ec 5c3b 9f5a 3b3d 39fd 523d
000000e0: 6b33 563d 2e6e d73b bde7 95bd 7950 003d
000000f0: 0d62 ef3c e0b6 ed3c 7cf7 a03c 0079 7a3c
00000100: 88e6 873d 4a87 1c3d b292 403c 979e 29bd
00000110: c8c8 19bd 821c 643d 39e5 09bd 40c0 adba
00000120: 7100 91bc 987e 88bc 20b1 e0bc f619 0f3c
00000130: c45a 2c3d 0fc0 a93c 17ca 0abd 8004 393c
00000140: 1659 94bc eac0 80bb 65ab 06bd 4261 483d
00000150: 58d6 2fbc 882f f9bc 2eb1 08bd 20a1 2d3c
00000160: 325d 79bc 77bf 993c de46 24bd b037 5c3c
00000170: c618 06bd 5781 be3c 549b e03c a252 e6bb
00000180: 8dfb 383c da2c 503d 25e2 43bc f8ef 523c
00000190: ba01 8d3c afcf 573d 0fc9 dfbd a610 503d
000001a0: 93f0 b63d cca7 1bbd f1bf 1f3d 5675 8f3b
000001b0: 8b62 e63d 1b60 583c 4a96 c0bb ea6c 8dbb
000001c0: 3f8e 3d3d b3ea 87bb f426 f23b 5993 443d
000001d0: e67e d73c 8cf0 a5bc 3cb5 5dbd 837a 473b
000001e0: 2ef6 27ba aa60 603d a643 3dbb 2d5b cdbc
000001f0: 2645 fb3d 70e7 d33c f3cd 15bc d421 df3c
00000200: abc9 c13c 7544 163d 25df 9d3c 2231 9abc
00000210: 30ef 003c 817c 81bb 51ef 3b3d 379c 0c3c
00000220: d1f4 ea3c f8b5 473b 96bb 913d 9af6 10bd
00000230: aea9 013d 94a0 2fbc a33a bd3c a1b5 093c
00000240: e225 9abb bb7c aabc b1a4 1dbd 2136 7bbc
00000250: a11b 293d 62ae ab3a a2c1 b53c fda2 95bc
00000260: 3c99 33bc 6222 063d 301e 8d3d aa13 3a3d
00000270: d343 243d 471b e73c 0267 1b3b 1c89 3e3b
00000280: 7255 853d 8c42 09bd 34c2 a8bc a3d2 15bc
00000290: 0ce5 4e3c 9d75 7f3d 32bb 0b3c e2a1 1a3d
000002a0: c367 77bc 5c24 15bd 56cf 523b 6dcc 583d
000002b0: 070b 53ba fa3d 893c 08ed 523c 2e2a 2c3d
000002c0: edef 103d 4db5 f93c 51d4 7b3c abe3 453d
000002d0: bbc8 083d 60f7 21bd 23b2 103d 618a 09bd
000002e0: 118d db3b b41f d6bc 6919 b3ba 9333 bcbc
000002f0: d782 373b 4f3a ab3c 6bcf f73c 9069 07bc
00000300: ed0c 2b3d b39a 453c 219a 183d 9c40 ec3c
00000310: 1db8 3f3c d082 133d 5fd0 803c 9587 85bd
00000320: 27e3 ed3a 82e1 a43c 0ed3 d2bc 9940 ba3d
00000330: 347b 863c 075a a1b9 6b6b cb3c afc5 d3ba
00000340: 00a4 333d bc6d c33b 3fcf ee3c 0ef5 5a3d
00000350: fd5c e23c 339c 48bd 5448 093d 81b5 003d
00000360: a4ec 033d 5b98 9ebc 47f2 223d 362e a73c
00000370: e84f e03c 86df 133d e714 4bbd 3640 11bc
00000380: b7f1 42bc 911b 9abc e6a5 863b cd85 063d
00000390: f760 d7bc bace 813d 0247 a73a 34d5 1abd
000003a0: 91c7 c5bc 1310 a83d a396 2b3c 4ca8 213c
000003b0: d4de f53c 7110 1d3c d498 3ebc c1de 37bc
000003c0: 02b5 823c 48fd babc 8acc 7f3d 40b8 dfbc
000003d0: 745e 1ebd 5700 293d 2d69 f03c 6ee3 843d
000003e0: e36b 1a3c 88bc a63c df51 ffbb 482e fabb
000003f0: 47da b43d ebac babb e2a5 e23b f939 f4bc

network_body.linear_encoder.seq_layers.0.bias f4 [256]
0.15121911 0.049857132 -0.053926196 0.0051217084 -0.121437505 0.11657949 0.110456444 0.0010087765
-0.030230224 -0.03716746 0.091154896 0.13040386 0.14021826 0.16555737 0.058831718 0.13063715
0.06759198 -0.023587698 0.050529946 0.17500073 0.08586381 0.13483849 0.12418736 0.114924274
0.11460974 0.12491902 0.13748796 -0.072670944 -0.033453446 0.1457577 0.15651219 0.07185426
0.0069978894 0.036311828 0.044404145 -0.05054516 0.0475902 -0.07025053 0.0875216 -0.008191552
-0.043629065 0.16129735 0.12785238 0.16486928 0.14374098 -0.052838143 0.11261296 -0.0018893384
0.11953811 0.07487714 0.011761722 0.07949293 0.09820695 0.00803666 0.10504865 0.11846008
-0.094544224 0.10630962 0.1080774 0.12294247 -0.011366414 0.16111459 0.07023796 -0.09743367
-0.082622156 -0.12002626 0.062002588 0.06880474 -0.021861067 -0.00019185843 -0.13816957 0.16126327
0.096593276 0.13306822 0.13168883 -0.04866545 0.06657077 0.09861665 -0.05771352 0.13583198
-0.104838274 0.13136913 -0.010965393 -0.061152283 -0.051918965 -0.067693084 -0.08132256 0.047253694
0.04628952 -0.04992369 0.074545905 0.0022587255 0.04932302 -0.09693877 0.021447496 0.11132649
0.07254407 -0.001430152 0.037797656 0.03370419 -0.022977574 -0.065324254 0.0037663437 0.046750456
0.070298225 0.109132305 0.08934576 0.05284368 0.14108284 0.06410116 -0.09611699 -0.021795262
-0.014208542 0.0094946055 0.048660446 0.1552554 0.12099182 0.062327135 0.13742681 0.07480674
0.01748902 -0.06570501 0.13209145 -0.0072192503 0.13146569 -0.03230549 -0.07885295 0.05601519
0.012414023 0.14122914 0.040355265 0.1450356 -0.07909072 0.13361776 -0.022304771 0.05749516
0.083423115 -0.023240887 0.06878936 0.03611449 0.028091686 -0.04697646 0.12301491 0.14775905
0.09003412 -0.021277845 -0.045107394 0.09678506 0.115729205 -0.060540695 -0.059237406 0.047155436
-0.07783433 -0.018714162 0.021328688 0.11077371 0.11694773 0.05634755 0.07662236 0.023815058
-0.041419476 0.099616975 0.046775352 -0.05368955 0.14691114 0.08765987 -0.048769496 0.15276206
-0.059096713 0.01605813 0.09348967 -0.016880699 0.16306749 0.09583294 0.009767342 0.10833317
0.13546239 -0.068509065 0.07816793 0.062174253 0.112887256 0.105154425 0.07865917 0.12004163
0.098969705 0.09940002 0.08765732 0.09872707 0.057433296 -0.0636833 0.113227464 0.02602051
0.098233834 0.07652655 0.16377582 -0.11515326 0.14293574 0.064826265 0.14210506 -0.020005614
-0.114635326 0.108821586 -0.037334226 0.040553123 -0.08431788 0.10975143 -0.07842724 0.1374013
0.12625737 0.08008648 0.025154782 0.03609076 0.17130607 0.15110645 -0.011998149 0.11598057
-0.009505703 -0.06141555 0.11028315 0.08521942 0.04695807 0.08224522 0.04808287 -0.009042698
0.08433262 0.0897872 0.10910531 0.15015 0.14255881 0.115296684 0.15150619 -0.018530197
0.08908577 0.07877238 0.0739751 0.16334149 -0.011158331 -0.13108462 0.022130936 0.12619767
-0.009327217 -0.013798132 0.14516808 -0.04122053 0.19056153 0.034526028 0.14195624 0.032296527
0.04594155 -0.037711535 -0.010286742 -0.1451592 -0.026470691 0.06474487 0.1262094 0.110840544
00000000: 2fd9 1a3e fe36 4c3d b7e1 5cbd 01d4 a73b
00000010: 3ab4 f8bd 3ac1 ee3d fd36 e23d ec38 843a
00000020: 60a5 f7bc e83c 18bd 6baf ba3d 9788 053e
00000030: 6095 0f3e df87 293e 87f9 703d bfc5 053e
00000040: aa6d 8a3d fd3a c1bc 7df8 4e3d 6433 333e
00000050: 5dd9 af3d 1a13 0a3e f155 fe3d 6b5d eb3d
00000060: 83b8 ea3d 8bd5 ff3d a5c9 0c3e 81d4 94bd
00000070: 7b06 09bd 8241 153e bb44 203e 5428 933d
00000080: 8d4e e53b b6bb 143d 1fe1 353d 7108 4fbd
00000090: f1ed 423d 83df 8fbd 863e b33d dc35 06bc
000000a0: 64b4 32bd 222b 253e bceb 023e 7ed3 283e
000000b0: d630 133e cf6c 58bd a0a1 e63d ada3 f7ba
000000c0: 66d0 f43d 3059 993d 3db4 403c 30cd a23d
000000d0: ba20 c93d 32ac 033c bf23 d73d 339b f23d
000000e0: 67a0 c1bd dcb8 d93d af57 dd3d 43c9 fb3d
000000f0: 323a 3abc 39fb 243e ebd8 8f3d 4e8b c7bd
00000100: ce35 a9bd 54d0 f5bd 6df6 7d3d 80e9 8c3d
00000110: fb15 b3bc 9b2d 49b9 537c 0dbe 3322 253e
00000120: b2d2 c53d 0943 083e 70d9 063e 6c55 47bd
00000130: 4256 883d 87f7 c93d 0365 6cbd 8a17 0b3e
00000140: 73b5 d6bd a185 063e 31a8 33bc d17a 7abd
00000150: fba8 54bd aca2 8abd 718c a6bd 178d 413d
00000160: 149a 3d3d c87c 4cbd 86ab 983d 2007 143b
00000170: ef06 4a3d d587 c6bd a9b2 af3c 25ff e33d
00000180: fc91 943d f073 bbba b7d1 1a3d 680d 0a3d
00000190: 773b bcbc b9c8 85bd c3d4 763b 687d 3f3d
000001a0: 84f8 8f3d c280 df3d e9fa b63d 9d72 583d
000001b0: 0578 103e 7847 833d fcd8 c4bd fa8b b2bc
000001c0: f2ca 68bc 438f 1b3c 2d50 473d 46fb 1e3e
000001d0: 8fca f73d bd4a 7f3d 9db9 0c3e 4734 993d
000001e0: 2245 8f3c 5990 86bd fb42 073e 768f ecbb
000001f0: f19e 063e c352 04bd a87d a1bd 2f70 653d
00000200: 3064 4b3c 5f9e 103e 904b 253d 3684 143e
00000210: 51fa a1bd 18d3 083e 7fb8 b6bc 0b80 6b3d
00000220: bdd9 aa3d ac63 bebc 70e1 8c3d caec 133d
00000230: 8920 e63c 636a 40bd 3eef fb3d 264e 173e
00000240: cf63 b83d e04e aebc 88c2 38bd 3f37 c63d
00000250: 6f03 ed3d 85f9 77bd eca2 72bd 0f26 413d
00000260: 9b67 9fbd 714e 99bc 80b9 ae3c 54dd e23d
00000270: 4b82 ef3d b0cc 663d 2fec 9c3d cc17 c33c
00000280: 78a7 29bd fc03 cc3d 8397 3f3d 93e9 5bbd
00000290: e06f 163e 0587 b33d 86c2 47bd a86d 1c3e
000002a0: 650f 72bd 578c 833c 8377 bf3d 6449 8abc
000002b0: 2afb 263e 0f44 c43d 3407 203c c8dd dd3d
000002c0: a7b6 0a3e 7b4e 8cbd 8216 a03d 6eaa 7e3d
000002d0: 6f31 e73d 345b d73d 0f18 a13d 63d8 f53d
000002e0: a1b0 ca3d 3d92 cb3d ae85 b33d 6b31 ca3d
000002f0: 2d3f 6b3d 646c 82bd cde3 e73d f728 d53c
00000300: d22e c93d f4b9 9c3d d9b4 273e 79d5 ebbd
00000310: bf5d 123e a2c3 843d fd83 113e d0e2 a3bc
00000320: edc5 eabd dadd de3d c6eb 18bd 081b 263d
00000330: daae acbd 5cc5 e03d 769e a0bd edb2 0c3e
00000340: 9d49 013e 6104 a43d 6711 ce3c e8d3 133d
00000350: dc6a 2f3e a6bb 1a3e e293 44bc 3987 ed3d
00000360: cfbd 1bbc df8e 7bbd 22dc e13d 8587 ae3d
00000370: 1b57 403d 2f70 a83d 8bf2 443d d327 14bc
00000380: 95b6 ac3d 5ae2 b73d 9b72 df3d ecc0 193e
00000390: f0fa 113e ab20 ec3d 7024 1b3e a4cc 97bc
000003a0: 9a72 b63d 6a53 a13d 4280 973d fe42 273e
000003b0: 6fd1 36bc 0c3b 06be f04b b53c f639 013e
000003c0: 2fd1 18bc 8f11 62bc f1a6 143e dcd6 28bd
000003d0: 9022 433e 2a6b 0d3d fa5c 113e 5d49 043d
000003e0: 352d 3c3d 6977 1abd b989 28bc 9da4 14be
000003f0: 10d9 d8bc f598 843d 093d 013e 5e00 e33d

network_body.linear_encoder.seq_layers.0.weight f4 [256, 9]
0.030723307 0.43235877 -0.7148692 -0.4744459 -0.7152669 -0.1581502 -0.24432321 -0.053981297
-1.073525 0.22941269 -0.25725073 -0.36536622 0.698452 0.2817744 -0.18323539 0.13166742
-0.32256326 -0.13336655 -0.0076427446 0.31593126 0.36176646 -0.43344033 -0.28998482 -0.061972614
0.5793557 0.62038493 0.46749938 0.34981385 0.40523866 0.010923794 0.30694768 -0.057024688
0.21296123 0.60575914 0.35348648 0.14689314 0.15741162 0.07621291 -0.61263686 0.39251047
0.024354268 0.15492523 0.17079416 0.5500063 -0.003858217 -0.012530644 0.45553088 0.13459574
0.25167608 -0.6590608 0.17666066 -0.47074914 -0.30534065 0.60663426 -0.054149453 0.3848052
-0.06194338 -0.61444336 -0.41250065 -0.04585549 0.113470875 0.0085438015 0.025721371 -0.34565228
-0.24641916 0.40335461 0.3414755 0.407076 -0.27516702 -0.20944892 -0.025202144 0.11490814
-0.26874572 0.40642124 -0.08261552 -0.24810177 0.19002445 -0.17522344 -0.132007 -0.041838497
0.14399962 0.14802064 0.53054667 -0.52767867 0.65937346 0.24149442 -0.18081872 0.50129765
0.18746015 -0.43928382 0.5668648 -0.50282675 0.12339311 -0.25943717 0.044641543 -0.24096267
-0.117405586 0.65535045 0.6795823 0.09778074 0.30935434 -0.07713736 -0.57674485 -0.29411972
0.4960105 -0.5135311 -0.22599551 0.24236982 -0.3968763 0.19073449 0.15125984 -0.83855677
-0.7508742 -0.20917791 -0.38732377 0.13157162 -0.36711493 0.016981063 0.115636796 -0.060412437
-0.39056468 -0.54092085 0.13200521 -0.70769876 0.5825162 -0.3125448 0.4134956 -0.18589212
0.011417346 1.061006 -0.5588074 -0.13410065 0.38375536 -0.25116688 0.066288084 -0.72057986
0.24846853 -0.31534517 0.46163434 0.069857605 -0.12822168 -0.47655082 0.45877635 -0.43299943
0.35320792 -0.3296715 0.0044931173 0.06347786 -0.2517845 0.49265942 -0.25154266 -0.2667472
-0.3100158 -0.3186845 0.35090113 -0.33249706 -0.4377517 0.15794115 -0.1029055 0.2162515
0.24769841 0.05277585 0.317109 0.052465376 -0.08468651 0.25140703 0.6180439 -0.34132645
-0.22102298 -0.22426718 -0.51828307 0.40716827 -0.6303407 -0.5507358 0.95330095 -0.04022519
0.059057042 -0.16591333 -0.32907903 0.33930758 -0.09327326 -0.21061635 0.33665892 0.18446176
0.029198542 -0.20177667 0.15078494 0.3581432 -0.40663484 0.26674312 0.21937424 -0.119614005
0.5474105 0.040410034 0.12904292 -0.83892524 0.03343369 -0.6812616 0.47838727 0.16169202
0.12527622 -0.504665 -0.040199194 0.29397893 -0.01648156 -0.3245932 -0.42048103 0.43358278
-0.005094744 -0.06835404 -0.120382756 -0.04020346 -0.32031658 -0.4014057 0.1858478 0.053054225
-0.25082263 -0.42422754 -0.48358715 0.04966245 0.25100654 -0.356126 -0.9494097 0.100971445
0.20892382 0.062377855 -0.24092075 0.3283986 0.097751185 -0.103056155 -0.23726033 -0.2776107
-0.40949067 -0.12701413 -0.36058074 -0.24145205 -0.069259234 -0.2239961 -0.25122064 0.07754986
-1.1162647 0.093833655 0.53238165 0.18039049 -0.25669873 -0.45973748 0.31011477 0.19495535
-0.33798724 0.4238631 0.053211868 -0.13175572 0.17732985 0.09781806 -0.39749378 -0.2614809
00000000: 72af fb3c 215e dd3e ab01 37bf 93ea f2be
00000010: bb1b 37bf 20f2 21be dd2f 7abe 7e1b 5dbd
00000020: 4469 89bf 29eb 6a3e 5eb6 83be 4811 bbbe
00000030: c0cd 323f bc44 903e 0fa2 3bbe d3d3 063e
00000040: 0327 a5be 3e91 08be fd6f fabb bec1 a13e
00000050: 7439 b93e e4eb ddbe e478 94be ffd6 7dbd
00000060: a850 143f 8cd1 1e3f 145c ef3e cd1a b33e
00000070: 717b cf3e b6f9 323c 3f28 9d3e b892 69bd
00000080: 8212 5a3e 0813 1b3f 2efc b43e 286b 163e
00000090: 8330 213e 8415 9c3d c5d5 1cbf 22f7 c83e
000000a0: 9a82 c73c b8a4 1e3e aae4 2e3e 36cd 0c3f
000000b0: 24da 7cbb 554d 4dbc 583b e93e 77d3 093e
000000c0: b0db 803e 35b8 28bf 88e6 343e 0806 f1be
000000d0: 9c55 9cbe 624c 1b3f d1cb 5dbd 3005 c53e
000000e0: 57b8 7dbd 294c 1dbf 4933 d3be f7d2 3bbd
000000f0: 6b63 e83d 4dfb 0b3c a0b5 d23c 56f9 b0be
00000100: 4e55 7cbe 7f84 ce3e e0d5 ae3e 446c d03e
00000110: b1e2 8cbe c779 56be ba74 cebc f554 eb3d
00000120: 0a99 89be 7216 d03e 5332 a9bd 640e 7ebe
00000130: c595 423e c66d 33be d82c 07be d85e 2bbd
00000140: a374 133e b992 173e e8d1 073f f315 07bf
00000150: b3cc 283f 504a 773e 8b28 39be 0b55 003f
00000160: 8ef5 3f3e cfe9 e0be 0d1e 113f 41b9 00bf
00000170: 87b5 fc3d f3d4 84be 0dda 363d ebbe 76be
00000180: 5772 f0bd 0cc5 273f 1bf9 2d3f 4541 c83d
00000190: b163 9e3e 31fa 9dbd 8da5 13bf dc96 96be
000001a0: 17f5 fd3e c676 03bf 5e6b 67be cb2f 783e
000001b0: 5f33 cbbe e74f 433e dce3 1a3e a8ab 56bf
000001c0: 4b39 40bf bc32 56be 4d4f c6be b6ba 063e
000001d0: 7df6 bbbe df1b 8b3c fcd2 ec3d 0873 77bd
000001e0: 18f8 c7be ca79 0abf 602c 073e bf2b 35bf
000001f0: c81f 153f df05 a0be b2b5 d33e 815a 3ebe
00000200: d20f 3b3c 0bcf 873f 000e 0fbf ae51 09be
00000210: 957b c43e f298 80be 0cc2 873d ec77 38bf
00000220: 896e 7e3e ec74 a1be 565b ec3e 8111 8f3d
00000230: 8b4c 03be 78fe f3be bce4 ea3e 1ab2 ddbe
00000240: abd7 b43e b4ca a8be 003b 933b ae00 823d
00000250: e6e9 80be db3d fc3e 33ca 80be 1793 88be
00000260: 64ba 9ebe 9d2a a3be 50a9 b33e 0e3d aabe
00000270: fe20 e0be 53bb 213e 1ec0 d2bd 0971 5d3e
00000280: a7a4 7d3e 7d2b 583d 1c5c a23e efe5 563d
00000290: 1f70 adbd 6cb8 803e 2038 1e3f 57c2 aebe
000002a0: d953 62be 4ca6 65be 33ae 04bf 5c78 d03e
000002b0: 025e 21bf 05fd 0cbf 880b 743f 2bc3 24bd
000002c0: cce5 713d 2fe5 29be 0c7d a8be b9b9 ad3e
000002d0: 0d06 bfbd d0ab 57be 8f5e ac3e 8be3 3c3e
000002e0: c831 ef3c 8b9e 4ebe 5e67 1a3e 8c5e b73e
000002f0: 7132 d0be 8e92 883e a4a3 603e 30f8 f4bd
00000300: 1823 0c3f fe84 253d d423 043e cec3 56bf
00000310: c4f1 083d 2967 2ebf 2def f43e 9892 253e
00000320: 6948 003e ba31 01bf e9a7 24bd 6884 963e
00000330: 5604 87bc 1431 a6be 4a49 d7be 90fe dd3e
00000340: cff1 a6bb 34fd 8bbd 3c8b f6bd 62ac 24bd
00000350: 8900 a4be 0c85 cdbe e34e 3e3e 634f 593d
00000360: d36b 80be 5a34 d9be bc98 f7be da6a 4b3d
00000370: ee83 803e 2656 b6be 840c 73bf 1eca ce3d
00000380: 20f0 553e ec7f 7f3d eeb3 76be dc23 a83e
00000390: c631 c83d 1b0f d3bd 5ff4 72be fd22 8ebe
000003a0: c3a8 d1be fe0f 02be 0a9e b8be 353f 77be
000003b0: c9d7 8dbd 3c5f 65be fe9f 80be 76d2 9e3d
000003c0: c3e1 8ebf dc2b c03d 2a4a 083f 49b8 383e
000003d0: 046e 83be b662 ebbe 5dc7 9e3e 60a2 473e
000003e0: aa0c adbe 9604 d93e b0f4 593d f9ea 06be
000003f0: f595 353e d654 c83d 4e84 cbbe d3e0 85be

network_body.linear_encoder.seq_layers.2.bias f4 [256]
0.03840121 -0.049541064 -0.07302585 0.020492425 0.1283727 0.06354685 -0.07568556 0.14876448
-0.055787534 0.011772652 -0.096401945 0.07349045 -0.042010047 0.1568608 -0.025066806 0.013034032
0.08233727 0.06819269 -0.042000446 0.028717956 0.07486993 -0.045744266 0.032428592 -0.038376994
-0.049231544 -0.023067344 0.07628461 0.1378521 0.04649621 -0.01049911 0.017626915 -0.040293414
0.09901559 -0.00024232705 -0.053109653 -0.054188233 0.03629734 0.002377636 0.11680234 -0.05450745
0.037674885 0.12171782 -0.027132818 -0.0012966793 0.0871106 0.1715244 0.026260477 -0.088510685
0.08553186 -0.012505596 0.09050785 -0.018177755 0.06259868 -0.044563577 0.007856501 0.07000107
0.05137065 0.0016638496 -0.036818296 -0.000817103 -0.01543318 0.07145913 0.043815866 -0.06746022
0.0221914 0.14289728 0.07989338 -0.018004602 0.1416796 0.07006848 -0.024084803 0.07642069
0.12933317 -0.0099937 -0.056028303 -0.09721713 0.07559749 -0.0054567438 0.13585763 0.0052875765
0.081209235 0.11387421 -0.091268025 0.13063067 -0.0054318355 0.13692495 -0.03696929 0.058098186
0.04777225 0.023232765 0.16429128 -0.02419242 0.16534115 -0.034261998 0.09384106 -0.07333005
0.09614531 -0.03255808 0.15330815 -0.043678857 -0.025880383 -0.031917244 0.028131086 0.105072565
0.017976247 0.11093565 0.097273685 -0.07662194 0.032190666 0.09451704 -0.107368246 0.0814481
-0.029437505 0.011928004 0.08996856 0.14389233 -0.023996642 -0.07869214 -0.07296805 0.13852192
-0.01017677 0.01576879 -0.06677055 -0.033113476 0.038385518 0.041813146 -0.060110737 0.0311256
0.08039597 0.048841737 0.17159876 0.11415187 -0.08792624 0.15961958 0.11437077 -0.075553656
-0.017029012 -0.0635803 0.016465237 0.18882406 -0.036928717 0.109050035 0.14954133 -0.024397828
-0.09648339 -0.05044917 -0.025785029 -0.058480848 0.057156727 -0.1061735 0.094435714 -0.061678845
0.12934366 0.045244828 0.04085735 -0.012399343 0.1084573 -0.041431192 0.112642854 0.1149075
0.015825238 -0.04896078 -0.05554878 0.0923436 0.10750879 0.056222048 -0.035712745 0.072078414
-0.074724205 -0.035265792 -0.06746307 0.058044184 -0.081809476 0.071574 0.13241383 0.04792903
0.14383219 -0.057184134 -0.06621068 0.072606064 0.08038373 0.10665768 0.08918823 -0.040200986
0.09019292 0.18107134 0.16058812 0.1278112 0.14402796 0.008943022 -0.008328099 -0.055928316
0.122644305 0.09582262 0.07487524 0.114218704 0.08468743 0.074850455 0.11255632 -0.032635618
0.17684537 -0.02423842 0.07807007 -0.0062819133 0.104237124 0.03374834 0.045302045 0.09875378
0.024414815 0.04708043 0.060134023 0.014053648 -0.044043105 -0.06529294 0.083891384 0.13718267
0.042512666 -0.031716455 -0.057146195 0.13184819 -0.011825262 0.0285921 -0.084822774 -0.07450193
0.14122853 0.15817653 0.09969593 -0.04981296 -0.030269744 -0.025838118 0.14642146 -0.03619502
-0.08320924 0.015547789 0.101397365 0.107115716 0.12495875 0.14979908 0.15965028 0.12576856
-0.059732962 0.115460165 0.06616247 0.0064539444 0.11404144 0.1451811 0.14706743 0.039059483
0.14991798 -0.065054305 0.14088444 -0.039157446 0.017130513 0.12705752 0.10314707 0.17610888
00000000: 964a 1d3d 92eb 4abd 948e 95bd bbdf a73c
00000010: 2274 033e da24 823d 0801 9bbd b755 183e
00000020: 7881 64bd 15e2 403c 626e c5bd 2982 963d
00000030: ba12 2cbd 1ea0 203e e758 cdbc b18c 553c
00000040: 71a0 a83d 9ca8 8b3d a908 2cbd eb41 eb3c
00000050: 6855 993d 575e 3bbd d8d3 043d 3231 1dbd
00000060: 04a7 49bd baf7 bcbc 1b3b 9c3d 1a29 0d3e
00000070: cf72 3e3d 7604 2cbc 5266 903c b50a 25bd
00000080: b0c8 ca3d 2c19 7eb9 8289 59bd 7bf4 5dbd
00000090: 85ac 143d 1dd2 1b3b 1136 ef3d 3443 5fbd
000000a0: fb50 1a3d 3147 f93d a545 debc 56f5 a9ba
000000b0: 0b67 b23d 18a4 2f3e 3620 d73c 1745 b5bd
000000c0: 542b af3d 45e4 4cbc 2e5c b93d 84e9 94bc
000000d0: bd33 803d 4c88 36bd 8eb8 003c b95c 8f3d
000000e0: 086a 523d 8715 da3a c8ce 16bd db32 56ba
000000f0: 73db 7cbc 2a59 923d 4478 333d 9528 8abd
00000100: bdca b53c aa53 123e 249f a33d 637e 93bc
00000110: 7514 113e 1080 8f3d 7e4d c5bc 7382 9c3d
00000120: ea6f 043e 9ebc 23bc ef7d 65bd c619 c7bd
00000130: dbd2 9a3d 7cce b2bb 431e 0b3e 6843 ad3b
00000140: 0751 a63d e236 e93d bbea babd 0cc4 053e
00000150: 8afd b1bb 0e36 0c3e 1c6d 17bd 5df8 6d3d
00000160: d6ac 433d a452 be3c f93b 283e 2f2f c6bc
00000170: 314f 293e 4f56 0cbd be2f c03d 112e 96bd
00000180: d5e7 c43d 9f5b 05bd d0fc 1c3e 9ae8 32bd
00000190: 1903 d4bc a8bb 02bd 2a73 e63c 4930 d73d
000001a0: ec42 933c 3b32 e33d 6d37 c73d f7eb 9cbd
000001b0: 5cda 033d 2692 c13d e2e3 dbbd 43ce a63d
000001c0: ec26 f1bc ad6d 433c 7041 b83d 8358 133e
000001d0: 9b94 c4bc 5829 a1bd 4670 95bd b1d8 0d3e
000001e0: 78bc 26bc 8d2d 813c 00bf 88bd ffa1 07bd
000001f0: 223a 1d3d 4344 2b3d ad36 76bd 1dfb fe3c
00000200: a4a6 a43d 460e 483d 96b7 2f3e 75c8 e93d
00000210: ac12 b4bd 5173 233e 393b ea3d e0bb 9abd
00000220: 6d80 8bbc 6336 82bd 1be2 863c 185b 413e
00000230: 9142 17bd a055 df3d 5d21 193e f4dd c7bc
00000240: 1599 c5bd caa3 4ebd 203b d3bc 9d89 6fbd
00000250: 2c1d 6a3d 7e71 d9bd 8367 c13d f5a2 7cbd
00000260: aa72 043e a452 393d 095a 273d 9d26 4bbc
00000270: dc1e de3d c1b3 29bd 4cb1 e63d a054 eb3d
00000280: eea3 813c 198b 48bd 1e87 63bd a41e bd3d
00000290: 922d dc3d 1749 663d 8747 12bd d99d 933d
000002a0: 0109 99bd dd72 10bd 142a 8abd bdbf 6d3d
000002b0: ba8b a7bd 6495 923d 7e97 073e 3b51 443d
000002c0: bf48 133e e939 6abd 7799 87bd 7db2 943d
000002d0: 3aa0 a43d 576f da3d 52a8 b63d caa9 24bd
000002e0: 11b7 b83d c46a 393e 3671 243e f0e0 023e
000002f0: 117c 133e c185 123c 9472 08bc 1715 65bd
00000300: f02c fb3d a63e c43d 3158 993d 7feb e93d
00000310: 9a70 ad3d 324b 993d ee83 e63d edac 05bd
00000320: f416 353e a78f c6bc 33e3 9f3d 82d8 cdbb
00000330: 467a d53d b33b 0a3d a38e 393d 6c3f ca3d
00000340: 9401 c83c 69d7 403d 184f 763d 4641 663c
00000350: 8b66 34bd 4eb8 85bd 3fcf ab3d 9d79 0c3e
00000360: c321 2e3d 1de9 01bd 2112 6abd 3603 073e
00000370: bebe 41bc fb39 ea3c 90b7 adbd 7894 98bd
00000380: 369e 103e 07f9 213e 612d cc3d ad08 4cbd
00000390: 41f8 f7bc 76aa d3bc 82ef 153e 3b41 14bd
000003a0: 9b69 aabd 27bc 7e3c 6ca9 cf3d 7c5f db3d
000003b0: 60ea ff3d ee64 193e 5d7b 233e 79c9 003e
000003c0: 8daa 74bd 6176 ec3d 3080 873d 9c7b d33b
000003d0: 8f8e e93d 5baa 143e d898 163e d6fc 1f3d
000003e0: 1984 193e 313b 85bd 0344 103e 8f63 20bd
000003f0: 4a55 8c3c 5e1b 023e c53e d33d e355 343e

network_body.linear_encoder.seq_layers.2.weight f4 [256, 256]
-0.05396037 0.06743163 -0.09692624 -0.097715534 -0.064809285 0.08178086 0.0101096295 0.03304669
0.014534082 0.03819182 0.009795057 -0.19028936 -0.10398159 -0.020621272 -0.029693082 0.08933232
0.046215843 0.035317544 0.024783203 0.076208845 -0.022123497 0.054177254 0.0768806 0.008507249
0.04168433 0.0055392897 -0.0344098 -0.023758823 -0.029776 -0.03267943 0.09347978 0.09122614
-0.083367296 0.15024938 0.06261289 -0.036577553 0.025646027 -0.051106114 -0.13601042 0.041965906
0.12375351 0.027871355 -0.125323 -0.0626955 0.028699355 0.15836366 -0.020998009 0.12458717
-0.049007714 0.03397259 0.056484606 0.0016179654 -0.042871017 0.11294772 -0.18283342 -0.10727048
0.10217811 0.16358115 0.0033940477 0.022382937 -0.10129135 0.07482866 0.008697645 0.03231095
0.030893428 -0.068876766 -0.03634843 -0.14672236 -0.093494676 0.012979647 0.02824845 0.048239235
-0.14824204 -0.08684122 -0.077767804 0.08763114 0.05660484 -0.0161961 0.05224835 -0.03761973
0.002763415 0.027215803 0.020163482 -0.08367923 -0.00944004 0.03215979 0.080478676 -0.09119236
0.062470026 -0.03748036 0.1284453 -0.00054613274 -0.025486689 0.04507118 0.062058546 0.017962623
0.1958945 0.07162704 0.057640873 0.07033242 0.057254806 0.096315436 0.0071392152 0.043713197
-0.05437337 0.058042187 0.0013937898 0.02138006 -0.1566647 0.009423739 -0.091701314 0.14733092
-0.045642603 -0.20236519 -0.033566445 -0.11431247 -0.015694724 -0.017753776 0.08089034 -0.041933075
-0.038440816 -0.08579888 -0.063835375 -0.13835838 -0.28795695 0.02210117 -0.0033544241 0.115380004
0.043315023 -0.11269507 -0.087752946 -0.15607111 0.03417183 -0.024118945 0.081517346 0.110043876
-0.05839166 -0.08374413 -0.13354002 0.06477101 -0.06345371 0.021732446 0.09116013 -0.106984444
-0.21872573 0.07002398 0.05088061 -0.15917961 0.03172212 -0.05754985 -0.07025986 -0.02032564
0.04698697 0.01477177 0.06100459 -0.08594376 -0.020609176 -0.01640629 0.10985022 -0.035949502
0.05730241 0.11312483 -0.04046749 -0.066711515 0.111537024 0.034603387 -0.009171943 -0.07898957
-0.05821728 -0.002450342 0.0102626495 0.061039895 -0.05588291 -0.0075361924 -0.084193476 -0.21204272
-0.22496471 0.058844738 0.13532186 0.1464619 -0.16822538 -0.21178511 0.017504968 0.07273663
0.008166994 -0.10672247 -0.08166008 0.13319282 -0.04898872 -0.09958084 0.16155888 0.05692248
-0.113163084 -0.0022402178 -0.07907208 -0.07747026 0.027644962 0.023377284 -0.11723626 0.059071448
-0.09012854 0.12409315 0.06243856 0.006565974 0.0651648 -0.091402434 0.114758715 0.11092854
-0.034804936 0.039595786 -0.14356337 0.05090221 -0.08254401 -0.0020326793 -0.20732887 0.048822865
-0.07118038 0.011814695 0.056736797 -0.0103629595 -0.094360895 -0.0027798777 -0.0447092 0.032079514
-0.07518215 0.010553445 -0.17014678 -0.026033817 -0.0035659955 -0.17140085 0.010726041 0.058270384
0.030433126 -0.091020286 -0.13369833 0.031723216 -0.11816679 -0.040169016 0.077051334 -0.039350927
-0.033927128 -0.090815455 0.025410859 -0.0561108 0.1443101 0.022689871 -0.016555768 -0.048509747
0.12097439 -0.17602342 -0.15093374 -0.033840045 0.13052267 0.13324347 -0.004810886 0.024063552
00000000: 8d05 5dbd 9819 8a3d 4481 c6bd 151f c8bd
00000010: bbba 84bd b97c a73d dca2 253c f75b 073d
00000020: 5c20 6e3c 076f 1c3d 727b 203c 37db 42be
00000030: 4df4 d4bd f1ed a8bc e83e f3bc ddf3 b63d
00000040: d34c 3d3d 21a9 103d 2506 cb3c 6213 9c3d
00000050: 563c b5bc f8e8 5d3d 9373 9d3d fd61 0b3c
00000060: 30bd 2a3d ee82 b53b 4af1 0cbd dda1 c2bc
00000070: ccec f3bc deda 05bd 5472 bf3d c5d4 ba3d
00000080: 79bc aabd f9da 193e 303b 803d 58d2 15bd
00000090: 9e17 d23c a554 51bd 5146 0bbe 71e4 2b3d
000000a0: 7b72 fd3d 7852 e43c ac54 00be 8066 80bd
000000b0: e91a eb3c 152a 223e 0404 acbc 8f27 ff3d
000000c0: 50bc 48bd d826 0b3d 675c 673d e911 d43a
000000d0: 8599 2fbd 2251 e73d af38 3bbe a0b0 dbbd
000000e0: c242 d13d d181 273e ac6e 5e3b 6c5c b73c
000000f0: d771 cfbd c53f 993d 9180 0e3c 7d58 043d
00000100: 3714 fd3c 430f 8dbd 17e2 14bd 633e 16be
00000110: 237a bfbd 96a8 543c 4b69 e73c 8196 453d
00000120: c3cc 17be cfd9 b1bd ba44 9fbd f577 b33d
00000130: 7ada 673d afad 84bc 5e02 563d 2517 1abd
00000140: 691a 353b adf3 de3c e32d a53c 0460 abbd
00000150: 66aa 1abc fcb9 033d 01d2 a43d 0fc3 babd
00000160: 92e0 7f3d 0285 19bd 2a87 033e 592a 0fba
00000170: 76c9 d0bc 8f9c 383d 1a31 7e3d 5a26 933c
00000180: 9198 483e 33b1 923d d618 6c3d 720a 903d
00000190: 0484 6a3d 0741 c53d 14f0 e93b 9c0c 333d
000001a0: 9cb6 5ebd a5bd 6d3d d3af b63a 3c25 af3c
000001b0: b66c 20be 0766 1a3c e6cd bbbd ebdd 163e
000001c0: bdf3 3abd d238 4fbe f87c 09bd a81c eabd
000001d0: 3992 80bc 5e70 91bc d6a9 a53d 04c2 2bbd
000001e0: 1e74 1dbd 53b7 afbd 1fbc 82bd d2ad 0dbe
000001f0: 186f 93be 830d b53c e6d5 5bbb 5a4c ec3d
00000200: 186b 313d accc e6bd d1b7 b3bd 1bd1 1fbe
00000210: c3f7 0b3d 1895 c5bc 91f2 a63d af5e e13d
00000220: 182c 6fbd 0b82 abbd b7be 08be aaa6 843d
00000230: 05f4 81bd 3e08 b23c 2ab2 ba3d a91a dbbd
00000240: a3f9 5fbe bc68 8f3d 3068 503d fbff 22be
00000250: 0eef 013d 64b9 6bbd 67e4 8fbd f581 a6bc
00000260: 6975 403d 4b05 723c f3df 793d 4803 b0bd
00000270: 93d4 a8bc 7c66 86bc 27f9 e03d c93f 13bd
00000280: efb5 6a3d fead e73d 3dc1 25bd 0ca0 88bd
00000290: 866d e43d 48bc 0d3d eb45 16bc 49c5 a1bd
000002a0: 3e75 6ebd eb95 20bb ac24 283c f804 7a3d
000002b0: 7ae5 64bd 2af2 f6bb a16d acbd ba21 59be
000002c0: 265d 66be 2e07 713d d091 0a3e 1cfa 153e
000002d0: 4643 2cbe 32de 58be 9466 8f3c f1f6 943d
000002e0: dbce 053c 4f91 dabd 663d a7bd b363 083e
000002f0: 65a8 48bd 0af1 cbbd b16f 253e 8c27 693d
00000300: 0cc2 e7bd 9ed0 12bb 8bf0 a1bd baa8 9ebd
00000310: b077 e23c b881 bf3c 9019 f0bd e7f4 713d
00000320: 5095 b8bd 8d24 fe3d 93bf 7f3d 6227 d73b
00000330: 1f75 853d 3331 bbbd 9e06 eb3d 812e e33d
00000340: 9f8f 0ebd 312f 223d 4702 13be d67e 503d
00000350: d50c a9bd b336 05bb 054e 54be 7cfa 473d
00000360: 05c7 91bd 6c92 413c d864 683d 67c9 29bc
00000370: 4940 c1bd 9c2e 36bb fe20 37bd cf65 033d
00000380: 19f9 99bd 5be8 2c3c f53a 2ebe df44 d5bc
00000390: 7ab3 69bb b483 2fbe 47bc 2f3c edac 6e3d
000003a0: e44e f93c d868 babd 37e8 08be 34f0 013d
000003b0: 6e01 f2bd 4488 24bd 17cd 9d3d 702e 21bd
000003c0: 2cf7 0abd 74fd b9bd 6f2a d03c 70d4 65bd
000003d0: 07c6 133e 1ce0 b93c f69f 87bc 28b2 46bd
000003e0: 6cc1 f73d 7c3f 34be 608e 1abe dc9b 0abd
000003f0: bca7 053e fa70 083e a3a4 9dbb ed20 c53c

network_body.vector_processors.0.normalizer.running_mean f4 [9]
-0.31323203 1.9529523 0.0 -0.3083454 1.9529575 0.0 0.18035701 0.0
0.053940937
00000000: f35f a0be 57fa f93f 0000 0000 73df 9dbe
00000010: 83fa f93f 0000 0000 82af 383e 0000 0000
00000020: 2cf1 5c3d
