config/results/FighterUpdated4.1/My Behavior/My Behavior-10499971.onnx (onnx, 282099 bytes, 8 tensors)

58 f4 [9]
2.972729 0.0032198797 0.00030860712 3.0675912 0.0032194622 0.00030860712 0.39706445 0.00030860712
0.21001762
00000000: 3141 3e40 9e04 533b 8ccc a139 6a53 4440
00000010: 9dfd 523b 8ccc a139 084c cb3e 8ccc a139
00000020: dc0e 573e

action_model._discrete_distribution.branches.0.bias f4 [6]
0.034907453 -0.04252508 -0.0039141336 0.09067681 -0.12122051 -0.026464524
00000000: 1efb 0e3d c72e 2ebd 2242 80bb c3b4 b93d
00000010: 7542 f8bd 21cc d8bc

action_model._discrete_distribution.branches.0.weight f4 [6, 256]
0.021248432 -0.027260972 -0.06909117 0.094648235 -0.030980244 0.0006852944 -0.013398446 0.017899783
0.030076485 0.048915748 -0.0030052934 0.06163189 0.015545404 0.0035264308 0.017813269 0.0984845
0.027704163 0.0024862573 0.053026065 0.08900067 0.020903368 -0.004140019 0.056948785 0.058053184
-0.022829417 0.040552486 0.023211107 0.04092748 0.058406483 0.073767014 0.000602941 0.049139872
0.025257032 0.024699477 0.035195664 -0.012355028 0.062720284 0.061337065 0.06926082 0.022050897
0.013179359 0.050388746 0.0030793715 0.03453255 -0.0066828863 -0.043301843 0.082548216 -0.01044337
0.06318561 0.068963446 0.012295797 0.031174226 0.012089849 0.0006484661 0.049238686 0.0523246
0.05701198 0.007003844 -0.07173291 0.032075163 0.038278725 0.030078696 0.01758442 0.020795505
0.07436259 0.047056075 0.011973805 -0.055198405 -0.034690052 0.064533286 -0.044729788 -0.013701758
-0.01389597 -0.026129253 -0.03892795 0.0030191175 0.05508947 0.025298517 -0.030774597 0.012081808
-0.015314663 -0.0032201887 -0.044931516 0.058754023 -0.021753786 -0.028091934 -0.04356645 0.014857144
-0.026910894 0.01610124 -0.034238115 0.01512651 -0.02943941 0.027895462 0.021515861 0.00021307693
0.009362784 0.059989437 -0.010070597 0.015825657 0.020635167 0.06438911 -0.10754832 0.06254905
0.096461035 -0.035674106 0.046754587 0.013645743 0.12255047 0.012657921 -0.013234709 -0.0011984973
0.054304026 -0.0031141762 0.0052189254 0.05780206 0.0292506 -0.025530422 -0.064863704 0.0036234555
-0.0035167292 0.06260162 0.0030514624 -0.034666244 0.13358717 0.020933544 -0.015741633 0.036846764
0.03302401 0.027003951 0.017984457 -0.017501872 0.008740237 -0.003719852 0.055463802 0.012661977
0.03647459 -0.0047056354 0.08138239 -0.03070992 0.02588232 -0.0077163815 0.02883956 0.0035120437
-0.004249264 -0.029586172 -0.051331013 -0.032605607 0.052691814 -0.007495699 0.016142251 -0.026420508
-0.009025382 0.041830808 0.07798605 0.0437543 0.05117973 0.03521866 0.0032095138 0.0056915344
0.074265696 -0.044839054 -0.028523538 -0.008599217 0.017672522 0.07140716 0.0091596 0.037877418
-0.025523312 -0.047997892 0.0030007875 0.06253373 -0.0061020423 0.0087225465 0.013878433 0.05269445
0.04591175 0.041315302 0.012984176 0.05796234 0.043365713 -0.036720105 0.036246795 -0.045862902
0.0045479434 -0.024774881 -0.00025101806 -0.020616235 0.0035648453 0.021223674 0.034218967 -0.0138877
0.053358663 0.015477697 0.037836067 0.033672366 0.018818738 0.04441191 0.014055267 -0.060803846
0.0035592502 0.017993877 -0.025901923 0.1013907 0.015906807 -0.0061791823 0.025198014 -0.00080158585
0.052641023 0.0056975093 0.03183543 0.06381154 0.031894185 -0.061730783 0.04244281 0.036983106
0.036606025 -0.02999351 0.054990124 0.024571722 0.03242318 0.038511436 -0.05868348 -0.014338511
-0.008995217 -0.014952596 0.0068837223 0.04135083 -0.038629003 0.07309514 0.00198109 -0.05084515
-0.03564599 0.09175929 0.013255452 0.008246662 0.04220414 0.012359655 -0.010080773 -0.011313246
0.0050118156 -0.02185295 0.07000427 -0.042777505 -0.037967533 0.05260555 0.027622703 0.07323389
0.009534075 0.035480537 -0.007841895 -0.016603436 0.09476172 -0.0058155823 0.0053009675 -0.023158284
00000000: 3111 ae3c 6752 dfbc ac7f 8dbd efd6 c13d
00000010: 48ca fdbc 54a5 333a 2885 5bbc 91a2 923c
00000020: f662 f63c e15b 483d 75f4 44bb b871 7c3d
00000030: 26b2 7e3c b11b 673b 22ed 913c 3eb2 c93d
00000040: d7f3 e23c 7af0 223b dc31 593d fc45 b63d
00000050: 8a3d ab3c ffa8 87bb 2143 693d 2dc9 6d3d
00000060: c204 bbbc 5d1a 263d 3825 be3c 93a3 273d
00000070: a33b 6f3d 2913 973d b00e 1e3a e446 493d
00000080: d6e7 ce3c 8f56 ca3c 5429 103d be6c 4abc
00000090: 7e73 803d 933c 7b3d 9ed8 8d3d 15a4 b43c
000000a0: 3dee 573c 6e64 4e3d 48cf 493b 0172 0d3d
000000b0: 1dfc dabb 465d 31bd 0a0f a93d ab1a 2bbc
000000c0: 7567 813d b53c 8d3d 4f74 493c 1761 ff3c
000000d0: 8114 463c d3fd 293a 81ae 493d 5252 563d
000000e0: 6585 693d 8080 e53b b4e8 92bd 3f61 033d
000000f0: 27ca 1c3d 9967 f63c 340d 903c 565b aa3c
00000100: 6a4b 983d dfbd 403d c72d 443c b917 62bd
00000110: 2817 0ebd 072a 843d 9536 37bd 577d 60bc
00000120: ecab 63bc 040d d6bc ea72 1fbd 63dc 453b
00000130: 7fa5 613d d63e cf3c 021b fcbc c7f2 453c
00000140: 5aea 7abc cd09 53bb 1c0a 38bd 0fa8 703d
00000150: ff34 b2bc 0e21 e6bc bc72 32bd 616b 733c
00000160: 3c74 dcbc bfe6 833c 443d 0cbd 2ed5 773c
00000170: eb2a f1bc 0685 e43c 0842 b03c 676d 5f39
00000180: 5d66 193c 7cb7 753d 25ff 24bc cfa4 813c
00000190: 150b a93c 70de 833d 4b42 dcbd b719 803d
000001a0: 5d8d c53d 031f 12bd bd81 3f3d 6592 5f3c
000001b0: befb fa3d 2b63 4f3c 65d6 58bc e516 9dba
000001c0: e66d 5e3d 3517 4cbb 8503 ab3b dac1 6c3d
000001d0: f49e ef3c 2d25 d1bc 43d7 84bd 7f77 6d3b
000001e0: ed78 66bb 4735 803d 0bfb 473b 31fe 0dbd
000001f0: 13cb 083e d37c ab3c 99f4 80bc a2ec 163d
00000200: 2f44 073d 6437 dd3c 2454 933c 1660 8fbc
00000210: 3633 0f3c c3c8 73bb 032e 633d 2e74 4f3c
00000220: 6166 153d bb31 9abb cfab a63d 5f93 fbbc
00000230: 2907 d43c b3d9 fcbb f140 ec3c 512a 663b
00000240: 693d 8bbb b35e f2bc 7840 52bd 758d 05bd
00000250: 5fd3 573d 7b9e f5bb c13c 843c d26f d8bc
00000260: 32df 13bc c856 2b3d 26b7 9f3d b537 333d
00000270: d6a1 513d 7141 103d b556 523b 0d80 ba3b
00000280: 9d18 983d 28a9 37bd 32aa e9bc bbe3 0cbc
00000290: f7c5 903c eb3d 923d 2612 163c 5a25 1b3d
000002a0: 4416 d1bc 7099 44bd dca8 443b af11 803d
000002b0: a4f3 c7bb 03e9 0e3c 5e62 633c 23d6 573d
000002c0: f60d 3c3d 3c3a 293d 95bb 543c eb69 6d3d
000002d0: 3fa0 313d d267 16bd 8577 143d bdda 3bbd
000002e0: ea06 953b b1f4 cabc 139b 83b9 61e3 a8bc
000002f0: 2ea0 693b 45dd ad3c 3029 0c3d 3c89 63bc
00000300: 9d8e 5a3d 2b96 7d3c fef9 1a3d 09ec 093d
00000310: c129 9a3c 43e9 353d 1048 663c 740d 79bd
00000320: 4f42 693b e567 933c 4530 d4bc eda5 cf3d
00000330: fe4e 823c bd7a cabb 116c ce3c 8421 52ba
00000340: 1d9e 573d 2cb2 ba3b de65 023d a0af 823d
00000350: 7aa3 023d 6bd9 7cbd 83d8 2d3d 997b 173d
00000360: 33f0 153d f3b4 f5bc 533d 613d a34a c93c
00000370: 2bce 043d 2bbe 1d3d 175e 70bd 13ec 6abc
00000380: ad60 13bc bcfb 74bc d990 e13b 7d5f 293d
00000390: 7239 1ebd e8b2 953d 2dd5 013b 0143 50bd
000003a0: 8801 12bd 4bec bb3d 652d 593c 021d 073c
000003b0: 40de 2c3d 2780 4a3c d429 25bc 315b 39bc
000003c0: 283a a43b f504 b3bc 665e 8f3d 7737 2fbd
000003d0: d883 1bbd eb78 573d 0249 e23c a6fb 953d
000003e0: cf34 1c3c 0a54 113d 4b7b 00bc ee03 88bc
000003f0: 6f12 c23d a490 bebb bdb3 ad3b 71b6 bdbc

network_body.linear_encoder.seq_layers.0.bias f4 [256]
0.15671381 0.056654997 -0.053156767 0.015583108 -0.12074753 0.1227308 0.11271802 -6.759595e-05
-0.031223785 -0.032860067 0.088386565 0.13154341 0.14347683 0.17143199 0.06834999 0.13280138
0.07407465 -0.022463642 0.056920964 0.18479133 0.0924309 0.14249815 0.12779583 0.11913818
0.12334987 0.131385 0.14562587 -0.06913308 -0.030643946 0.15114614 0.16326624 0.07283432
0.004266454 0.038424328 0.053073835 -0.05215206 0.056910194 -0.07404372 0.09167909 -0.01136452
-0.046274856 0.16668478 0.13253754 0.16896142 0.15146393 -0.04817935 0.11528729 -0.0017425749
0.12749115 0.07214684 0.014885286 0.08039863 0.10383901 0.0026807743 0.10760412 0.12408539
-0.09542982 0.11655767 0.109947346 0.12788193 -0.009219491 0.16642179 0.0687898 -0.09693745
-0.086568326 -0.12399897 0.06609251 0.06959879 -0.015738314 0.00080244377 -0.14423041 0.16752037
0.097437255 0.13563836 0.13835415 -0.045667056 0.06515367 0.10477242 -0.056836613 0.13704865
-0.10675147 0.13413501 -0.0055571967 -0.06013232 -0.05130633 -0.06815594 -0.07746043 0.050123185
0.052966353 -0.05085244 0.06924611 0.0054390025 0.052057035 -0.09722559 0.032804403 0.117243625
0.072434574 -0.000579579 0.035026524 0.034753643 -0.029383564 -0.06586435 0.016262006 0.047412854
0.07523176 0.10697929 0.096640006 0.05243757 0.14500697 0.060934506 -0.09893567 -0.018389253
-0.014343755 0.009191111 0.051815458 0.15817334 0.12696525 0.06572918 0.1444647 0.07598369
0.0219177 -0.06790765 0.14109582 -0.008913685 0.13563493 -0.036388606 -0.07788294 0.05877728
0.01441023 0.14835288 0.039668575 0.15055487 -0.081901915 0.14089571 -0.025550593 0.061317842
0.085716024 -0.020713579 0.077114575 0.037195675 0.030781385 -0.047625642 0.12777898 0.14867027
0.09144047 -0.026653059 -0.047682814 0.10017862 0.12235581 -0.06409545 -0.05821377 0.047812767
-0.07914381 -0.018418381 0.018066458 0.11287444 0.12395607 0.063704126 0.080237694 0.025960177
-0.033002585 0.10361757 0.048881657 -0.050150048 0.15543106 0.09384616 -0.049878586 0.15845564
-0.05966622 0.021721905 0.09702066 -0.01967487 0.16528687 0.09452537 0.01039745 0.11199253
0.14162686 -0.06278086 0.08120744 0.06754193 0.11388762 0.10716798 0.08906161 0.12623791
0.10474188 0.10722492 0.08810099 0.10538104 0.06106972 -0.06578611 0.116278514 0.04037528
0.10305576 0.084769085 0.17105004 -0.121725015 0.149 0.07637362 0.14520878 -0.015622261
-0.11849107 0.1155833 -0.0361788 0.03744281 -0.09012276 0.11263434 -0.08075153 0.14510317
0.13301499 0.08081279 0.02892781 0.032962278 0.17787889 0.15831871 -0.012121357 0.11780463
-0.008913676 -0.058908794 0.117619276 0.091011114 0.05037751 0.08371439 0.050421398 -0.0059987484
0.08723185 0.09576861 0.11249285 0.15733927 0.14931427 0.11927734 0.15901095 -0.015666367
0.088643365 0.085007906 0.078772224 0.17075954 -0.004560924 -0.13572665 0.035248216 0.1302725
-0.016543945 -0.014541046 0.15132156 -0.0442742 0.19739524 0.03329969 0.14999717 0.03697865
0.048954926 -0.03621016 -0.008771458 -0.15172803 -0.026861595 0.068782955 0.13268271 0.11426909
00000000: 9679 203e 120f 683d e9ba 59bd 4b50 7f3c
00000010: 7b4a f7bd 495a fb3d b5d8 e63d 4dc2 8db8
00000020: 06c9 ffbc 4798 06bd 0404 b53d 51b3 063e
00000030: 97eb 123e de8b 2f3e 14fb 8b3d 16fd 073e
00000040: 73b4 973d ac05 b8bc f525 693d f039 3d3e
00000050: 694c bd3d 09eb 113e e9dc 023e b8fe f33d
00000060: db9e fc3d ca89 063e f31e 153e a595 8dbd
00000070: 0309 fbbc 0ec6 1a3e 442f 273e 292a 953d
00000080: 9ccd 8b3b d462 1d3d f363 593d 669d 55bd
00000090: aa1a 693d 3ca4 97bd 3fc2 bb3d 4032 3abc
000000a0: b48a 3dbd 6aaf 2a3e ecb7 073e 3904 2d3e
000000b0: 5c19 1b3e b657 45bd be1b ec3d 1c67 e4ba
000000c0: 0a8d 023e b9c1 933d 6ae1 733c 09a8 a43d
000000d0: 8ca9 d43d eeaf 2f3b 8d5f dc3d 7b20 fe3d
000000e0: b670 c3bd cab5 ee3d 132c e13d 7bf3 023e
000000f0: 590d 17bc 796a 2a3e abe1 8c3d 2487 c6bd
00000100: bc4a b1bd 2cf3 fdbd 835b 873d cf89 8e3d
00000110: a3ed 80bc 175b 523a 23b1 13be 768a 2b3e
00000120: 2f8d c73d c8e4 0a3e b6ac 0d3e 610d 3bbd
00000130: 4a6f 853d ec92 d63d 82cd 68bd 7b56 0c3e
00000140: 84a0 dabd b05a 093e 2519 b6bb 4f4d 76bd
00000150: 9626 52bd 5795 8bbd 93a3 9ebd f84d 4d3d
00000160: 3ff3 583d a64a 50bd e8d0 8d3d a939 b23b
00000170: c239 553d 361e c7bd e95d 063d 6d1d f03d
00000180: 9458 943d e3ee 17ba f977 0f3d d659 0e3d
00000190: cdb5 f0bc e3e3 86bd e637 853c fb33 423d
000001a0: 1c13 9a3d f517 db3d 32eb c53d c7c8 563d
000001b0: b57c 143e 7696 793d c99e cabd 0fa5 96bc
000001c0: 1202 6bbc 5096 163c 723c 543d 31f8 213e
000001d0: 2e03 023e 059d 863d 8eee 133e 569d 9b3d
000001e0: c08c b33c 2a13 8bbd 6c7b 103e b40a 12bc
000001f0: e2e3 0a3e 380c 15bd 1781 9fbd 72c0 703d
00000200: e318 6c3c d1e9 173e 847b 223d 0e2b 1a3e
00000210: 31bc a7bd f746 103e 7a4f d1bc 6b28 7b3d
00000220: e28b af3d 86af a9bc 3fee 9d3d 7e5a 183d
00000230: 3e29 fc3c 1b13 43bd 7ed8 023e 053d 183e
00000240: 2445 bb3d 8457 dabc 0e4f 43bd 732a cd3d
00000250: af95 fa3d 7a44 83bd 9071 6ebd 52d7 433d
00000260: 2616 a2bd 25e2 96bc 1c00 943c b72a e73d
00000270: aedc fd3d 4f77 823d a953 a43d 70aa d43c
00000280: b82d 07bd 7335 d43d 2238 483d 236a 4dbd
00000290: 5229 1f3e 6a32 c03d 7d4d 4cbd 3242 223e
000002a0: 9164 74bd 23f2 b13c c5b2 c63d 312d a1bc
000002b0: f640 293e 8496 c13d 115a 2a3c 575c e53d
000002c0: a206 113e 4093 80bd 1650 a63d 6c53 8a3d
000002d0: ea3d e93d e37a db3d ef65 b63d 8344 013e
000002e0: e982 d63d bd98 db3d 4b6e b43d 04d2 d73d
000002f0: 3e24 7a3d deba 86bd 6e23 ee3d 8d60 253d
00000300: e60e d33d 6a9b ad3d be27 2f3e f74a f9bd
00000310: 7593 183e c669 9c3d 9cb1 143e 83f4 7fbc
00000320: 72ab f2bd f0b6 ec3d 3930 14bd a25d 193d
00000330: 4892 b8bd d5ac e63d 0f61 a5bd ed95 143e
00000340: 1535 083e 2d81 a53d 04fa ec3c 7403 073d
00000350: e225 363e 4d1e 223e a898 46bc 8e43 f13d
00000360: ab0a 12bc 594a 71bd 60e2 f03d 0964 ba3d
00000370: a658 4e3d 7372 ab3d ab86 4e3d 2691 c4bb
00000380: 9da6 b23d 5522 c43d a762 e63d 8c1d 213e
00000390: d7e5 183e ae47 f43d c4d3 223e c156 80bc
000003a0: a78a b53d a018 ae3d 5553 a13d 97db 2e3e
000003b0: ce73 95bb edfb 0abe 6f60 103d 2766 053e
000003c0: 2b87 87bc 913d 6ebc 0af4 1a3e dd58 35bd
000003d0: fa21 4a3e 4165 083d dc98 193e ed76 173d
000003e0: f684 483d 1b51 14bd 29b6 0fbc 985e 1bbe
000003f0: d90c dcbc 14de 8c3d fadd 073e ea05 ea3d

network_body.linear_encoder.seq_layers.0.weight f4 [256, 9]
0.02365881 0.4262724 -0.7148692 -0.4819445 -0.7214718 -0.1581502 -0.24791254 -0.053981297
-1.0789396 0.25093734 -0.2612067 -0.36536622 0.7216508 0.2777287 -0.18323539 0.12287702
-0.32256326 -0.14067656 -0.012816474 0.30995268 0.36176646 -0.4536726 -0.2959662 -0.061972614
0.58676076 0.62038493 0.47021827 0.37537453 0.39898893 0.010923794 0.32189825 -0.06332524
0.21296123 0.6128783 0.35348648 0.1388629 0.17405903 0.07276412 -0.61263686 0.40859157
0.020881737 0.15492523 0.16574605 0.5500063 -0.006320142 0.005264616 0.45629248 0.13459574
0.2796784 -0.65882444 0.17666066 -0.4774031 -0.30534065 0.60068846 -0.067516014 0.38346142
-0.06194338 -0.6392926 -0.41388282 -0.04585549 0.11461841 0.0085438015 0.025193227 -0.3368825
-0.24756077 0.40335461 0.3551304 0.405948 -0.27516702 -0.2098641 -0.025202144 0.112881824
-0.2877188 0.41358155 -0.08261552 -0.2801151 0.19718313 -0.17522344 -0.13138852 -0.041838497
0.1485018 0.16749555 0.52926743 -0.52767867 0.67578423 0.24017395 -0.18081872 0.50000733
0.18746015 -0.44336447 0.55745614 -0.49441862 0.12339311 -0.2779195 0.052753035 -0.24096267
-0.11239802 0.65535045 0.6852113 0.08058463 0.30188486 -0.07713736 -0.5958809 -0.3014755
0.4960105 -0.51437527 -0.22599551 0.24448866 -0.4159648 0.18630698 0.15125984 -0.8610942
-0.755252 -0.20917791 -0.39097866 0.13157162 -0.3704091 0.009317011 0.10863334 -0.060412437
-0.39832464 -0.5478164 0.13200521 -0.7136323 0.5825162 -0.31807977 0.43668416 -0.18811102
0.011417346 1.0793556 -0.5616011 -0.13410065 0.37423384 -0.25116688 0.055229366 -0.7089301
0.25054395 -0.31534517 0.48112673 0.07187654 -0.12822168 -0.47762683 0.45877635 -0.43516666
0.37209666 -0.33003512 0.0044931173 0.06576968 -0.25266874 0.49265942 -0.25707114 -0.2667472
-0.31625217 -0.33214808 0.3550459 -0.33249706 -0.4681517 0.16207778 -0.1029055 0.21643476
0.24769841 0.053666882 0.33542284 0.047357216 -0.08468651 0.26143587 0.61287105 -0.34132645
-0.22892419 -0.22426718 -0.5244735 0.43042168 -0.6349752 -0.5507358 0.9789938 -0.0454073
0.059057042 -0.17770451 -0.32907903 0.3280381 -0.07607629 -0.21426095 0.33665892 0.2084946
0.025317883 -0.20177667 0.14620051 0.3581432 -0.41288874 0.283926 0.2163563 -0.119614005
0.5669101 0.037261296 0.12904292 -0.8469461 0.03343369 -0.68859464 0.4684166 0.15739642
0.12527622 -0.5166704 -0.044538155 0.29397893 -0.0124911675 -0.3245932 -0.42433265 0.44119436
-0.0115143685 -0.06835404 -0.123458266 -0.046682384 -0.32031658 -0.4041427 0.1858478 0.05080698
-0.23765801 -0.42626595 -0.48358715 0.06554038 0.24860375 -0.356126 -0.95810777 0.100971445
0.2003008 0.07587102 -0.24429396 0.3283986 0.109533474 -0.10678059 -0.23726033 -0.28545663
-0.40949067 -0.1334521 -0.36453903 -0.2457849 -0.069259234 -0.23527253 -0.25594994 0.07754986
-1.1254075 0.093833655 0.52922225 0.19961351 -0.2610161 -0.45973748 0.32597992 0.19061255
-0.33798724 0.42625448 0.053211868 -0.13556895 0.17146549 0.09374107 -0.39749378 -0.27879402
00000000: 1fd0 c13c 6040 da3e ab01 37bf 6ec1 f6be
00000010: 60b2 38bf 20f2 21be c9dc 7dbe 7e1b 5dbd
00000020: b11a 8abf dc7a 803e e2bc 85be 4811 bbbe
00000030: 1bbe 383f 7532 8e3e 0fa2 3bbe f2a6 fb3d
00000040: 0327 a5be 840d 10be 30fc 51bc 1eb2 9e3e
00000050: 7439 b93e c647 e8be e288 97be ffd6 7dbd
00000060: f435 163f 8cd1 1e3f 73c0 f03e 1731 c03e
00000070: 4748 cc3e b6f9 323c d9cf a43e aab0 81bd
00000080: 8212 5a3e 98e5 1c3f 2efc b43e 1332 0e3e
00000090: 883c 323e 5b05 953d c5d5 1cbf ea32 d13e
000000a0: 2d10 ab3c b8a4 1e3e 55b9 293e 36cd 0c3f
000000b0: 3219 cfbb cd82 ac3b 2b9f e93e 77d3 093e
000000c0: 0232 8f3e b8a8 28bf 88e6 343e 2e6e f4be
000000d0: 9c55 9cbe b8c6 193f d645 8abd 0e55 c43e
000000e0: 57b8 7dbd aea8 23bf 73e8 d3be f7d2 3bbd
000000f0: 0fbd ea3d 4dfb 0b3c 0762 ce3c dd7b acbe
00000100: 9280 7dbe 7f84 ce3e a7d3 b53e 6bd8 cf3e
00000110: b1e2 8cbe 9de6 56be ba74 cebc 962e e73d
00000120: e14f 93be f6c0 d33e 5332 a9bd 3f6b 8fbe
00000130: 60ea 493e c66d 33be b68a 06be d85e 2bbd
00000140: db10 183e f483 2b3e 127e 073f f315 07bf
00000150: 3200 2d3f 29f0 753e 8b28 39be 7b00 003f
00000160: 8ef5 3f3e ab00 e3be 72b5 0e3f 7024 fdbe
00000170: 87b5 fc3d 774b 8ebe 9113 583d ebbe 76be
00000180: ef30 e6bd 0cc5 273f 026a 2f3f 8e09 a53d
00000190: a790 9a3e 31fa 9dbd a78b 18bf ff5a 9abe
000001a0: 17f5 fd3e 19ae 03bf 5e6b 67be 3c5b 7a3e
000001b0: 57f9 d4be 42c7 3e3e dce3 1a3e ab70 5cbf
000001c0: 3258 41bf bc32 56be 5b2e c8be b6ba 063e
000001d0: 43a6 bdbe 60a6 183c 287b de3d 0873 77bd
000001e0: 35f1 cbbe b23d 0cbf 602c 073e 9bb0 36bf
000001f0: c81f 153f 5adb a2be 1195 df3e 2da0 40be
00000200: d20f 3b3c 5328 8a3f 17c5 0fbf ae51 09be
00000210: 949b bf3e f298 80be 3038 623d 717c 35bf
00000220: 4c47 803e ec74 a1be 3e56 f63e 0234 933d
00000230: 8b4c 03be 818b f4be bce4 ea3e 2ace debe
00000240: 7483 be3e 5dfa a8be 003b 933b 41b2 863d
00000250: cc5d 81be db3d fc3e d49e 83be 1793 88be
00000260: ceeb a1be 500f aabe 94c8 b53e 0e3d aabe
00000270: 94b1 efbe b8f7 253e 1ec0 d2bd 13a1 5d3e
00000280: a7a4 7d3e ced1 5b3d 8bbc ab3e a4f9 413d
00000290: 1f70 adbd ecda 853e 1ee5 1c3f 57c2 aebe
000002a0: 1a6b 6abe 4ca6 65be e543 06bf 3b60 dc3e
000002b0: bc8d 22bf 05fd 0cbf 569f 7a3f 01fd 39bd
000002c0: cce5 713d 2cf8 35be 0c7d a8be 9cf4 a73e
000002d0: e3cd 9bbd 3967 5bbe 8f5e ac3e 9c7f 553e
000002e0: 7367 cf3c 8b9e 4ebe 96b5 153e 8c5e b73e
000002f0: 2766 d3be c05e 913e 828c 5d3e 30f8 f4bd
00000300: 0521 113f 4d9f 183d d423 043e 76d1 58bf
00000310: c4f1 083d bd47 30bf 4dd4 ef3e 872c 213e
00000320: 6948 003e 8344 04bf a46d 36bd 6884 963e
00000330: c1a7 4cbc 1431 a6be 2142 d9be 3ae4 e13e
00000340: c3a6 3cbc 34fd 8bbd b0d7 fcbd 0736 3fbd
00000350: 8900 a4be cbeb cebe e34e 3e3e fb1a 503d
00000360: 9f5c 73be 883f dabe bc98 f7be 093a 863d
00000370: fb91 7e3e 2656 b6be 8d46 75bf 1eca ce3d
00000380: a71b 4d3e 4462 9b3d 3228 7abe dc23 a83e
00000390: 1653 e03d c8af dabd 5ff4 72be 5f27 92be
000003a0: c3a8 d1be aba7 08be dca4 babe 09af 7bbe
000003b0: c9d7 8dbd 48eb 70be df0b 83be 76d2 9e3d
000003c0: 5a0d 90bf dc2b c03d 1c7b 073f 7c67 4c3e
000003d0: e7a3 85be b662 ebbe d7e6 a63e f02f 433e
000003e0: aa0c adbe 073e da3e b0f4 593d 96d2 0abe
000003f0: a694 2f3e 51fb bf3d 4e84 cbbe 17be 8ebe

network_body.linear_encoder.seq_layers.2.bias f4 [256]
0.046318665 -0.045160275 -0.07339982 0.032572288 0.13641599 0.06838889 -0.07873076 0.15525435
-0.058144137 0.015228472 -0.09412722 0.081996694 -0.04356602 0.16414075 -0.028316082 0.016227022
0.0934173 0.076331876 -0.04536464 0.034168098 0.08229605 -0.05003099 0.037472345 -0.030105148
-0.05296523 -0.020787928 0.08084479 0.14833763 0.052876994 -0.004593495 0.016557544 -0.03157611
0.10755327 0.0020569402 -0.05669229 -0.056074705 0.04427117 0.0020198794 0.1291447 -0.057162184
0.052537788 0.1335084 -0.041418992 -0.0050431443 0.09579557 0.17934918 0.03599454 -0.090155
0.09581182 -0.013748711 0.09620226 -0.011094767 0.07672401 -0.035423473 0.0067977607 0.08292846
0.057224404 -0.0015418745 -0.04265359 -0.003148512 -0.0137572205 0.07467773 0.054990575 -0.06959891
0.025937239 0.15355708 0.08738552 -0.020599008 0.1500335 0.08020698 -0.027362274 0.072319515
0.13728009 -0.01527266 -0.055219516 -0.0964522 0.09190871 -0.011472948 0.1441598 -0.00032365829
0.08876203 0.12172517 -0.09687441 0.14167644 -0.01341945 0.14478353 -0.040496826 0.071589954
0.053492963 0.01785816 0.17219445 -0.03633136 0.17368576 -0.037949942 0.09782783 -0.06608469
0.10229036 -0.02340405 0.16130659 -0.04933981 -0.026142973 -0.021636747 0.02094746 0.11727931
0.022663282 0.11862686 0.10986759 -0.070529275 0.044088416 0.104586214 -0.10430859 0.078356236
-0.024893545 0.008191447 0.09749857 0.15571778 -0.026310092 -0.090928055 -0.072921805 0.14602616
-0.01398089 0.016970616 -0.06792125 -0.035278488 0.048969626 0.04429355 -0.061772633 0.038194858
0.09258901 0.054603584 0.1782155 0.12186468 -0.09162573 0.16682367 0.12767684 -0.07311972
-0.01617869 -0.065468065 0.025507756 0.19657686 -0.03969242 0.11735029 0.15846829 -0.028822614
-0.093762495 -0.053762805 -0.028379483 -0.05825377 0.06970427 -0.10469733 0.09810655 -0.063083716
0.13702807 0.060058277 0.050858337 -0.017896503 0.1215789 -0.04193305 0.12046804 0.122635484
0.019255145 -0.050288346 -0.058666814 0.0997193 0.1164089 0.06455847 -0.04014468 0.08683133
-0.073428676 -0.038652487 -0.070581876 0.07148779 -0.07928184 0.07880819 0.14021508 0.059120692
0.15441613 -0.046523657 -0.06839765 0.08715221 0.089932136 0.1143518 0.09924416 -0.040551674
0.097071275 0.18889442 0.16806005 0.13591343 0.15187906 0.0061901733 -0.0073652025 -0.058495395
0.13453011 0.10515004 0.08619481 0.12405186 0.09434849 0.08228998 0.119216844 -0.034164302
0.18472672 -0.024800587 0.08456671 0.0048987395 0.11470219 0.034403678 0.04393609 0.1065144
0.027535971 0.057592936 0.06520932 0.02711307 -0.048125215 -0.06567074 0.09424349 0.14581299
0.048213076 -0.03518506 -0.045017153 0.13954706 -0.016095396 0.03783309 -0.08641861 -0.076099366
0.14987141 0.16747634 0.10689857 -0.042573854 -0.033132646 -0.010626153 0.15367419 -0.04025506
-0.08358179 0.032460786 0.109315455 0.11366435 0.1371232 0.15769053 0.16734569 0.13305144
-0.063047834 0.122051954 0.06978668 -0.0021519517 0.12089334 0.15643793 0.15367134 0.041498363
0.15726098 -0.05332393 0.14773348 -0.041283343 0.019222114 0.13414657 0.11003692 0.18404472
00000000: a4b8 3d3d fbf9 38bd a552 96bd 856a 053d
00000010: a2b0 0b3e 790f 8c3d 983d a1bd fffa 1e3e
00000020: 8c28 6ebd d780 793c c6c5 c0bd e2ed a73d
00000030: 4872 32bd 8314 283e 21f7 e7bc 88ee 843c
00000040: 9251 bf3d e353 9c3d 46d0 39bd d9f3 0b3d
00000050: d58a a83d 4ced 4cbd 9a7c 193d 129f f6bc
00000060: 12f2 58bd 724b aabc f491 a53d d2e5 173e
00000070: 8c95 583d 0785 96bb b0a3 873c f355 01bd
00000080: e444 dc3d bbcd 063b 2d36 68bd 97ae 65bd
00000090: b055 353d f45f 043b 823e 043e e522 6abd
000000a0: dd31 573d 6db6 083e f6a6 29bd f640 a5bb
000000b0: 7830 c43d 50a7 373e 036f 133d 2fa3 b8bd
000000c0: fd38 c43d 4642 61bc b105 c53d d3c6 35bc
000000d0: 7a21 9d3d 3418 11bd c0bf de3b 65d6 a93d
000000e0: 2364 6a3d b918 caba 88b5 2ebd 4457 4ebb
000000f0: f765 61bc a3f0 983d cc3d 613d e089 8ebd
00000100: 557a d43c 113e 1d3e 2ef7 b23d 40bf a8bc
00000110: 62a2 193e 8f43 a43d d926 e0bc 411c 943d
00000120: 2793 0c3e 2e3a 7abc dc2d 62bd bb88 c5bd
00000130: a23a bc3d 08f9 3bbc a09e 133e aeb0 a9b9
00000140: dec8 b53d 0c4b f93d 1766 c6bd a113 113e
00000150: 41dd 5bbc 2242 143e 00e0 25bd c19d 923d
00000160: 701b 5b3d 474b 923c be53 303e 31d0 14bd
00000170: aeda 313e 6671 1bbd f559 c83d 6957 87bd
00000180: 9c7d d13d dab9 bfbc 8e2d 253e 8a18 4abd
00000190: ca29 d6bc 8c3f b1bc 029a ab3c 2330 f03d
000001a0: 59a8 b93c a4f2 f23d 4202 e13d a771 90bd
000001b0: 0e96 343d 4c31 d63d be9f d5bd 3c79 a03d
000001c0: 8ced cbbc 6b35 063c 55ad c73d 7b74 1f3e
000001d0: 4388 d7bc 7d38 babd 0758 95bd e287 153e
000001e0: 1a10 65bc f605 8b3c 4c1a 8bbd 2d80 10bd
000001f0: 6094 483d 276d 353d 4d05 7dbd 3672 1c3d
00000200: 4f9f bd3d 02a8 5f3d 207e 363e 3094 f93d
00000210: 45a6 bbbd d3d3 2a3e b8bd 023e cbbf 95bd
00000220: 2c89 84bc 1f14 86bd a4f5 d03c 724b 493e
00000230: 8594 22bd 5955 f03d 8345 223e 671d ecbc
00000240: 8d06 c0bd 6336 5cbd 177c e8bc 819b 6ebd
00000250: 1dc1 8e3d 8e6b d6bd 16ec c83d 0932 81bd
00000260: 1651 0c3e abff 753d d550 503d b09b 92bc
00000270: 5cfe f83d fdc1 2bbd f3b7 f63d 5028 fb3d
00000280: f7bc 9d3c 27fb 4dbd 9d4c 70bd a239 cc3d
00000290: ca67 ee3d 3b37 843d bf6e 24bd a0d4 b13d
000002a0: c661 96bd 1252 1ebd 3b8d 90bd 3168 923d
000002b0: 845e a2bd 3066 a13d 8b94 0f3e 8a28 723d
000002c0: 431f 1e3e 978f 3ebd 1114 8cbd dc7c b23d
000002d0: 572e b83d 4731 ea3d 8640 cb3d 8319 26bd
000002e0: 4ecd c63d 8a6d 413e ef17 2c3e e42c 0b3e
000002f0: 2f86 1b3e f0d6 ca3b cc57 f1bb de98 6fbd
00000300: 43c2 093e e758 d73d e886 b03d e70e fe3d
00000310: c839 c13d a687 a83d f627 f43d deef 0bbd
00000320: 0029 3d3e 9a2a cbbc 5031 ad3d 9b85 a03b
00000330: fbe8 ea3d dfea 0c3d 54f6 333d 3924 da3d
00000340: 1e93 e13c 92e6 6b3d 778c 853d 3b1c de3c
00000350: f21e 45bd 627e 86bd bb02 c13d 0050 153e
00000360: 137b 453d 361e 10bd e863 38bd 6de5 0e3e
00000370: 7eda 83bc dff6 1a3d 3dfc b0bd fcd9 9bbd
00000380: e477 193e eb7e 2b3e a3ed da3d ec61 2ebd
00000390: 19b6 07bd 5119 2ebc c45c 1d3e 7de2 24bd
000003a0: ee2c abbd 9af5 043d c8e0 df3d dbc8 e83d
000003b0: 066a 0c3e a079 213e ab5c 2b3e a33e 083e
000003c0: 391f 81bd 60f6 f93d 52ec 8e3d c207 0dbb
000003d0: ed96 f73d 4431 203e 055c 1d3e 30fa 293d
000003e0: 0609 213e 316a 5abd 7247 173e b918 29bd
000003f0: b277 9d3c b85d 093e 095b e13d 3876 3c3e

network_body.linear_encoder.seq_layers.2.weight f4 [256, 256]
-0.045957047 0.08571093 -0.111002885 -0.10680139 -0.06275664 0.09052248 -0.005635006 0.033739656
-0.00783303 0.035228763 0.02040436 -0.18263718 -0.119973846 -0.011665179 -0.011209833 0.09155689
0.07046001 0.013951982 0.0414523 0.09630469 -0.016669191 0.069643624 0.09735061 0.035815503
0.04675414 0.018829403 -0.034652688 -0.029205522 -0.038679212 -0.033392955 0.103808284 0.11613384
-0.08402371 0.15476274 0.11310329 -0.047851663 0.039346203 -0.06869786 -0.13028802 0.020543389
0.114905275 0.03932145 -0.14014648 -0.049412645 0.03540753 0.16771242 -0.013731424 0.12786886
-0.02666865 0.05593292 0.05310407 0.00066225295 -0.023075342 0.09654532 -0.22283025 -0.092110194
0.10670212 0.1939019 0.0042967056 0.048372693 -0.09723999 0.07787196 0.00498586 0.019769829
0.018787825 -0.0788461 -0.040445328 -0.15944286 -0.10501111 0.018078368 0.013952918 0.05956051
-0.1495912 -0.08478879 -0.060336065 0.09398026 0.082975745 -0.011129285 0.052737042 -0.0427487
-0.005549717 0.036159188 0.015519835 -0.09619191 -0.021858322 0.027332995 0.07238342 -0.08322697
0.100631125 -0.04157163 0.12476585 0.009227017 -0.00888574 0.035244565 0.06865291 0.024931684
0.19510053 0.06383312 0.05535394 0.05835733 0.04527271 0.079395264 0.009881704 0.016267493
-0.06948 0.07288316 0.010657051 0.02651618 -0.15435414 0.0023630837 -0.095323645 0.15532614
-0.052893363 -0.23145331 -0.030623106 -0.1054653 0.012470259 -0.008204538 0.097402185 -0.0446039
-0.013112034 -0.10095634 -0.061905716 -0.1545149 -0.31200144 0.0008496423 -0.016986543 0.11967157
0.04565536 -0.103982836 -0.088078804 -0.15093441 0.028011372 -0.0129114045 0.062173948 0.112484775
-0.084770575 -0.096838325 -0.106405646 0.068016924 -0.057563443 0.021315435 0.09746741 -0.09469038
-0.24647772 0.043016296 0.03737918 -0.18032108 0.047277737 -0.06898364 -0.07581929 -0.02719832
0.048369486 0.019507641 0.07786367 -0.09408974 -0.009323994 -0.013310382 0.119186446 -0.04760851
0.04939073 0.13681269 -0.049505826 -0.07002963 0.120702565 0.051353347 -0.018445501 -0.081786595
-0.075469315 0.011795092 0.02923409 0.05226149 -0.03938903 -0.013160527 -0.13203686 -0.24404052
-0.23619369 0.0624149 0.13832386 0.15904304 -0.18924215 -0.22213188 -0.005693483 0.08168038
0.02611328 -0.08931269 -0.07662603 0.14129144 -0.0734943 -0.11858028 0.16326563 0.059634022
-0.13735601 0.010738803 -0.067038745 -0.087422036 0.04281092 0.02628303 -0.12598993 0.04063153
-0.097512476 0.11347147 0.05164083 -0.023318337 0.048498843 -0.103878014 0.109253794 0.13150941
-0.02492009 0.026908219 -0.17616872 0.033747256 -0.07166808 -0.00082848663 -0.20584275 0.058585525
-0.079991825 0.016114868 0.09425824 0.0025904416 -0.110984 0.019001525 -0.03202922 0.022502543
-0.10313395 0.02649697 -0.22291625 -0.011156828 0.009470436 -0.20544823 0.026071914 0.06747927
0.054925993 -0.078967616 -0.19761962 0.045410134 -0.12951128 -0.046646576 0.080849044 -0.031570956
-0.054255545 -0.09289897 0.04628284 -0.060092438 0.1537502 0.020471025 -0.0038056527 -0.03901927
0.10766805 -0.19503134 -0.1675 -0.04451362 0.13383259 0.13951989 0.013921188 0.015771339
00000000: 753d 3cbd 3689 af3d 7b55 e3bd b0ba dabd
00000010: 8e86 80bd da63 b93d dba5 b8bb 9832 0a3d
00000020: 1c56 00bc 094c 103d 0b27 a73c 3e05 3bbe
00000030: d9b4 f5bd 4f1f 3fbc 73a9 37bc 2e82 bb3d
00000040: 564d 903d db96 643c e3c9 293d 653b c53d
00000050: d48d 88bc 51a1 8e3d c25f c73d 47b3 123d
00000060: 4581 3f3d 1f40 9a3c faef 0dbd 6b40 efbc
00000070: 186e 1ebd 0dc7 08bd 7099 d43d 94d7 ed3d
00000080: 9f14 acbd 207a 1e3e b3a2 e73d 1b00 44bd
00000090: 7c29 213d 77b1 8cbd 396a 05be 9c4a a83c
000000a0: 7553 eb3d 870f 213d 8f82 0fbe ea64 4abd
000000b0: 7c07 113d cebc 2b3e c4f9 60bc 0ef0 023e
000000c0: 3678 dabc eb19 653d a783 593d 0b9b 2d3a
000000d0: 8008 bdbc 8db9 c53d 9d2d 64be 45a4 bcbd
000000e0: a486 da3d 388e 463e 61cb 8c3b 7222 463d
000000f0: c325 c7bd 567b 9f3d 6d60 a33b 56f4 a13c
00000100: ede8 993c 107a a1bd 00aa 25bd fd44 23be
00000110: 1110 d7bd 1619 943c c89a 643c b9f5 733d
00000120: 6f2e 19be bfa5 adbd f322 77bd b978 c03d
00000130: 30ef a93d 9b57 36bc cc02 583d 4319 2fbd
00000140: 67da b5bb a81b 143d e846 7e3c 4400 c5bd
00000150: 3910 b3bc 72e9 df3c c23d 943d e772 aabd
00000160: b117 ce3d 0347 2abd 3d85 ff3d ea2c 173c
00000170: 7f95 11bc 9b5c 103d e699 8c3d 883d cc3c
00000180: 6fc8 473e f0ba 823d d0ba 623d 1808 6f3d
00000190: e16f 393d fc99 a23d dfe6 213c 6843 853c
000001a0: 884b 8ebd c443 953d e99a 2e3c 7638 d93c
000001b0: 030f 1ebe f7dd 1a3b 0b39 c3bd d10d 1f3e
000001c0: b6a6 58bd 1902 6dbe 4fdd fabc 31fe d7bd
000001d0: 0f50 4c3c 546c 06bc cc7a c73d 94b2 36bd
000001e0: dbd3 56bc 33c2 cebd d990 7dbd 2739 1ebe
000001f0: a7be 9fbe 88ba 5e3a 5d27 8bbc 5e16 f53d
00000200: 1d01 3b3d f4f4 d4bd a962 b4bd 8d8e 1abe
00000210: 1b78 e53c 5b8a 53bc 1caa 7e3d 6b5e e63d
00000220: 329c adbd 2c53 c6bd 34eb d9bd 754c 8b3d
00000230: a5c7 6bbd b59d ae3c fe9c c73d 08ed c1bd
00000240: a864 7cbe db31 303d e91a 193d 17a6 38be
00000250: 4da6 413d 4b47 8dbd 2547 9bbd 03cf debc
00000260: 151f 463d 7dce 9f3c fd76 9f3d 1fb2 c0bd
00000270: aac3 18bc ca13 5abc 0618 f43d 2401 43bd
00000280: ef4d 4a3d a018 0c3e 9fc6 4abd b26b 8fbd
00000290: e832 f73d e357 523d 051b 97bc bb7f a7bd
000002a0: a88f 9abd 3440 413c 557c ef3c 2510 563d
000002b0: 6456 21bd 409f 57bc ac34 07be c2e5 79be
000002c0: c2dc 71be c4a6 7f3d c5a4 0d3e 2edc 223e
000002d0: b2c8 41be 8a76 63be 6690 babb 0b48 a73d
000002e0: 84eb d53c 92e9 b6bd 1cee 9cbd b4ae 103e
000002f0: 2e84 96bd 38da f2bd 1b2f 273e ce42 743d
00000300: 0ea7 0cbe cef1 2f3c 9c4b 89bd 530a b3bd
00000310: 815a 2f3d 824f d73c 8103 01be 3f6d 263d
00000320: 9fb4 c7bd bb63 e83d 5685 533d 1906 bfbc
00000330: b9a6 463d ffbd d4bd 74c0 df3d 67aa 063e
00000340: 3725 ccbc a06e dc3c 9365 34be 903a 0a3d
00000350: b7c6 92bd cc2e 59ba 71c8 52be 60f7 6f3d
00000360: c1d2 a3bd 5403 843c 770a c13d 66c4 293b
00000370: 944b e3bd 16a9 9b3c 1231 03bd 4157 b83c
00000380: e437 d3bd 2c10 d93c 2844 64be 21cb 36bc
00000390: e329 1b3c 0561 52be c494 d53c 9232 8a3d
000003a0: 14fa 603d c6b9 a1bd cc5c 4abe faff 393d
000003b0: 9b9e 04be 7b10 3fbd 2f94 a53d 8c50 01bd
000003c0: 103b 5ebd d141 bebd 1393 3d3d 7d23 76bd
000003d0: b170 1d3e dab2 a73c 4268 79bb acd2 1fbd
000003e0: 1181 dc3d 4cb6 47be 1f85 2bbe ea53 36bd
000003f0: 690b 093e 4dde 0e3e b215 643c e532 813c

network_body.vector_processors.0.normalizer.running_mean f4 [9]
-0.2603873 1.9529523 0.0 -0.24334805 1.9529575 0.0 0.19614165 0.0
0.0462455
00000000: 7c51 85be 57fa f93f 0000 0000 3b30 79be
00000010: 83fa f93f 0000 0000 5bd9 483e 0000 0000
00000020: ec6b 3d3d
