config/results/FighterUpdated4.1/My Behavior/My Behavior-9499983.onnx (onnx, 282099 bytes, 8 tensors)

58 f4 [9]
0	0x4046f855	3.108907
1	0x3b566215	0.003271227
2	0x39aa1a04	0.0003244431
3	0x404d661a	3.2093568
4	0x3b565a80	0.003270775
5	0x39aa1a04	0.0003244431
6	0x3ec71348	0.38881898
7	0x39aa1a04	0.0003244431
8	0x3e617f81	0.22021295

action_model._discrete_distribution.branches.0.bias f4 [6]
0	0x3d018b2c	0.031626865
1	0xbd1c8ce0	-0.038220286
2	0xbab89167	-0.0014081419
3	0x3db2a7c7	0.08723407
4	0xbdf993d5	-0.121864
5	0xbcc335be	-0.023829337

action_model._discrete_distribution.branches.0.weight f4 [6, 256]
0	0x3cb45337	0.022012336
1	0xbce93093	-0.028465545
2	0xbd8ec445	-0.06971029
3	0x3db7d525	0.08976201
4	0xbd1d175c	-0.038352355
5	0x3b19ed03	0.0023487217
6	0xbc3ab334	-0.011395264
7	0x3c97c4f8	0.01852654
8	0x3d08a597	0.033361044
9	0x3d3844a6	0.044987343
10	0xbb77962c	-0.0037778718
11	0x3d6cfaba	0.0578563
12	0x3c83b1ba	0.016075958
13	0x3b25a86f	0.0025277396
14	0x3cab4ee7	0.020911647
15	0x3dc42032	0.09576453
16	0x3cee5004	0.029090889
17	0x3b91acd9	0.004445654
18	0x3d632367	0.055453684
19	0x3dada745	0.0847917
20	0x3ce103f5	0.027467707
21	0xbaf2c4b6	-0.0018521759
22	0x3d63a8b6	0.055580817
23	0x3d676439	0.056492064
24	0xbc8ee08a	-0.017441053
25	0x3d174bc0	0.036937475
26	0x3cbead6d	0.023276055
27	0x3d0fa4d3	0.035069298
28	0x3d55d992	0.052209444
29	0x3d8a3e59	0.06750173
30	0x3b3476ab	0.0027536552
31	0x3d3a9c92	0.045559473
32	0x3cb3e6de	0.021960672
33	0x3cd0faa8	0.025510147
34	0x3d1de2fb	0.038546544
35	0xbbe9e33d	-0.0071376846
36	0x3d705129	0.05867115
37	0x3d774ff3	0.06037898
38	0x3d81e208	0.0634194
39	0x3ccfea58	0.025380298
40	0x3c8c021a	0.017090846
41	0x3d2b9b6e	0.041896276
42	0x3b9829d8	0.00464366
43	0x3d031d60	0.032010436
44	0xbbb23a21	-0.0054390584
45	0xbd4598b3	-0.04824133
46	0x3d9db1d8	0.07699937
47	0xbc087e54	-0.0083309
48	0x3d6c5c4a	0.0577052
49	0x3d86925a	0.06570883
50	0x3c3b534b	0.011433433
51	0x3cfe6364	0.031053253
52	0x3c79e386	0.015252
53	0x3b835615	0.0040080645
54	0x3d41737f	0.047229286
55	0x3d5efb8a	0.054439105
56	0x3d614bb5	0.05500384
57	0x3be054c0	0.0068460405
58	0xbd95669c	-0.07294962
59	0x3d0424c7	0.032261636
60	0x3d0a7622	0.033804066
61	0x3cf2361b	0.029566815
62	0x3cb4c1ee	0.02206513
63	0x3c9d12c2	0.019173983
64	0x3d901efb	0.07037159
65	0x3d2bbb9a	0.041926958
66	0x3c3e9c11	0.011633889
67	0xbd42bbf1	-0.047542516
68	0xbd1d0876	-0.038338147
69	0x3d767ac6	0.06017568
70	0xbd1f446b	-0.038883608
71	0xbbe6eca6	-0.0070472537
72	0xbc88a44a	-0.016679902
73	0xbcab1407	-0.020883573
74	0xbd05a80f	-0.032630976
75	0x3bb5802b	0.0055389605
76	0x3d44fee3	0.04809464
77	0x3cc9371f	0.024562417
78	0xbd0bd670	-0.03414005
79	0x3c4c88ea	0.012483815
80	0xbc8613e0	-0.016366899
81	0xbb2c67fa	-0.0026307092
82	0xbd125b5d	-0.035731662
83	0x3d579640	0.052633524
84	0xbc6a8be9	-0.014315584
85	0xbcfd63f4	-0.03093145
86	0xbd1cc0d8	-0.038269848
87	0x3c68c6ac	0.014207523
88	0xbcac0742	-0.020999555
89	0x3c8bd483	0.017069107
90	0xbd28b5dd	-0.041189063
91	0x3c849a57	0.016186876
92	0xbd083b3c	-0.033259615
93	0x3ce0eb96	0.027456086
94	0x3c9fe692	0.019519124
95	0xbb808688	-0.0039222874
96	0x3c24d324	0.0100601055
97	0x3d6889ac	0.05677192
98	0xbc379c65	-0.011206721
99	0x3c866e1d	0.016409928
100	0x3c9f904f	0.019477991
101	0x3d72f43e	0.05931496
102	0xbddf6f03	-0.10909846
103	0x3d6206ef	0.055182394
104	0x3dc2339f	0.09482502
105	0xbd16ee6f	-0.03684848
106	0x3d335c96	0.04378947
107	0x3bfa6fa6	0.007642704
108	0x3df2705a	0.118378356
109	0x3c563ba3	0.013075742
110	0xbc213303	-0.009838822
111	0xbb8fd29a	-0.0043891193
112	0x3d4e8b17	0.050425615
113	0xbb762f92	-0.0037564975
114	0x3bff830b	0.007797604
115	0x3d53b6cc	0.051688
116	0x3ce5a085	0.028030643
117	0xbcb6ef54	-0.022330917
118	0xbd7461b4	-0.05966349
119	0x3b80103a	0.0039081844
120	0xba93ff20	-0.0011291243
121	0x3d73ee31	0.05955333
122	0xba5bc9df	-0.0008384268
123	0xbcee07c8	-0.029056445
124	0x3e03dcba	0.12877169
125	0x3ccc7631	0.024958702
126	0xbc338fa2	-0.010959538
127	0x3d041218	0.032243818
128	0x3ce26b12	0.027638946
129	0x3d0c1b7b	0.034205895
130	0x3c9b4f41	0.01895869
131	0xbc8ebca4	-0.017423935
132	0x3c1946c1	0.009355248
133	0xbb79351e	-0.0038026045
134	0x3d4f4e15	0.050611574
135	0x3c20f532	0.009824084
136	0x3d05a61e	0.032629125
137	0xb95e34df	-0.00021191266
138	0x3d9be46d	0.07611928
139	0xbd16ce33	-0.03681774
140	0x3cf0646d	0.029344762
141	0xbc388afc	-0.011263605
142	0x3cd06b28	0.025441721
143	0x3bb9a5ed	0.005665532
144	0xbb98983a	-0.0046568187
145	0xbcbfc5a5	-0.023409674
146	0xbd37cdcf	-0.04487401
147	0xbcb989a1	-0.022648634
148	0x3d3b1d23	0.045682084
149	0xbae3fcdc	-0.0017394084
150	0x3c7a8101	0.015289546
151	0xbca965a4	-0.020678349
152	0xbc1ab268	-0.009441949
153	0x3d1c8491	0.038212363
154	0x3d996a69	0.07490999
155	0x3d2bfe13	0.04199035
156	0x3d33543d	0.043781508
157	0x3d013ee6	0.031554125
158	0x3b59e082	0.003324539
159	0x3b8c01cb	0.0042726747
160	0x3d91390f	0.07090961
161	0xbd1d866e	-0.03845828
162	0xbcbbfb7b	-0.022947064
163	0xbc03b58a	-0.008038888
164	0x3c7556a4	0.01497427
165	0x3d8a962e	0.06766926
166	0x3c1635f4	0.009168137
167	0x3d282c4b	0.041057866
168	0xbc9c3828	-0.019069746
169	0xbd2d118c	-0.042253062
170	0x3b947a58	0.004531186
171	0x3d67fd4e	0.056638055
172	0xbb11c618	-0.0022243317
173	0x3be99503	0.0071283593
174	0x3c6ad8f3	0.014333951
175	0x3d41fc75	0.047359902
176	0x3d2261b0	0.039643943
177	0x3d1484f8	0.03625962
178	0x3c73c7fb	0.014879222
179	0x3d55490c	0.052071616
180	0x3d1c5f14	0.03817661
181	0xbd214f31	-0.039382163
182	0x3d11c99e	0.035592668
183	0xbd205817	-0.03914651
184	0x3bdb43bd	0.0066914246
185	0xbcd53bea	-0.026029546
186	0xb93cd82f	-0.00018009612
187	0xbcbba83a	-0.022907365
188	0x3b6d57fe	0.0036215778
189	0x3cb0eb97	0.021596713
190	0x3d069547	0.032857206
191	0xbc1a695b	-0.009424533
192	0x3d3c4d8d	0.045972396
193	0x3c68bf93	0.014205831
194	0x3d1a0e5a	0.037611343
195	0x3cf7e334	0.030259706
196	0x3c7168fb	0.014734502
197	0x3d24936c	0.040179655
198	0x3c7652ec	0.015034419
199	0xbd8804f8	-0.06641573
200	0x3b281d50	0.0025652237
201	0x3ca42887	0.020038856
202	0xbccf8666	-0.02533264
203	0x3dc703fe	0.09717558
204	0x3c862b0b	0.016377946
205	0xbb252326	-0.0025197952
206	0x3cca804a	0.024719376
207	0xba4b572b	-0.00077568245
208	0x3d46efb6	0.04856845
209	0x3bd2636e	0.0064205443
210	0x3ca91eca	0.020644564
211	0x3d7317e8	0.05934897
212	0x3cfe2bf1	0.031026812
213	0xbd63ac53	-0.055584263
214	0x3d158742	0.036505945
215	0x3d09a587	0.033605125
216	0x3d09fb51	0.03368694
217	0xbccb40cd	-0.024811173
218	0x3d414548	0.047185212
219	0x3cb2ef07	0.021842493
220	0x3d0064a0	0.031345963
221	0x3d15aeb1	0.03654355
222	0xbd5cd1f0	-0.05391115
223	0xbc297619	-0.010343098
224	0xbc407106	-0.011745697
225	0xbc9ed806	-0.019390117
226	0x3b9f4f4a	0.004861747
227	0x3d1d400f	0.03839117
228	0xbd058dd9	-0.03260598
229	0x3d8f4ec4	0.06997445
230	0x3b0b117d	0.002122014
231	0xbd34dda9	-0.044156704
232	0xbcec0e02	-0.028815273
233	0x3db4a5ab	0.08820661
234	0x3c473be7	0.012160278
235	0x3c0f9ec8	0.008765884
236	0x3d0d515b	0.034501415
237	0x3c351c8c	0.011054169
238	0xbc38d29c	-0.011280682
239	0xbc24a14e	-0.010048224
240	0x3c312fd1	0.010814623
241	0xbcb97297	-0.022637649
242	0x3d852475	0.06501094
243	0xbd0614e8	-0.03273478
244	0xbd1dbfa5	-0.038512845
245	0x3d3cd3f7	0.046100583
246	0x3cec9662	0.028880302
247	0x3d8fb063	0.07016065
248	0x3c2a547a	0.010396117
249	0x3cddd1ba	0.027077544
250	0xbbfde90c	-0.0077487286
251	0xbc352ce8	-0.01105807
252	0x3dbf01fe	0.09326552
253	0xbbb0cdd3	-0.00539563
254	0x3bc2552a	0.0059305625
255	0xbcf5cab1	-0.030003877

network_body.linear_encoder.seq_layers.0.bias f4 [256]
0	0x3e1f6fb3	0.15569954
1	0x3d5144b5	0.051090915
2	0xbd5d49fc	-0.054025635
3	0x3c116035	0.008873035
4	0xbdfdbca5	-0.12389497
5	0x3df3c9e1	0.1190374
6	0x3de5428d	0.11194334
7	0xba65a841	-0.00087607285
8	0xbcf45343	-0.029824859
9	0xbd1855ed	-0.03719132
10	0x3db87399	0.090064235
11	0x3e06faac	0.13181561
12	0x3e11fdc0	0.14256954
13	0x3e2e744b	0.1703655
14	0x3d75491f	0.059884187
15	0x3e06391a	0.1310772
16	0x3d93cdab	0.072169624
17	0xbcba0682	-0.022708181
18	0x3d5ed61d	0.054403413
19	0x3e3664a9	0.17811836
20	0x3db61f6c	0.08892712
21	0x3e0e2672	0.13881853
22	0x3e023c33	0.12718277
23	0x3df34bcf	0.11879694
24	0x3df44ae3	0.11928346
25	0x3e0401ed	0.1289136
26	0x3e12f2d6	0.14350447
27	0xbd9605bd	-0.07325313
28	0xbd015996	-0.031579576
29	0x3e1ac120	0.15112734
30	0x3e22809c	0.15869373
31	0x3d97fd02	0.07421304
32	0x3bd9cf50	0.006647028
33	0x3d13bb85	0.036067504
34	0x3d3cd468	0.046101004
35	0xbd538e7e	-0.051649563
36	0x3d4fcf6d	0.050734926
37	0xbd95a6c6	-0.073072
38	0x3dba987a	0.09111114
39	0xbc2c794a	-0.010526964
40	0xbd3e5998	-0.046472162
41	0x3e29b318	0.16572225
42	0x3e06087b	0.13089173
43	0x3e2c41cd	0.16821976
44	0x3e182116	0.14856371
45	0xbd562bd1	-0.05228788
46	0x3dea7ddb	0.11449786
47	0xbb4478ad	-0.0029979155
48	0x3dfc168c	0.12308988
49	0x3d972473	0.07379999
50	0x3c4cc0ca	0.012497136
51	0x3da45006	0.08023076
52	0x3dd17523	0.1022742
53	0x3bab437f	0.005226552
54	0x3ddad153	0.10684457
55	0x3dfb2a69	0.122639485
56	0xbdc734a8	-0.0972684
57	0x3de29fe7	0.11065655
58	0x3de2f7aa	0.110823944
59	0x3e024f1f	0.12725495
60	0xbc4b24c1	-0.0123988995
61	0x3e28bfe0	0.16479445
62	0x3d8c4d7f	0.06850719
63	0xbdc5e969	-0.0966366
64	0xbdafc441	-0.08582354
65	0xbdfaa3d5	-0.1223828
66	0x3d84b2c5	0.0647941
67	0x3d91ef02	0.07125665
68	0xbc8e724b	-0.017388484
69	0x393d9336	0.00018079285
70	0xbe1160f4	-0.14197141
71	0x3e275f51	0.16344954
72	0x3dc8a80c	0.097976774
73	0x3e0b1d89	0.13585486
74	0x3e0a0c67	0.13481294
75	0xbd4a1449	-0.04933575
76	0x3d8848a1	0.06654478
77	0x3dd40f14	0.103544384
78	0xbd7157eb	-0.058921736
79	0x3e0df42c	0.13862675
80	0xbddce917	-0.10786646
81	0x3e09191f	0.13388489
82	0xbc21a4d1	-0.009865955
83	0xbd79ae35	-0.060957152
84	0xbd53275a	-0.0515512
85	0xbd8db75c	-0.06919739
86	0xbda22e1d	-0.07918952
87	0x3d50f497	0.05101451
88	0x3d51b736	0.051200114
89	0xbd526754	-0.051368073
90	0x3d9052d3	0.070470475
91	0x3acccc85	0.0015624916
92	0x3d49d3d6	0.049274288
93	0xbdcaa7c7	-0.09895282
94	0x3cd00773	0.025394177
95	0x3debbcdf	0.11510634
96	0x3d92a784	0.07160857
97	0xbb689c19	-0.0035493432
98	0x3d0fd044	0.035110727
99	0x3d0d0720	0.034430623
100	0xbce062b9	-0.027390825
101	0xbd88fe54	-0.06689134
102	0x3bf63c64	0.0075145233
103	0x3d3eb036	0.046554767
104	0x3d95365c	0.07285759
105	0x3dddf8a0	0.10838437
106	0x3dbe5a1d	0.092945315
107	0x3d57ad08	0.05265525
108	0x3e14a775	0.14517005
109	0x3d80bd09	0.062860556
110	0xbdcaa3c6	-0.098945186
111	0xbcaff2f7	-0.02147816
112	0xbc6a763d	-0.014310417
113	0x3c24cc2f	0.010058447
114	0x3d4f010c	0.050538108
115	0x3e22389c	0.15841907
116	0x3dfde869	0.12397844
117	0x3d832997	0.06404417
118	0x3e110224	0.14160973
119	0x3d9b4206	0.07580952
120	0x3ca0af80	0.019614935
121	0xbd8a5086	-0.0675364
122	0x3e0dd555	0.13850911
123	0xbbaaff8a	-0.005218451
124	0x3e094ce2	0.13408235
125	0xbd0d3a4c	-0.034479424
126	0xbd9ee01d	-0.0775759
127	0x3d678091	0.056519095
128	0x3c6e4bbf	0.014544426
129	0x3e14ea28	0.14542449
130	0x3d2e3de9	0.04253951
131	0x3e194341	0.14967062
132	0xbda7e7e3	-0.08198526
133	0x3e0e5b5d	0.1390204
134	0xbcce9777	-0.025218708
135	0x3d726544	0.059178606
136	0x3db060ca	0.08612211
137	0xbcb5653e	-0.022143003
138	0x3d936144	0.07196286
139	0x3d118ee9	0.03553668
140	0x3cde364e	0.027125504
141	0xbd461f1f	-0.048369523
142	0x3dfedee3	0.12444856
143	0x3e18383e	0.14865205
144	0x3dbb45cf	0.09144174
145	0xbccb43ae	-0.024812546
146	0xbd422907	-0.047402408
147	0x3dccaf6a	0.09994395
148	0x3df4e7b1	0.11958254
149	0xbd815ed0	-0.06316912
150	0xbd71dd38	-0.05904886
151	0x3d419b66	0.04726734
152	0xbda37b5a	-0.07982512
153	0xbcaae469	-0.020860868
154	0x3ca47fb0	0.020080417
155	0x3de80f5a	0.11331053
156	0x3dfab790	0.12242043
157	0x3d79be07	0.06097224
158	0x3da3dc78	0.080010355
159	0x3cc3f674	0.023921229
160	0xbd1957bc	-0.037437186
161	0x3dd2c4e5	0.10291461
162	0x3d4701f0	0.048585832
163	0xbd5f2aea	-0.054484285
164	0x3e1c5d69	0.15270008
165	0x3db87d34	0.090082556
166	0xbd4a7e57	-0.049436893
167	0x3e2249d9	0.15848483
168	0xbd76f832	-0.06029529
169	0x3c8b9d41	0.017042758
170	0x3dc6ddd2	0.097102776
171	0xbca08a8f	-0.01959732
172	0x3e292563	0.16518168
173	0x3dc2e7a3	0.095168374
174	0x3c403223	0.0117307035
175	0x3de3729a	0.11105843
176	0x3e0ec701	0.13943101
177	0xbd8cada9	-0.068690605
178	0x3da142e2	0.07874085
179	0x3d837b2a	0.06419976
180	0x3de9f2e9	0.114232846
181	0x3ddbf24b	0.10739573
182	0x3db12071	0.08648766
183	0x3dfe15a3	0.124064706
184	0x3dd4226f	0.1035813
185	0x3dd64bf9	0.104637094
186	0x3db41942	0.0879388
187	0x3dd31352	0.103064194
188	0x3d712909	0.058877025
189	0xbd845851	-0.064621575
190	0x3de82e70	0.11336982
191	0x3cffb5a7	0.031214548
192	0x3dce2aef	0.10066783
193	0x3d9f0529	0.07764656
194	0x3e2b9b53	0.1675847
195	0xbdf3dce7	-0.11907368
196	0x3e173e85	0.14769943
197	0x3d8c9c6f	0.06865775
198	0x3e1417fc	0.14462274
199	0xbc8c4f63	-0.017127698
200	0xbdf1bd3f	-0.11803674
201	0x3de8501a	0.11343403
202	0xbd18ec42	-0.037334688
203	0x3d21b201	0.0394764
204	0xbdb3b03d	-0.08773849
205	0x3de33679	0.11094374
206	0xbda547da	-0.08070345
207	0x3e1089df	0.14115094
208	0x3e052afe	0.13004681
209	0x3d9f1d21	0.07769228
210	0x3cddf5ec	0.027094804
211	0x3d14ceca	0.036330022
212	0x3e3371b9	0.1752385
213	0x3e1fb27a	0.15595427
214	0xbc41a45b	-0.011818971
215	0x3df1ffe9	0.11816389
216	0xbc12fcfd	-0.00897145
217	0xbd7b5178	-0.06135699
218	0x3deb8c6c	0.11501393
219	0x3db6fee6	0.08935337
220	0x3d45de55	0.048307735
221	0x3dace82b	0.0844272
222	0x3d42ffad	0.047607113
223	0xbc0fe2f9	-0.008782142
224	0x3db0705a	0.08615179
225	0x3dbe14da	0.09281321
226	0x3de59ebf	0.11211919
227	0x3e1edd6b	0.15514152
228	0x3e1554d4	0.1458314
229	0x3df24777	0.11830037
230	0x3e1f50bc	0.15558141
231	0xbca17e5c	-0.019713573
232	0x3db7f1b4	0.08981648
233	0x3da5d7c2	0.08097793
234	0x3d9e2ad4	0.077230126
235	0x3e2b0417	0.16700779
236	0xbc111aaf	-0.0088564595
237	0xbe08f1d8	-0.13373506
238	0x3ce82887	0.028339637
239	0x3e049939	0.12949075
240	0xbc5977cb	-0.01327319
241	0xbc766050	-0.015037611
242	0x3e17a636	0.14809498
243	0xbd2ebebb	-0.042662363
244	0x3e44e3ba	0.19227496
245	0x3d0a6858	0.033790916
246	0x3e161c03	0.14659123
247	0x3d054bee	0.032543115
248	0x3d3ac150	0.045594513
249	0xbd162f68	-0.036666304
250	0xbc23ee4b	-0.010005544
251	0xbe19692b	-0.14981525
252	0xbce573f0	-0.028009385
253	0x3d88f63a	0.06687589
254	0x3e05c8e6	0.13064918
255	0x3de9ffc1	0.11425734

network_body.linear_encoder.seq_layers.0.weight f4 [256, 9]
0	0x3d0a8da3	0.03382648
1	0x3edac40e	0.42727703
2	0xbf3701ab	-0.7148692
3	0xbef28569	-0.4736741
4	0xbf386ff2	-0.72045815
5	0xbe21f220	-0.1581502
6	0xbe7db883	-0.24777417
7	0xbd5d1b7e	-0.053981297
8	0xbf89f762	-1.077862
9	0x3e7377fc	0.23776239
10	0xbe8430bd	-0.25818434
11	0xbebb1148	-0.36536622
12	0x3f344a26	0.7042564
13	0x3e8fc85b	0.28082547
14	0xbe3ba20f	-0.18323539
15	0x3e049389	0.12946905
16	0xbea52703	-0.32256326
17	0xbe09ea7c	-0.13468355
18	0xbc3ef77f	-0.011655687
19	0x3ea1a189	0.31568554
20	0x3eb93974	0.36176646
21	0xbee1e2f5	-0.44118467
22	0xbe94992a	-0.29023105
23	0xbd7dd6ff	-0.061972614
24	0x3f15b9a1	0.5848637
25	0x3f1ed18c	0.62038493
26	0x3eef6358	0.4675548
27	0x3eb80a98	0.35945582
28	0x3ed0d74a	0.40789253
29	0x3c32f9b6	0.010923794
30	0x3e9dde45	0.3083364
31	0xbd5ec3f9	-0.054386113
32	0x3e5a1282	0.21296123
33	0x3f1c4b40	0.6105232
34	0x3eb4fc2e	0.35348648
35	0x3e1324ac	0.14369458
36	0x3e260ef7	0.16216646
37	0x3d9875da	0.074443534
38	0xbf1cd5c5	-0.61263686
39	0x3eca46f2	0.39507252
40	0x3cb944a4	0.022615738
41	0x3e1ea4b8	0.15492523
42	0x3e2ee756	0.17080435
43	0x3f0ccd36	0.5500063
44	0xbad4ab30	-0.0016225334
45	0xbb8e203c	-0.0043373387
46	0x3ee9bed2	0.45653397
47	0x3e09d377	0.13459574
48	0x3e85f832	0.2616592
49	0xbf2885b7	-0.6582903
50	0x3e34e688	0.17666066
51	0xbef25ee0	-0.4733801
52	0xbe9c559c	-0.30534065
53	0x3f1aac72	0.6041938
54	0xbd75bd45	-0.059994955
55	0x3ec518fd	0.38495627
56	0xbd7db857	-0.06194338
57	0xbf1ef5de	-0.62093914
58	0xbed323c8	-0.41238236
59	0xbd3bd2f7	-0.04585549
60	0x3de9f95b	0.11424514
61	0x3c0bfb4d	0.0085438015
62	0x3cc71ed7	0.024306698
63	0xbeb196ad	-0.3468527
64	0xbe7dbe9a	-0.2477974
65	0x3ece847f	0.40335461
66	0x3eb008eb	0.34381804
67	0x3ecfbbbb	0.40572914
68	0xbe8ce2b1	-0.27516702
69	0xbe55bb0d	-0.20872135
70	0xbcce74ba	-0.025202144
71	0x3dee6972	0.11641206
72	0xbe8d8ab8	-0.27644897
73	0x3ed09237	0.40736553
74	0xbda93253	-0.08261552
75	0xbe841225	-0.25795093
76	0x3e438bf2	0.19096354
77	0xbe336dc6	-0.17522344
78	0xbe07da1a	-0.13266793
79	0xbd2b5ed8	-0.041838497
80	0x3e135b89	0.14390387
81	0x3e1e5bce	0.15464708
82	0x3f088005	0.5332034
83	0xbf0715f3	-0.52767867
84	0x3f2944a4	0.6612036
85	0x3e7a0262	0.24414971
86	0xbe39288b	-0.18081872
87	0x3f00b935	0.50282604
88	0x3e3ff58e	0.18746015
89	0xbee0e8f0	-0.43927717
90	0x3f1017ff	0.56286615
91	0xbeff7724	-0.49895585
92	0x3dfcb587	0.12339311
93	0xbe8684ac	-0.26273096
94	0x3d4615a2	0.048360474
95	0xbe76beeb	-0.24096267
96	0xbdedd610	-0.11613095
97	0x3f27c50c	0.65535045
98	0x3f2e466f	0.68076223
99	0x3dbd456b	0.09241756
100	0x3e9b2c78	0.30307364
101	0xbd9dfa31	-0.07713736
102	0xbf149771	-0.5804358
103	0xbe99c730	-0.3003478
104	0x3efdf517	0.4960105
105	0xbf03cea0	-0.5148716
106	0xbe676b5e	-0.22599551
107	0x3e770898	0.24124372
108	0xbeceb15f	-0.40369698
109	0x3e418958	0.18900049
110	0x3e1ae3dc	0.15125984
111	0xbf580c44	-0.84393716
112	0xbf40b142	-0.75270474
113	0xbe5632bc	-0.20917791
114	0xbec77006	-0.38952655
115	0x3e06bab6	0.13157162
116	0xbebd2cab	-0.3694814
117	0x3ca8cb14	0.020604648
118	0x3de39416	0.111122295
119	0xbd777308	-0.060412437
120	0xbec7a263	-0.3899108
121	0xbf0ba48f	-0.5454797
122	0x3e072c60	0.13200521
123	0xbf366b7b	-0.7125775
124	0x3f151fc8	0.5825162
125	0xbea269f1	-0.31721452
126	0x3ed7e1ef	0.4216456
127	0xbe3e17ec	-0.18563813
128	0x3c3b0fd2	0.011417346
129	0x3f883df7	1.064391
130	0xbf0f01e2	-0.5586225
131	0xbe0951ae	-0.13410065
132	0x3ec3d974	0.3825184
133	0xbe8098f2	-0.25116688
134	0x3d853c9d	0.06505702
135	0xbf37ea21	-0.7184163
136	0x3e7ba5c6	0.24574956
137	0xbea174ec	-0.31534517
138	0x3eeef877	0.4667394
139	0x3d897e53	0.067135476
140	0xbe034c8b	-0.12822168
141	0xbef4569e	-0.47722334
142	0x3eeae4bc	0.45877635
143	0xbeddecfa	-0.4334486
144	0x3ebb5586	0.36588687
145	0xbea9789f	-0.3309984
146	0x3b933b00	0.0044931173
147	0x3d8a57c7	0.067550234
148	0xbe81b94c	-0.25336683
149	0x3efc3ddb	0.49265942
150	0xbe830f3f	-0.2559757
151	0xbe889317	-0.2667472
152	0xbea0f9f7	-0.31440708
153	0xbea6405a	-0.3247097
154	0x3eb55f84	0.35424435
155	0xbeaa3d0e	-0.33249706
156	0xbee539c9	-0.4477065
157	0x3e2525d5	0.16127713
158	0xbdd2c01e	-0.1029055
159	0x3e5e3a8a	0.21702018
160	0x3e7da4a7	0.24769841
161	0x3d558583	0.05212928
162	0x3ea7b453	0.32754764
163	0x3d4fe3ff	0.050754543
164	0xbdad701f	-0.08468651
165	0x3e83edda	0.25767404
166	0x3f1dc57a	0.6162945
167	0xbeaec257	-0.34132645
168	0xbe670d82	-0.22563747
169	0xbe65a64c	-0.22426718
170	0xbf05a32a	-0.52202094
171	0x3ed5868f	0.41704223
172	0xbf21aeac	-0.63157153
173	0xbf0cfd05	-0.5507358
174	0x3f763b3c	0.96184134
175	0xbd2a7dd6	-0.041623913
176	0x3d71e5cc	0.059057042
177	0xbe2dca94	-0.16971809
178	0xbea87d0c	-0.32907903
179	0x3eac2033	0.33618316
180	0xbdad2c28	-0.08455688
181	0xbe583342	-0.21113303
182	0x3eac5e8f	0.33665892
183	0x3e46533a	0.19367686
184	0x3ce9f8d9	0.028561043
185	0xbe4e9e8b	-0.20177667
186	0x3e188e92	0.14898136
187	0x3eb75e8c	0.3581432
188	0xbed1b381	-0.40957263
189	0x3e8d34b8	0.27579284
190	0x3e5f1524	0.21785408
191	0xbdf4f830	-0.119614005
192	0x3f0e7b17	0.5565657
193	0x3d1f0a31	0.03882808
194	0x3e0423d4	0.12904292
195	0xbf57ce24	-0.8429892
196	0x3d08f1c4	0.03343369
197	0xbf2f61dc	-0.68508697
198	0x3ef3bce2	0.47605044
199	0x3e240b8c	0.1602003
200	0x3e004869	0.12527622
201	0xbf014b53	-0.5050556
202	0xbd2aee59	-0.041731212
203	0x3e968468	0.29397893
204	0xbc80ae6d	-0.015708173
205	0xbea63114	-0.3245932
206	0xbed8c5df	-0.42338464
207	0x3ee23fe1	0.4418936
208	0xbc1b75d2	-0.00948854
209	0xbd8bfd34	-0.06835404
210	0xbdf143db	-0.117805205
211	0xbd36f2ad	-0.044665027
212	0xbea40089	-0.32031658
213	0xbecf4dd9	-0.4048908
214	0x3e3e4ee3	0.1858478
215	0x3d4b03f7	0.049564328
216	0xbe78ff43	-0.24316125
217	0xbeda25a6	-0.42606848
218	0xbef798bc	-0.48358715
219	0x3d6ffc67	0.05859032
220	0x3e7ef873	0.24899463
221	0xbeb65626	-0.356126
222	0xbf743d00	-0.9540558
223	0x3dceca1e	0.100971445
224	0x3e513f0a	0.20434204
225	0x3d92382e	0.07139622
226	0xbe78261b	-0.24233286
227	0x3ea823dc	0.3283986
228	0x3dd674e6	0.10471515
229	0xbdd67d91	-0.10473169
230	0xbe72f45f	-0.23726033
231	0xbe909fa8	-0.28246808
232	0xbed1a8c3	-0.40949067
233	0xbe060188	-0.13086522
234	0xbeb5e802	-0.3552857
235	0xbe78d8f1	-0.24301507
236	0xbd8dd7c9	-0.069259234
237	0xbe65745e	-0.22407672
238	0xbe81a234	-0.25319064
239	0x3d9ed276	0.07754986
240	0xbf8fb92d	-1.1228386
241	0x3dc02bdc	0.093833655
242	0x3f06ef1c	0.527086
243	0x3e3f0245	0.1865321
244	0xbe83413b	-0.25635704
245	0xbeeb62b6	-0.45973748
246	0x3e9fcb34	0.3120972
247	0x3e47fc96	0.19529948
248	0xbead0caa	-0.33798724
249	0x3edacd3e	0.42734712
250	0x3d59f4b0	0.053211868
251	0xbe0666de	-0.13125178
252	0x3e3282dd	0.17432733
253	0x3dc88580	0.09791088
254	0xbecb844e	-0.39749378
255	0xbe880e5a	-0.2657345

network_body.linear_encoder.seq_layers.2.bias f4 [256]
0	0x3d1d32ac	0.038378403
1	0xbd43eee2	-0.04783524
2	0xbd9636de	-0.07334684
3	0x3cda7594	0.026667394
4	0x3e0991f4	0.13434583
5	0x3d838bbb	0.06423136
6	0xbd9cee06	-0.07662587
7	0x3e1bd5a5	0.15218218
8	0xbd6df7e4	-0.058097735
9	0x3c5e59a3	0.013571176
10	0xbdc784ed	-0.097421505
11	0x3d9edd1b	0.07757016
12	0xbd3a6db3	-0.045514774
13	0x3e251fbf	0.16125391
14	0xbce659d6	-0.028119009
15	0x3c5d2c43	0.013499322
16	0x3dae7810	0.08518994
17	0x3d95ec18	0.07320422
18	0xbd37af82	-0.04484511
19	0x3d01d204	0.031694427
20	0x3da350ba	0.07974382
21	0xbd4a618d	-0.049409438
22	0x3d0b3400	0.033985138
23	0xbd084faf	-0.033279117
24	0xbd5d0485	-0.05395939
25	0xbcbc9731	-0.023021312
26	0x3da47c35	0.08031503
27	0x3e13125c	0.14362472
28	0x3d3f1cbf	0.046658274
29	0xbbf435dc	-0.0074527096
30	0x3c689777	0.014196268
31	0xbd0f3d33	-0.034970473
32	0x3dd24286	0.102665946
33	0x3b2bd055	0.0026216705
34	0xbd6613e4	-0.056171313
35	0xbd67dd40	-0.056607485
36	0x3d24205f	0.040069934
37	0x3ac271af	0.0014834906
38	0x3dfe569d	0.12418864
39	0xbd69a73c	-0.057044253
40	0x3d27d223	0.040971886
41	0x3e03df4c	0.1287815
42	0xbd0dd818	-0.03462991
43	0xbb5d63f8	-0.003378151
44	0x3db9d5cc	0.09073982
45	0x3e361476	0.17781243
46	0x3cfa64b7	0.030565603
47	0xbdbaba43	-0.09117558
48	0x3dbcdea2	0.09222151
49	0xbc6c9b8b	-0.014441381
50	0x3dc4e211	0.09613431
51	0xbc732ced	-0.014842254
52	0x3d872f81	0.066008575
53	0xbd33b25b	-0.043871265
54	0x3b93c00f	0.004508979
55	0x3d97a98c	0.074053854
56	0x3d619002	0.055068977
57	0xb92624f4	-0.0001584476
58	0xbd2220b5	-0.039581973
59	0xbb1b42a8	-0.0023690853
60	0xbc78f981	-0.015196205
61	0x3d97482e	0.07386814
62	0x3d38c2bf	0.0451076
63	0xbd899576	-0.067179605
64	0x3cce12ed	0.025155509
65	0x3e1891bf	0.14899348
66	0x3da6e17c	0.081484765
67	0xbcb2c5aa	-0.02182277
68	0x3e17addb	0.14812414
69	0x3d9b3fd7	0.07580536
70	0xbce56e7c	-0.028006785
71	0x3d981f2f	0.07427823
72	0x3e09dea1	0.13463832
73	0xbc785aec	-0.015158396
74	0xbd725f58	-0.059172958
75	0xbdc848b9	-0.09779496
76	0x3da463d4	0.08026853
77	0xbc028e72	-0.007968532
78	0x3e117936	0.14206395
79	0x3a5f2972	0.0008512951
80	0x3db02724	0.086012155
81	0x3df24838	0.11830181
82	0xbdbeb2c2	-0.09311439
83	0x3e0ca1d7	0.13733612
84	0xbc39538a	-0.011311421
85	0x3e11eb52	0.14249924
86	0xbd28953d	-0.04115795
87	0x3d7d3bc5	0.06182458
88	0x3d569365	0.05238666
89	0x3c938612	0.018008266
90	0x3e2e2900	0.17007828
91	0xbcfad429	-0.030618744
92	0x3e2fd830	0.17172313
93	0xbd11386b	-0.035454195
94	0x3dc6f9e1	0.09715629
95	0xbd8e98cd	-0.06962738
96	0x3dc7e3f5	0.09760276
97	0xbcdf64ae	-0.027269688
98	0x3e223db0	0.15843844
99	0xbd355239	-0.044267867
100	0xbced951a	-0.029001761
101	0xbcd637a6	-0.026149582
102	0x3cccea62	0.025014106
103	0x3de5b150	0.1121546
104	0x3c9b8178	0.018982634
105	0x3ded1408	0.11576086
106	0x3dd7979d	0.10526965
107	0xbd984c6f	-0.074364536
108	0x3d1c53be	0.0381658
109	0x3dc779f9	0.09740061
110	0xbde3a856	-0.11116092
111	0x3da42ed7	0.080167465
112	0xbce276eb	-0.027644595
113	0x3c2322df	0.009957044
114	0x3dbe6aee	0.09297739
115	0x3e19ee43	0.15032296
116	0xbce6a7d7	-0.028156204
117	0xbdacd631	-0.08439291
118	0xbd9c49d9	-0.07631273
119	0x3e124b46	0.14286527
120	0xbc6c939c	-0.01443949
121	0x3c7c5031	0.0153999785
122	0xbd8ac708	-0.067762434
123	0xbd135574	-0.035970166
124	0x3d3448b5	0.04401465
125	0x3d351362	0.044207938
126	0xbd828dae	-0.063746795
127	0x3d0c9d33	0.034329604
128	0x3dabd650	0.08390486
129	0x3d5795bb	0.05263303
130	0x3e332bc3	0.17497163
131	0x3df307c7	0.11866718
132	0xbdb95ca6	-0.090508744
133	0x3e27d051	0.1638806
134	0x3df9cc88	0.12197214
135	0xbd9a8be3	-0.075462125
136	0xbc905584	-0.017618902
137	0xbd86f153	-0.06588998
138	0x3cb28bff	0.021795271
139	0x3e47a60e	0.19496939
140	0xbd221c85	-0.03957798
141	0x3dea7210	0.11447537
142	0x3e1deb50	0.15421796
143	0xbcedc207	-0.029023184
144	0xbdc66039	-0.09686322
145	0xbd5da484	-0.054111972
146	0xbcee8be9	-0.029119449
147	0xbd792138	-0.060822695
148	0x3d820d78	0.06350225
149	0xbdda803a	-0.106689885
150	0x3dc7e311	0.09760106
151	0xbd842c12	-0.06453718
152	0x3e094288	0.13404286
153	0x3d46ac7e	0.048504345
154	0x3d3e96c5	0.046530504
155	0xbc87dbb7	-0.01658426
156	0x3dea00b7	0.114259176
157	0xbd31f49d	-0.043446172
158	0x3dedff15	0.11620919
159	0x3df37074	0.11886683
160	0x3c85610e	0.01628163
161	0xbd532d46	-0.051556848
162	0xbd7142d6	-0.05890163
163	0x3dc5abc1	0.096519
164	0x3de59ba4	0.11211327
165	0x3d81134f	0.06302511
166	0xbd2389f7	-0.039926495
167	0x3d9c857f	0.0764265
168	0xbd9c2639	-0.07624478
169	0xbd2212e2	-0.03956879
170	0xbd904d6c	-0.07046017
171	0x3d826c55	0.06368319
172	0xbda5fe6a	-0.08105166
173	0x3d9bf6bc	0.0761542
174	0x3e0bee65	0.13665159
175	0x3d4a847c	0.049442753
176	0x3e19470f	0.14968513
177	0xbd5105de	-0.051030986
178	0xbd90227d	-0.07037828
179	0x3da1d707	0.07902341
180	0x3db11364	0.086462766
181	0x3de53ed5	0.11193625
182	0x3dbb3be1	0.0914228
183	0xbd2bfe6e	-0.04199069
184	0x3dbfb05a	0.09359808
185	0x3e3ead71	0.1862085
186	0x3e28c8fa	0.16482916
187	0x3e083d2a	0.13304582
188	0x3e18544e	0.1487591
189	0x3be9503b	0.00712016
190	0xbbf81da9	-0.007571895
191	0xbd71d3e7	-0.059039976
192	0x3e04e0c9	0.12976374
193	0x3dcc833a	0.09985967
194	0x3d9bfc00	0.076164246
195	0x3df83890	0.121201634
196	0x3db86b9d	0.090049006
197	0x3d9f6d4e	0.0778452
198	0x3dea9576	0.11454289
199	0xbd08175d	-0.033225406
200	0x3e3a0f9a	0.18170014
201	0xbccfaba9	-0.025350409
202	0x3da5edc8	0.08101994
203	0xb9bcaa6e	-0.00035985134
204	0x3ddaf9fe	0.106922135
205	0x3cfe6953	0.031056082
206	0x3d2d6b0b	0.042338412
207	0x3dd1af56	0.10238521
208	0x3cd06983	0.025440937
209	0x3d48bd74	0.0490088
210	0x3d80d11b	0.06289884
211	0x3ca63cbb	0.02029263
212	0xbd374935	-0.04474755
213	0xbd8c2413	-0.06842818
214	0x3dbb4429	0.0914386
215	0x3e10a75f	0.14126347
216	0x3d2ba6a0	0.041906953
217	0xbd12e0bc	-0.035858855
218	0xbd4e709d	-0.050400365
219	0x3e0a94ba	0.13533297
220	0xbc5de644	-0.013543669
221	0x3cede49e	0.029039677
222	0xbdb54470	-0.08850944
223	0xbd9fbfbf	-0.078002445
224	0x3e16d697	0.14730297
225	0x3e28fceb	0.1650273
226	0x3dd69e65	0.1047943
227	0xbd38a4d1	-0.045079056
228	0xbd0aa638	-0.033849925
229	0xbc9a900e	-0.018867519
230	0x3e19b71c	0.15011257
231	0xbd2624a6	-0.040562294
232	0xbdb0e921	-0.08638216
233	0x3cb2d7f1	0.021831485
234	0x3dd79ce3	0.10527971
235	0x3de1be48	0.110226214
236	0x3e07b8ce	0.13254091
237	0x3e1d89d2	0.15384606
238	0x3e28bbca	0.16477886
239	0x3e04b9b4	0.12961465
240	0xbd80b811	-0.06285108
241	0x3df493c8	0.119422495
242	0x3d8b59f4	0.068042666
243	0x390194d0	0.00012357836
244	0x3df19752	0.1179644
245	0x3e1b63ab	0.15174739
246	0x3e1a4305	0.15064628
247	0x3d209544	0.03920485
248	0x3e1da2f8	0.15394199
249	0xbd70902b	-0.05873124
250	0x3e1438de	0.14474818
251	0xbd2dc8fb	-0.042427998
252	0x3c8df394	0.017328061
253	0x3e05ce9f	0.13067101
254	0x3dd822e2	0.10553528
255	0x3e39a6d2	0.18130043

network_body.linear_encoder.seq_layers.2.weight f4 [256, 256]
0	0xbd6007f6	-0.054695092
1	0x3d95b9e8	0.073108494
2	0xbdcbcff8	-0.09951776
3	0xbdcb68fc	-0.099321336
4	0xbd78f688	-0.060781986
5	0x3daa81d4	0.08325544
6	0x3b8bfe55	0.004272262
7	0x3d04519e	0.0323044
8	0x3c02bbd2	0.00797935
9	0x3d1986f0	0.037482202
10	0x3c809951	0.015698107
11	0xbe428f71	-0.19000031
12	0xbdea236a	-0.11432536
13	0xbcac04c3	-0.020998364
14	0xbcb452df	-0.022012172
15	0x3db465bf	0.08808469
16	0x3d52cce0	0.051464915
17	0x3cece538	0.028917894
18	0x3cdfc59e	0.02731591
19	0x3da7b6e1	0.08189178
20	0xbcb26603	-0.021777159
21	0x3d69d8ca	0.05709151
22	0x3da7dec5	0.08196787
23	0x3c7946ae	0.015214605
24	0x3d269ea9	0.040678654
25	0x3bed4d84	0.0072419066
26	0xbd188749	-0.037238393
27	0xbcba14f5	-0.022715071
28	0xbd00663d	-0.031347502
29	0xbd12b5ae	-0.035817795
30	0x3dc31c8f	0.095269315
31	0x3dc62594	0.09675136
32	0xbdaefe31	-0.08544577
33	0x3e19d8f0	0.15024161
34	0x3da20bfb	0.07912441
35	0xbd1ae325	-0.03781428
36	0x3cfe10bf	0.031013845
37	0xbd5a876a	-0.053351797
38	0xbe0dd732	-0.13851622
39	0x3d17e8cc	0.037087247
40	0x3e00491e	0.12527892
41	0x3ce9c1b6	0.028534751
42	0xbe0a73bd	-0.13520713
43	0xbd7bd526	-0.06148257
44	0x3ce665a8	0.028124645
45	0x3e2573f5	0.16157515
46	0xbc9f6cdc	-0.019461088
47	0x3dfef43a	0.12448926
48	0xbd32a518	-0.043614477
49	0x3d313fef	0.043273862
50	0x3d7025e9	0.058629904
51	0x3b4347ba	0.002979739
52	0xbd212457	-0.039341297
53	0x3ddb835e	0.10718416
54	0xbe493342	-0.1964846
55	0xbdd54e99	-0.10415382
56	0x3dda5e0b	0.106624685
57	0x3e308010	0.17236352
58	0x3a6d4096	0.00090504566
59	0x3ce8276b	0.028339108
60	0xbdcf0531	-0.10108412
61	0x3d962c2f	0.07332646
62	0x3bd96465	0.0066342824
63	0x3cefc021	0.029266419
64	0x3cfc751f	0.030817566
65	0xbd8ddacc	-0.06926498
66	0xbd178464	-0.036991492
67	0xbe1e4af3	-0.15458278
68	0xbdc5bf0a	-0.096555784
69	0x3c841064	0.016121097
70	0x3ccfb8e1	0.025356712
71	0x3d4e89b1	0.05042428
72	0xbe1af173	-0.15131168
73	0xbdb84e2d	-0.08999286
74	0xbd97989a	-0.07402153
75	0x3db57dc0	0.088618755
76	0x3d89ce93	0.06728854
77	0xbc88ec90	-0.016714364
78	0x3d52b1f8	0.051439255
79	0xbd2dee52	-0.042463608
80	0x3bb76cea	0.0055977004
81	0x3ce20864	0.027591892
82	0x3c9b3bb7	0.018949373
83	0xbdb1362a	-0.08652909
84	0xbc5ada25	-0.013357674
85	0x3d01c17e	0.03167867
86	0x3da46c2c	0.08028445
87	0xbdbb98a1	-0.09159971
88	0x3d996e50	0.074917436
89	0xbd211704	-0.03932859
90	0x3e036ee5	0.12835272
91	0x3b70c728	0.00367398
92	0xbc9018db	-0.017589977
93	0x3d3af4dc	0.045643672
94	0x3d850ac7	0.06496196
95	0x3c912c31	0.017721267
96	0x3e46fb46	0.1943179
97	0x3d97c5ef	0.074108
98	0x3d6ca8c0	0.05777812
99	0x3d8b3125	0.06796483
100	0x3d5cd8da	0.053917743
101	0x3dbe4d45	0.09292082
102	0x3c380224	0.011230979
103	0x3d1dfc85	0.0385709
104	0xbd6f4920	-0.058419347
105	0x3d83af56	0.06429927
106	0x3b030a94	0.0019995319
107	0x3cc9b791	0.024623664
108	0xbe22b6e3	-0.15890078
109	0x3ba1c203	0.004936458
110	0xbdb7b925	-0.089708604
111	0x3e17f0b4	0.14837915
112	0xbd415bf0	-0.04720682
113	0xbe585da6	-0.21129474
114	0xbd08f95a	-0.033440925
115	0xbde9f501	-0.11423684
116	0xbc0dd73c	-0.008657273
117	0xbc50f95b	-0.0127547635
118	0x3dabca77	0.083882265
119	0xbd2e2b7a	-0.04252193
120	0xbce83f8b	-0.028350612
121	0xbdb52f3b	-0.08846899
122	0xbd87315d	-0.06601212
123	0xbe15d836	-0.14633259
124	0xbe9a5649	-0.30143955
125	0x3c98f8ec	0.018673383
126	0xbbc392e1	-0.005968437
127	0x3deac98b	0.114642225
128	0x3d2e5d8b	0.04256968
129	0xbde52de2	-0.11190392
130	0xbdb97a30	-0.090565085
131	0xbe21f4af	-0.15815996
132	0x3d103604	0.035207763
133	0xbcc2cef4	-0.023780324
134	0x3da221e0	0.079166174
135	0x3ddf7fdc	0.10913059
136	0xbd930702	-0.07179071
137	0xbdaf7d4a	-0.08568819
138	0xbe013609	-0.12618269
139	0x3d838f4d	0.06423817
140	0xbd739d46	-0.05947616
141	0x3ca70d57	0.020392103
142	0x3dbc29b5	0.091876425
143	0xbdd68f4a	-0.10476549
144	0xbe6ae516	-0.22938952
145	0x3d8308d6	0.0639817
146	0x3d4af596	0.049550615
147	0xbe2ca2f8	-0.16859043
148	0x3d0e0891	0.03467614
149	0xbd7283f5	-0.059207875
150	0xbd8f1c98	-0.06987876
151	0xbcadf460	-0.021234691
152	0x3d3fa49b	0.04678784
153	0x3c961790	0.018321782
154	0x3d8d0f24	0.068876535
155	0xbdbc1c97	-0.091851406
156	0xbca80a65	-0.020512769
157	0xbc92c6f1	-0.017917128
158	0x3de36442	0.11103107
159	0xbd147e61	-0.036253337
160	0x3d65c913	0.056099962
161	0x3df35b9f	0.1188271
162	0xbd3f30a6	-0.046677254
163	0xbd89c096	-0.06726186
164	0x3de46e36	0.111538336
165	0x3d1f59ac	0.038903877
166	0xbc37dbe0	-0.011221856
167	0xbda93048	-0.08261162
168	0xbd795f17	-0.0608817
169	0x3b1aec04	0.0023639211
170	0x3c570539	0.013123804
171	0x3d747ad6	0.059687458
172	0xbd5901e9	-0.052980337
173	0xbc29aad9	-0.010355675
174	0xbdcb4773	-0.09925737
175	0xbe69be68	-0.2282654
176	0xbe6e72d2	-0.23285988
177	0x3d81ed5b	0.063441
178	0x3e0a7a81	0.13523294
179	0x3e189a2f	0.14902566
180	0xbe37260a	-0.17885605
181	0xbe60feb6	-0.21972165
182	0x3c3949e5	0.011309122
183	0x3d956d8a	0.072962835
184	0x3c3a3a90	0.011366501
185	0xbdd3e657	-0.10346668
186	0xbda4412e	-0.080202445
187	0x3e083bfe	0.13304135
188	0xbd5e6c27	-0.05430236
189	0xbdd5f3c8	-0.10446888
190	0x3e257dc5	0.16161259
191	0x3d7ce886	0.06174519
192	0xbdfaa9e7	-0.122394376
193	0x3ba0833b	0.0048984564
194	0xbd9ecb26	-0.07753591
195	0xbda4f927	-0.080553345
196	0x3cf3c76d	0.02975818
197	0x3ce02b30	0.027364343
198	0xbe000512	-0.12501934
199	0x3d5ee94a	0.0544217
200	0xbdbcf79d	-0.09226916
201	0x3dfa76c2	0.122296825
202	0x3d7642a0	0.060122132
203	0xbb181523	-0.0023205958
204	0x3d7b1701	0.061301235
205	0xbdc39f4b	-0.09551867
206	0x3de9ae76	0.11410229
207	0x3dec4c43	0.11537983
208	0xbd0b65bf	-0.03403258
209	0x3d1dc14d	0.038514424
210	0xbe1b5945	-0.15170772
211	0x3d382449	0.04495648
212	0xbda6cbc6	-0.081443354
213	0xbb94acbd	-0.0045371936
214	0xbe52ddbd	-0.20592399
215	0x3d4cab61	0.049968127
216	0xbd972808	-0.07380682
217	0x3c55ed4b	0.013057063
218	0x3d894254	0.06702104
219	0xbc0eb318	-0.008709691
220	0xbdcc870c	-0.09986696
221	0x3ac2a6da	0.0014850751
222	0xbd23fd0a	-0.04003624
223	0x3d04a21d	0.032381166
224	0xbdaddad7	-0.08489006
225	0x3c954790	0.0182226
226	0xbe46ed38	-0.1942643
227	0xbcc45cd8	-0.023970053
228	0xbadef493	-0.0017010145
229	0xbe41231f	-0.18861054
230	0x3c597b91	0.013274089
231	0x3d7ada96	0.061243616
232	0x3d1f0ac6	0.038828634
233	0xbdb4fda7	-0.08837443
234	0xbe1f757c	-0.1557216
235	0x3d0aa9a5	0.033853192
236	0xbdf3918c	-0.11892995
237	0xbd28b356	-0.041186653
238	0x3da55052	0.080719605
239	0xbd258fe4	-0.040420428
240	0xbd209e6a	-0.039213575
241	0xbdbf7d68	-0.09350091
242	0x3cf4ffa9	0.029907065
243	0xbd697a99	-0.057001684
244	0x3e15dda4	0.1463533
245	0x3cc836d4	0.024440207
246	0xbc76a568	-0.015054084
247	0xbd3abbd3	-0.04558928
248	0x3df77d06	0.12084393
249	0xbe398fe8	-0.18121302
250	0xbe1ea9f6	-0.15494522
251	0xbd0cfe9c	-0.034422502
252	0x3e05ffca	0.13085857
253	0x3e080abe	0.13285348
254	0xba86410d	-0.0010242775
255	0x3c91a5ce	0.017779257

network_body.vector_processors.0.normalizer.running_mean f4 [9]
0	0xbe987777	-0.29778644
1	0x3ff9fa57	1.9529523
2	0x00000000	0.0
3	0xbe8e284e	-0.27765125
4	0x3ff9fa83	1.9529575
5	0x00000000	0.0
6	0x3e3e1921	0.18564273
7	0x00000000	0.0
8	0x3d5153d2	0.051105328
