config/results/FighterUpdated3/My Behavior/My Behavior-18499931.onnx (onnx, 282099 bytes, 8 tensors)

58 f4 [9]
00000000: d7bb ad40 22fc d13a 17ca 7339 e39c ae40
00000010: a720 d23a 17ca 7339 0e96 4c3e 17ca 7339
00000020: e90b a23e
5.4291797 0.0016020576 0.0002324957 5.456651 0.001603146 0.0002324957 0.19979116 0.0002324957
0.31649712

action_model._discrete_distribution.branches.0.bias f4 [6]
00000000: e0f8 233d 2fc7 383d 3d2f a5bc 4ed1 0a3d
00000010: c069 8abd 848c b0bd
0.040032268 0.04511183 -0.020164127 0.033891015 -0.067584515 -0.08620551

action_model._discrete_distribution.branches.0.weight f4 [6, 256]
00000000: 6b10 8cbb f624 6f3d d718 203d 13eb 2b3d
00000010: 952f ce3c ced6 363d 9826 2f3d 2f54 123c
00000020: ae6b 373d e99a 7c3d c77d 263d 8ce3 153d
00000030: f464 323c 913e 793d e9d4 473d c412 bfbc
00000040: 503f d23c aac0 3cbd 582e 7f3d 2106 fa3c
00000050: 2985 6a3d bf2b 853d af2d f33c 4857 6f3d
00000060: 1e95 7f3d ba4e b1bc 4c85 2c3d c80e 5f3d
00000070: 15ba 383d 0b9e 543d a2de f5bc bd20 763d
00000080: 9979 103d b654 7f3d 6abf 703d 6052 2c3d
00000090: aedc b8ba 3695 593d 2b43 263d 4fb7 313d
000000a0: 6dfb 5a3d bbe6 553d b1e2 b23c a862 053c
000000b0: c978 803d 7bb7 3fbc 3c3d e839 bebd 253d
000000c0: ca17 433d 3303 3e3d 42d1 723d 90d1 403d
000000d0: 9461 683c 08ff 403d cbb1 f23c ed9a ef3a
000000e0: e12e 663d 3b2d 82bd ab8e 083c 60e5 943d
000000f0: f159 013d 350f 433c 5ce2 093c 8ab8 af3c
00000100: 00b7 773d 7cf7 623d 5809 113c 817d 443d
00000110: 0699 133d 3d36 94bc fd3a 533d 9898 193d
00000120: d54a 263d 1c88 c63c f470 dd3c 0707 e13c
00000130: 62dd 493c def6 893c a8ad 823d 8191 bd3c
00000140: e85f f63c 0469 44bc 8596 2d3d f66f b73c
00000150: 91b7 d23c 8a9a 05bd c9c0 c9bc 795d ab3c
00000160: 6ce4 013b e792 3e3d b40d 31bd df54 563d
00000170: 6707 debc 8000 a53b 5ec6 053b 44ca b3bb
00000180: 32c6 c13c dd9a 5a3d e4f6 823d e9a6 e93c
00000190: fab2 663d 7941 2b3d aa14 0a3d 3e68 233d
000001a0: 417a 063d 46d5 063c 03b8 c43c a313 0bbd
000001b0: 3ffd 163d a81a 8a3b cc75 85bb 8e8c 90bb
000001c0: a1c9 9f3c 1aa0 e13c d6a2 3cbc 6220 513d
000001d0: 318c 293d 8255 83bc b334 303d b27c 0e3d
000001e0: bf96 17bb 99ce 233d 932e dd3c 0173 5f3d
000001f0: 26ac e93c f623 3e3d af0f 203d 918f fc3c
00000200: 0d13 343d fafb 403d 5655 4f3d 0d8e 3b3d
00000210: 6bbd 77bb cf40 88bd 6fd0 1b3d 6c7c 663d
00000220: 1e53 fb3c 8f3d 1f3b 1cc7 813c 2615 953d
00000230: 270b 9b3c 4ae5 23bd 13e0 29bd b9f8 133d
00000240: 7a75 c73d 4b34 763d 41b2 383d b747 703d
00000250: 74f1 82bd ab79 6f3d d0f4 ff3b 86e9 863c
00000260: 55cc 3d3d 6595 5e3d 4379 0a3d 7944 0b3d
00000270: 2016 283c 5f08 603d b6b6 6eba e3ae 923d
00000280: fbff c23c 9f7f 443d 26ba 843d b9e2 20bd
00000290: eb16 8b3d efd2 6fbc 413d 463d dfb3 443d
000002a0: 78eb 3f3d b715 cf3c 6472 803c 9073 653d
000002b0: 2662 d83c e797 563d c734 663c b352 7ebc
000002c0: 05a5 64bd d2ab 293d e37e cf3b 328e 3d3d
000002d0: 328b ea3c c331 793d 6de2 e03c b468 fdbc
000002e0: 4f18 97bb 2048 82bd 15a3 b7ba 1a2a 653d
000002f0: e61b 403d efb3 7f3b 41f8 f83c 81fa 163d
00000300: d5a5 aebb 4d3d e03c 4b09 bd3c d995 2e3d
00000310: af47 a13d 1a3d 2d3d 75e9 4d3d 6121 043d
00000320: 067d 3abd 302a ccbb 073d 7f3d 9eed 143d
00000330: 3554 3d3d d21b e6bc e633 0c3d d4e9 913c
00000340: 64e3 a53a ea2d e33c 83d6 1c3d 2091 c83c
00000350: 77fe 7c3d c31e 503c 9828 5c3d 3ce7 5c3d
00000360: d4e1 b9bb c99e 7839 0bb6 9bbc 7a16 513d
00000370: 9601 993d 21ad 423d 65e4 0f3d ed67 243d
00000380: 1caa 3a3d 4b7c 273d 148a 393d 22c8 483d
00000390: 99e2 7f3d 5dae 6c3d b95c 163c 1d1c 863d
000003a0: 26f0 603d e787 1d3d b992 863d 7a49 693c
000003b0: 11bc 033d 5138 9b3c 6205 573d 439e 8e3d
000003c0: 3ef4 963d 6cd8 1e3d 5a37 10bd be52 533d
000003d0: ccb2 94bd 221b 4bba 85ff 333d 47d7 713d
000003e0: 62a3 f53c d8f7 023d b2e4 223d 39a6 f43c
000003f0: 28f1 603d 4cc0 84bb 05fd 1d3d 62f0 cfbc
-0.004274418 0.058384858 0.03908619 0.04197223 0.025169173 0.044638447 0.042761415 0.008931204
0.044780426 0.06167117 0.040647294 0.03659396 0.010888327 0.060850684 0.04878703 -0.023324378
0.025664955 -0.046082176 0.062300056 0.0305205 0.057255898 0.065024845 0.02968487 0.058432847
0.06239807 -0.021643985 0.04211931 0.054457456 0.045099337 0.051908534 -0.030013386 0.060089815
0.035272215 0.062336646 0.058776297 0.042070746 -0.0014103854 0.053120814 0.0405914 0.043387707
0.053462435 0.052221995 0.02183661 0.008141197 0.06273038 -0.01170146 0.0004429611 0.040464155
0.04763011 0.04638977 0.059281595 0.047074854 0.014183421 0.047118217 0.029625794 0.0018280424
0.05619705 -0.06356283 0.008334796 0.07270312 0.031579915 0.011905481 0.008415785 0.0214503
0.060477257 0.0554118 0.008852325 0.047971252 0.036034606 -0.01809227 0.051569927 0.03749904
0.04059871 0.024234824 0.0270314 0.027469171 0.012320848 0.016841348 0.063807786 0.02314067
0.030075029 -0.011987928 0.042379875 0.022392254 0.025722297 -0.032618083 -0.02462806 0.020918595
0.0019819988 0.046526816 -0.04322596 0.052327033 -0.02710314 0.00503546 0.0020412426 -0.0054867584
0.023654077 0.053370345 0.06394747 0.028521972 0.05632303 0.041810486 0.033711113 0.039894335
0.032831434 0.008229559 0.024013525 -0.033954274 0.036862608 0.0042146035 -0.0040728804 -0.0044112867
0.019505324 0.027542163 -0.0115134325 0.051056273 0.041393463 -0.016031984 0.043019008 0.034786887
-0.0023130623 0.03999195 0.026999747 0.054553036 0.02852447 0.046421014 0.039077457 0.030830177
0.04396348 0.047115304 0.050618492 0.045789767 -0.003780211 -0.06652986 0.038040575 0.056271
0.030679282 0.0024298166 0.015842013 0.07279424 0.018926216 -0.04001359 -0.04147346 0.036125872
0.09739204 0.060108464 0.04509187 0.058662143 -0.0639371 0.05846564 0.0078111663 0.016468775
0.046337444 0.054341692 0.03380705 0.034000847 0.010259181 0.054695483 -0.00091062055 0.07162263
0.023803702 0.04797327 0.064808175 -0.03927872 0.06791481 -0.014637693 0.04839826 0.0480231
0.04685542 0.02527891 0.015679546 0.056018412 0.026413988 0.05239096 0.014050669 -0.015522647
-0.055821437 0.041423626 0.0063322647 0.046278186 0.028630827 0.060838472 0.027451718 -0.030933715
-0.004611052 -0.06361413 -0.0014010394 0.055948354 0.046901606 0.003901716 0.030391814 0.036859993
-0.0053298273 0.02737298 0.02307572 0.042623375 0.07875001 0.0422946 0.05027147 0.032258395
-0.045529388 -0.006230615 0.06231406 0.036359422 0.046222884 -0.028089438 0.03422918 0.017811693
0.0012656269 0.027731854 0.03829051 0.024483263 0.061766114 0.012702647 0.05374965 0.05393146
-0.0056726728 0.00023710275 -0.019007703 0.051046826 0.074710056 0.04752839 0.035129923 0.040138174
0.045572385 0.04089002 0.045297697 0.049018987 0.06247196 0.057783473 0.00917738 0.06548331
0.054916523 0.038459685 0.06570954 0.01423871 0.032161776 0.018947752 0.052495368 0.0696378
0.07370804 0.038780615 -0.035209037 0.05159258 -0.07260665 -0.00077478786 0.043944854 0.059043195
0.029985134 0.031974643 0.039768882 0.029864417 0.054917485 -0.004051244 0.038571376 -0.025383178

network_body.linear_encoder.seq_layers.0.bias f4 [256]
00000000: 88ec 993d 1957 0a3e 97ba a33d 61b6 ca3d
00000010: 63be b8bd f48d 9bbd 533f d9bd a464 ad3d
00000020: 99aa af3d a51c 33bc ef39 5ebd 7cfb 91bd
00000030: 9343 04be b630 be3d c794 ab3d 1852 9c3d
00000040: 26b8 96bc 0813 c7bd 93bf 2dbb 9f68 7d3d
00000050: 2da6 fa3d 70c7 dfbd 2c1d 81bc 83d6 bf3d
00000060: 1bcb 223e 979e 833d aacf 87bd 6e54 cabd
00000070: 18ba 273d 66c4 023e e988 d3bd 2864 7a3d
00000080: 877f debd 48b1 01be d970 223c 7909 f2bd
00000090: 6a40 bbbd 1d74 3bbc d173 7e3d dcba dabd
000000a0: 97dc cfbd 8736 873d b101 da3d 4eaa 8f3d
000000b0: 1aae d93d a360 a3bc 848f 243c 8378 d1bd
000000c0: a356 c83b c614 583d 8b79 a03d 49f2 9c3c
000000d0: bf83 1c3d 5726 133e 8ca5 863d d919 933d
000000e0: f8ec 033e 198a 73bd a066 f63d c9d2 ccbd
000000f0: c315 a43a 2542 2a3d bf1d e03c 0711 6fbc
00000100: f1d2 e33d c5e3 9a3d a811 d93d bdbe 663d
00000110: b5ba fe3c fcf9 b9bd 6d60 063d 0707 603d
00000120: 3929 3cbd 3b35 0a3d 2e41 063c 260b 803d
00000130: 2654 f5bc ce59 9b3d 3413 c2bd f4fa a23d
00000140: f768 a73d b89d 46bd e33d 9d3c d20c 923d
00000150: cd2a 1f3e 54cf 0d3d fc51 b0bd 1cdc 43bd
00000160: fb70 3b3d 0634 863d d0bf e63d 9e37 6f3d
00000170: e69d c2bd 3072 82bd 4421 3fbd ff9b a7bd
00000180: 7e66 ddbd e609 713d 8cf2 27bd ddd8 0d3e
00000190: 39bf 9e3d aaa6 85bd 1dbc 92bd 9d53 bd3d
000001a0: 86e8 f3bd a68a c53d 7c12 ecbd c922 963d
000001b0: d455 b53d 3ab0 b7bd 1957 d2bd 46ac a63d
000001c0: 6299 be3d 5c4f 0c3e 09a0 c9bc 18d2 99bb
000001d0: 57a1 e23d 2224 bdbd ecd6 07bd e474 803d
000001e0: dc2d bb3d a2eb c9bc 0b45 a8bd e5d0 0a3e
000001f0: fc9a e4bd 8bf8 543d 80a7 0e3e 107b ab3d
00000200: dc70 003e be6b a33c 54f3 a5bd 8f36 dabd
00000210: bf9e 833d 98eb 1c3d af49 c73d d800 98bd
00000220: f46f f73d 768d cfbd 9937 013e d1dc eb3d
00000230: e169 923d 9101 af3d 8170 b63d bc23 df3c
00000240: cc09 fb3d b6e7 4a3d 0fdf 2bbc 336d d33d
00000250: 095f d3bd fba9 913d b846 1bbc 74e7 983d
00000260: f772 df3d 2e99 2c3d ad31 0dbe f3c7 bbbd
00000270: 294e 813d 7730 873d d782 d03d 112d a43d
00000280: 3b94 f83d e025 003e f744 183e 839d 973d
00000290: 6bf6 cd3d 21b4 e9bc 2aed d03d eccd ad3d
000002a0: fe3f d73d 1c54 aa3d c2eb e83d a9d1 9e3d
000002b0: 6c68 06be 4062 963d ca19 97bd 6af5 2d3d
000002c0: 53a9 083e d11b 8fbd 13dd 9e3d 1719 fb3d
000002d0: f7f5 c73d 0f56 e23d 5b64 86bd a1cc f5bd
000002e0: a1c6 483d bbc9 74bd 7346 d4bd 52bc 4b3d
000002f0: 52c4 c83d 0547 2abd 059b f23d 66bd a13d
00000300: 0922 02bd 5b0a 303c b341 d9bd 2d93 d3bd
00000310: 9834 8d3d 7608 c8bd f39d 19bd 86a9 4dbd
00000320: b027 fa3d 8b65 a13d 69f7 f93d 0244 953d
00000330: a5f9 693d f5a2 b63b ac87 59bd 7f86 913d
00000340: 0c79 213d 4830 fd3d 0f53 c9bd e621 9cbd
00000350: cdc6 533d 8bdb a03d 3320 ecbd 8964 963d
00000360: bb78 183d 712f 23bd 1622 073e 9bdd b1bb
00000370: 2817 3fbd f38a 0d3e 7b08 06bd 179c 6fbd
00000380: 3123 b7bc e2c1 1fbd 498a 43bd 78b5 d23d
00000390: da6f 133d 3544 f33d 8ae5 58bd f753 63bd
000003a0: 54ae 843d d4a8 6a3d 1063 c4bd 7fad 963d
000003b0: c345 803c f5b2 933d da3f 6bbd 9d8d a13d
000003c0: 353a ac3d e216 c13d 4573 863d 42e5 0cbe
000003d0: be0d c53d b791 97bc 18f0 66bd a6e5 e03d
000003e0: 0f88 54bd 0bad 66bd de2a b23c ea18 0e3e
000003f0: 2330 ec3d c104 31bd 947f d33d 0f1d bc3d
0.07515818 0.13509788 0.079945736 0.09898067 -0.090206884 -0.07595435 -0.10607781 0.08466461
0.08577461 -0.010932122 -0.05425447 -0.07128045 -0.12916403 0.092866346 0.083779864 0.07632846
-0.018398356 -0.09720427 -0.0026511892 0.061867353 0.12238727 -0.109267116 -0.01576098 0.09367087
0.15897791 0.06426733 -0.06631406 -0.09879385 0.040948957 0.12770233 -0.10328848 0.061130673
-0.10864168 -0.12665284 0.0099146 -0.11818213 -0.091431454 -0.011441258 0.06212217 -0.10680172
-0.10149496 0.06602197 0.10644854 0.07014905 0.1062891 -0.01994354 0.010043982 -0.10228064
0.0061138435 0.052754186 0.078356825 0.0191585 0.03821158 0.14370094 0.06574544 0.071826644
0.12883365 -0.059457872 0.12031293 -0.100011416 0.0012518693 0.041566987 0.027357934 -0.014591462
0.11124218 0.07562975 0.10599071 0.056334246 0.031094888 -0.09080884 0.032806803 0.0546942
-0.04593775 0.03374217 0.008194251 0.062521264 -0.029947352 0.07585488 -0.09476319 0.07958022
0.08174317 -0.048490256 0.019194549 0.071313515 0.15543671 0.03462155 -0.08609387 -0.047817335
0.045762043 0.065528914 0.11267054 0.05840265 -0.09502773 -0.06369436 -0.046662584 -0.08184051
-0.108105645 0.05884733 -0.041002795 0.13852258 0.077513166 -0.06525929 -0.07164786 0.092444636
-0.11909585 0.09645586 -0.11526963 0.073308535 0.08854261 -0.089691594 -0.10270519 0.08138327
0.09306599 0.13702148 -0.024612444 -0.0046942346 0.110659294 -0.092354074 -0.03316395 0.06272295
0.09139606 -0.024648491 -0.08216294 0.1355625 -0.111623734 0.05199484 0.13931084 0.08373082
0.12543052 0.019948836 -0.08103052 -0.106549375 0.06426763 0.038310617 0.09730851 -0.07422036
0.120819 -0.101344034 0.12618865 0.11516727 0.07149101 0.08545221 0.08908177 0.02723872
0.12257728 0.049537383 -0.010490193 0.103235625 -0.10320861 0.07112499 -0.00947731 0.07466021
0.109106 0.04213827 -0.13788481 -0.09168997 0.06313736 0.06601041 0.10181206 0.08016408
0.12137648 0.12514448 0.14870058 0.0740309 0.10056766 -0.028528275 0.102014855 0.08486542
0.105102524 0.08316824 0.11373092 0.07754833 -0.13125771 0.073429585 -0.07377966 0.042470373
0.13345842 -0.069877274 0.0775701 0.12260645 0.09763711 0.110515706 -0.0656211 -0.120019205
0.049017552 -0.059762698 -0.103649996 0.049740143 0.0980307 -0.041571636 0.11845974 0.07897453
-0.03177074 0.010744656 -0.10608234 -0.10330806 0.06894797 -0.09767239 -0.037504148 -0.0502105
0.12214601 0.07880696 0.12205393 0.07288362 0.057122845 0.005573625 -0.053107902 0.07105731
0.03942208 0.123627245 -0.09830295 -0.07623653 0.051703263 0.078543745 -0.11529579 0.07343394
0.037224513 -0.039840166 0.13196597 -0.0054280288 -0.046652943 0.13822536 -0.03272293 -0.05849847
-0.022355648 -0.03900326 -0.0477393 0.10288519 0.03599534 0.11878244 -0.05295328 -0.055499997
0.06478563 0.057289913 -0.09589207 0.073573105 0.015658265 0.07211868 -0.05743394 0.07888339
0.084095396 0.09428193 0.06564955 -0.1375933 0.09621762 -0.0185021 -0.056381315 0.10981302
-0.051887568 -0.05631737 0.021748956 0.13876691 0.11532619 -0.043217424 0.10327068 0.0918523

network_body.linear_encoder.seq_layers.0.weight f4 [256, 9]
00000000: c00f bdbe 9575 85be f410 e13e 688c a33e
00000010: c6be bdbe ff92 7b3e f77b 583e 78e6 8d3e
00000020: a991 193d f1af 5d3e e57e 2fbf f02b e03c
00000030: 82b1 333e ac9d 053e b661 a33d 0d9a 1cbf
00000040: 3013 223d 3fda 42bf ff5d c5be e1d1 843e
00000050: 1275 523e 3317 243e 5d75 db3d d89f 863e
00000060: a23f 55be 34a1 b4bd 27ab f4bd b3d9 ecbe
00000070: 69d9 fc3d e880 993d b93c 113f cc92 d03d
00000080: a34c 8abe c7be 1e3e 5080 f3be afec e13e
00000090: 9014 473f 9991 bbbe 3b87 aa3e cf1c 83be
000000a0: 4487 67be 48c8 b03e 60c6 31be 38c6 083d
000000b0: 3ea0 b2bd 8422 603f cbeb f93d 888e 013f
000000c0: 1543 98be a399 55bd 5be0 a0be 9ff1 d5bd
000000d0: 79a3 a0be 22bd e7be ab72 103f bea9 e83d
000000e0: 12c8 b03e dfc7 3fbe 5789 023e 0c67 27be
000000f0: f196 e0bc cfad 543e c3d9 40be 8bd0 f3bc
00000100: a861 a23e 0c8c 4f3b 8b6e 5cbe 4fe1 b4bd
00000110: 7013 99be 2370 dbbe dc62 103e 75cd a43e
00000120: 328c eabd 83b9 763e f3b4 d6bc c4e6 57bd
00000130: 7ffc 8f3d ac72 43bd 7cff 98be 1eb1 28bf
00000140: 41f5 79be 94c6 a3be 746e 98bd 3c3b 7d3b
00000150: 79f1 eabe 7bb3 df3e 0202 4bbc e652 d6bd
00000160: 64af b9bd 442d d8be 7a20 3abe 7a6f b2be
00000170: 1b5b f83d db5f 0f3e 15d3 5bbe 3283 6d3e
00000180: 6abf 1a3f 7096 823c cb32 393d 63fd b6bd
00000190: 7f2b 343f d8ff fc3e 1d9b 42be 4248 27be
000001a0: 1ab6 333c deff 8f3d c027 fe3e 2baf a63e
000001b0: 53b9 073f 6d06 dabe 13e8 013f dc11 42be
000001c0: c3f1 20bc ef03 b13d 20bd d03e 4439 5dbe
000001d0: 07d2 6d3e a9af 8dbe 8562 ebbe 7238 a9be
000001e0: 1b63 973d 0083 97bd ccdc cd3d 906b edbd
000001f0: 6849 ba3d de47 133d 3ca1 53be 4558 31bc
00000200: faa8 273e db20 b93e 1122 b23d d4c8 4f3e
00000210: ed0a 943e d491 aa3c 8a1a 313e f9e4 10bf
00000220: ddb0 ac3e 0ec4 b2bc 0590 113e 93cc 253e
00000230: 7a64 a23e e278 7d3d 93da e2be 6cbe d2be
00000240: 9654 213e a1a1 2cbe 41b4 84bd 3060 78be
00000250: 8fe0 053f 9266 20bf 1eea 333f 064c 123d
00000260: 2087 18bf 0c2f b13d 0aac 6e3d 3c24 c1bd
00000270: 8cf7 09bf 2f39 72be cb8a 16be a7e4 203e
00000280: db4e 27be 4972 d23e 5038 0b3d 284f b63e
00000290: 1c37 103e 64d7 4bbf 4a57 15be 3273 ccbe
000002a0: d9a8 12bf a7d0 e8be 8bff 97be f512 2fbf
000002b0: 94ce 1fbe fabe 55ba 4b79 a63e d99d 433e
000002c0: 1e75 a1be 1072 a73d b4b5 1abe 3112 05be
000002d0: a990 30be db4c 02be 0d7e a93e 2608 133f
000002e0: 3118 97bd 5fc2 3d3e 970a 55bc 04c0 f23d
000002f0: cfe4 16be b6c3 a73e 4de0 403e 0e01 723f
00000300: 6805 fabe dcca 89bd 1887 42be 2740 4d3c
00000310: 8d00 95be d478 6ebe 102e b43d 7b8e 323f
00000320: becc f1bd d4a5 dbbd 9a1d c3bd 4c72 8abe
00000330: 2f6f 3cbe 4095 15bf e968 d4be b16e 6b3e
00000340: d797 b23e 7657 8d3d 3f0f 9d3e b43e c53e
00000350: 9ae6 d2be 7934 a5be 14fd 473d 6ef1 e0bd
00000360: 52b6 133f 67f6 613f 26ee 3dbd 6043 ef3e
00000370: 7eac 18bf fa46 b7be 3fcd 383d 4e6f e0be
00000380: 635f 4b3f c114 b3be 37aa ac3e 28c2 97be
00000390: ab4d 703e 1273 b73e ec0a 1a3d 9dc7 1bbe
000003a0: 5eef 123e 9587 c43d 0806 953c 0431 f4bc
000003b0: ff8f 0c3e 3a3e a0bc 1ecd ffbe d4bf ec3e
000003c0: e502 343f 490a aa3e 64c7 ecbd ca3d a13e
000003d0: 09f8 673e 2bff 753e 11d7 ecbe b3f1 c73e
000003e0: 2e03 c73e 040f 0dbc 3ec9 1c3f 17f4 89bd
000003f0: 91e8 19bf 00a5 a13e 30c0 043b 78c4 3cbe
-0.3692608 -0.2606627 0.43958247 0.3194306 -0.3705961 0.24567793 0.21141039 0.27714896
0.037492428 0.21649148 -0.68553 0.027364701 0.17548183 0.13048428 0.07977621 -0.6117256
0.03956908 -0.7611427 -0.38548276 0.25941375 0.20552471 0.16024475 0.10715745 0.26293826
-0.20825055 -0.088198096 -0.11946707 -0.4625984 0.12346155 0.0749529 0.5673328 0.10184249
-0.27011594 0.15502463 -0.47558832 0.44125888 0.7776575 -0.3663452 0.33306298 -0.25607917
-0.22610193 0.34527802 -0.1736083 0.03339216 -0.0872197 0.87552667 0.12203177 0.5060811
-0.2973868 -0.052148473 -0.3142117 -0.10446476 -0.3137472 -0.45261484 0.5642497 0.11360501
0.34527642 -0.18728589 0.12747703 -0.16347903 -0.027415724 0.20769428 -0.1883307 -0.029762527
0.3171513 0.0031669168 -0.21526544 -0.08832037 -0.29897642 -0.4285899 0.14100212 0.32188
-0.114525214 0.24094205 -0.02620933 -0.05271031 0.07030582 -0.04771678 -0.2988242 -0.6589526
-0.24409963 -0.3198744 -0.07442942 0.0038640043 -0.45887354 0.4369162 -0.012390615 -0.1046503
-0.09066656 -0.42222035 -0.18176451 -0.34850675 0.12126752 0.1400141 -0.2146724 0.23194578
0.60448325 0.015940875 0.045214456 -0.089350484 0.7037887 0.49413943 -0.19004484 -0.16336158
0.010968709 0.07031225 0.49639702 0.32555518 0.5301716 -0.42583027 0.5074474 -0.18952125
-0.0098232655 0.086433284 0.4076929 -0.21603876 0.2322465 -0.2767308 -0.45973602 -0.33050877
0.0739195 -0.07398033 0.10051879 -0.115927815 0.090960324 0.03595721 -0.20666975 -0.010824268
0.16373053 0.3615788 0.08697904 0.20291454 0.28914586 0.02082149 0.1729528 -0.56599385
0.33728686 -0.021822002 0.14215095 0.1619132 0.31717283 0.06188286 -0.44307384 -0.41160905
0.15754923 -0.16858532 -0.06479693 -0.24255443 0.52295774 -0.6265651 0.7027911 0.035717033
-0.59581184 0.086515516 0.058269538 -0.09430739 -0.5389335 -0.23654626 -0.14701383 0.15712224
-0.16338675 0.41102818 0.03398925 0.35607266 0.14083523 -0.79625535 -0.1458408 -0.39931637
-0.5728889 -0.4547169 -0.2968715 -0.683883 -0.15606147 -0.0008153763 0.32514414 0.19103183
-0.31534666 0.081760526 -0.15108377 -0.1299522 -0.17242683 -0.1272463 0.33103982 0.5743431
-0.07377661 0.18531178 -0.013003013 0.1185303 -0.14735721 0.32766503 0.18835564 0.9453286
-0.4883225 -0.067281455 -0.18996847 0.012527502 -0.29101983 -0.2328828 0.08797848 0.6974866
-0.118066296 -0.107249886 -0.095271304 -0.27040327 -0.18401788 -0.5843086 -0.4148629 0.22991444
0.3488147 0.069014475 0.30675694 0.385244 -0.4119156 -0.32266596 0.04882534 -0.10983549
0.57700074 0.88266605 -0.046369694 0.4673109 -0.596382 -0.35796338 0.045117613 -0.4383492
0.79442424 -0.3497677 0.33723614 -0.29640317 0.23467128 0.3582998 0.037608072 -0.15212865
0.14349124 0.09596173 0.018191352 -0.029808529 0.13726805 -0.019560922 -0.4996118 0.46240103
0.70316917 0.33210972 -0.11561468 0.31492454 0.22653212 0.2402312 -0.46257833 0.3905159
0.38869613 -0.008609537 0.6124457 -0.067360096 -0.60120493 0.31571198 0.0020256154 -0.18434322

network_body.linear_encoder.seq_layers.2.bias f4 [256]
00000000: 4d7d 7e3d fe52 bd3c eb87 b7bd 8f45 99bb
00000010: 70a4 843b 6df0 77bd 85a8 e0bd 7365 d8bd
00000020: 76c7 bdbb b1d6 e63c 8b37 953d 0856 a53d
00000030: f8a4 443c 7364 94bd d560 6abd 161f 773d
00000040: 00d9 46bd 2aa2 ea3d 5509 f5bc 5153 7b3d
00000050: 29f9 c6bd 647a fc3d c773 053e b918 e7bc
00000060: a00d 60bd ca7e 913d e6cb 12bd 1eb5 31bb
00000070: dc4a aebd fc3b 883d b820 a23d 2971 113b
00000080: 4e95 f03d 0b16 d0bd 1beb b7bd 31ef eebc
00000090: 2467 bfbc b976 073d 2111 bbbb b726 3ebc
000000a0: fbbc e73c 23ef 88bd edae 0bbe 8f8e 37bd
000000b0: bb1f 2ebd f0d3 303d d4f7 b5bc 1224 cb3d
000000c0: bdf9 bd3d d925 a9bd b0f9 b43d 0835 933d
000000d0: 2039 f53c e67c da3c 6c2c 13bd f97b 803d
000000e0: dd84 f53c b8a6 3b3d 4921 903d 8290 bd3c
000000f0: a3d7 0dbe 7530 87bd dc0f 06be 1227 65bc
00000100: 086e 90bd b123 bebd 30fd bf3d 784b 02be
00000110: c196 f7bd babe 873d 6e43 c73d 4a32 32bd
00000120: 35d2 81bd 71bc d23c 0f17 6c3d 2b11 733d
00000130: d04b e93d 9ff2 08be 2803 d23d 535e debd
00000140: 0750 1fbe 23ca f53d 0e9d 9cbd fcdc 74bd
00000150: 48d9 78bd 8a74 babc 38f9 f63d fbab 0ebd
00000160: 720f 133e a9f3 82bd d5e5 a83d 9ea4 87bd
00000170: 0863 c03d 33fe 8b3d 3547 183d a768 66bd
00000180: a4cb 033e 2d50 f13d 57dc db3d 252d f33c
00000190: 72ba fc3d d3db b83d bf3f e13d 21f8 eebd
000001a0: 0a47 15be 0689 d43d f7ab 8ebc c69e b03d
000001b0: 86fa 823d 4c95 953c d22c 233d 0a32 9a3d
000001c0: 526c 613c 01af 2cbd 3e2f 0b3e 6d88 c63d
000001d0: 6f83 883d 236b d0bb d12d 8dbd fb62 383d
000001e0: 4eaf f43c f680 8cbd 3c9e b1ba 03b8 44bd
000001f0: 6f25 cfbd b04d 073e 42cb 12bd 8a31 8cbd
00000200: be9e 623c 9787 5fbd 225f 043e 07a1 ea3c
00000210: 84db 4b3d ac03 d93c 03c3 9cbc 83ae 913d
00000220: 48aa f1bc d8a9 64bd 4f96 703b 0cf6 f4bc
00000230: 65e2 a63d fb4f 16bd 7f69 143a 597e bebd
00000240: 51f4 2dbd 7146 153c 1b2e afbd eb2f a7bc
00000250: 7548 8b3d 745b 8cbc 7f90 a1bc 91a7 75bd
00000260: ffd1 963d e6fd b63d bdc5 b23d 9be3 71bd
00000270: be92 b6bc 6467 a93c c1fe 893d 089b 8b3d
00000280: 4532 e5bc 33da 043e 5cce 95bd 1e69 b4bc
00000290: bb37 f33b 6e68 9dbd e713 783d f7a8 633d
000002a0: bf41 9b3d 0c78 08be a7e4 48bd 53ee 763d
000002b0: 0be5 353c 92b2 793d 3ca1 a33d 47d9 713d
000002c0: 133e 593b 4026 863d 3e20 4a3b 3540 7abd
000002d0: f518 b3bd 7e20 833d d462 b7bb 2661 3e3d
000002e0: 3b57 073e 91fb 9ebd d277 51bd 4f49 e0bd
000002f0: b3f5 313c 5a76 ec3d 6e54 2dbd d5af b4bd
00000300: 5bb4 dfbb b0e0 043e b1b6 873d 5022 f3bd
00000310: a1f8 9d3d b1d3 94bd d0b0 cfbd 5e71 823d
00000320: 4f6d f5bd 5f53 b83c 35aa 54bc 5c67 06be
00000330: 4f89 b0bd d326 2bbe 87b7 febd 862a 48bb
00000340: ee56 f5bd 5957 4fbd b0d1 b23d 9578 bd3d
00000350: 70c8 ca3d 7f00 ea3d 851c c73d b5eb 8abd
00000360: 2474 67bc d964 34bd f419 b8bd 0e1c 043e
00000370: 2e1b 123d f501 4bbb 2579 cbbc a30d db3d
00000380: 3622 7b3d c457 6c3d de03 9cbd 3ab6 02bd
00000390: 7c05 21bd 5840 843d e65e 5f3d b083 92bd
000003a0: f6db b1bd c570 e33d 3d5f 8f3d 4f85 b53d
000003b0: 6bf7 e2bd 169b 953d e349 62bd 20af 51bd
000003c0: 2831 ca3d cff7 ab3d 6efd da3d 86a9 e03b
000003d0: 2581 d63d f496 fd3d a71d febd b2bf 93bd
000003e0: ece1 0fbd 6eba bfbd f11d 8f3d 4243 e5bd
000003f0: 5554 e93d a6be cb3d b0d2 5d3d 0e57 fe3d
0.062131215 0.023110863 -0.08961471 -0.0046774815 0.004047923 -0.060532022 -0.109696425 -0.10566225
-0.0057916 0.028178545 0.072859846 0.0807305 0.012002222 -0.07245722 -0.057221252 0.06033238
-0.04854679 0.114567116 -0.029911676 0.061358754 -0.09715492 0.12328032 0.13032447 -0.02821003
-0.054700494 0.07104261 -0.035838984 -0.002711601 -0.08510372 0.06652066 0.07916397 0.0022192693
0.117472276 -0.10160454 -0.0898039 -0.02916679 -0.023364611 0.033072207 -0.005708829 -0.01160591
0.028288355 -0.06686237 -0.13640948 -0.04481369 -0.04251073 0.04317087 -0.0222129 0.09918989
0.092761494 -0.08259172 0.088366866 0.07187849 0.029934466 0.026670884 -0.035931036 0.06273646
0.02997058 0.045813292 0.07037599 0.023140196 -0.1385179 -0.06601039 -0.13091987 -0.013986366
-0.07052237 -0.09284151 0.093744636 -0.12724102 -0.12089301 0.06628175 0.09729658 -0.04350499
-0.06338922 0.025724621 0.057639178 0.059342545 0.11391413 -0.13373803 0.10254508 -0.10857835
-0.15557872 0.12001445 -0.07647143 -0.05978106 -0.06075409 -0.022760648 0.120592535 -0.034831982
0.1436136 -0.06394131 0.08246962 -0.06623195 0.09393889 0.06835594 0.037177283 -0.056252148
0.12870651 0.117828704 0.10735386 0.029684613 0.12340249 0.09026303 0.10998487 -0.116684206
-0.1457788 0.10377698 -0.017415984 0.08624034 0.0639544 0.018259667 0.039837666 0.075290754
0.013758736 -0.042159084 0.1359224 0.0969399 0.06665694 -0.006360428 -0.068935044 0.04501627
0.029868748 -0.06860535 -0.0013551186 -0.04802705 -0.10114562 0.13213229 -0.035838373 -0.06845386
0.013831792 -0.054572668 0.12926915 0.028641237 0.049769893 0.026491009 -0.019135958 0.071133636
-0.029500142 -0.055826038 0.0036710685 -0.02990248 0.0814865 -0.03669737 0.0005661472 -0.09301443
-0.042469326 0.009111033 -0.08553716 -0.020408591 0.068009295 -0.017133452 -0.019722221 -0.059974257
0.07364272 0.08935146 0.08729122 -0.059054952 -0.022286769 0.020679183 0.067380436 0.06816679
-0.027978072 0.12973861 -0.073147506 -0.02202278 0.007422415 -0.07685934 0.060565855 0.05558106
0.075808994 -0.13327044 -0.049046185 0.060285877 0.011101971 0.060961314 0.079897374 0.059045102
0.0033148571 0.06550264 0.0030841972 -0.06109639 -0.087449946 0.06402682 -0.005596498 0.046479367
0.1321687 -0.07762826 -0.05113966 -0.109514825 0.010861802 0.11546011 -0.042316847 -0.088226
-0.00682692 0.12976336 0.066266425 -0.11871779 0.07713438 -0.072669394 -0.10141146 0.06369279
-0.119837396 0.022500692 -0.012980034 -0.13125366 -0.086199395 -0.16714029 -0.12437349 -0.0030542924
-0.11979471 -0.05062041 0.08731401 0.09251515 0.09901512 0.11425876 0.097222365 -0.06783239
-0.014126811 -0.04404149 -0.08989325 0.12901327 0.03567045 -0.0030976508 -0.02483804 0.106959604
0.061311923 0.057700887 -0.07617925 -0.031912066 -0.03931187 0.06457585 0.05453386 -0.07154024
-0.08684532 0.111054935 0.07000587 0.08863317 -0.110823475 0.07304971 -0.055246245 -0.051192403
0.09872657 0.08396875 0.10692869 0.0068561463 0.10473851 0.12382308 -0.124079995 -0.07214297
-0.035127565 -0.093617305 0.06988133 -0.11194469 0.11393038 0.09948473 0.054156005 0.12418948

network_body.linear_encoder.seq_layers.2.weight f4 [256, 256]
00000000: b7cd dbbd 254f 9f3c fdc5 f8bc 5096 1ebe
00000010: 66d4 5ebd d7d0 f5bd abf1 c13b 0ed3 2d3d
00000020: 2de4 8c3d a6af f93c eea5 c0bd 842a d0bd
00000030: 0428 dfbd e754 093c f062 fcbd bd48 2dbd
00000040: b0e6 85bd 4f2d f3bd fdcf c73d 96bf 6a3d
00000050: 4bd8 02be 35ab 6d3d 6394 2c3d 5973 3cbd
00000060: 8e64 d83d ddc3 973c 3605 85bd 54e3 be3c
00000070: 70e4 f63d 1f02 19be 6451 bebd 895b 0f3d
00000080: f510 30bd 27f0 3cbe 969f 40bb c032 91bd
00000090: ce03 06be 5eb4 34be f33e 20be 4579 ad3d
000000a0: aa76 d33d c7ef 6fbc f176 a5bc ca89 523d
000000b0: 19d4 57bd 0518 51bc e608 5a3d 6fbd 4abe
000000c0: ac96 b1bd 75a2 1d3d dfaa 17bc fe52 80bc
000000d0: f3c3 2f3d 976a 84bc 33e3 8bbd 25c2 e7bd
000000e0: 5119 9d3d ad8f 10be 185c 6a3d 919d c8bd
000000f0: 3cca ac3c 147a 0b3c 2be5 09be 3014 2ebd
00000100: 3a41 453a 8a39 2d3d f99a c83c 0b39 fd3c
00000110: c2f3 cc3d de2e 09be 1bcc 833c 4b25 31bc
00000120: 9e07 debd 86fa a839 3b6c 913c 725e 81bd
00000130: fcd6 a83d d986 1fbe 6af0 7bbe 8583 4abb
00000140: 5013 023d 16fc 903a 4055 e53c 387d e33c
00000150: eb4b 9b3c 2f68 87bc 9e03 f2bd a25a 82bd
00000160: f94b 75bd 924a 733c 573a 223a 339d e13d
00000170: 17c3 17be bd5d a5bb 1040 523d e063 4abd
00000180: 94cc 0bbc ff5f c5bc 8bbb 4cbe 4bc4 613d
00000190: d984 d5bc 8e1a 0fbe 448e a2bd cf14 f53c
000001a0: 6c8d 9ebd a0ca 06be 7edc 27bd 1dd5 eabc
000001b0: df10 d8bd 1f80 52be 7c7e 40bc 42b3 cc3c
000001c0: 6ec5 9e3d 38ce bc3d 425f 973c 8282 a7bd
000001d0: a005 8abd 59b6 d5bd 4fb6 01be 61e4 19bd
000001e0: 63a6 9dbd a1a7 9a3b 448c 1cbe 5464 62bd
000001f0: 66a6 d4bd 7127 dd3b e17f b33c 1ec2 2d3d
00000200: 1aa3 49bd 3df4 74bc 6221 6a3d 4353 52bc
00000210: 4667 913d ad49 c23d 3ee3 cabc ef69 dfbd
00000220: 545c 09be 5bdf 16be 7e8b ecbd 092d 313d
00000230: 9377 80bd 93e6 03bd fced 0dbc 49ef 9ebd
00000240: 7e43 d4bc e2cb 063c 024e 803d 3daa ed3d
00000250: afce b2bd faad 983b 1e52 d13b ca85 8c3d
00000260: 91de a63c 6f40 0dbe da61 28be b6a4 71bd
00000270: 1c92 9bbd 1d9d 8f3d 6b2f 2a3e da70 393d
00000280: 8c63 b1bd c17f ef3d ab35 3cbd 124c f0bd
00000290: 070e 97bd f408 f3bd 49fc 023d 3786 78bd
000002a0: 4acf 38bd ced1 4c3d d52f e53c a281 2bbd
000002b0: 0493 58bd 6680 1b3d 1061 833c 88ec 2dbe
000002c0: 0ec9 683d 1cc8 a0bd 8ab1 bc3d f77c 4bbd
000002d0: f9c6 3cbd 352c 41bd cea0 2bbe c437 88be
000002e0: c59e 02bd c36f febc bd1d 8fbd be57 f2bc
000002f0: fbf8 ba3d 0d4a b73d e856 e53c 3d22 92bd
00000300: e313 92bc 9fb8 bbbd 461e 30bd a649 43be
00000310: 1f4e a1bc 946a 9ebd 5963 c4bd ee7c 8abd
00000320: 03e4 b73d 9d63 553d 4b7e 323a 1382 6c3d
00000330: 9afc 133b 50af f2bc 9042 1ebc edb6 15bc
00000340: 4f79 38be 0d24 41b9 9d5f 1ebe f711 19be
00000350: d727 623d 8840 32bc 5553 a0bc 994c 8a3d
00000360: 8cc3 4ebd dc13 15bd afdb 9d3d 75d2 b6bc
00000370: 2f88 e5bd 7871 4b3d 15e7 1cbc 237f eb3c
00000380: eeb0 e6bc d976 2f3c 792a c9bc 5003 02bc
00000390: 3e49 88bd b0d8 c7bd acb4 10bd 63eb cd3d
000003a0: c09e 39be 610e fd3c 0a7d 54bb 4c0d 153e
000003b0: 0ee7 683b 13fa ddbd eb59 84bd c829 eb3d
000003c0: 3596 32bd e849 90bc 60e2 fbbd 2167 f2bd
000003d0: 2c46 56bc 9ce1 523c 7cb7 d13c 398e 933c
000003e0: ac75 a63c d3cd f2bd 45ef a0bc cbc2 6e3d
000003f0: f98a 033c 2913 c6bd 154f a13d ce7d dc3b
-0.10732596 0.019446919 -0.030367846 -0.15487027 -0.054401778 -0.12002724 0.0059187016 0.042437606
0.068794586 0.030479264 -0.094066486 -0.10164359 -0.10896304 0.008382059 -0.12323558 -0.042305697
-0.06538141 -0.11873876 0.097564675 0.057311617 -0.12777822 0.058024604 0.0421337 -0.04600844
0.10566054 0.018526012 -0.064951345 0.023301758 0.1205529 -0.14942215 -0.09292868 0.034999404
-0.04298492 -0.18450986 -0.0029391996 -0.07089758 -0.13087389 -0.1764693 -0.15649013 0.08470396
0.10325368 -0.01464457 -0.020198317 0.051400937 -0.052692506 -0.012762074 0.053231142 -0.19798826
-0.086713165 0.03848501 -0.009257047 -0.015664574 0.04291148 -0.016164107 -0.06830444 -0.11316327
0.07670844 -0.14117308 0.057216734 -0.097956784 0.021092527 0.008512992 -0.13466327 -0.04249972
0.0007524673 0.0422912 0.02448796 0.03091099 0.100074306 -0.13396785 0.016088536 -0.010812114
-0.108412966 0.00032230112 0.017751804 -0.06316842 0.0824413 -0.15578784 -0.2460343 -0.0030901146
0.0317567 0.0011061456 0.027994752 0.02776967 0.018957099 -0.01652917 -0.11817096 -0.06364943
-0.059886906 0.014849322 0.0006188503 0.110163115 -0.14820515 -0.005046575 0.051330626 -0.049411654
-0.008532662 -0.024093626 -0.19993417 0.05511884 -0.026064323 -0.13974974 -0.07937291 0.029917149
-0.07741818 -0.13163233 -0.040981762 -0.028666073 -0.10550093 -0.20556687 -0.011748906 0.02498782
0.077525005 0.092190206 0.01847804 -0.08179189 -0.06739354 -0.10435171 -0.12667201 -0.037571315
-0.076977514 0.00471969 -0.15287882 -0.05527146 -0.103833005 0.0067490865 0.021911563 0.042421453
-0.04922781 -0.014950809 0.057160743 -0.012837234 0.07099776 0.09486709 -0.02476656 -0.10908877
-0.13414127 -0.14733641 -0.115500435 0.04325584 -0.06272807 -0.032202315 -0.008662697 -0.07760484
-0.025911089 0.00822732 0.06264879 0.11604736 -0.08730828 0.0046594115 0.006387963 0.06861456
0.0203698 -0.1379411 -0.16443577 -0.05899497 -0.075962275 0.07012389 0.16619651 0.04527364
-0.08661565 0.11694289 -0.04594962 -0.11733259 -0.073757224 -0.11866942 0.03197888 -0.060674872
-0.04511956 0.050004773 0.02797691 -0.041871674 -0.05287458 0.037964247 0.016037494 -0.16984761
0.056832366 -0.07850668 0.092135504 -0.049679723 -0.046088193 -0.0471613 -0.16760561 -0.26605046
-0.031889696 -0.031059152 -0.06988094 -0.029582854 0.091295205 0.08949671 0.027995542 -0.07135437
-0.017831748 -0.09166073 -0.04299762 -0.19071063 -0.019690571 -0.07735172 -0.095892616 -0.0676211
0.08979037 0.05209695 0.000680898 0.057741236 0.0022580982 -0.029624611 -0.009659424 -0.009137851
-0.18015026 -0.00018419344 -0.15466161 -0.1494826 0.055213775 -0.010879643 -0.019570986 0.06752891
-0.050479457 -0.036395893 0.07707917 -0.02231715 -0.112076156 0.04966876 -0.009576579 0.028747147
-0.028160539 0.010709488 -0.024556385 -0.00793536 -0.06654595 -0.09758127 -0.035328552 0.10054662
-0.18126965 0.030890645 -0.0032423162 0.14555854 0.003553811 -0.108387135 -0.06462463 0.114825785
-0.04360028 -0.017613366 -0.12299037 -0.118360765 -0.013078254 0.012871172 0.025600187 0.018012153
0.020319782 -0.11855664 -0.019645343 0.058291238 0.008028739 -0.09671623 0.07876412 0.0067288643

network_body.vector_processors.0.normalizer.running_mean f4 [9]
00000000: 19c9 c4bc e8fb f93f 0000 0000 9435 53bd
00000010: cdfb f93f 0000 0000 8d9a 2a3d 0000 0000
00000020: 6643 e73d
-0.024021672 1.9530001 0.0 -0.051564768 1.9529969 0.0 0.041651297 0.0
0.11292152
