config/results/FighterUpdated3/My Behavior/My Behavior-17999520.onnx (onnx, 282099 bytes, 8 tensors)

58 f4 [9]
00000000: f14d ac40 c865 d33a b027 7739 7f75 ad40
00000010: 108b d33a b027 7739 d7e1 4e3e b027 7739
00000020: 42d4 a13e
5.3845143 0.0016128356 0.0002357054 5.420593 0.0016139466 0.0002357054 0.20203339 0.0002357054
0.31607252

action_model._discrete_distribution.branches.0.bias f4 [6]
00000000: 59fb 193d 46b4 3b3d a014 7fbc e8af 0f3d
00000010: 1492 8abd b7da b8bd
0.03759322 0.04582622 -0.015568882 0.035079867 -0.067661434 -0.090260915

action_model._discrete_distribution.branches.0.weight f4 [6, 256]
00000000: 2a81 00bc 1bfd 793d 733d 353d 57c4 373d
00000010: bbf8 d33c 49ec 613d f7bc 363d 3767 293c
00000020: 646a 443d c91e 653d 4279 183d 36b0 133d
00000030: 562b c23b 013e 793d 249c 4c3d 8b95 c7bc
00000040: 0be3 c93c 0fa6 40bd 89c8 8b3d d87c bb3c
00000050: 3540 723d e9c6 803d 7c93 fa3c b1c0 6d3d
00000060: 80e6 7f3d 9d64 c0bc 5043 323d 6ac5 763d
00000070: ef26 363d a576 4e3d 4bed fabc 7c4b 763d
00000080: 7f61 043d 0dfd 7c3d 2f9b 703d d9e6 2e3d
00000090: 388e 343b 4ee5 493d 2113 2c3d 3d22 2f3d
000000a0: 3d40 413d 9292 593d c43d b13c fa13 a13c
000000b0: 1f5b 883d a677 53bc ff56 46ba 7cac 213d
000000c0: bcc9 073d c775 443d 699a 463d 858f 113d
000000d0: e9cd 6d3c ad87 3e3d 71b6 eb3c 68d2 323b
000000e0: 5c87 4a3d da10 85bd c2e0 163c 2e2c 993d
000000f0: 37c0 fb3c 28ac a23c 713a 363c 061e 283c
00000100: f96d 7d3d 7a6d 603d 996c 0b3c 4fde 423d
00000110: baea 103d e083 a0bc 8c51 123d 9245 2a3d
00000120: c502 323d 98d6 c23c 0e4a a33c e60e c03c
00000130: f9e4 4a3c ed30 ab3c 37f4 5b3d bc69 d23c
00000140: 4af9 f33c 4bb6 4ebc a318 393d d058 7e3c
00000150: 2651 c63c c2fa ffbc 0d98 d0bc eb80 c93c
00000160: 9a5c fd39 2a92 463d e492 35bd c283 5d3d
00000170: e228 e2bc 1389 913b 7639 6cbb a915 82bc
00000180: 33cb af3c dae8 553d 1c4c 803d e0a9 9f3c
00000190: 843a 643d 672a 263d 41fb 033d 221c 203d
000001a0: fc20 043d 4eec 583b df0d b43c ee25 0abd
000001b0: 3b46 123d db0c b23b 83a4 fcbb 259f ebbb
000001c0: ebd4 903c 2b30 d83c 8ff7 4cbc a23f 493d
000001d0: 4a4f 123d 7311 94bc 7655 3a3d 50ac 193d
000001e0: b76f 3ebb 585f 1e3d bdd0 953c 6459 693d
000001f0: 4642 da3c 65f1 3a3d 7bed 1a3d bba8 0f3d
00000200: 9610 3c3d f7dd 4a3d 7fe8 4a3d fb89 213d
00000210: 6ab9 d1bb c2e5 86bd 8b9b 0b3d d0f4 3d3d
00000220: 4ae0 ed3c a429 7d3b 0bfc 8c3c c258 993d
00000230: 04b3 a73c 0255 37bd 46fc 26bd 3c06 1f3d
00000240: 0020 d03d a885 753d bafe 3f3d d290 763d
00000250: 2508 85bd 7794 823d 01b1 1f3c d0b8 1e3c
00000260: f91c 1c3d 0294 593d 011f 093d 630a 073d
00000270: 80e0 3e3c c8a4 473d d651 02bb 0fad 8d3d
00000280: 1678 fd3c 934b 413d 52d9 833d cace 07bd
00000290: fdb7 8c3d aa0e 59bc bca0 0b3d 5b12 273d
000002a0: 79e3 143d 1614 d63c ec3c 673c 7f4f 5c3d
000002b0: 773f e53c 6114 243d 9e81 1e3c 8627 88bc
000002c0: 60c8 66bd bdcf 133d 4985 413c 1deb 453d
000002d0: 59f3 083d a868 663d 82e7 ed3c 3b95 f7bc
000002e0: 4255 b1bb d084 76bd 04ac 0a3b a7f0 623d
000002f0: 67be 463d bd00 c03a 0532 f63c 04e5 1c3d
00000300: ce76 76bb 54f0 db3c d144 c23c 544f 2b3d
00000310: 7a39 9e3d 4d11 3b3d 05e0 4d3d 6265 053d
00000320: 08d0 2ebd 051a f1bb 1d96 823d 0253 113d
00000330: c061 653d 8af1 cebc 5395 073d f770 7c3c
00000340: 8e51 db3b b456 d83c 85af d93c b723 ce3c
00000350: 79c5 463d 78d6 523c b1ec 383d 966e 6b3d
00000360: 00fd 8d3a 4e64 bdba d6b1 bbbc f8a1 4d3d
00000370: 6be4 963d df17 3e3d e99e 0c3d cda3 0b3d
00000380: 8424 3f3d 2674 f43c eb20 4a3d 576d 513d
00000390: ba90 813d 4fb6 513d 80c5 153c c8ed 8a3d
000003a0: dc5a 613d c22e 0c3d b14d 843d f795 443c
000003b0: 7633 fc3c c215 963c 5cea 5f3d a6e5 8d3d
000003c0: 9319 933d 08a1 fa3c ccad 13bd ba63 603d
000003d0: 81ad 96bd e013 f1ba 6776 313d d6d6 6e3d
000003e0: 648a ef3c ffaf 023d b198 103d fcc5 113d
000003f0: 939e 5c3d 910b 1dbb ee65 033d a12b d4bc
-0.007843295 0.061032396 0.044248056 0.04486498 0.02587544 0.05515698 0.044613805 0.01033955
0.047953025 0.055937562 0.037225015 0.03605672 0.005925576 0.060850147 0.049953595 -0.0243633
0.024644395 -0.047033366 0.068253584 0.022886679 0.059143264 0.06287939 0.030587904 0.058045093
0.06247568 -0.023485476 0.043521225 0.060246862 0.044470724 0.050406117 -0.030630728 0.06013058
0.032319542 0.061764766 0.058741745 0.042700622 0.002755059 0.049290948 0.04201043 0.04275726
0.047180403 0.053118296 0.021635897 0.019662846 0.06658005 -0.012906944 -0.0007566064 0.039471135
0.033151373 0.047963884 0.0484871 0.03553726 0.014514425 0.04651611 0.028773518 0.0027286056
0.049445495 -0.06497355 0.00920886 0.0747913 0.030731304 0.019857481 0.011122332 0.010261064
0.061872456 0.054791905 0.008509778 0.04757529 0.035380103 -0.019594133 0.0357223 0.041570254
0.043459672 0.023783967 0.019932773 0.023444604 0.012383693 0.020897353 0.0536997 0.025685184
0.029781956 -0.012616704 0.04518951 0.015524104 0.024208616 -0.0312475 -0.025463128 0.024597606
0.00048324914 0.048479237 -0.04432954 0.054080732 -0.027607385 0.0044413893 -0.0036044992 -0.015879469
0.021459198 0.052224018 0.06264517 0.019490182 0.055719867 0.04056778 0.032222036 0.03908933
0.03225802 0.0033099833 0.02197927 -0.03372758 0.03571151 0.0054336614 -0.007710041 -0.0071906024
0.017679652 0.026390156 -0.012510194 0.04913295 0.035720147 -0.018074727 0.04549166 0.037517846
-0.0029058286 0.038665146 0.01828801 0.056970015 0.02664293 0.045640368 0.037824135 0.035073023
0.045914255 0.04952809 0.04953813 0.03943823 -0.006400277 -0.065867916 0.034083884 0.04637605
0.029037613 0.0038629556 0.017210027 0.07487632 0.020471103 -0.044758804 -0.04076793 0.038824305
0.101623535 0.059941918 0.046873786 0.060196705 -0.06495694 0.06375974 0.009746791 0.009687617
0.038113568 0.053119667 0.033476833 0.03296889 0.011650205 0.048741132 -0.0019885204 0.06917774
0.03094105 0.047191214 0.06437935 -0.033156194 0.068710305 -0.013248125 0.034088835 0.04078899
0.036349747 0.026132625 0.014113646 0.05378675 0.027984364 0.040058497 0.009674458 -0.016620409
-0.056343436 0.036086787 0.011811563 0.048319925 0.0334352 0.05625215 0.029041056 -0.030222526
-0.005411775 -0.060185254 0.0021159658 0.055405285 0.048521426 0.0014648658 0.030053148 0.038304344
-0.0037607434 0.026847996 0.023714455 0.0418237 0.077258065 0.045670796 0.05026247 0.03256739
-0.042678863 -0.007357838 0.06376288 0.035479553 0.056001425 -0.02526166 0.03310139 0.015407792
0.0066930717 0.02640853 0.026572952 0.025163515 0.04852817 0.012868516 0.0451476 0.05747851
0.0010832846 -0.0014449449 -0.022911947 0.050203294 0.07367786 0.046409484 0.034331236 0.03409176
0.046665683 0.02984054 0.0493478 0.051129665 0.063264325 0.051199254 0.009141326 0.067836344
0.05501829 0.03422428 0.06460131 0.011998645 0.030786257 0.018320922 0.054666862 0.069285676
0.07182612 0.030594364 -0.036054417 0.054782607 -0.07357312 -0.0018392764 0.043325808 0.058310352
0.029240794 0.031906124 0.035301868 0.035589203 0.053862166 -0.0023963193 0.03207963 -0.02589971

network_body.linear_encoder.seq_layers.0.bias f4 [256]
00000000: cdba 9a3d b4a0 0b3e da48 af3d efb5 d03d
00000010: 787c c2bd 2fba a0bd 933a e3bd 8801 b53d
00000020: 575d b73d e551 1ebc c444 6abd a396 94bd
00000030: 6e72 06be bd17 c73d 515d a73d d077 a93d
00000040: a8e0 bdbc b2a5 c9bd 2d88 2dbb 03fd 873d
00000050: 1753 013e ad54 e5bd 6879 60bc 08e5 bf3d
00000060: dd0a 203e 2e21 8c3d 17a8 8dbd 2f19 cebd
00000070: 5926 433d 08e6 073e f382 d6bd 6c09 823d
00000080: d02f e4bd 2414 03be a140 0c3c 7c1b f6bd
00000090: e6a4 bfbd e0f3 56bc 4e22 7c3d b01c e4bd
000000a0: 1fdf cdbd 632a 953d 1194 de3d 58b5 973d
000000b0: f091 d73d b913 adbc 9d52 243c 92c4 dcbd
000000c0: 5405 853b 515a 613d ceb9 ab3d c188 a73c
000000d0: fceb 293d 31c2 153e 97dd 843d b7de 9e3d
000000e0: 3618 053e 82c1 7dbd 125a fa3d cf8a cfbd
000000f0: 4573 f3ba e842 123d b558 df3c 2851 6ebc
00000100: 5cd3 e53d 249b a53d 4edd d13d 7428 803d
00000110: 507c f43c 1914 bfbd 9e1f 073d ec79 773d
00000120: 3f0b 43bd 9d7e 023d f360 d23b 51b2 7d3d
00000130: ea34 f6bc 4718 a23d 178f c4bd fd68 ae3d
00000140: e69e ad3d e776 59bd 832e b93c 409f 913d
00000150: 5f8d 213e be5a 173d 077e b4bd 9a3c 46bd
00000160: 87b0 393d 815b 843d 43b7 ec3d e0e5 803d
00000170: 80b2 c9bd df8e 85bd 8aa0 45bd 5cbd afbd
00000180: 7f2b e0bd 680b 713d 312b 2cbd cf6d 0c3e
00000190: 2b1d 9b3d 6865 8abd 251f 9cbd e9e0 c73d
000001a0: 3c1a fcbd 1df2 cc3d 45c7 f1bd 6226 973d
000001b0: ea4e b13d 89f8 b9bd 4bee d9bd 6f5e b03d
000001c0: ad0f c53d 1fac 0d3e 8211 d6bc c960 adbb
000001d0: fc9c de3d 30d0 cabd 6550 21bd bdb8 7d3d
000001e0: b608 c53d d739 ccbc 98da aabd 0577 0e3e
000001f0: 6117 ebbd 926c 643d e65e 103e 3a83 b43d
00000200: b930 023e 913e c03c 60f2 a7bd 60cf e6bd
00000210: f37c 823d 560b 333d e661 c83d ba44 9cbd
00000220: afde f63d 2c95 d5bd 59b4 003e b370 f03d
00000230: 76c6 983d 1ff6 b03d 6fe2 c03d 25a1 ba3c
00000240: 4cf4 f73d bef2 463d e7ac 54bc 5588 d53d
00000250: 2923 dfbd b7a5 923d fde5 7fbb f6ab 993d
00000260: 0348 e63d 8a52 3c3d 5600 0fbe 72e6 c2bd
00000270: c544 853d 2c6a 8e3d 1e3e d73d 2f31 b13d
00000280: 06fb fe3d e9dc 023e ef1e 1a3e 91cf 993d
00000290: 7c1f d13d 5a86 12bd dff9 d83d 4c49 b13d
000002a0: 5149 d83d 4d2a b73d d735 e33d 2025 a33d
000002b0: 1605 09be 32f1 a23d 9e8d 99bd ff39 343d
000002c0: ae5e 0a3e 0225 95bd 80e8 a43d a476 fc3d
000002d0: afa8 c73d 65db e03d 9dc5 98bd 9b24 fbbd
000002e0: c1d6 513d 1885 79bd 265a d9bd 03e7 503d
000002f0: 61a1 cf3d 02af 2cbd fd9e f23d ab2d a63d
00000300: 4e39 0ebd f286 3b3c 1a23 e2bd cd06 d8bd
00000310: 5584 903d f841 d1bd 74af 21bd 9cc5 53bd
00000320: c976 f83d 5ad0 ac3d 79bd fd3d 189b a03d
00000330: abb6 6b3d 5ea5 9b3b 50dc 5fbd f7cf 8e3d
00000340: 8698 203d 7f80 003e c836 cdbd 168a a0bd
00000350: 3d27 553d 2c81 913d 8a12 efbd 33bd 953d
00000360: 4ca5 1c3d 4f32 24bd 511f 093e 76f1 bbbb
00000370: 72ea 42bd 7753 0d3e b484 15bd a8ad 72bd
00000380: 3e76 e6bc ad02 1dbd 6799 47bd 136c de3d
00000390: 1560 0d3d 733e fb3d ec83 64bd 0473 67bd
000003a0: c89d 893d 8a5d 7d3d ce8b c6bd 051f a43d
000003b0: ea16 853c 5fe8 9b3d 4121 73bd a7f0 ae3d
000003c0: c1d3 ac3d af82 ce3d ec9f 843d 31a5 0ebe
000003d0: 86bc cc3d 1d7e 9cbc bcac 5ebd c7eb de3d
000003e0: 94e6 70bd e821 63bd 0bd1 bd3c 4335 0e3e
000003f0: 447d f43d c946 3abd 8598 d53d 4f7d bb3d
0.07555161 0.13635522 0.08558817 0.10190951 -0.09496397 -0.07848012 -0.110951565 0.08838183
0.0895335 -0.00966308 -0.057194486 -0.07255294 -0.13129589 0.097213246 0.081720956 0.082748055
-0.023178414 -0.09846057 -0.0026478872 0.06640055 0.12629353 -0.11197791 -0.0137008205 0.09369856
0.15629144 0.06842266 -0.06916826 -0.10063397 0.047643993 0.13271344 -0.10474195 0.06349453
-0.11141932 -0.12800652 0.008560331 -0.12016961 -0.09357624 -0.013119668 0.061556153 -0.11138284
-0.100523226 0.07283475 0.10868085 0.074076355 0.10525882 -0.021127569 0.010029462 -0.1077968
0.004059473 0.055017773 0.08385049 0.020450952 0.041484818 0.1462486 0.064875774 0.07757323
0.12997517 -0.06195212 0.12224211 -0.101338975 -0.0018573782 0.035708338 0.027263978 -0.014545716
0.11221954 0.08086231 0.10247289 0.06257716 0.029844433 -0.09330005 0.032989137 0.060419008
-0.047618147 0.03185903 0.0064202487 0.061937634 -0.030054528 0.07914787 -0.09597605 0.08516119
0.08477573 -0.05309191 0.022605186 0.07110453 0.15776585 0.036951773 -0.088131 -0.048397638
0.045334365 0.064627655 0.11558392 0.06293845 -0.09848499 -0.06521391 -0.048248805 -0.08581039
-0.10945796 0.05884877 -0.042033378 0.13713764 0.07573923 -0.06757623 -0.07623128 0.09759695
-0.12309691 0.10007117 -0.11805586 0.07380368 0.0865763 -0.090806074 -0.10641154 0.08611762
0.096221305 0.1383519 -0.026131395 -0.0052910787 0.10869786 -0.0990299 -0.03938331 0.06194376
0.09620802 -0.024929924 -0.08342475 0.1391259 -0.114790685 0.055767603 0.14098701 0.08814092
0.12713899 0.023467334 -0.08200526 -0.112700224 0.063714884 0.043711983 0.09784298 -0.07630296
0.12054192 -0.10428843 0.12568797 0.11740246 0.074597284 0.08640694 0.09418189 0.022781918
0.12107143 0.04857134 -0.012980676 0.10426394 -0.10895378 0.07160514 -0.0039046996 0.07503502
0.11244204 0.045977153 -0.13964972 -0.0951661 0.06507257 0.069538444 0.10509895 0.08651959
0.12450223 0.12779583 0.15050863 0.07510293 0.10211083 -0.03577266 0.10594534 0.086565584
0.10560859 0.08943615 0.110942535 0.079660654 -0.13380846 0.079561606 -0.074977145 0.044000622
0.1351268 -0.07282449 0.08052158 0.123273164 0.09748971 0.10979346 -0.07459567 -0.12262841
0.051230196 -0.060917944 -0.106128976 0.05100156 0.101382025 -0.042159088 0.11846731 0.08114179
-0.03472262 0.011445748 -0.11041851 -0.10548172 0.0705649 -0.10217661 -0.039473966 -0.051702127
0.121320315 0.084381774 0.12389655 0.07842082 0.057547253 0.004749938 -0.054653466 0.0697326
0.039207958 0.12549017 -0.10020214 -0.07838838 0.052039374 0.07104716 -0.11673458 0.073114775
0.038243577 -0.04008704 0.13390853 -0.0057355715 -0.047586866 0.1380137 -0.03650351 -0.059247643
-0.028132554 -0.03833263 -0.04873028 0.10860457 0.03451546 0.122677706 -0.055789873 -0.05650617
0.067195475 0.061856784 -0.096946344 0.08013729 0.016246278 0.07612681 -0.059357885 0.085419945
0.08438826 0.1008352 0.06475815 -0.13930203 0.099968955 -0.019103104 -0.05436395 0.10884815
-0.058813646 -0.055452257 0.023170969 0.13887505 0.11937955 -0.045477662 0.104294814 0.0915476

network_body.linear_encoder.seq_layers.0.weight f4 [256, 9]
00000000: 98cb bebe eac9 85be f410 e13e 71e1 a63e
00000010: 3f14 bebe ff92 7b3e e2f9 573e 78e6 8d3e
00000020: ffb7 073d 99ef 5a3e 29cf 2fbf f02b e03c
00000030: de59 333e 2a5d 043e b661 a33d c0ea 1cbf
00000040: 3013 223d 582a 43bf f4b9 c6be 2187 833e
00000050: 1275 523e db11 233e e274 d63d d89f 863e
00000060: e6c8 5abe 34a1 b4bd 97e1 fbbd 7654 efbe
00000070: 72a4 fb3d e880 993d 46b7 123f 817d cf3d
00000080: a34c 8abe 8450 1c3e 5080 f3be 6515 dd3e
00000090: 98eb 443f 09fd b8be 3b87 aa3e 0a36 80be
000000a0: dc5b 62be 48c8 b03e f3eb 2cbe 38c6 083d
000000b0: ff59 a8bd 834b 5e3f 93b6 fb3d 888e 013f
000000c0: 2679 96be 4547 52bd 5be0 a0be bb71 d1bd
000000d0: 79a3 a0be 4c3f e6be e226 0f3f 9b54 eb3d
000000e0: 12c8 b03e bc45 3bbe 0bbd 033e 0c67 27be
000000f0: a675 bebc cfad 543e 6125 3cbe 7f17 d2bc
00000100: 43c6 a03e 0c8c 4f3b d15d 63be bb38 bbbd
00000110: 7013 99be a14d ddbe dc62 103e 65a6 9f3e
00000120: 55df eebd 4e92 743e f3b4 d6bc 8c86 5ebd
00000130: 82ca 8b3d ac72 43bd b7d9 9abe 1eb1 28bf
00000140: 01e1 7dbe 8b56 a1be aad2 99bd 3c3b 7d3b
00000150: 71ec ebbe ad5d df3e 0202 4bbc ed75 d8bd
00000160: 64af b9bd e5e0 d8be a110 39be 65b8 b0be
00000170: 1b5b f83d aed8 113e 8761 58be 3283 6d3e
00000180: d483 1b3f 7096 823c 3764 453d f500 b0bd
00000190: f66d 343f d8ff fc3e 5301 43be 9b42 26be
000001a0: 1ab6 333c f586 923d c027 fe3e 8dc4 a53e
000001b0: 2232 083f 99f6 d8be 13e8 013f 22de 40be
000001c0: 100d febb ef03 b13d 96d1 d13e 4439 5dbe
000001d0: 96b4 6f3e 2f1e 8ebe 18a5 edbe 7238 a9be
000001e0: 3691 923d 2b8d a0bd ccdc cd3d 0f32 f6bd
000001f0: 6849 ba3d 92de ee3c 8453 55be 8312 aebb
00000200: faa8 273e 4ca0 bb3e 6fa2 bd3d d4c8 4f3e
00000210: fe5c 953e d491 aa3c 6cf5 2d3e 2369 11bf
00000220: cefa ab3e 0ec4 b2bc e33d 103e 1b73 243e
00000230: 7a64 a23e 778a 663d 93da e2be ba24 d5be
00000240: ccdb 203e 8709 28be 41b4 84bd b853 75be
00000250: 6c04 073f 9266 20bf d420 353f 064c 123d
00000260: c740 17bf ca2e b83d a1e9 733d 3c24 c1bd
00000270: 8622 0abf c2e9 70be cb8a 16be 872c 223e
00000280: db4e 27be ac27 d23e f17c 1a3d 3842 b63e
00000290: 1c37 103e 5777 4cbf 8f71 15be 3273 ccbe
000002a0: 1aa9 12bf a7d0 e8be 9ee6 97be 6f48 30bf
000002b0: 7d60 22be fabe 55ba abb2 a83e cf20 413e
000002c0: 1e75 a1be 83a5 9f3d b4b5 1abe 4752 05be
000002d0: fbdb 35be 011d 06be 0d7e a93e caa1 133f
000002e0: abb3 9ebd 5fc2 3d3e 6f37 87bc 04c0 f23d
000002f0: 80d8 15be 6ed8 a83e eec1 423e 0e01 723f
00000300: c391 f9be ef1b 86bd 1887 42be 2a33 783c
00000310: 8d00 95be 13db 6bbe 8e42 b33d 41c2 313f
00000320: becc f1bd 9355 e2bd 1b8e c9bd 4c72 8abe
00000330: 4ba6 3ebe 4095 15bf f58d d5be 3eae 673e
00000340: a246 b23e 7657 8d3d 6b96 9d3e 58ec c43e
00000350: 9ae6 d2be 2043 a5be 14fd 473d 1a84 dfbd
00000360: e1fe 123f da11 623f 26ee 3dbd b4c2 ef3e
00000370: a693 18bf fa46 b7be d5c9 423d 4e6f e0be
00000380: d05f 4a3f 5aa8 b5be 8f02 ac3e 28c2 97be
00000390: 3ccb 723e 69d1 b63e ec0a 1a3d 4ce0 1fbe
000003a0: 5eef 123e 9975 b73d 910e a73c c42d d7bc
000003b0: ff8f 0c3e 0a16 94bc f4f9 fdbe d4bf ec3e
000003c0: b0c5 343f 490a aa3e 5dbd e6bd 6bcf a23e
000003d0: 7801 693e 2bff 753e 02c7 ecbe 7672 c83e
000003e0: 2e03 c73e 6526 e0bb 3ec9 1c3f 6847 86bd
000003f0: a070 19bf 5a6e 9f3e 30c0 043b f132 40be
-0.37264705 -0.2613061 0.43958247 0.32593873 -0.37124822 0.24567793 0.21091416 0.27714896
0.033134457 0.21380462 -0.68675476 0.027364701 0.1751475 0.12926164 0.07977621 -0.612957
0.03956908 -0.76236486 -0.38813746 0.25689033 0.20552471 0.1592478 0.104715124 0.26293826
-0.21365699 -0.088198096 -0.12298887 -0.46744126 0.12287225 0.0749529 0.57310903 0.1013136
-0.27011594 0.1526509 -0.47558832 0.43180385 0.7692199 -0.3613055 0.33306298 -0.2504123
-0.22105354 0.34527802 -0.16886882 0.03339216 -0.082202904 0.8683397 0.12290683 0.5060811
-0.29389304 -0.0513375 -0.3142117 -0.102267705 -0.3137472 -0.44970167 0.55918705 0.114907466
0.34527642 -0.1828832 0.12865083 -0.16347903 -0.023249459 0.20769428 -0.18373634 -0.02564597
0.31401262 0.0031669168 -0.22203757 -0.0914168 -0.29897642 -0.4322329 0.14100212 0.31181636
-0.11663691 0.23883936 -0.02620933 -0.054327533 0.06825735 -0.04771678 -0.30244228 -0.6589526
-0.24792863 -0.3151134 -0.07510884 0.0038640043 -0.46078828 0.43626156 -0.012390615 -0.105693676
-0.09066656 -0.4235908 -0.1807275 -0.34515682 0.12126752 0.14242813 -0.21130954 0.23194578
0.6074803 0.015940875 0.048191275 -0.085939325 0.7048029 0.49413943 -0.19043474 -0.16236345
0.010968709 0.07154647 0.49639702 0.3237652 0.53201497 -0.4237564 0.5074474 -0.18834737
-0.007753022 0.086433284 0.40980214 -0.21603876 0.23408732 -0.27757403 -0.4641502 -0.33050877
0.07156603 -0.07839426 0.10051879 -0.12021267 0.090960324 0.029158864 -0.2083264 -0.0053122654
0.16373053 0.36645734 0.092594974 0.20291454 0.2917251 0.02082149 0.16988152 -0.5680105
0.33589786 -0.021822002 0.14086108 0.16059534 0.31717283 0.056284394 -0.44307384 -0.41629583
0.15708846 -0.16409884 -0.06479693 -0.23957717 0.5274112 -0.6265651 0.70753217 0.035717033
-0.5908322 0.08993299 0.059548978 -0.09430739 -0.5395893 -0.23526672 -0.14701383 0.15837298
-0.16338675 0.41045892 0.03771681 0.35597396 0.14083523 -0.798696 -0.145941 -0.39931637
-0.5728928 -0.4547169 -0.29668134 -0.68860525 -0.1585712 -0.0008153763 0.32948813 0.18860172
-0.31534666 0.07795241 -0.15108377 -0.13019668 -0.17759697 -0.13097002 0.33103982 0.57668746
-0.07749113 0.18531178 -0.016505925 0.1185303 -0.1463337 0.32977623 0.19019291 0.9453286
-0.4874402 -0.06548297 -0.18996847 0.015148917 -0.29101983 -0.23032789 0.08752929 0.6943703
-0.118066296 -0.11051478 -0.098415576 -0.27040327 -0.18618123 -0.5843086 -0.41709867 0.22625062
0.34819514 0.069014475 0.30778822 0.38461566 -0.4119156 -0.32277775 0.04882534 -0.10913868
0.57420164 0.8830849 -0.046369694 0.46828234 -0.59600294 -0.35796338 0.047555763 -0.4383492
0.7905245 -0.35480005 0.33595702 -0.29640317 0.2371034 0.35706642 0.037608072 -0.15612906
0.14349124 0.08957977 0.020392688 -0.02626694 0.13726805 -0.018076915 -0.49604762 0.46240103
0.7061415 0.33210972 -0.11266587 0.31798872 0.22754467 0.2402312 -0.4624558 0.39149827
0.38869613 -0.0068405145 0.6124457 -0.065565884 -0.5993748 0.3113888 0.0020256154 -0.18769433

network_body.linear_encoder.seq_layers.2.bias f4 [256]
00000000: 7428 893d 39c3 c03c fa5c bcbd 76be a8bb
00000010: 5c69 ac3b 17d5 7abd f37a e1bd 6b30 dbbd
00000020: 92b5 cdbb 3c18 df3c f722 893d b7bb 9d3d
00000030: c09b d23c e007 99bd 6e98 77bd 2bf6 873d
00000040: 2c6c 56bd 6018 e93d 6ad5 ffbc 7c59 973d
00000050: 2204 cabd dac2 003e eb80 073e fe3e fdbc
00000060: 5688 68bd f56e 983d fc9b 18bd 7935 64bb
00000070: c653 b4bd a5d9 813d 07c3 a23d 05c9 d4ba
00000080: 3fc5 f83d 8ca9 d2bd b522 b8bd eea5 fcbc
00000090: 09cd dfbc 9b97 033d 14f2 19bc 2cd6 25bc
000000a0: 0e59 ed3c b1cc 8fbd 73c7 0cbe da84 3bbd
000000b0: a083 33bd f0b7 4d3d bc37 d7bc 477c c63d
000000c0: 713e d03d dcb0 aebd 1714 c53d 232c a33d
000000d0: e2b3 f93c 94e2 e13c 9c42 26bd 9137 853d
000000e0: 2400 013d 83ab 363d 8061 8d3d e88d b73c
000000f0: 008c 0fbe e7ef 8bbd 8ef9 07be 0464 51bc
00000100: 8597 95bd 7652 c0bd b719 c03d 2407 04be
00000110: 01c3 fbbd 91bc 8e3d 3c42 d93d 6baf 3ebd
00000120: 7187 83bd 222d b93c a963 903d 0b1a 833d
00000130: 7c68 ea3d 8a0a 0bbe 191c e03d 6d55 debd
00000140: 26c3 1fbe f5e8 f83d 999d 9fbd 7344 6ebd
00000150: 3b70 70bd 4673 c4bc 5a40 f73d 2e75 12bd
00000160: 6785 0f3e 815d 88bd 33b1 a83d e556 8cbd
00000170: bbba c33d ca9b 883d 4cae 483d 6adf 5bbd
00000180: c739 073e f2e9 fa3d cf3e dd3d 0e92 263d
00000190: 4068 003e 6f97 b43d d52c e73d 7c80 f0bd
000001a0: 7605 16be e2fe e23d 8fe9 98bc 4092 b53d
000001b0: 95cf 8b3d 7de8 703c ba13 493d 3242 b03d
000001c0: ea68 283c f309 24bd f57b 083e f48a c63d
000001d0: cd1e 8d3d 4cc6 893b 7e54 92bd 8024 413d
000001e0: c204 d63c 8766 95bd 43a2 b2b8 9c76 4fbd
000001f0: 098f d7bd 8df1 093e 4ced 22bd 7b9e 90bd
00000200: 456a 603c ff7e 6dbd 3dd7 043e 0c0f 013d
00000210: b60c 733d e4c4 d33c 1868 97bc 8b6b 973d
00000220: 9629 f1bc cc66 76bd c719 bb3b 9508 05bd
00000230: 7e64 ad3d 718f 08bd 599a 73ba 00cd c2bd
00000240: 9213 37bd 684b 273c f286 b3bd 9fd4 afbc
00000250: adc2 883d ed2f 93bc 979b bbbc 8bb6 71bd
00000260: 3712 a23d c378 b23d dee3 b43d 62f1 7cbd
00000270: b2e9 c7bc 1f04 a73c 040d 913d b724 8d3d
00000280: f52b eabc dd64 063e d630 99bd f05e babc
00000290: 7e65 a13b 8fd3 a4bd b0a2 873d 19b2 6f3d
000002a0: cd7a ab3d f733 0abe ffb9 3cbd ac5b 7d3d
000002b0: 04bd 513c bd0f 8b3d cb18 b53d f761 793d
000002c0: 6271 e23a f596 913d 585e 373b 30bf 81bd
000002d0: d10a b8bd a216 843d 169c 10bc f51f 4e3d
000002e0: 779f 073e be00 a2bd 8ae4 5dbd 9619 e3bd
000002f0: fe2b 243c 711b e63d 31e0 1bbd 536e b8bd
00000300: 438e d2bb 5bce 073e 5488 8c3d a15c f7bd
00000310: bee6 953d 3488 98bd 7b57 d2bd beb0 793d
00000320: 38a3 f8bd 2958 073d f082 6cbc 2695 07be
00000330: 324d b4bd 768f 3bbe 3847 01be 6326 97ba
00000340: fc11 f8bd e194 45bd 19c7 c33d b0ad bf3d
00000350: 933c d93d 1895 eb3d 39e3 d83d 6f52 90bd
00000360: c3d2 94bc 7e87 22bd 3105 b1bd 1dbb 033e
00000370: b7d6 103d 7676 06ba dc62 bcbc f005 ea3d
00000380: 9b62 7f3d 9a1d 8c3d 65a5 9fbd d660 07bd
00000390: 4f97 2cbd 24f4 863d 9089 6a3d fc74 97bd
000003a0: 7012 b5bd eb56 f23d 476e 8b3d f3e9 bc3d
000003b0: 5d3e e7bd 7ac7 8d3d 01e4 69bd 65a1 58bd
000003c0: 48ca c63d 0ac2 c23d 5bb5 d93d d07e d53b
000003d0: 460e d63d cf2d f83d a3e9 00be c907 97bd
000003e0: ffee 04bd 04ee b6bd 9f64 983d a96a e9bd
000003f0: b687 ea3d 8e4b d23d 6730 7d3d 9abd fc3d
0.06697169 0.02353059 -0.09197421 -0.005149658 0.0052615833 -0.061238375 -0.11009779 -0.10702594
-0.0062777484 0.027233236 0.06696122 0.077018194 0.025709033 -0.07472205 -0.060448103 0.0663875
-0.052349254 0.11381602 -0.031229693 0.07390115 -0.098640695 0.1257433 0.13232772 -0.030913826
-0.056770645 0.074430384 -0.037258133 -0.0034821911 -0.08805041 0.063403405 0.07947355 -0.0016234225
0.12146997 -0.10286245 -0.08990995 -0.03084084 -0.027319448 0.032127004 -0.009396095 -0.010121863
0.028973129 -0.07021464 -0.13747959 -0.045780994 -0.0438267 0.050224245 -0.026271693 0.09691673
0.1016816 -0.08529827 0.096229725 0.07967403 0.030481283 0.027573861 -0.040590867 0.06504739
0.031494275 0.04459716 0.06903362 0.022406533 -0.1401825 -0.06832867 -0.13278791 -0.012780193
-0.07304291 -0.09390728 0.09379905 -0.12893349 -0.122930534 0.0696956 0.10608336 -0.04655401
-0.06422318 0.022604529 0.07050259 0.06401452 0.1144571 -0.13578239 0.10942859 -0.108561374
-0.15601787 0.12153808 -0.07793731 -0.058170747 -0.05870078 -0.023980748 0.12072821 -0.035756283
0.14015733 -0.066584595 0.08236923 -0.06852511 0.095571004 0.066703394 0.048994347 -0.05367986
0.13205634 0.12251653 0.108029954 0.040666632 0.12539768 0.08817946 0.11287848 -0.117432564
-0.1465052 0.11083771 -0.018666057 0.088657856 0.068267025 0.014703867 0.04909108 0.08606376
0.01027892 -0.04004855 0.13328536 0.09694472 0.068906404 0.004204547 -0.07145022 0.04715395
0.026125316 -0.07294946 -8.517925e-05 -0.050650224 -0.10525329 0.1347105 -0.039777085 -0.07061478
0.013697212 -0.05798244 0.12972732 0.03150849 0.059338294 0.02585072 -0.018482253 0.07393559
-0.029438775 -0.06015663 0.00570986 -0.032478888 0.08466433 -0.03333992 -0.0009292714 -0.09511757
-0.044696398 0.010210849 -0.08765973 -0.02146369 0.066777565 -0.017967189 -0.02290134 -0.059011977
0.079136305 0.0871444 0.08832525 -0.061753638 -0.024403427 0.020387707 0.07082561 0.068917684
-0.028585413 0.13124414 -0.07480018 -0.022750348 0.004925429 -0.08048164 0.06622827 0.058519457
0.08373032 -0.13496386 -0.046075817 0.061855003 0.0128014125 0.06790111 0.088426195 0.060884442
0.0017276222 0.07108871 0.0027979817 -0.06335294 -0.08986438 0.06449629 -0.008826276 0.050323445
0.13244425 -0.07910298 -0.05417303 -0.110888645 0.010020254 0.11235703 -0.038055602 -0.09005418
-0.0064256503 0.13262312 0.0686194 -0.120782144 0.07319401 -0.07447854 -0.10270592 0.06095957
-0.121405065 0.03304306 -0.014435515 -0.1324049 -0.08803786 -0.18316445 -0.12624824 -0.0011531826
-0.12112805 -0.048237685 0.09559459 0.093593 0.10607257 0.11503047 0.10590214 -0.07046973
-0.018166905 -0.039679997 -0.08643568 0.12864347 0.035361018 -0.00051293464 -0.022996359 0.11426914
0.062349897 0.068415835 -0.077952184 -0.033051334 -0.042136487 0.06589535 0.057260096 -0.0739536
-0.08841407 0.118329845 0.06808143 0.0922431 -0.11291192 0.06922813 -0.057102207 -0.052888293
0.09706551 0.09509666 0.10630294 0.0065153614 0.10451941 0.12118112 -0.12589125 -0.07374532
-0.032454487 -0.08932117 0.07441067 -0.11397297 0.11451666 0.10268317 0.06181374 0.12340851

network_body.linear_encoder.seq_layers.2.weight f4 [256, 256]
00000000: e321 e9bd 8229 c23c 3003 0abd dfc7 26be
00000010: 2552 52bd dcf1 eebd a5b9 103c 29dc 473d
00000020: 77b8 963d e3c2 193d d689 ccbd 7357 d6bd
00000030: 0c7b dfbd cf14 e93b 106d 05be 06ba 39bd
00000040: 00d3 75bd 95f1 eabd 2f19 d43d ff12 523d
00000050: 46ec 0abe c230 803d 16f2 423d ec38 4abd
00000060: 706f cc3d 4938 4f3c f51a 8ebd 9b07 e13c
00000070: 946b fb3d 41ec 20be 01a1 b6bd 3766 143d
00000080: 06cc 21bd c269 3abe 8bcb 4dbc 7a83 89bd
00000090: b5df 01be a861 36be 8b22 17be 7aa1 b53d
000000a0: 8c19 de3d ac09 9fbc b9e3 e4bc 3cf3 4f3d
000000b0: 30e6 77bd b6ee 99bc 8169 6d3d 1d06 49be
000000c0: 11ac b6bd 55c0 083d fc1a 1dbc bec3 0fbc
000000d0: 50eb 463d 478d 85bc 38e8 abbd 1bc5 f6bd
000000e0: bd5c a03d 2574 18be 3d6d 7b3d d9f1 bcbd
000000f0: 9739 f13b f2db 0a3c 3441 fcbd eb72 11bd
00000100: 0455 8c3b c6c0 2e3d b3fa 943c 3084 163d
00000110: d58d ba3d 2b9e 05be 4afc aa3c 8157 86bc
00000120: 8df0 e9bd 0fce f6bb 634a bd3c 8fc3 a7bd
00000130: 220f b83d d970 26be a6a8 7bbe 2bca 2abc
00000140: 75b6 113d 1636 bebb 752c 0b3d fddc 283d
00000150: 1332 853c f6e3 2cbc 7be5 e8bd 5d88 6bbd
00000160: c6ec 8bbd fe39 2b3c 79ed b53b 85e1 ec3d
00000170: 12da 15be f492 f4bb fbac 673d 2c2f 45bd
00000180: 24da deba bad5 dfbc 9890 4cbe 8096 513d
00000190: f10a bebc 8d0b 0abe bab6 9ebd 4027 de3c
000001a0: 27bf 9cbd 2c9c 0dbe 7386 14bd f482 bcbc
000001b0: 0162 eabd f6da 4ebe c013 2cbc 9d18 cc3c
000001c0: 27a4 a73d e6d5 c13d 5be9 ad3c acb4 a3bd
000001d0: e430 9abd 2db6 d3bd 5e99 05be 9699 9fbc
000001e0: a36e a9bd d791 8e3c 0636 15be 82df 81bd
000001f0: abf2 dbbd c5f2 103c 149e d93c 4565 1f3d
00000200: 578f 3abd ee2a 21bc f41d 803d 61eb 1bbc
00000210: cd57 9d3d a6ff ce3d 52bd 0bbd 3247 e6bd
00000220: a877 07be 540d 18be 0811 fabd 9c8c 403d
00000230: bc02 65bd 5a7d 0cbd 047b 15bc 4d95 aabd
00000240: ca5e fcbc e0f7 8dbb 80dd 883d 64e8 f63d
00000250: 2d44 b6bd c7ce 653c 0b0a 4b3c 3e5e 8c3d
00000260: 363a 953c a7e8 18be ecc6 24be b2ff 70bd
00000270: b630 a5bd 748f 973d ddc2 2c3e 4398 4d3d
00000280: c95b c4bd ca01 f53d 3623 30bd 66d4 f4bd
00000290: 3523 a6bd c0a5 02be e063 073d 7e7d 5cbd
000002a0: f92c 29bd 3920 3c3d 3dda f53c e971 3cbd
000002b0: 1085 4bbd 9f9b 313d 2b13 ab3c 7edb 36be
000002c0: ecac 733d 4857 a6bd a444 c03d 72a9 69bd
000002d0: 0499 53bd a7d3 62bd f103 2cbe adea 86be
000002e0: f615 15bd b76a 01bd f15a 8dbd ee31 b6bc
000002f0: b615 c63d 84ec c43d 7bd1 de3c d406 a4bd
00000300: 6bc5 7cbc 3647 b2bd 10a5 32bd 147a 3fbe
00000310: 51f7 e6bc e6c3 9dbd 6f2f cfbd 314c 90bd
00000320: 7787 aa3d 4215 613d a7c8 9b3b 7187 6e3d
00000330: ad0e 253a aa0d 13bd a757 89bc a6b1 96bc
00000340: 102b 3fbe e441 9b3b 9b69 20be ad17 19be
00000350: 81ae 3d3d 18b6 8cbc 1dc0 7ebc c147 933d
00000360: 130f 35bd 6c3f 37bd d35a a73d 9e1d 90bc
00000370: 1ccc d9bd d2bb 4e3d 0164 61bc 4b38 383d
00000380: c2b4 09bd 647e 923c 23a8 a9bc 1cb9 2abc
00000390: 963a 88bd 064a d7bd 87c1 fabc eda3 dd3d
000003a0: fdac 41be 5fc9 033d a0dc 07bc 270c 183e
000003b0: 641c 263c 3cbd eebd e5c6 91bd 61fa e63d
000003c0: a5d3 56bd 9718 bfbc 1f86 01be 277f ebbd
000003d0: 3549 3ebc da32 8b3c bb8e fd3c 3328 a63c
000003e0: 9b36 653c 3fa7 00be d64d 70bc b760 433d
000003f0: 265c 163c de42 d1bd 28a3 a93d b124 85ba
-0.113834165 0.023701433 -0.033694446 -0.16287182 -0.05134787 -0.11667225 0.008833324 0.048793945
0.073594026 0.037539374 -0.099872276 -0.10465898 -0.10912141 0.0071130763 -0.13029885 -0.04534342
-0.06001568 -0.11471859 0.10356366 0.051287647 -0.13566694 0.062593 0.047594152 -0.04937069
0.099821925 0.012647697 -0.069387354 0.027469447 0.12276378 -0.15715124 -0.08917428 0.036230292
-0.039501213 -0.18204406 -0.012560735 -0.0671453 -0.12682994 -0.1781069 -0.14759271 0.0886869
0.108447164 -0.019413792 -0.027940618 0.050769076 -0.06052226 -0.018790584 0.057961944 -0.19631238
-0.08919538 0.033386547 -0.009588953 -0.008774696 0.048564255 -0.016302718 -0.083939016 -0.12049314
0.078301884 -0.14888056 0.061383475 -0.09225816 0.0073616016 0.008475291 -0.12317124 -0.035509985
0.0042825956 0.04266431 0.018185949 0.036747158 0.091090836 -0.13048618 0.020872254 -0.016399147
-0.114228345 -0.0075318883 0.02310676 -0.08191597 0.08987261 -0.16253985 -0.24576053 -0.010424177
0.035574395 -0.0058047874 0.033977944 0.041226376 0.016259229 -0.010552397 -0.11371895 -0.057503093
-0.0683227 0.010450838 0.0055519906 0.11566452 -0.14633968 -0.0074638072 0.05656145 -0.04814069
-0.0017002267 -0.027323592 -0.19977033 0.05116892 -0.023198577 -0.13480969 -0.07749696 0.027118325
-0.07653647 -0.13829106 -0.036261033 -0.023011662 -0.11444474 -0.20200714 -0.010502756 0.02491408
0.081856064 0.09464626 0.021229437 -0.07993445 -0.075288564 -0.10337482 -0.13046786 -0.019482415
-0.082730554 0.017403526 -0.1457139 -0.06341459 -0.107396446 0.008846943 0.026564635 0.038914938
-0.045546856 -0.009836895 0.06255713 -0.009516568 0.07682762 0.10107355 -0.034116097 -0.11244048
-0.13229239 -0.14848834 -0.1221028 0.047009096 -0.05591081 -0.034299232 -0.0091235675 -0.08329258
-0.030806918 -0.0043325275 0.06682873 0.12056044 -0.08899722 0.01402635 0.012392531 0.06853913
0.018216234 -0.149325 -0.16091508 -0.0588376 -0.080659315 0.074004084 0.1687121 0.050194036
-0.09587819 0.11963232 -0.04300233 -0.11954574 -0.08112184 -0.12758541 0.033054233 -0.053830616
-0.041302655 0.045929167 0.03001129 -0.04600707 -0.049687445 0.043361302 0.020883163 -0.17857167
0.059491083 -0.08122116 0.09388092 -0.05704636 -0.0516596 -0.05537763 -0.16798379 -0.26350918
-0.036397897 -0.03159591 -0.06902111 -0.022240605 0.0967211 0.09615424 0.027199497 -0.08009115
-0.0154279275 -0.08704989 -0.043614447 -0.18698913 -0.028194102 -0.0770338 -0.10116469 -0.07045782
0.08326619 0.054951914 0.004754144 0.058234636 0.00062964374 -0.035901703 -0.016765429 -0.018395256
-0.18668771 0.0047380794 -0.15665285 -0.14950438 0.046308998 -0.017176673 -0.015548733 0.0719142
-0.04420383 -0.04473822 0.0817162 -0.017592248 -0.10634634 0.05047209 -0.013756753 0.04497556
-0.03361965 0.017882533 -0.020710057 -0.01042011 -0.066517994 -0.10512166 -0.03060986 0.10822282
-0.18913646 0.032174464 -0.008292347 0.14848386 0.010138605 -0.11657187 -0.07118014 0.11278225
-0.052447934 -0.023327155 -0.1264882 -0.11498862 -0.011614134 0.016992021 0.030951848 0.02028284
0.01399007 -0.125638 -0.014666995 0.047699656 0.009177243 -0.10217832 0.08283073 -0.001015803

network_body.vector_processors.0.normalizer.running_mean f4 [9]
00000000: 65a6 80bd e8fb f93f 0000 0000 d91e 65bd
00000010: cdfb f93f 0000 0000 4ba2 2e3d 0000 0000
00000020: 898d e63d
-0.06281737 1.9530001 0.0 -0.05593762 1.9529969 0.0 0.042635243 0.0
0.112574644
