config/results/FighterUpdated3/My Behavior/My Behavior-17499434.onnx (onnx, 282099 bytes, 8 tensors)

58 f4 [9]
000000 75 ce aa 40 f9 ad d4 3a 62 a9 7a 39 73 d6 ab 40
       5.3377023 0.0016226164 0.00023904958 5.369928
000010 16 d4 d4 3a 62 a9 7a 39 c7 7e 51 3e 62 a9 7a 39
       0.0016237523 0.00023904958 0.20458518 0.00023904958
000020 54 33 a1 3e
       0.31484473

action_model._discrete_distribution.branches.0.bias f4 [6]
000000 66 2b 06 3d e5 30 3c 3d f8 c2 20 bc 89 eb 0f 3d
       0.03275623 0.045945067 -0.009812109 0.035136733
000010 d4 61 8a bd 60 95 b7 bd
       -0.067569405 -0.08964038

action_model._discrete_distribution.branches.0.weight f4 [6, 256]
000000 5c 09 e1 bb 59 8a 7d 3d 40 c2 34 3d 78 44 38 3d
       -0.006867571 0.061899517 0.044130564 0.044987172
000010 fa f5 e0 3c 92 8c 6b 3d a2 6a 2a 3d 5a 63 3a 3c
       0.02746104 0.057507105 0.0416056 0.011376226
000020 50 2e 42 3d 80 40 42 3d 76 6a 25 3d 35 c6 0e 3d
       0.04740745 0.047424793 0.040384732 0.034856994
000030 93 69 b4 3b 61 ef 6d 3d 73 a9 43 3d 0f d5 d4 bc
       0.0055057495 0.058089618 0.04776902 -0.0259805
000040 10 1b be 3c 8e a0 47 bd 8c 02 8e 3d 79 30 98 3c
       0.023206264 -0.0487371 0.069340795 0.018577801
000050 f9 cd 66 3d 76 25 7a 3d 7d 6b dc 3c 73 2b 63 3d
       0.056348775 0.06107088 0.026906723 0.05546136
000060 c0 d9 73 3d 9e 3f bb bc 79 a2 28 3d 2d 7d 80 3d
       0.059533834 -0.022857483 0.04117057 0.062738754
000070 e3 b4 2d 3d 39 3e 53 3d 18 3e 05 bd 57 7c 6c 3d
       0.042408835 0.051573012 -0.03252992 0.057735767
000080 97 fa db 3c b8 60 72 3d 9a 3a 65 3d 91 b9 2a 3d
       0.026852889 0.05917427 0.05596409 0.041680876
000090 e6 72 02 3c 8d 1c 2a 3d ac 12 32 3d 7f 69 1c 3d
       0.007961964 0.041531134 0.04347484 0.038186546
0000a0 e8 44 1e 3d 3c 23 51 3d 49 c5 a6 3c 38 27 d3 3c
       0.038639933 0.051058993 0.020357745 0.025775537
0000b0 0b 71 87 3d dd 43 48 bc 26 53 85 ba 28 94 21 3d
       0.06613358 -0.012223211 -0.0010171875 0.039447933
0000c0 13 f5 07 3d 95 79 3a 3d 6b 6e 27 3d a8 ef de 3c
       0.033192705 0.045526106 0.040876787 0.027213886
0000d0 4c 3c 6a 3c 8f 29 30 3d 96 65 db 3c 56 37 fa 3b
       0.014296602 0.043008383 0.026781838 0.007635991
0000e0 b4 82 27 3d 88 26 8a bd 40 29 c8 3b b8 a0 97 3d
       0.040896133 -0.067456305 0.006108433 0.074037015
0000f0 14 05 e7 3c 6a 30 db 3c 52 e2 58 3c 98 a5 02 3b
       0.028200664 0.026756484 0.013237553 0.0019935127
000100 37 09 73 3d 73 8c 55 3d 60 67 16 3c 82 12 38 3d
       0.05933496 0.052135896 0.00917992 0.044939525
000110 cd 1a 06 3d 61 58 9f bc f0 12 09 3d 20 5c 26 3d
       0.032740403 -0.019451322 0.033465326 0.0406152
000120 90 35 28 3d ca d3 c4 3c e8 14 9c 3c 36 c5 85 3c
       0.041066706 0.02402677 0.019052938 0.016329389
000130 e2 3c 23 3c 34 fb c1 3c ce a4 54 3d 5c eb d2 3c
       0.009963246 0.023679353 0.051914982 0.025746994
000140 32 23 e2 3c 2e 04 72 bc b7 83 2f 3d 4a c9 09 3c
       0.027604673 -0.014771504 0.042850222 0.008409807
000150 67 bf a1 3c 2e 33 0e bd 60 83 dd bc 84 44 d9 3c
       0.019744588 -0.034716778 -0.027040184 0.026521929
000160 54 5c 6e b9 2b 3a 3d 3d 25 26 3e bd ca 9a 55 3d
       -0.00022731844 0.04619805 -0.046423096 0.05214957
000170 06 61 f4 bc d1 33 30 3b 2c 0b 96 b9 2f 90 d7 bc
       -0.02983142 0.0026886354 -0.00028618553 -0.02631387
000180 df 53 7f 3c 8b dc 49 3d 18 73 7b 3d 5c ae 74 3c
       0.015583961 0.04928259 0.06138906 0.014934149
000190 76 8f 59 3d 48 a7 25 3d d2 b2 f7 3c 42 58 16 3d
       0.05311533 0.040442735 0.030236635 0.036705263
0001a0 13 57 f6 3c 68 6d c1 ba 78 26 a7 3c 93 12 15 bd
       0.030070817 -0.0014757337 0.020404086 -0.036394667
0001b0 be 60 ff 3c 98 81 d6 3b 45 f9 08 bc 0f 24 ed bb
       0.03117406 0.0065462105 -0.008360212 -0.0072369645
0001c0 9c 22 9d 3c 02 7f a9 3c cb 4c 61 bc e9 f9 43 3d
       0.019181542 0.020690445 -0.013751219 0.047845755
0001d0 68 de f2 3c bc 25 6d bc 3a bf 34 3d f2 0b 1e 3d
       0.029647067 -0.014474329 0.04412768 0.03858561
0001e0 f9 df 10 bb 13 b9 14 3d cf 18 3f 3c 89 83 5f 3d
       -0.0022106154 0.036309313 0.01166363 0.0545688
0001f0 b7 7a ca 3c 42 87 2d 3d 30 84 12 3d 7a 01 0c 3d
       0.024716718 0.04236532 0.035770595 0.034181096
000200 82 00 38 3d 0c b3 40 3d c5 2e 44 3d 5a 78 05 3d
       0.04492236 0.047045752 0.047896165 0.03258548
000210 fe 17 e9 bb 2b a5 8a bd 7f 8a dd 3c e0 5e 16 3d
       -0.007113456 -0.067697845 0.02704358 0.036711574
000220 00 bb cc 3c 3f 8b e6 3b 50 1c 97 3c b2 88 94 3d
       0.024991512 0.0070356424 0.018446118 0.07252635
000230 f4 30 ba 3c ac 35 35 bd 89 5f 32 bd 65 ba 16 3d
       0.02272842 -0.04424064 -0.04354814 0.036798853
000240 9c c8 cb 3d 04 5d 63 3d 3f 19 38 3d 84 9b 6f 3d
       0.099503726 0.05550863 0.04494595 0.05849792
000250 c8 b2 88 bd 3f e2 85 3d 2b 49 49 3c 9f af 68 3b
       -0.06674725 0.06537294 0.012285511 0.003550507
000260 1b 50 fc 3c 2b 98 56 3d 28 0e fe 3c a0 8f ff 3c
       0.030799916 0.052391212 0.03101261 0.031196415
000270 89 ea 40 3c 95 ba 32 3d 17 ab 81 bb 7c 71 7c 3d
       0.011774668 0.04363497 -0.003957163 0.061631665
000280 93 1c 0a 3d 37 d3 39 3d e2 7a 7d 3d 06 28 23 bd
       0.033718657 0.045367446 0.06188477 -0.03983309
000290 e0 49 87 3d 30 f6 2e bc da ed d8 3c 66 6b 03 3d
       0.066058874 -0.010678813 0.026480604 0.032084845
0002a0 a5 21 e7 3c a3 bb c1 3c 81 29 0b 3c 0d c3 42 3d
       0.028214285 0.023649042 0.008493782 0.047549296
0002b0 a1 e2 e9 3c 5d 28 0f 3d 4f 1e c3 3b 79 30 81 bc
       0.028550448 0.034950603 0.005954541 -0.015770184
0002c0 36 61 77 bd 3b 50 f3 3c 34 da 4a 3c 98 fc 3c 3d
       -0.060395442 0.029701343 0.012381125 0.04613933
0002d0 15 25 0a 3d a4 48 45 3d c0 b9 f7 3c 2b 5e fd bc
       0.03372677 0.04816498 0.03023994 -0.030928692
0002e0 69 62 d0 bb 43 30 5f bd 75 94 f8 3b ec 31 58 3d
       -0.0063593877 -0.054489385 0.007586057 0.052781984
0002f0 17 cf 41 3d ec 86 e5 3a 60 27 d4 3c 90 91 12 3d
       0.047316637 0.0017511523 0.025897682 0.03578335
000300 d1 32 ed 3a 04 c4 aa 3c f3 d4 c3 3c 93 f2 20 3d
       0.001809681 0.02084542 0.023905253 0.039293837
000310 ae a7 99 3d c2 8d 37 3d 79 fc 41 3d 53 83 00 3d
       0.075026855 0.044812925 0.047359917 0.03137524
000320 04 cf 1a bd f1 fc b6 bb e9 67 7d 3d 32 d3 07 3d
       -0.03779508 -0.005584352 0.061866675 0.033160396
000330 e5 6e 6d 3d eb e6 b0 bc aa 92 fb 3c d4 8e 74 3c
       0.057967085 -0.021594485 0.030709583 0.014926631
000340 7d 93 4b 3c 1d 38 ab 3c 1e 02 a6 3c f7 7c a7 3c
       0.012425301 0.02090078 0.020264681 0.02044533
000350 67 76 27 3d da 70 23 3c 3b 11 1c 3d 85 40 63 3d
       0.0408844 0.009975636 0.03810237 0.055481452
000360 01 25 15 3c 8e 24 2b 3a 60 36 c0 bc 6a f5 44 3d
       0.009103061 0.00065285794 -0.023463428 0.048085608
000370 cf 3f 91 3d 6a 5b 33 3d 06 b8 f4 3c 7a 1e f5 3c
       0.07092249 0.04378835 0.029872905 0.029921759
000380 2d 03 3d 3d 3b 85 b9 3c e3 fe 46 3d 67 8b 4b 3d
       0.046145607 0.022646537 0.048582923 0.04969349
000390 e3 1f 7a 3d ab ee 2d 3d f1 63 3e 3c c8 cd 86 3d
       0.061065566 0.04246394 0.011620508 0.065822184
0003a0 c5 c3 56 3d d7 d4 e8 3c 17 70 7d 3d a5 7e f8 3b
       0.052432794 0.028421802 0.061874475 0.0075834566
0003b0 3b 38 e8 3c 69 2c 8e 3c a0 31 59 3d a2 b6 88 3d
       0.028347125 0.01735516 0.05302584 0.066754594
0003c0 7e d2 89 3d 7e 08 cd 3c 19 b6 19 bd e7 88 61 3d
       0.06729601 0.025028463 -0.037527177 0.0550622
0003d0 30 6f 9b bd ff 35 ef ba 89 63 26 3d 23 8e 64 3d
       -0.07589567 -0.0018250345 0.040622268 0.055799615
0003e0 a0 2a d9 3c 8a 99 e4 3c 3b 35 1a 3d b3 4d 11 3d
       0.026509583 0.027905244 0.03764842 0.03547449
0003f0 99 a1 56 3d d1 ba 95 bb 54 42 de 3c ff 70 de bc
       0.052400205 -0.0045693894 0.027131237 -0.02715349

network_body.linear_encoder.seq_layers.0.bias f4 [256]
000000 e7 6d 96 3d 31 69 0b 3e 3a e0 af 3d 70 58 ca 3d
       0.07345181 0.13614346 0.0858769 0.09880149
000010 38 9f c7 bd e7 b5 a4 bd f4 f0 e6 bd 99 f1 b6 3d
       -0.097471654 -0.080425076 -0.11276427 0.089328
000020 99 df b9 3d 7d 5f cf bb 5b 15 69 bd cc 05 94 bd
       0.09075851 -0.0063285218 -0.05690513 -0.07227668
000030 ab 22 07 be 1c 2b c7 3d 25 cb 9f 3d f2 17 a9 3d
       -0.13196819 0.09725019 0.078024186 0.0825652
000040 22 54 af bc 5c ee c9 bd de 12 37 bb d2 7b 83 3d
       -0.021402422 -0.098599166 -0.002793483 0.06420101
000050 91 9e fa 3d 15 22 e6 bd 8a 87 4d bc 71 53 bd 3d
       0.122372754 -0.112369694 -0.012544522 0.09244431
000060 0a bc 1d 3e 79 b5 89 3d 0f eb 8d bd db 16 cf bd
       0.15403762 0.06724066 -0.069295995 -0.10111781
000070 cf 98 52 3d 4f 68 04 3e b6 82 d4 bd 59 39 8a 3d
       0.05141526 0.12930416 -0.10376494 0.067492194
000080 6c 41 e7 bd c0 ed 02 be 1a 2e ba 3b c3 67 f7 bd
       -0.11291775 -0.12786007 0.0056817653 -0.12080338
000090 75 18 c2 bd f5 7c 5e bc 2d a8 7e 3d 8a cc e6 bd
       -0.09477321 -0.013579597 0.062172104 -0.112694815
0000a0 c7 67 cb bd c2 92 94 3d 01 b6 db 3d c4 82 9e 3d
       -0.09931903 0.07254554 0.10728074 0.07739785
0000b0 d8 b0 ce 3d 02 b3 a3 bc b2 2d 1c 3c 47 ab df bd
       0.10092324 -0.019982819 0.009532379 -0.109213404
0000c0 76 4b 99 3a c2 88 6a 3d ae 7e b1 3d d1 97 be 3c
       0.0011695463 0.05725933 0.0866674 0.023265751
0000d0 92 2d 30 3d ea 0d 15 3e 2a 96 80 3d 50 c8 9b 3d
       0.04301221 0.14556089 0.062786415 0.07606566
0000e0 ae 9b 04 3e e9 4f 82 bd 0b 91 fa 3d 56 86 cf bd
       0.12950012 -0.06362898 0.12234696 -0.101330444
0000f0 c6 6a ac bb 2c 94 0e 3d 57 59 eb 3c 9d 1b 64 bc
       -0.005261752 0.034809276 0.028729124 -0.013922599
000100 a9 2f e4 3d 3b f4 a6 3d b9 2a c8 3d 90 62 89 3d
       0.11141903 0.08152052 0.09773774 0.067082524
000110 28 86 e0 3c 21 61 c0 bd 3f 35 06 3d 02 40 77 3d
       0.02740772 -0.09393526 0.032765623 0.060363777
000120 53 39 3f bd 30 41 f4 3c cb e7 e6 3b 14 03 78 3d
       -0.046685528 0.02981624 0.007046675 0.06054981
000130 39 89 e5 bc d0 b2 9e 3d ca 18 c4 bd ba 5c a9 3d
       -0.028019534 0.077489495 -0.09575041 0.08269639
000140 71 34 b5 3d 14 54 71 bd 9f c3 c2 3c b4 68 94 3d
       0.08847893 -0.058918074 0.02377492 0.07246533
000150 75 8c 20 3e 40 62 24 3d 27 d8 b4 bd 47 a3 44 bd
       0.1567858 0.04013276 -0.0883029 -0.048007276
000160 b6 97 2d 3d 85 ff 84 3d f6 65 ed 3d b0 72 84 3d
       0.04238101 0.06494049 0.11591713 0.064671874
000170 f8 34 cd bd d5 7c 84 bd e2 45 46 bd b4 4d b2 bd
       -0.100198686 -0.06469122 -0.04840649 -0.08706227
000180 5a 56 df bd dc b7 6c 3d ba 44 2c bd de 7b 0a 3e
       -0.10905142 0.05779253 -0.04205773 0.13523814
000190 03 a5 9a 3d 3e 01 8a bd b2 8f a0 bd 20 37 c8 3d
       0.07551005 -0.06738518 -0.07839908 0.09776139
0001a0 bb e4 ff bd 70 30 c6 3d 0f ac f1 bd 4b 83 97 3d
       -0.12494799 0.096772075 -0.11800396 0.07398089
0001b0 d0 0e ac 3d 05 23 ba bd 60 63 dd bd 97 ad b2 3d
       0.08401263 -0.09088711 -0.1080997 0.08724516
0001c0 ca cb c6 3d 17 19 0d 3e dd 2b de bc c7 95 e5 bb
       0.097068384 0.13779102 -0.027120525 -0.0070063802
0001d0 24 d8 d8 3d d8 29 d2 bd cb de 2d bd 91 e4 80 3d
       0.105881006 -0.10261887 -0.0424488 0.062935956
0001e0 54 4e c1 3d 5a 11 c2 bc f0 c0 a9 bd 0c 09 09 3e
       0.09438768 -0.023689914 -0.08288753 0.13382357
0001f0 37 12 ef bd cc 50 70 3d 9d 7c 10 3e d1 31 b3 3d
       -0.11673396 0.058670804 0.14110036 0.08749736
000200 b6 20 02 3e be 04 d0 3c ae 97 a7 bd 47 4c ec bd
       0.1270779 0.025392886 -0.081832275 -0.11537986
000210 2f 25 82 3d dc fc 45 3d 8f 7d c1 3d 5f 04 9e bd
       0.063547485 0.04833685 0.094477765 -0.077156775
000220 4d 29 f4 3d 55 00 d7 bd e1 c2 f6 3d 1d 54 f0 3d
       0.1192194 -0.1049811 0.12048889 0.11734793
000230 fc c2 9b 3d 4e 5a b4 3d 6c 62 c3 3d 0b b0 a2 3c
       0.0760555 0.08806287 0.09540257 0.019859334
000240 a9 6d f4 3d 5d 67 41 3d 72 af 4f bc ac 42 d4 3d
       0.119349785 0.047217716 -0.012676107 0.10364279
000250 34 ba e3 bd 54 8c 96 3d ee 70 21 39 21 87 97 3d
       -0.111195 0.07350984 0.00015396226 0.07398821
000260 31 74 e5 3d 1c 77 26 3d 47 2c 0f be 5a b4 c4 bd
       0.112038024 0.040640935 -0.13981734 -0.09604712
000270 fd 0c 83 3d c7 fb 93 3d 39 35 d8 3d ef 28 ba 3d
       0.06398962 0.07225757 0.105570264 0.09089839
000280 50 ba f2 3d 75 0a 03 3e 82 d6 19 3e f7 05 9f 3d
       0.118519425 0.12796958 0.15023234 0.077648096
000290 29 06 c7 3d ea 75 29 bd 1c ba da 3d c5 3a b7 3d
       0.09717972 -0.041372217 0.10680029 0.08946756
0002a0 98 8b d6 3d 6c fa b5 3d 29 5d e3 3d 55 0e a8 3d
       0.10475844 0.08885655 0.11101753 0.082058586
0002b0 bb c9 09 be 1f d4 a8 3d aa a5 9a bd a3 be 27 3d
       -0.1345586 0.08243584 -0.07551129 0.04095329
0002c0 cf ff 09 3e 36 8b 94 bd a6 b0 a6 3d 65 2b f3 3d
       0.1347649 -0.07253115 0.08139162 0.11873511
0002d0 8a 59 c5 3d 8d 54 da 3d 26 ec 9f bd d9 5b fe bd
       0.09636219 0.10660658 -0.078087136 -0.12419862
0002e0 24 91 53 3d ce 8f 7a bd 52 3d dc bd 01 e1 5d 3d
       0.05165209 -0.0611723 -0.107538834 0.05416966
0002f0 4e 0c d1 3d 0f fb 24 bd 5b f0 f0 3d 7b 06 9f 3d
       0.10207425 -0.04027849 0.11764594 0.07764908
000300 d4 97 15 bd b3 67 67 3c 31 3b e5 bd ec 02 d9 bd
       -0.036521748 0.014123845 -0.111929305 -0.105962604
000310 c2 96 87 3d 31 45 d5 bd d8 cf 1e bd 34 70 54 bd
       0.06620552 -0.10413588 -0.038772434 -0.051864818
000320 ad d3 f3 3d fa e4 b1 3d c5 48 fd 3d 0d 34 a1 3d
       0.11905608 0.08686252 0.12367395 0.07871256
000330 28 fd 6e 3d 26 2c 8f 3b 3d 80 65 bd 38 e7 89 3d
       0.058346897 0.0043692766 -0.0560305 0.067335546
000340 05 51 1f 3d 27 47 00 3e 5a 2d ce bd 3f 13 a3 bd
       0.038895626 0.12527142 -0.10067244 -0.07962655
000350 bc 3d 4d 3d e9 e3 87 3d 3c 16 f0 bd 55 b4 95 3d
       0.050107703 0.06635267 -0.11722991 0.07309786
000360 c8 a1 1f 3d 7f c9 30 bd 3a 17 09 3e 39 dc c4 bb
       0.038972646 -0.04316091 0.13387766 -0.006007698
000370 29 a6 43 bd 60 08 0c 3e 63 21 1e bd 3b 5e 6f bd
       -0.047765885 0.1367507 -0.03860606 -0.058439475
000380 76 4b ff bc 35 c9 0f bd 2f 02 48 bd 64 d1 de 3d
       -0.031163912 -0.035103995 -0.048830207 0.10879782
000390 74 4b 0e 3d ee aa f1 3d 65 b7 64 bd d9 a7 65 bd
       0.034739926 0.118001804 -0.05583896 -0.056068275
0003a0 f7 8f 80 3d 74 2f 87 3d 67 6e c1 bd 11 38 ad 3d
       0.06277459 0.06600848 -0.09444886 0.084579594
0003b0 8b c4 9a 3c e7 dd 93 3d f4 b9 79 bd 27 d7 b1 3d
       0.018892547 0.07220059 -0.060968354 0.08683615
0003c0 7c f8 a1 3d 0a eb c5 3d ee 68 88 3d 30 79 0f be
       0.07908723 0.09663971 0.06660639 -0.14011073
0003d0 42 b7 cb 3d c5 c9 9e bc ae 01 5b bd b6 c6 db 3d
       0.09947063 -0.01938332 -0.0534684 0.107312605
0003e0 b4 09 85 bd a8 21 78 bd 98 ee c2 3c 6f ee 0b 3e
       -0.06495991 -0.060578972 0.023795411 0.13665174
0003f0 95 53 f4 3d 3a e8 34 bd 6e 7f d4 3d 6b f7 af 3d
       0.119300045 -0.04416678 0.10375868 0.08592113

network_body.linear_encoder.seq_layers.0.weight f4 [256, 9]
000000 58 c6 bc be 6c bc 84 be f4 10 e1 3e 7e e8 a4 3e
       -0.36870074 -0.25925004 0.43958247 0.32208627
000010 37 07 bd be ff 92 7b 3e d1 76 5c 3e 78 e6 8d 3e
       -0.36919567 0.24567793 0.215297 0.27714896
000020 53 50 22 3d f2 59 5d 3e 49 c5 2f bf f0 2b e0 3c
       0.039627384 0.21616343 -0.6866041 0.027364701
000030 e7 89 31 3e 2c 84 04 3e b6 61 a3 3d e9 e3 1c bf
       0.17337762 0.12941045 0.07977621 -0.61285263
000040 30 13 22 3d ee 23 43 bf 95 06 c6 be 52 bc 83 3e
       0.03956908 -0.762267 -0.38676897 0.25729614
000050 12 75 52 3e e1 e3 21 3e 09 4c d7 3d d8 9f 86 3e
       0.20552471 0.15809585 0.105125494 0.26293826
000060 34 00 5a be 34 a1 b4 bd fd 69 fe bd 28 19 ee be
       -0.2128914 -0.088198096 -0.124225594 -0.46503568
000070 1c a2 fd 3d e8 80 99 3d 5a 40 12 3f 4b 61 d1 3d
       0.123844355 0.0749529 0.5712944 0.10223635
000080 a3 4c 8a be 56 e1 22 3e 50 80 f3 be ed c0 e1 3e
       -0.27011594 0.15906271 -0.47558832 0.44092503
000090 66 9a 44 3f 8a b3 b7 be 3b 87 aa 3e 28 cc 7d be
       0.76798093 -0.35879165 0.33306298 -0.2478491
0000a0 41 c9 5f be 48 c8 b0 3e 4b 75 2a be 38 c6 08 3d
       -0.21854116 0.34527802 -0.16646306 0.03339216
0000b0 a8 21 a4 bd 99 fb 5d 3f 09 9a ff 3d 88 8e 01 3f
       -0.08014232 0.8671203 0.12480552 0.5060811
0000c0 97 5f 95 be 06 87 4a bd 5b e0 a0 be 99 c4 cd bd
       -0.29174492 -0.049445175 -0.3142117 -0.10047264
0000d0 79 a3 a0 be ca 89 e5 be 40 34 0f 3f b7 29 f0 3d
       -0.3137472 -0.44831687 0.559391 0.117267065
0000e0 12 c8 b0 3e 94 c7 39 be 2a 27 06 3e 0c 67 27 be
       0.34527642 -0.1814254 0.13100877 -0.16347903
0000f0 89 d4 b0 bc cf ad 54 3e d0 40 3a be 3f fd de bc
       -0.02158572 0.20769428 -0.18188787 -0.027220367
000100 2d 06 a0 3e 0c 8c 4f 3b 79 a0 61 be 73 37 be bd
       0.31254712 0.0031669168 -0.22033872 -0.0928792
000110 70 13 99 be 25 a5 dd be dc 62 10 3e 96 a4 a1 3e
       -0.29897642 -0.43290058 0.14100212 0.31570882
000120 5d 31 ec bd 1b af 74 3e f3 b4 d6 bc 65 37 63 bd
       -0.11532853 0.23894922 -0.02620933 -0.05547275
000130 bf 0d 8c 3d ac 72 43 bd 2f 74 9b be 1e b1 28 bf
       0.06838559 -0.04771678 -0.3036208 -0.6589526
000140 7e c2 7e be 44 e4 a1 be 7b 78 a0 bd 3c 3b 7d 3b
       -0.2487888 -0.31619465 -0.0783548 0.0038640043
000150 b2 9f eb be 55 b6 dd 3e 02 02 4b bc 35 02 e0 bd
       -0.46020275 0.4330317 -0.012390615 -0.10937921
000160 64 af b9 bd 95 7c da be cd f1 3a be 9c ab b0 be
       -0.09066656 -0.42673174 -0.18256302 -0.34505928
000170 1b 5b f8 3d e3 94 13 3e 2e 44 58 be 32 83 6d 3e
       0.12126752 0.14412265 -0.21119758 0.23194578
000180 bd fb 1a 3f 70 96 82 3c 01 ac 3c 3d 39 6e b4 bd
       0.6054037 0.015940875 0.046062473 -0.08810086
000190 45 1a 34 3f d8 ff fc 3e ac 72 41 be 6f 92 27 be
       0.70352584 0.49413943 -0.188914 -0.16364454
0001a0 1a b6 33 3c 6d 5a 8f 3d c0 27 fe 3e 22 70 a6 3e
       0.010968709 0.06999669 0.49639702 0.32507426
0001b0 ff c7 07 3f 83 8e d8 be 13 e8 01 3f d3 f2 3f be
       0.53039545 -0.42296228 0.5074474 -0.18744974
0001c0 a3 e6 e3 bb ef 03 b1 3d a9 8d d1 3e 44 39 5d be
       -0.0069549843 0.086433284 0.4092839 -0.21603876
0001d0 31 a6 70 3e c9 0c 8d be 51 a8 ed be 72 38 a9 be
       0.23500897 -0.27548817 -0.46417478 -0.33050877
0001e0 b3 b1 8e 3d cb 99 a0 bd cc dc cd 3d a3 f4 f3 bd
       0.06967487 -0.07841834 0.10051879 -0.11911895
0001f0 68 49 ba 3d b0 36 fa 3c e7 f9 51 be 5c de 0c bb
       0.090960324 0.030543655 -0.20505486 -0.0021494841
000200 fa a8 27 3e 38 6d ba 3e 6b 0b c4 3d d4 c8 4f 3e
       0.16373053 0.36411452 0.0957249 0.20291454
000210 45 53 98 3e d4 91 aa 3c da 30 36 3e 81 54 10 bf
       0.2975103 0.02082149 0.17792073 -0.5637894
000220 e5 5f ac 3e 0e c4 b2 bc da 03 0c 3e 16 3d 25 3e
       0.33666912 -0.021822002 0.13673344 0.16136584
000230 7a 64 a2 3e 89 fe 75 3d 93 da e2 be a3 c2 d5 be
       0.31717283 0.060057197 -0.44307384 -0.4175006
000240 91 42 23 3e 97 65 27 be 41 b4 84 bd 7b 5c 78 be
       0.15943362 -0.16347347 -0.06479693 -0.24254028
000250 5f 31 07 3f 92 66 20 bf 3c ca 33 3f 06 4c 12 3d
       0.5280971 -0.6265651 0.7023046 0.035717033
000260 fa dc 17 bf 8a 5c b4 3d 3c a7 72 3d 3c 24 c1 bd
       -0.5932156 0.08806713 0.05924152 -0.09430739
000270 4a d2 09 bf b5 3e 71 be cb 8a 16 be 69 30 21 3e
       -0.538365 -0.23559077 -0.14701383 0.15741123
000280 db 4e 27 be 98 e2 d2 3e 56 bd 19 3d c6 3c b6 3e
       -0.16338675 0.41188502 0.03753408 0.3559324
000290 1c 37 10 3e dc 5d 4c bf 93 7d 15 be 32 73 cc be
       0.14083523 -0.7983072 -0.14598684 -0.39931637
0002a0 8e 94 12 bf a7 d0 e8 be 93 0c 98 be f5 c9 2e bf
       -0.57257926 -0.4547169 -0.29697093 -0.6827691
0002b0 d1 8a 20 be fa be 55 ba 08 d7 a5 3e a9 ef 42 3e
       -0.15677954 -0.0008153763 0.32390618 0.19036736
0002c0 1e 75 a1 be 49 d0 ac 3d b4 b5 1a be 7f 84 05 be
       -0.31534666 0.08438165 -0.15108377 -0.13038824
0002d0 16 10 31 be 73 21 02 be 0d 7e a9 3e db 8a 12 3f
       -0.17291293 -0.12708072 0.33103982 0.57243127
0002e0 f6 be 96 bd 5f c2 3d 3e 9b 92 0d bc 04 c0 f2 3d
       -0.07360642 0.18531178 -0.0086409105 0.1185303
0002f0 c5 d9 14 be 39 90 a8 3e d5 f8 42 3e 0e 01 72 3f
       -0.14536197 0.32922533 0.19040234 0.9453286
000300 24 49 f9 be 65 b1 85 bd 18 87 42 be 8f fa 75 3c
       -0.48688614 -0.06527976 -0.18996847 0.015013351
000310 8d 00 95 be 66 85 6b be a9 55 b8 3d 40 e6 31 3f
       -0.29101983 -0.23000106 0.090007134 0.6949196
000320 be cc f1 bd 14 87 e5 bd 69 53 c8 bd 4c 72 8a be
       -0.118066296 -0.11207405 -0.09781534 -0.27040327
000330 37 c2 3f be 40 95 15 bf 76 08 d6 be 03 8c 6a 3e
       -0.18726431 -0.5843086 -0.4180333 0.22904973
000340 53 21 b3 3e 76 57 8d 3d de 7d 9c 3e bd c5 c5 3e
       0.34986362 0.069014475 0.3056478 0.38627425
000350 9a e6 d2 be d5 aa a4 be 14 fd 47 3d 8d f9 db bd
       -0.4119156 -0.32161584 0.04882534 -0.107409574
000360 f5 42 13 3f 5e 5f 62 3f 26 ee 3d bd bb ab ef 3e
       0.57524043 0.8842677 -0.046369694 0.46810707
000370 d1 47 18 bf fa 46 b7 be 71 48 4e 3d 4e 6f e0 be
       -0.59484583 -0.35796338 0.050362054 -0.4383492
000380 85 46 4c 3f b1 79 b4 be 5a 27 ac 3e 28 c2 97 be
       0.79795104 -0.35249093 0.33623773 -0.29640317
000390 15 6f 70 3e fa f4 b6 3e ec 0a 1a 3d 8c ac 1c be
       0.23479874 0.35733777 0.037608072 -0.15300196
0003a0 5e ef 12 3e 2c c7 bd 3d 8a 6d 9c 3c 4f 24 d3 bc
       0.14349124 0.09266505 0.019095201 -0.02577415
0003b0 ff 8f 0c 3e 3a bf 8c bc af b7 fd be d4 bf ec 3e
       0.13726805 -0.017181028 -0.49554202 0.46240103
0003c0 87 4e 34 3f 49 0a aa 3e 70 6a e7 bd 03 50 a2 3e
       0.70432323 0.33210972 -0.11299598 0.3170167
0003d0 5d fa 68 3e 2b ff 75 3e a6 53 ec be a8 6d c8 3e
       0.22751756 0.2402312 -0.4615757 0.3914616
0003e0 2e 03 c7 3e 9f d7 db bb 3e c9 1c 3f 02 86 85 bd
       0.38869613 -0.0067090536 0.6124457 -0.065197006
0003f0 05 ed 19 bf 52 4e 9e 3e 30 c0 04 3b a9 7f 3e be
       -0.6012729 0.3091913 0.0020256154 -0.18603386

network_body.linear_encoder.seq_layers.2.bias f4 [256]
000000 cc 34 89 3d 7c a3 cf 3c ef 22 bb bd ba df 56 bb
       0.06699523 0.02534651 -0.091375224 -0.003278716
000010 21 0d 91 3b c4 f6 71 bd ce 96 df bd c5 5e dd bd
       0.004426614 -0.059073225 -0.109174356 -0.108090915
000020 ae 47 8d bb 1b f5 e3 3c 55 41 8b 3d 8d 09 95 3d
       -0.0043115234 0.027826836 0.067995705 0.07277212
000030 cb 22 06 3d 91 a3 9c bd 63 a0 77 bd 1c d3 8f 3d
       0.032748025 -0.07648385 -0.06045569 0.07022688
000040 b7 7d 67 bd 7f 66 e8 3d 8b 87 ee bc 17 d3 a4 3d
       -0.056516375 0.113476746 -0.029117366 0.08048075
000050 54 37 c8 bd 5f 41 fa 3d 6f 67 06 3e 45 70 0f bd
       -0.09776178 0.122195 0.13125394 -0.035019178
000060 dd 0a 72 bd 41 86 9a 3d 78 a3 11 bd 1d 59 4d ba
       -0.05909239 0.07545138 -0.035556287 -0.00078334083
000070 82 53 bd bd ca cc 72 3d 9c 75 a2 3d ff fc 80 bb
       -0.092444435 0.059277333 0.079325885 -0.0039364095
000080 78 67 f9 3d 20 2b d7 bd 8e b2 ba bd a3 d9 0e bd
       0.12177938 -0.10506272 -0.09116088 -0.034875523
000090 fc 19 eb bc 00 02 04 3d 6e fd 00 bc b0 aa 0d bc
       -0.028698914 0.03222847 -0.007872922 -0.008646652
0000a0 c8 fc 03 3d 58 1d 8e bd e1 68 0e be 3c 8c 31 bd
       0.032223493 -0.069391906 -0.13907196 -0.04334663
0000b0 85 ed 2c bd 0c 97 5d 3d 5f a7 e3 bc 07 20 c0 3d
       -0.042218704 0.054099128 -0.02778977 0.09381109
0000c0 45 98 d6 3d fd 0c ae bd 2d 29 ca 3d ad c9 aa 3d
       0.10478262 -0.08498571 0.09871135 0.08339248
0000d0 95 16 f8 3c d7 a0 e3 3c f3 e1 39 bd 9b 3d 82 3d
       0.030284205 0.027786655 -0.045381498 0.063594066
0000e0 74 d4 0d 3d 1e be 3c 3d 25 14 88 3d e6 4c c3 3c
       0.03462644 0.046079747 0.06644467 0.023840379
0000f0 0a c1 11 be 47 43 8b bd 01 72 09 be c3 4c 12 bc
       -0.14233795 -0.067999415 -0.13422395 -0.008929434
000100 47 01 95 bd 10 59 c4 bd 20 6d bc 3d f8 ae 05 be
       -0.07275634 -0.095873 0.092005014 -0.13055027
000110 6e 94 ff bd db 34 8f 3d 2e 11 df 3d 21 7a 35 bd
       -0.124794826 0.06992503 0.10891949 -0.044305924
000120 df d6 80 bd 31 19 a1 3c 0c bf 98 3d ac c0 85 3d
       -0.062909834 0.019665333 0.07458314 0.0653089
000130 76 94 e8 3d e6 04 0d be 86 40 e2 3d 48 38 e1 bd
       0.11356442 -0.137714 0.11047463 -0.10997063
000140 e4 92 1f be 0f 46 f8 3d 7c ab 9d bd 13 25 60 bd
       -0.15583378 0.121227376 -0.07698724 -0.054722857
000150 bd a3 66 bd b7 4a bc bc e1 ad f6 3d 03 96 07 bd
       -0.056308497 -0.022984846 0.120448835 -0.033102047
000160 4f e0 0b 3e bf 77 86 bd 74 12 aa 3d 3c 6e 8b bd
       0.13659786 -0.065658085 0.08304301 -0.06808135
000170 f9 f5 c6 3d d3 c9 83 3d 2c 0e 57 3d c4 a4 42 bd
       0.09714884 0.06434979 0.05250375 -0.047520414
000180 1f 0a 07 3e 5a 59 f8 3d 6a 51 d8 3d a8 38 40 3d
       0.13187455 0.121264175 0.105624035 0.04692903
000190 2a 4b fd 3d 79 8d ab 3d 7f f1 e5 3d dc b6 f2 bd
       0.12367852 0.08376593 0.11227702 -0.11851284
0001a0 39 59 16 be b9 0a e8 3d 5a cf 97 bc 6a c6 bb 3d
       -0.14682473 0.1133017 -0.01853149 0.09168704
0001b0 e8 f6 8c 3d 25 8d 3a 3c 3a 48 59 3d d0 12 b9 3d
       0.06883031 0.011386191 0.053047396 0.09036791
0001c0 02 db 08 3c e3 be 11 bd 64 0b 06 3e 5f 7e c0 3d
       0.008352997 -0.035582434 0.13090283 0.093991034
0001d0 53 0b 93 3d 7a b3 23 3c 0f 9f 91 bd 97 86 49 3d
       0.07179894 0.009991521 -0.07110416 0.04920062
0001e0 02 e5 bf 3c 63 22 a1 bd 3c 2f 65 3b 21 ac 4b bd
       0.02342463 -0.07867887 0.003497078 -0.0497247
0001f0 6e f0 e4 bd 54 c7 08 3e d3 09 3c bd 8f 0a 8f bd
       -0.11178671 0.13357288 -0.045907807 -0.06984436
000200 66 93 79 3c 7c ac 68 bd 2c 33 02 3e dc bc 0f 3d
       0.015232896 -0.05680512 0.12714833 0.03509222
000210 02 2b 80 3d 5f 69 e0 3c 4e ad 73 bc 64 9d 9e 3d
       0.06258203 0.027393995 -0.014872862 0.07744864
000220 f6 65 f2 bc 64 f1 7d bd ef 5d d6 3b f2 b3 01 bd
       -0.029589634 -0.061997786 0.0065419595 -0.03166575
000230 8a 58 ae 3d db 99 d6 bc 19 1b e9 b8 99 93 c5 bd
       0.08512981 -0.02619641 -0.00011115353 -0.09647293
000240 3b 37 33 bd 79 dd 07 3c 91 0f b3 bd 22 88 a5 bc
       -0.043753844 0.008292549 -0.087432034 -0.020206515
000250 4f c6 89 3d 93 cf 80 bc b7 e0 d6 bc 94 62 66 bd
       0.067272775 -0.01572398 -0.0262302 -0.056246355
000260 c7 d0 a9 3d 9a 0d aa 3d 4f ef b2 3d 1f 62 88 bd
       0.08291774 0.083033755 0.08737051 -0.0665934
000270 b8 f9 db bc 1b 37 b6 3c 47 62 94 3d 27 f9 8e 3d
       -0.026852474 0.022243073 0.072453074 0.06981116
000280 dc 65 da bc a6 12 04 3e a2 f3 9e bd c2 9b a7 bc
       -0.026659898 0.12897739 -0.07761313 -0.020460013
000290 1d f2 2d 3b 5c 92 a6 bd c0 82 90 3d ad cd 7f 3d
       0.0026542016 -0.081333846 0.070561886 0.062452007
0002a0 a6 26 b1 3d f9 b1 0a be 7f 6d 2c bd 5a 2f 81 3d
       0.0864995 -0.13544454 -0.04209661 0.0630786
0002b0 bf b8 6c 3c 53 6c 90 3d 3b a4 bb 3d c1 6d 77 3d
       0.014448344 0.07051911 0.09162184 0.060407404
0002c0 3f 28 89 3b 50 e7 93 3d 66 c7 c4 3a ff 47 80 bd
       0.004185706 0.07221854 0.0015013039 -0.06263732
0002d0 61 d4 b9 bd 98 8f 87 3d a0 f2 33 bc 8b 60 5e 3d
       -0.09073711 0.06619185 -0.010983139 0.05429129
0002e0 84 7b 06 3e ac 03 9e bd f8 d7 64 bd 3b 83 e6 bd
       0.13133055 -0.07715544 -0.055870026 -0.11255499
0002f0 f1 c7 33 3c f7 9e df 3d cc 2b 15 bd 0e e1 b8 bd
       0.010972963 0.10918992 -0.03641872 -0.09027301
000300 73 72 e2 bb f5 61 07 3e 8a ed 8b 3d 78 fe fb bd
       -0.006910616 0.13220961 0.06832416 -0.123043954
000310 b3 27 8b 3d d1 dc 96 bd c0 3a d5 bd 68 88 6c 3d
       0.067946814 -0.07366336 -0.10411596 0.057747275
000320 9e 50 f1 bd ff 26 20 3d f3 5d 5c bc d7 61 09 be
       -0.11782955 0.03909969 -0.013450134 -0.13416229
000330 b4 e6 b0 bd f3 e6 40 be 5a ab 03 be 08 23 63 ba
       -0.08637753 -0.188381 -0.12858334 -0.0008664583
000340 13 ad f4 bd 27 d6 34 bd 88 49 c7 3d bc 82 be 3d
       -0.11947074 -0.044149544 0.09730822 0.09302279
000350 27 82 df 3d 2e cc e8 3d 1c 09 dc 3d e2 6c 8d bd
       0.109134965 0.11367069 0.10743925 -0.069055334
000360 7b ac a2 bc 93 8c 0b bd 31 f4 a3 bd 24 9c 01 3e
       -0.019857636 -0.03406961 -0.0800556 0.12657219
000370 a4 26 07 3d 58 b4 d3 3a 2b a0 a2 bc c8 fd eb 3d
       0.032995835 0.0016151769 -0.019851765 0.11523014
000380 f3 b4 80 3d fd 87 96 3d 22 1a 9d bd 8a 99 01 bd
       0.06284513 0.073501565 -0.07671 -0.031640567
000390 34 46 27 bd e5 01 89 3d 51 38 6d 3d 6e af 94 bd
       -0.040838435 0.066898145 0.057915036 -0.07260023
0003a0 fe d0 b7 bd ac 26 f5 3d 0e 1f 85 3d 00 b8 bf 3d
       -0.08975409 0.11970267 0.06500064 0.09361267
0003b0 e5 de ec bd de 39 87 3d 68 0e 67 bd a8 6c 66 bd
       -0.11565951 0.06602834 -0.056410223 -0.056255966
0003c0 d0 53 c0 3d 6f 1e cb 3d 3e 8f d8 3d 9c db 06 3c
       0.09390986 0.09917914 0.10574196 0.00823107
0003d0 83 44 d8 3d 5a 53 f2 3d 7f be 02 be fd 62 9d bd
       0.105599426 0.11832304 -0.12767981 -0.07684896
0003e0 c3 24 e9 bc 51 d9 b4 bd 84 47 9d 3d d2 5c e8 bd
       -0.028459912 -0.08830512 0.07679656 -0.11345829
0003f0 eb cb e5 3d fc c6 d3 3d de db 81 3d ba f4 fa 3d
       0.11220535 0.10340688 0.063407645 0.12253709

network_body.linear_encoder.seq_layers.2.weight f4 [256, 256]
000000 8d 09 e9 bd 3c 4f c4 3c ae 3c 0a bd f0 d2 26 be
       -0.11378775 0.023963563 -0.033749275 -0.16291404
000010 55 bc 52 bd 1a 16 ef bd 96 56 0e 3c 26 83 46 3d
       -0.05144914 -0.116741374 0.008687636 0.048464917
000020 1c 02 97 3d e1 12 18 3d 1f af cc bd c8 b1 d7 bd
       0.07373449 0.03712738 -0.09994339 -0.10531956
000030 32 36 e0 bd 19 dc e2 3b 32 64 05 be 8d 50 3a bd
       -0.10947837 0.0069232103 -0.13026503 -0.045486975
000040 c7 59 77 bd b2 11 ec bd 94 97 d3 3d ce ee 51 3d
       -0.060388353 -0.115268126 0.103316456 0.051253133
000050 0a 55 0a be 67 26 7f 3d e5 85 43 3d 8a 5d 43 bd
       -0.13509002 0.062292483 0.047735114 -0.047696628
000060 6d 7c cb 3d 12 8d 4f 3c 3d 7c 8e bd 0d 34 de 3c
       0.09935842 0.012667911 -0.0695729 0.02712443
000070 58 83 fa 3d 0e 4f 20 be c9 cb b9 bd 8e a2 11 3d
       0.12232083 -0.15655157 -0.09072072 0.035555415
000080 d9 aa 22 bd f4 cb 3a be 48 db 3e bc 8c 65 8a bd
       -0.039713714 -0.18241864 -0.01164896 -0.0675765
000090 1d 24 02 be 25 d8 36 be be 64 18 be b5 09 b5 3d
       -0.12709089 -0.1785589 -0.1488218 0.08839742
0000a0 9a b2 dd 3d 6c 8c 9f bc f0 26 df bc 44 1e 4b 3d
       0.10825081 -0.019476138 -0.027240247 0.04958941
0000b0 b9 f9 77 bd 7d 26 9a bc 04 66 6d 3d d3 59 49 be
       -0.06054089 -0.01881718 0.057958618 -0.19663171
0000c0 d9 d4 b3 bd e9 a0 07 3d 18 ab 21 bc 13 b2 15 bc
       -0.08780832 0.03311244 -0.009867452 -0.0091366945
0000d0 7f bc 46 3d f9 2d 84 bc 3a 66 a8 bd bd 5b f6 bd
       0.048519608 -0.016135203 -0.08222623 -0.120292164
0000e0 73 64 a1 3d 41 fa 17 be 76 f6 7c 3d 0e 51 be bd
       0.07880487 -0.14841558 0.06175848 -0.09292804
0000f0 ed 5b 2a 3c 32 2c 03 3c 63 0c 00 be 07 c0 13 bd
       0.010397893 0.008006142 -0.12504725 -0.036071803
000100 e0 23 9c 3b 44 d5 2d 3d 8d b3 92 3c 07 2b 16 3d
       0.004765019 0.042439714 0.017907882 0.036662128
000110 ca 8e bb 3d dc fa 05 be 8f dd aa 3c 62 e3 87 bc
       0.09158094 -0.13083977 0.0208576 -0.016587917
000120 53 49 ea bd 37 c0 ea bb 4f bb bb 3c 1f 96 a2 bd
       -0.11439767 -0.007164027 0.022916464 -0.079387896
000130 12 20 b7 3d 65 88 26 be 4a 09 7c be ad 0f 28 bc
       0.08941664 -0.16262968 -0.24612918 -0.010257644
000140 2b 00 0f 3d d3 10 b4 bb 16 29 0a 3d d2 e8 17 3d
       0.03491227 -0.0054951697 0.03373059 0.03708727
000150 16 6a 88 3c fc 82 2e bc f3 c3 e9 bd 88 ef 6c bd
       0.016652148 -0.010651346 -0.114143275 -0.057845622
000160 4c cc 8a bd e2 5c 1f 3c d6 9e b3 3b fb f1 ec 3d
       -0.06777248 0.009726735 0.005481581 0.115695916
000170 d0 0a 16 be ad 11 0a bc 12 a5 66 3d 93 cb 45 bd
       -0.14652562 -0.008427066 0.056309767 -0.048289847
000180 8f 1a 25 bb e8 b1 d0 bc d6 e5 4c be 45 52 4e 3d
       -0.0025192832 -0.025475457 -0.2000955 0.050371427
000190 9d c5 bf bc 88 50 0a be 97 52 9f bd 89 ae dd 3c
       -0.023409659 -0.13507283 -0.07779425 0.027060764
0001a0 4c 6b 9d bd 7b e2 0d be ea c4 15 bd 63 97 c0 bc
       -0.07686481 -0.13855927 -0.036564745 -0.023509687
0001b0 6e f8 e9 bd 1a 5a 4f be 43 46 32 bc e6 16 ca 3c
       -0.11424337 -0.20249215 -0.0108810095 0.024669122
0001c0 aa 10 a8 3d 4d c5 c2 3d a1 34 af 3c e7 38 a2 bd
       0.082063034 0.095102884 0.0213874 -0.079210095
0001d0 6f 03 9a bd e3 16 d4 bd ae a1 05 be f3 d8 b7 bc
       -0.07520186 -0.10355928 -0.13049957 -0.022442317
0001e0 35 6c a9 bd 6e 36 7e 3c 32 ed 15 be 93 a1 81 bd
       -0.08272592 0.015515907 -0.14641264 -0.06329646
0001f0 e0 57 dc bd 6c e0 01 3c 60 2b da 3c c1 b2 1f 3d
       -0.10758948 0.0079270415 0.026632011 0.038988832
000200 ef f7 38 bd 24 1d 1e bc c9 a2 7e 3d 94 5b 1e bc
       -0.045158323 -0.009650502 0.062166963 -0.009665389
000210 39 a9 9c 3d 95 54 ce 3d 2d 6d 09 bd f5 04 e7 bd
       0.07649464 0.100747265 -0.033551384 -0.11280242
000220 40 f3 06 be e5 19 18 be c9 ad f9 bd e8 a6 41 3d
       -0.1317873 -0.14853628 -0.1219135 0.047278315
000230 49 46 68 bd 43 20 0f bd 62 57 18 bc c2 11 ab bd
       -0.056707654 -0.034942877 -0.009298177 -0.083529964
000240 36 84 fd bc de ab 4d bb bb 2b 88 3d ba 5f f7 3d
       -0.030946832 -0.0031382958 0.06648966 0.12078805
000250 5c 9a b6 bd b6 7d 4f 3c d6 51 4a 3c 0c ee 8e 3d
       -0.089161605 0.012664249 0.012348613 0.069789976
000260 49 a4 94 3c 7a 37 18 be 2f 46 25 be 5b 4b 71 bd
       0.018144744 -0.14864913 -0.16140054 -0.058909755
000270 dc b9 a6 bd a0 22 96 3d bc ea 2c 3e 4b 08 4d 3d
       -0.081409186 0.07330823 0.16886419 0.050056737
000280 96 48 c3 bd 6f 79 f5 3d e3 74 2e bd 22 64 f6 bd
       -0.09535329 0.11986052 -0.04259194 -0.120308176
000290 af ca a5 bd 2c c5 01 be 95 81 07 3d 76 dc 5e bd
       -0.080952995 -0.12672871 0.033082563 -0.054409467
0002a0 42 25 27 bd b4 7d 3b 3d fe b9 f0 3c e0 c8 3f bd
       -0.040807016 0.045774177 0.029385563 -0.04682243
0002b0 fa ee 4c bd be 3d 31 3d 60 31 a8 3c 7f 90 36 be
       -0.050032593 0.043271773 0.020531356 -0.17828558
0002c0 7a 7d 75 3d 08 d0 a6 bd 54 6f c0 3d 1b 22 6a bd
       0.059934117 -0.081451476 0.09396234 -0.05716143
0002d0 1c 28 4c bd 93 de 63 bd ac 27 2c be a3 07 87 be
       -0.04984294 -0.055632185 -0.16812009 -0.26373014
0002e0 89 17 16 bd f1 8e 03 bd 24 fd 8d bd 92 0f bc bc
       -0.03664354 -0.03211874 -0.06933048 -0.022956643
0002f0 a8 00 c6 3d 81 22 c4 3d 2f 59 e2 3c f1 20 a2 bd
       0.09668094 0.095768936 0.027630417 -0.07916439
000300 bf 76 7e bc 69 0e b4 bd d0 c0 33 bd 70 cf 3f be
       -0.015531241 -0.08791811 -0.043885052 -0.18731475
000310 34 7a e1 bc 74 60 9d bd 7a a1 cf bd 8e 1a 91 bd
       -0.027524091 -0.076844126 -0.10138221 -0.07085143
000320 fa 3e a9 3d 39 b2 5f 3d 88 e1 9f 3b a1 9c 6d 3d
       0.08263965 0.054613326 0.0048791803 0.0580107
000330 1f 89 c9 b9 3e 28 13 bd 09 42 87 bc 98 f3 90 bc
       -0.0003843987 -0.03592705 -0.01651098 -0.01769428
000340 ef ff 3e be b0 f5 a0 3b dc 99 20 be 8e 0b 19 be
       -0.18652318 0.0049121007 -0.15683693 -0.14945814
000350 c9 8e 43 3d ae b6 8d bc 6b 43 83 bc 74 3a 92 3d
       0.047743592 -0.017299023 -0.016023358 0.07140055
000360 b9 52 36 bd ba 65 34 bd 58 30 a7 3d 1c 82 90 bc
       -0.044512484 -0.044042327 0.08163518 -0.017640166
000370 25 31 db bd 4a 86 4e 3d 94 77 67 bc 7f a5 2d 3d
       -0.10702733 0.050421037 -0.014127631 0.042394157
000380 55 90 09 bd 59 4f 8e 3c 16 d4 ae bc 47 a3 2e bc
       -0.03358491 0.01737182 -0.021341365 -0.010659046
000390 2c ab 8a bd d8 27 d7 bd d1 51 fc bc d2 44 db 3d
       -0.0677093 -0.105056465 -0.030800732 0.10706486
0003a0 d4 53 41 be 21 79 01 3d ab 7a 0b bc 3a 85 17 3e
       -0.18879634 0.03160966 -0.008513133 0.14796916
0003b0 56 10 11 3c ec 31 ee bd 2a 0d 91 bd 2c 51 e6 3d
       0.008853992 -0.116306156 -0.07082589 0.11245951
0003c0 87 51 53 bd 27 f8 bf bc a0 5a 02 be 86 53 ec bd
       -0.051591422 -0.023433758 -0.12729883 -0.11539368
0003d0 8e c6 3f bc 0b 75 87 3c 75 d1 fb 3c a6 ac a6 3c
       -0.011705054 0.016535303 0.030739525 0.020345997
0003e0 9e ad 65 3c a8 83 00 be 96 45 70 bc 12 24 46 3d
       0.014018444 -0.12550223 -0.014665028 0.048374243
0003f0 a0 c0 11 3c 3c a8 d1 bd 3d 1e aa 3d bd 9f 3e ba
       0.008896023 -0.10237166 0.08306549 -0.00072717277

network_body.vector_processors.0.normalizer.running_mean f4 [9]
000000 2a 1f 9d bd e8 fb f9 3f 00 00 00 00 85 2b c6 bd
       -0.0767196 1.9530001 0.0 -0.096762694
000010 cd fb f9 3f 00 00 00 00 33 49 33 3d 00 00 00 00
       1.9529969 0.0 0.04377098 0.0
000020 23 82 e4 3d
       0.11157634
