config/results/FighterUpdated3/My Behavior/My Behavior-16999335.onnx (onnx, 282099 bytes, 8 tensors)

58 f4 [9]
000000 cb ef a8 40 cf 1e d6 3a 6f 52 7e 39 ea 0b aa 40
       5.2792716 0.0016336086 0.00024254037 5.3139544
000010 c8 45 d6 3a 6f 52 7e 39 95 3e 54 3e 6f 52 7e 39
       0.0016347701 0.00024254037 0.20726998 0.00024254037
000020 bb b4 a0 3e
       0.31387886

action_model._discrete_distribution.branches.0.bias f4 [6]
000000 90 a1 ff 3c 29 48 48 3d f3 fb 04 bc 0d 4e 00 3d
       0.031204969 0.048896942 -0.00811671 0.031324435
000010 be f6 8b bd 1f 95 b5 bd
       -0.06834172 -0.08866333

action_model._discrete_distribution.branches.0.weight f4 [6, 256]
000000 4f 83 b1 bb e3 53 85 3d be 13 41 3d 09 b3 43 3d
       -0.0054172645 0.06510141 0.04713797 0.047778163
000010 3b 99 ee 3c a9 f8 81 3d 51 99 32 3d ee 4c 3a 3c
       0.0291258 0.06346256 0.043603245 0.0113708805
000020 79 60 4f 3d 6c 90 3b 3d c4 94 24 3d 1c c1 0f 3d
       0.050629113 0.04579203 0.040180936 0.035096273
000030 1e 00 d0 3b 86 2a 72 3d 2b 6b 4c 3d 39 1a d4 bc
       0.00634767 0.059122585 0.04990689 -0.02589141
000040 0d 4b bc 3c b9 81 4a bd 88 12 97 3d 35 42 9b 3c
       0.022985006 -0.04944012 0.073765814 0.018952468
000050 bc 43 70 3d 55 2e 6f 3d d0 32 cf 3c 0a 76 64 3d
       0.058658347 0.058393795 0.025292784 0.055776633
000060 f1 78 77 3d 16 c4 b6 bc e2 86 34 3d aa b0 8a 3d
       0.060418073 -0.022310298 0.044073947 0.06771977
000070 c5 a2 2d 3d 77 66 47 3d ee 4e 09 bd 08 79 70 3d
       0.042391557 0.048681702 -0.03352254 0.058709174
000080 a4 98 cc 3c 9f 70 73 3d 8c fb 67 3d 92 c4 2a 3d
       0.024975128 0.059433576 0.05663638 0.04169137
000090 32 0f 0c 3c ca 1e 23 3d 87 ef 3f 3d 37 a2 10 3d
       0.008548545 0.039824285 0.04685929 0.03531095
0000a0 59 f4 16 3d 42 ed 5a 3d 99 58 a7 3c bc ba fd 3c
       0.03685412 0.053448923 0.020427989 0.030972831
0000b0 1a 23 8e 3d 22 69 40 bc 55 47 bd ba 3c 8c 17 3d
       0.06940289 -0.011743816 -0.0014440814 0.036998972
0000c0 61 fb ec 3c fc 45 44 3d a9 84 1a 3d 13 34 c3 3c
       0.02892846 0.047918305 0.03772417 0.023828542
0000d0 55 8d 51 3c d7 e8 24 3d 95 7e d9 3c a8 0f 22 3c
       0.012790044 0.040261116 0.026549617 0.009891428
0000e0 d5 63 20 3d 83 0f 8d bd ae 69 ae 3b 32 85 9d 3d
       0.039157707 -0.06887724 0.0053226566 0.076914206
0000f0 22 ce e6 3c 2e ff f1 3c 18 b9 57 3c 7f 6b 4e bb
       0.028174464 0.029540624 0.013166688 -0.0031497178
000100 bd 0d 7c 3d fb 01 56 3d fb 6f 2b 3c 14 0d 39 3d
       0.06153654 0.052247982 0.01046371 0.045178488
000110 06 55 06 3d cd 64 98 bc 0e 0a f5 3c 33 9f 39 3d
       0.03279593 -0.018602753 0.029912021 0.04531784
000120 35 29 34 3d 2c 41 ba 3c 3e e0 a2 3c 58 eb 69 3c
       0.04398461 0.022736154 0.019882318 0.014277302
000130 8d be 1e 3c e4 a7 c5 3c 9a bd 44 3d f4 ce d3 3c
       0.0096889855 0.024127908 0.04803238 0.025855519
000140 a0 7e e4 3c 78 c5 79 bc 01 e5 3b 3d 56 fb 46 3b
       0.02789241 -0.015244834 0.045872692 0.003036221
000150 79 d3 83 3c 19 3a 19 bd 02 c5 e0 bc f7 8e f3 3c
       0.016092049 -0.037408922 -0.02743769 0.029731257
000160 3a e4 c7 39 ac 03 49 3d a2 4b 42 bd 82 48 5d 3d
       0.0003812628 0.049075767 -0.04743541 0.054024227
000170 d3 d2 f8 bc e4 dc 10 3b 09 23 4e 3b 85 e5 f8 bc
       -0.030373966 0.0022104317 0.0031453988 -0.030382881
000180 0e 2a 71 3c 96 41 40 3d 98 4e 70 3d c0 04 74 3c
       0.014719499 0.046937548 0.058668703 0.014893711
000190 66 85 4f 3d 39 8b 1a 3d 0f dc e3 3c a0 6a 16 3d
       0.050664328 0.03773043 0.027814893 0.03672278
0001a0 b5 c1 f6 3c 9c ed 1d bb 4a ef 9f 3c 6e ab 1b bd
       0.030121664 -0.0024097925 0.019523282 -0.038005285
0001b0 81 72 e9 3c 2d 05 d5 3b 6e 8c fa bb b9 33 c7 bb
       0.028496983 0.006500861 -0.007646135 -0.006079164
0001c0 46 bc 97 3c 6a f6 8c 3c 0a 68 60 bc b2 87 38 3d
       0.018522393 0.017207343 -0.01369668 0.045051284
0001d0 24 89 d5 3c 24 4d 46 bc f0 28 3d 3d af 23 2b 3d
       0.02606637 -0.012103353 0.04618162 0.041782077
0001e0 18 9b 14 bb ef 69 13 3d 5a 79 db 3b 11 28 6c 3d
       -0.002267545 0.035989698 0.006697816 0.057655398
0001f0 4b 0a c5 3c 28 a8 23 3d b2 6c 10 3d 42 53 16 3d
       0.02405276 0.03995529 0.03525991 0.036700495
000200 b9 e8 41 3d 58 46 4e 3d b8 08 39 3d 42 be e9 3c
       0.047341082 0.050360054 0.04517433 0.028533105
000210 39 73 ba bb bd 83 8f bd 4f 7f bc 3c 98 55 10 3d
       -0.005690005 -0.07007549 0.023009924 0.03523788
000220 16 11 b2 3c 0e 5a e5 3b bb f1 a7 3c e3 00 9b 3d
       0.021736663 0.0069992607 0.020501008 0.075685285
000230 14 61 ce 3c d5 40 35 bd 6b b6 38 bd b5 15 1e 3d
       0.025192775 -0.04425128 -0.045095842 0.03859492
000240 2c 26 d5 3d 35 52 59 3d 2c 22 3f 3d 8f 38 78 3d
       0.10407671 0.053056914 0.04666345 0.060600813
000250 74 9a 8a bd 0e 07 8e 3d c9 6d 4c 3c d4 2f af ba
       -0.06767741 0.06934939 0.012477347 -0.0013365694
000260 a7 79 dd 3c f8 39 4b 3d 92 7e ee 3c 76 62 fb 3c
       0.027035547 0.04961583 0.029113088 0.030686598
000270 2d f0 42 3c 58 22 22 3d 5f 13 4d bb 4f c0 76 3d
       0.011898083 0.039583534 -0.0031292064 0.060241994
000280 60 ef 16 3d 2e a1 2f 3d 18 e4 7e 3d a0 98 39 bd
       0.03684938 0.042878322 0.062229246 -0.04531157
000290 38 bf 89 3d 9a ac 45 bc ac 9e be 3c 20 d9 f8 3c
       0.06725925 -0.012065077 0.02326902 0.03037697
0002a0 a9 f5 cc 3c 1d 98 c4 3c 4e 7c 9b 3b b8 38 38 3d
       0.025019484 0.023998315 0.004745043 0.044975966
0002b0 4e d1 fc 3c 58 5d 00 3d b3 f2 ba 3b e0 11 78 bc
       0.030861523 0.03133902 0.0057052015 -0.0151409805
0002c0 2e 6d 81 bd 0f 33 de 3c 14 ef 50 3c 86 6e 48 3d
       -0.063196525 0.027123956 0.012752313 0.04893353
0002d0 b5 aa 12 3d 61 8e 3e 3d ca c7 f9 3c 71 2f 03 bd
       0.03580733 0.0465225 0.030490775 -0.032027666
0002e0 83 50 c5 bb d2 a2 5a bd e2 a5 01 3c f2 fa 58 3d
       -0.0060215606 -0.053377934 0.007913085 0.052973695
0002f0 da ba 49 3d 76 4b 1d 3b da 42 bb 3c d2 d2 1a 3d
       0.04925046 0.0024001277 0.022859026 0.03779871
000300 45 f5 6a 3b b3 13 a9 3c 4a 31 cf 3c 96 1c 21 3d
       0.0035851758 0.020639276 0.025292058 0.039333902
000310 de 59 94 3d f6 55 41 3d 6b 62 45 3d 2e 05 f4 3c
       0.07243703 0.04720112 0.04818956 0.029787626
000320 c1 dc 15 bd 0f 75 6f bb 65 bc 82 3d 46 e0 07 3d
       -0.03658748 -0.0036538278 0.0638359 0.03317287
000330 2d 2c 80 3d ec 28 b1 bc 61 9a fb 3c 22 a1 68 3c
       0.06258426 -0.021625958 0.030713262 0.014198573
000340 50 1d 64 3c fa fe 8d 3c 97 32 91 3c f0 15 a3 3c
       0.013923004 0.017333496 0.017724318 0.019907922
000350 f4 df 1b 3d ef af 1b 3c fc 21 10 3d ad 72 73 3d
       0.038055375 0.009502395 0.03518866 0.059435535
000360 6a ef 2d 3c 98 64 2b 3b f6 d3 c5 bc eb fa 39 3d
       0.010616163 0.0026152488 -0.024148922 0.04540531
000370 a5 94 8b 3d 3f 05 26 3d 25 e3 da 3c 56 9a dc 3c
       0.06815461 0.040532347 0.02671964 0.026929062
000380 09 da 44 3d a0 8d ac 3c 26 89 52 3d 1c ea 54 3d
       0.048059497 0.021063626 0.051400326 0.051981077
000390 17 46 82 3d b5 cf 27 3d 59 7a 63 3c 2f ad 8d 3d
       0.06361025 0.04096957 0.01388415 0.06917798
0003a0 93 97 5b 3d b9 05 d1 3c 30 c7 72 3d f8 45 e9 3b
       0.05361135 0.025515424 0.05927199 0.0071189366
0003b0 f2 8d e5 3c a2 4e 8c 3c 62 8d 61 3d 51 0d 89 3d
       0.028021786 0.017127339 0.055066474 0.06691993
0003c0 42 a8 85 3d f0 25 c9 3c ec 98 1c bd 39 ee 6d 3d
       0.06526233 0.024554223 -0.038231775 0.058088515
0003d0 03 db 9d bd be 5e c2 ba b7 70 27 3d fd d6 64 3d
       -0.07707789 -0.0014829261 0.040878978 0.05586909
0003e0 17 a7 bc 3c f9 f1 cc 3c d0 1f 2c 3d be 06 1c 3d
       0.023028893 0.025017725 0.042022526 0.038092367
0003f0 af 9c 4b 3d 37 89 87 bb 6a a4 d9 3c ed fa e0 bc
       0.049709972 -0.0041362303 0.026567657 -0.0274634

network_body.linear_encoder.seq_layers.0.bias f4 [256]
000000 e4 d8 89 3d 91 bb 0c 3e dd 4f aa 3d 03 c9 c0 3d
       0.06730822 0.13743426 0.08316014 0.0941334
000010 d2 d0 bf bd 6f a7 9e bd f4 04 e0 bd ea 45 c3 3d
       -0.09366001 -0.07746779 -0.10938445 0.095348194
000020 ec 8a bc 3d 86 24 d3 bb d6 40 77 bd 06 f8 95 bd
       0.09206185 -0.006443563 -0.060364567 -0.07322697
000030 77 b7 07 be 95 4e c4 3d 48 47 90 3d 02 b0 a1 3d
       -0.1325358 0.09585301 0.07044846 0.07894899
000040 9c fc 9a bc 07 ae c9 bd f5 74 a7 39 15 ef 6e 3d
       -0.018919282 -0.09847646 0.00031939862 0.058333475
000050 18 1a f0 3d df bc e3 bd b0 32 1e bc 45 b7 be 3d
       0.11723727 -0.11120009 -0.0096556395 0.093123
000060 8a 4c 1c 3e 09 1c 7f 3d aa 40 93 bd ba 61 cc bd
       0.15263572 0.062282596 -0.07190068 -0.09979577
000070 be f2 52 3d 3f 7d 01 3e bc b2 d9 bd e8 98 84 3d
       0.05150103 0.12645434 -0.10629794 0.06474477
000080 d6 5e e3 bd b3 36 04 be a7 e0 a1 3b 88 d6 f6 bd
       -0.11102073 -0.12911491 0.0049401107 -0.12052637
000090 31 ab bd bd d5 9e 5d bc 2c d4 7d 3d 8a 97 e1 bd
       -0.09261168 -0.013526638 0.06196992 -0.11015232
0000a0 0b 90 c1 bd bd ae 8e 3d 44 94 d6 3d 93 25 9c 3d
       -0.09451302 0.069669224 0.10477498 0.07624354
0000b0 7b aa c7 3d ec 5b c2 bc 8c 95 52 3c 2c 18 dc bd
       0.097493134 -0.023725472 0.012853038 -0.10746798
0000c0 42 74 39 3b 81 a0 5d 3d 64 61 ae 3d 54 a9 b9 3c
       0.0028298055 0.054108147 0.085146695 0.02266375
0000d0 10 10 45 3d a0 d2 14 3e e5 4e 80 3d 73 25 92 3d
       0.04811102 0.14533472 0.06265048 0.07136049
0000e0 76 8c 05 3e 5c 47 91 bd f2 34 fd 3d 89 8a d0 bd
       0.13041863 -0.07093689 0.12363614 -0.101826735
0000f0 5e f1 8f bb 06 b3 1a 3d cb f1 e3 3c 51 4c 4a bc
       -0.004392787 0.037768386 0.027825257 -0.012347297
000100 0b 8c e7 3d ef 71 a8 3d ec 2f c0 3d 6d 46 8d 3d
       0.11306008 0.08224856 0.0938414 0.06898198
000110 aa 47 d6 3c f7 80 bf bd 88 15 15 3d aa f2 6b 3d
       0.026157219 -0.0935077 0.036397487 0.05760447
000120 ab 4f 4c bd 1b 00 f1 3c a5 07 33 3c 4c fa 79 3d
       -0.049880665 0.029418996 0.010927116 0.061029717
000130 58 ed ee bc 09 db 93 3d 5c ec c7 bd d0 78 9e 3d
       -0.029165909 0.07219512 -0.09761879 0.07737887
000140 22 77 b5 3d df ae 83 bd fb d7 df 3c e9 86 92 3d
       0.088606134 -0.064298384 0.027324667 0.07154638
000150 f1 f8 1f 3e 95 3d 2e 3d f4 53 b5 bd f5 63 45 bd
       0.15622307 0.042539198 -0.088539034 -0.04819103
000160 b7 34 26 3d ac 6f 80 3d b2 3b f0 3d 2e 8d 88 3d
       0.040577617 0.062713 0.11730136 0.06667553
000170 e5 e8 c9 bd bf ae 86 bd ac a5 40 bd 6d 90 af bd
       -0.09858874 -0.06576299 -0.047032997 -0.08572469
000180 e3 7c e0 bd 30 52 70 3d e7 9a 30 bd f6 de 08 3e
       -0.1096132 0.05867213 -0.043116476 0.13366303
000190 9f 00 a2 3d 6b 2c 86 bd fa 39 98 bd 4c 73 c1 3d
       0.07910275 -0.06551441 -0.07432933 0.09445819
0001a0 04 ba fb bd fa ea bf 3d 65 a6 ee bd d4 68 9c 3d
       -0.12291339 0.0937099 -0.11652831 0.07637182
0001b0 36 f3 aa 3d 09 16 bb bd 77 71 d8 bd c2 30 ad 3d
       0.0834717 -0.09135062 -0.10568517 0.084565654
0001c0 e7 47 ca 3d a0 34 0e 3e 38 22 cf bc 17 75 c0 bb
       0.098769955 0.13887262 -0.025284871 -0.005873333
0001d0 7d a8 d5 3d 6b af cc bd 30 7c 30 bd b3 91 7b 3d
       0.10432527 -0.09994396 -0.043087184 0.061418246
0001e0 0c 7b b7 3d 11 75 c2 bc 01 0b ac bd 72 30 05 3e
       0.08959016 -0.023737462 -0.08400536 0.13006762
0001f0 f2 24 f3 bd 10 ec 6e 3d e2 f1 12 3e 06 49 b0 3d
       -0.11872281 0.058330595 0.14350083 0.08607678
000200 3b 30 03 3e 6e 41 d4 3c 75 75 a6 bd 6e 9f e4 bd
       0.12811367 0.025910106 -0.08127872 -0.11163221
000210 2d 03 86 3d b0 da 4b 3d de 37 bb 3d 06 77 a0 bd
       0.065435745 0.049769104 0.09141515 -0.07835202
000220 78 ea f5 3d 81 cf d6 bd e2 de e6 3d df 34 f2 3d
       0.12007612 -0.10488797 0.1127298 0.118264906
000230 4d 25 a4 3d ca 73 ae 3d d9 2e c2 3d d8 2f 6b 3c
       0.08014927 0.08518179 0.09481592 0.014354669
000240 57 6f f5 3d 0a 21 44 3d 59 7b f9 bb 77 63 d8 3d
       0.11984127 0.04788307 -0.007613581 0.105658464
000250 91 5d e5 bd ae 17 96 3d f4 25 aa 3b 97 42 99 3d
       -0.11199487 0.07328735 0.0051925126 0.07483404
000260 ef 71 e3 3d 60 78 11 3d a2 7d 0f be 38 06 c5 bd
       0.111057155 0.03551519 -0.14012769 -0.09620327
000270 a8 1f 74 3d 58 a7 97 3d 9a c2 d8 3d 4d f2 bf 3d
       0.059600502 0.07404965 0.10583992 0.09372387
000280 dd 15 ea 3d d3 96 03 3e d8 7b 1a 3e 9c 54 9a 3d
       0.11429951 0.12850504 0.15086305 0.07535669
000290 04 2b bb 3d 35 ff 2b bd d4 22 db 3d 5f 43 b6 3d
       0.09139064 -0.04199143 0.10700002 0.08899569
0002a0 09 a9 d9 3d ff b5 af 3d 8f f3 e5 3d d4 af a1 3d
       0.10627944 0.08579635 0.11228096 0.07894865
0002b0 58 d8 08 be 5b d9 ac 3d 5c 8a 97 bd 70 ee 0b 3d
       -0.13363779 0.08439895 -0.07399437 0.03416294
0002c0 fc a5 0a 3e c7 4c 98 bd e0 aa a7 3d c1 2e ec 3d
       0.1353988 -0.07436519 0.08186889 0.11532355
0002d0 fc 8e c6 3d cd 1b d8 3d eb 05 9d bd c0 bd fb bd
       0.09695241 0.105521776 -0.076671444 -0.12292051
0002e0 55 9b 42 3d ef fc 7b bd 68 37 d8 bd fe 36 5a 3d
       0.047511417 -0.061520513 -0.10557443 0.0532751
0002f0 1d 1c d7 3d 25 75 22 bd a9 26 f3 3d 4a a2 9a 3d
       0.10503409 -0.0396625 0.11872608 0.075504854
000300 0f f0 01 bd 2d 68 5c 3c 95 cd e2 bd 98 aa d7 bd
       -0.03172308 0.013452572 -0.11074368 -0.10530585
000310 8d 54 7b 3d 6a 06 d4 bd 61 21 2f bd 01 e1 5b bd
       0.06135993 -0.10352786 -0.042756442 -0.053681377
000320 61 60 f3 3d f4 19 b5 3d 9a 27 00 3e d8 7b a1 3d
       0.11883617 0.08842841 0.12515107 0.078849494
000330 5a 1e 66 3d c5 88 14 ba b4 35 7c bd 84 4b 89 3d
       0.05618129 -0.0005666132 -0.061574653 0.067038566
000340 82 7d 07 3d 48 05 03 3e ba 7c d0 bd 46 cd a1 bd
       0.033078678 0.12794983 -0.1018004 -0.07900481
000350 ff 1d 4d 3d 69 32 7d 3d 6d 80 ef bd f5 eb 99 3d
       0.050077435 0.061815653 -0.11694417 0.07515708
000360 f0 13 28 3d df 22 3b bd 84 8c 0a 3e f4 98 2b bb
       0.04103464 -0.045687553 0.13530165 -0.0026183696
000370 3b fd 40 bd de c1 0c 3e 43 ce 20 bd dc 9a 72 bd
       -0.0471165 0.1374583 -0.039259207 -0.059229717
000380 9e d8 0e bd ee b3 16 bd 51 c7 46 bd 96 64 dc 3d
       -0.03487455 -0.036792688 -0.048529927 0.10761373
000390 cd 7b 08 3d df aa e6 3d 32 4e 4b bd a7 52 6c bd
       0.03332119 0.1126306 -0.04963512 -0.05769601
0003a0 62 86 66 3d 7f da 82 3d e9 39 c6 bd fc 1c af 3d
       0.0562805 0.06389331 -0.09679014 0.0855045
0003b0 8a 8a 8e 3c 92 e8 86 3d 6f 99 79 bd 0d 33 ac 3d
       0.017400045 0.06587328 -0.06093734 0.08408175
0003c0 10 e4 96 3d 62 5b bf 3d 91 6a 84 3d 72 b9 0e be
       0.07367718 0.09343602 0.064656384 -0.1393793
0003d0 c0 ed cc 3d 2b 73 93 bc 9d 45 47 bd bd 88 de 3d
       0.10006285 -0.017999252 -0.048650373 0.108659245
0003e0 ee 38 91 bd 15 84 8e bd cd 1a df 3c fc 45 0b 3e
       -0.070909366 -0.069587864 0.02723446 0.13600916
0003f0 e8 1b f5 3d fb 0a 42 bd 9a 0c d9 3d e1 97 a3 3d
       0.11968213 -0.047373753 0.10598107 0.07987953

network_body.linear_encoder.seq_layers.0.weight f4 [256, 9]
000000 35 5e bc be 36 8c 81 be f4 10 e1 3e a5 26 a6 3e
       -0.36790624 -0.25302285 0.43958247 0.32451358
000010 6b d7 b9 be ff 92 7b 3e 35 8b 5f 3e 78 e6 8d 3e
       -0.36297163 0.24567793 0.21830447 0.27714896
000020 6e 00 35 3d ca b4 5c 3e 62 1f 30 bf f0 2b e0 3c
       0.044189863 0.2155334 -0.68797886 0.027364701
000030 35 a7 31 3e 32 1b 03 3e b6 61 a3 3d 33 30 1d bf
       0.1734894 0.12803343 0.07977621 -0.6140167
000040 30 13 22 3d e5 73 43 bf b9 42 c8 be e4 0b 84 3e
       0.03956908 -0.76348716 -0.39113405 0.25790322
000050 12 75 52 3e 58 e2 27 3e 7a 7c d8 3d d8 9f 86 3e
       0.20552471 0.16394937 0.10570617 0.26293826
000060 52 5b 58 be 34 a1 b4 bd 69 84 f3 bd ae 11 ed be
       -0.21128586 -0.088198096 -0.118904896 -0.4630255
000070 bc fd 00 3e e8 80 99 3d d4 63 12 3f 19 98 d5 3d
       0.12596792 0.0749529 0.57183576 0.10429401
000080 a3 4c 8a be de 35 23 3e 50 80 f3 be 8e 89 e4 3e
       -0.27011594 0.15938517 -0.47558832 0.44636196
000090 18 3e 45 3f 73 b3 b9 be 3b 87 aa 3e 18 36 80 be
       0.7704787 -0.3626972 0.33306298 -0.2504127
0000a0 91 c9 63 be 48 c8 b0 3e cc 10 2d be 38 c6 08 3d
       -0.2224486 0.34527802 -0.16900939 0.03339216
0000b0 2f f7 a9 bd 35 40 5e 3f 88 06 fb 3d 88 8e 01 3f
       -0.082991 0.8681672 0.12257105 0.5060811
0000c0 40 1d 96 be 80 8b 53 bd 5b e0 a0 be 60 9b d1 bd
       -0.2931919 -0.05164671 -0.3142117 -0.102347136
0000d0 79 a3 a0 be 28 90 e6 be 94 32 10 3f 1e 87 eb 3d
       -0.3137472 -0.45031857 0.56327176 0.11500381
0000e0 12 c8 b0 3e 5e ba 3c be 9d e2 03 3e 0c 67 27 be
       0.34527642 -0.18430468 0.12879415 -0.16347903
0000f0 fa 24 c2 bc cf ad 54 3e 26 53 3d be 9c 0a d7 bc
       -0.023699272 0.20769428 -0.1848875 -0.026250176
000100 c2 5e 9f 3e 0c 8c 4f 3b 88 aa 64 be a0 99 c0 bd
       0.31126982 0.0031669168 -0.22330678 -0.09404302
000110 70 13 99 be 09 cb e0 be dc 62 10 3e b9 7f a0 3e
       -0.29897642 -0.43904904 0.14100212 0.31347445
000120 a6 27 ee bd f1 50 74 3e f3 b4 d6 bc 2d 87 60 bd
       -0.11628656 0.23859002 -0.02620933 -0.054816414
000130 bd 58 8b 3d ac 72 43 bd b9 1d 9c be 1e b1 28 bf
       0.06804035 -0.04771678 -0.30491427 -0.6589526
000140 ab 17 80 be 0c 7b a1 be ee 4d 9f bd 3c 3b 7d 3b
       -0.25018057 -0.3153919 -0.07778536 0.0038640043
000150 bb 1c ec be 9b 02 de 3e 02 02 4b bc 01 09 df bd
       -0.4611567 0.43361363 -0.012390615 -0.10890389
000160 64 af b9 bd a7 90 da be 10 db 3a be 40 e0 ae be
       -0.09066656 -0.42688486 -0.18247628 -0.34155464
000170 1b 5b f8 3d 45 7a 15 3e ce ae 54 be 32 83 6d 3e
       0.12126752 0.14597423 -0.20769808 0.23194578
000180 bb 1f 1c 3f 70 96 82 3c 26 29 58 3d fd e0 b3 bd
       0.60985917 0.015940875 0.052773617 -0.087831475
000190 e6 48 34 3f d8 ff fc 3e b1 ae 41 be 40 da 26 be
       0.70423734 0.49413943 -0.18914296 -0.16294193
0001a0 1a b6 33 3c 11 18 94 3d c0 27 fe 3e 14 e6 a6 3e
       0.010968709 0.07231153 0.49639702 0.3259741
0001b0 eb f7 07 3f a9 37 d8 be 13 e8 01 3f 37 04 40 be
       0.5311267 -0.42229965 0.5074474 -0.18751608
0001c0 27 16 ce bb ef 03 b1 3d d6 73 d2 3e 44 39 5d be
       -0.006289262 0.086433284 0.41104 -0.21603876
0001d0 80 6d 70 3e 29 e1 8e be 02 f6 ec be 72 38 a9 be
       0.23479271 -0.2790616 -0.4628144 -0.33050877
0001e0 60 ea 97 3d 47 d2 9d bd cc dc cd 3d 21 aa f3 bd
       0.0741775 -0.07706123 0.10051879 -0.11897684
0001f0 68 49 ba 3d d9 d9 0f 3d 8d d3 4e be 83 da 5e 3b
       0.090960324 0.035119865 -0.20197888 0.0034004755
000200 fa a8 27 3e fe 26 ba 3e 38 36 cf 3d d4 c8 4f 3e
       0.16373053 0.36357874 0.10117763 0.20291454
000210 11 54 9a 3e d4 91 aa 3c 12 f5 38 3e 03 3e 11 bf
       0.30142263 0.02082149 0.18062237 -0.5673525
000220 13 a3 ac 3e 0e c4 b2 bc 93 90 11 3e 30 bd 25 3e
       0.33718166 -0.021822002 0.14215307 0.1618545
000230 7a 64 a2 3e 67 69 74 3d 93 da e2 be 53 53 d3 be
       0.31717283 0.059670832 -0.44307384 -0.4127451
000240 80 2f 25 3e 71 61 27 be 41 b4 84 bd 7e 63 7b be
       0.16131401 -0.16345765 -0.06479693 -0.24549672
000250 53 36 07 3f 92 66 20 bf 5f fb 33 3f 06 4c 12 3d
       0.5281727 -0.6265651 0.70305437 0.035717033
000260 4f 1c 18 bf ee 40 b5 3d 2d b8 73 3d 3c 24 c1 bd
       -0.59418195 0.08850275 0.059501816 -0.09430739
000270 d9 0e 0a bf a6 f6 70 be cb 8a 16 be d5 3a 22 3e
       -0.53928906 -0.23531589 -0.14701383 0.15842755
000280 db 4e 27 be d1 0a d2 3e 1c 09 23 3d 74 43 b5 3e
       -0.16338675 0.41023877 0.03980361 0.35403025
000290 1c 37 10 3e 28 6d 4d bf b3 63 17 be 32 73 cc be
       0.14083523 -0.80244684 -0.14784126 -0.39931637
0002a0 f6 68 13 bf a7 d0 e8 be 14 32 99 be 17 cf 2e bf
       -0.5758203 -0.4547169 -0.2992102 -0.68284744
0002b0 40 59 1d be fa be 55 ba c6 b7 a8 3e 47 06 46 3e
       -0.15366077 -0.0008153763 0.32952708 0.19338332
0002c0 1e 75 a1 be f5 b8 ad 3d b4 b5 1a be d4 9f fe bd
       -0.31534666 0.084825434 -0.15108377 -0.124328285
0002d0 69 36 32 be 0c 5c fa bd 0d 7e a9 3e d3 44 13 3f
       -0.17403568 -0.12224588 0.33103982 0.5752689
0002e0 ed e0 8c bd 5f c2 3d 3e e4 d3 18 bc 04 c0 f2 3d
       -0.06878839 0.18531178 -0.009327862 0.1185303
0002f0 5e 5f 10 be fc 18 a9 3e 24 4e 42 3e 0e 01 72 3f
       -0.1409888 0.33026874 0.18975121 0.9453286
000300 97 f4 f9 be 49 ff 86 bd 18 87 42 be 76 58 6c 3c
       -0.4881942 -0.065916605 -0.18996847 0.014425388
000310 8d 00 95 be 32 47 6c be f8 ac b9 3d 07 5d 31 3f
       -0.29101983 -0.23074034 0.09066194 0.69282573
000320 be cc f1 bd 07 a6 e8 bd 7a 8a cc bd 4c 72 8a be
       -0.118066296 -0.11359792 -0.0998735 -0.27040327
000330 d7 ab 42 be 40 95 15 bf 1e 84 d7 be 3f 67 6a 3e
       -0.19010864 -0.5843086 -0.42092985 0.22890948
000340 94 f4 b2 3e 76 57 8d 3d 0c 54 9c 3e 0d 9a c5 3e
       0.34952223 0.069014475 0.30532873 0.38594094
000350 9a e6 d2 be 6a fb a4 be 14 fd 47 3d 53 d0 df bd
       -0.4119156 -0.32223064 0.04882534 -0.109284066
000360 d8 d2 13 3f a5 a5 62 3f 26 ee 3d bd f1 49 ee 3e
       0.577436 0.88534003 -0.046369694 0.46540788
000370 5a 02 18 bf fa 46 b7 be 35 d1 52 3d 4e 6f e0 be
       -0.5937859 -0.35796338 0.051469047 -0.4383492
000380 97 f3 4a 3f e4 82 b6 be df bf ac 3e 28 c2 97 be
       0.7927794 -0.35646737 0.33740136 -0.29640317
000390 93 c6 79 3e d0 88 b7 3e ec 0a 1a 3d 42 de 19 be
       0.24392156 0.35846567 0.037608072 -0.15026191
0003a0 5e ef 12 3e 3b 25 d0 3d b1 ec 9f 3c 62 8f bd bc
       0.14349124 0.10163351 0.019522043 -0.02313966
0003b0 ff 8f 0c 3e e2 cf 89 bc 05 5f fc be d4 bf ec 3e
       0.13726805 -0.016822759 -0.49291244 0.46240103
0003c0 af 59 35 3f 49 0a aa 3e f2 1b e3 bd 41 ec a2 3e
       0.7083997 0.33210972 -0.110893145 0.31820872
0003d0 23 b7 68 3e 2b ff 75 3e 7d 07 ed be 89 4e c8 3e
       0.22726111 0.2402312 -0.46294776 0.39122418
0003e0 2e 03 c7 3e 79 92 f8 bb 3e c9 1c 3f 26 32 88 bd
       0.38869613 -0.0075858203 0.6124457 -0.0665019
0003f0 2f 9a 1a bf ad 24 9e 3e 30 c0 04 3b c4 43 3b be
       -0.60391515 0.30887356 0.0020256154 -0.1828757

network_body.linear_encoder.seq_layers.2.bias f4 [256]
000000 21 d5 8d 3d 1a 50 d9 3c 8a 1b b5 bd 2a 74 07 bb
       0.06925417 0.026527453 -0.08843143 -0.0020668604
000010 0c 9a c3 3b 69 e2 6b bd c0 5a dc bd 0b 88 da bd
       0.0059692916 -0.05758897 -0.10759497 -0.106704794
000020 44 4a 6c bb 04 0f c6 3c 03 44 8f 3d 26 b0 a0 3d
       -0.0036055008 0.024177082 0.06995394 0.07846098
000030 1d 6a 0c 3d f4 91 97 bd 0d 68 6e bd f3 a8 97 3d
       0.034280885 -0.07400885 -0.0582047 0.074052714
000040 b2 ad 53 bd ed f7 ee 3d 26 d1 e1 bc 20 7e a3 3d
       -0.05167932 0.11668382 -0.02756555 0.07983041
000050 87 29 c5 bd 7c f9 f8 3d da 98 07 3e ab ed 03 bd
       -0.09627061 0.1215696 0.13241902 -0.03220908
000060 46 ff 67 bd 0c c9 a1 3d 39 1b 0d bd a3 f1 1d 39
       -0.056639932 0.07899675 -0.03444979 0.00015062703
000070 80 af b6 bd f9 46 70 3d 45 6b a9 3d f5 f3 ad ba
       -0.08920193 0.058661435 0.08272413 -0.0013271557
000080 2c 69 fe 3d b5 f8 d2 bd be 04 b6 bd 62 aa 00 bd
       0.12422404 -0.10301343 -0.08887623 -0.03141249
000090 fa 59 bd bc e0 82 e5 3c 75 db c3 bb 70 21 cf bb
       -0.023114193 0.028016508 -0.005977089 -0.0063211247
0000a0 f2 a2 ed 3c f7 36 8a bd c6 48 0c be ed a6 2b bd
       0.029008362 -0.06748765 -0.13699636 -0.04190724
0000b0 eb eb 27 bd 49 55 6c 3d 8d 03 ca bc da 3f c0 3d
       -0.040996473 0.05769852 -0.024659896 0.09387179
0000c0 f2 d9 d8 3d 7e e2 a9 bd 58 b3 cc 3d 48 1d ac 3d
       0.10588445 -0.08295153 0.099951446 0.084040225
0000d0 5a a1 f1 3c 89 65 fc 3c 9b 25 2b bd df 83 88 3d
       0.029495884 0.030810134 -0.04178391 0.066657774
0000e0 ef a3 ff 3c 8e e6 49 3d 69 de 8c 3d 76 71 c9 3c
       0.0312061 0.04929214 0.06878359 0.024590235
0000f0 09 0e 0f be aa b4 83 bd 7b 17 08 be c6 9d 10 bc
       -0.13970198 -0.06430943 -0.13290207 -0.008826679
000100 86 20 91 bd 79 8b c0 bd 7b e1 c0 3d ba 56 03 be
       -0.070862815 -0.09401602 0.09418007 -0.12826052
000110 7f 8a fa bd 85 3a 94 3d ab e4 e0 3d d5 f2 2e bd
       -0.12233447 0.07237724 0.10981115 -0.04271205
000120 b1 07 7c bd 41 24 a0 3c 33 6a 99 3d 5c b4 8e 3d
       -0.061530773 0.019548537 0.07490959 0.069679946
000130 ef 6e ee 3d ad 33 0b be a2 9e e4 3d e1 f1 dd bd
       0.11642253 -0.13593931 0.11163069 -0.1083715
000140 3d a6 1d be 62 23 fe 3d 7f 4c 9a bd 72 ac 5b bd
       -0.15395446 0.124090925 -0.07534122 -0.053631254
000150 5f 93 62 bd f9 24 96 bc 15 35 fd 3d 05 ce 00 bd
       -0.055316325 -0.018328177 0.1236364 -0.031446476
000160 3c d4 0e 3e 40 d3 82 bd d0 98 b0 3d 95 79 87 bd
       0.13948148 -0.06387949 0.08622897 -0.06614987
000170 9c 76 cd 3d 8c b0 8a 3d b0 1b 4e 3d 21 a6 43 bd
       0.100323886 0.06771955 0.050319374 -0.047765855
000180 2c c8 08 3e 3b d3 fa 3d f6 6d dc 3d cd 1c 3c 3d
       0.1335761 0.1224732 0.10763161 0.045925904
000190 e2 bb 00 3e 28 37 ab 3d 92 f9 e8 3d da ef ed bd
       0.12571672 0.083601296 0.11375727 -0.11618014
0001a0 27 2f 14 be 9b d9 ef 3d f2 66 68 bc 17 13 c4 3d
       -0.14471112 0.11711427 -0.0141847 0.095739536
0001b0 0f a4 94 3d ec 24 8e 3c 00 46 67 3d 4b d8 c0 3d
       0.07257854 0.01735159 0.05646324 0.094162546
0001c0 20 e4 09 3c 55 08 02 bd fb 09 09 3e 7a 67 c2 3d
       0.008416206 -0.031746227 0.13382713 0.09492393
0001d0 4f 2d 91 3d f5 36 0e 3c 27 b6 8c bd 14 cd 4b 3d
       0.0708872 0.008680095 -0.0687068 0.049756125
0001e0 66 aa e4 3c 06 a9 9a bd 6b 21 72 3b 38 fe 43 bd
       0.027913284 -0.0755177 0.0036946188 -0.047849864
0001f0 47 87 dd bd ec 0f 0a 3e 19 2c 2c bd 36 ab 89 bd
       -0.10816818 0.13482636 -0.042034242 -0.06722109
000200 ae 4d 84 3c f6 5f 60 bd ad 91 03 3e 94 0e 16 3d
       0.016150322 -0.054779015 0.1284854 0.036634997
000210 a3 87 85 3d 43 ba 01 3d 32 54 36 bc 43 16 98 3d
       0.06520011 0.031671774 -0.011128472 0.07426121
000220 4b 4d 00 bd 3f 75 6e bd 77 13 05 3c 90 7f f5 bc
       -0.031323712 -0.058217283 0.008122317 -0.029968053
000230 d3 b0 b1 3d af 77 e5 bc 12 a2 73 3b b6 fe c0 bd
       0.08676305 -0.028011171 0.003717546 -0.09423582
000240 06 5d 2c bd 05 e3 2a 3c 8d b5 ae bd c2 3c 9e bc
       -0.0420809 0.010430102 -0.08530722 -0.019316081
000250 9f bd 8f 3d 5f 4a 6a bc 00 d3 a6 bc 57 ce 65 bd
       0.07018589 -0.014299958 -0.020364285 -0.056104984
000260 f1 26 ab 3d 0e 68 aa 3d d0 33 b7 3d 3d 44 81 bd
       0.08357037 0.08320628 0.08945429 -0.063118435
000270 e3 18 d3 bc 30 e1 aa 3c 1e 89 9a 3d 9c 16 88 3d
       -0.025768703 0.02085933 0.07545684 0.066449374
000280 0d fd c6 bc d8 6c 04 3e 64 c0 9a bd 76 23 78 bc
       -0.024290586 0.12932146 -0.07556227 -0.015145173
000290 71 0b a7 3b 22 0d a1 bd ce 7f 8f 3d 29 fd 74 3d
       0.0050977995 -0.07863833 0.07006799 0.059811745
0002a0 fb d8 b7 3d d3 03 09 be 47 98 20 bd f6 c4 7d 3d
       0.089769326 -0.13380365 -0.039207723 0.061955415
0002b0 15 c7 7c 3c e9 58 95 3d cc 21 c3 3d 3d 79 81 3d
       0.015428324 0.07292349 0.095279306 0.063219525
0002c0 b2 aa 0f 3c e1 4b 9c 3d e8 ce 46 3b 49 e6 78 bd
       0.008768724 0.0763166 0.0030335728 -0.060766492
0002d0 f8 66 b3 bd a4 97 80 3d 40 6f b0 bb 0f ba 6f 3d
       -0.08759874 0.06278923 -0.005384356 0.05852705
0002e0 0d 41 09 3e f1 3f a1 bd b1 9c 4d bd 9f 1a e2 bd
       0.13403721 -0.07873524 -0.05019826 -0.11040234
0002f0 b7 b2 48 3c 7a 07 e6 3d 22 66 08 bd 22 a8 b4 bd
       0.01224964 0.11231895 -0.033300526 -0.08821131
000300 b9 56 8c bb a9 8e 09 3e 41 a7 8f 3d ea db f6 bd
       -0.004282799 0.13433327 0.07014323 -0.12053664
000310 f7 fc 88 3d 66 5d 92 bd 7d 1b d0 bd 93 e7 6d 3d
       0.06688874 -0.071467206 -0.10161493 0.058082175
000320 99 e0 eb bd 22 46 29 3d c2 32 49 bc f0 aa 06 be
       -0.11517448 0.04132665 -0.012280168 -0.13151145
000330 b9 9f ac bd 8b c4 3d be 5d d6 00 be 54 71 94 3b
       -0.08428902 -0.18532006 -0.12581773 0.0045301113
000340 93 4f f5 bd 8d 52 26 bd 8f eb cc 3d 8b 40 c4 3d
       -0.11978068 -0.04060607 0.10005867 0.09582623
000350 09 a5 e0 3d 33 62 ee 3d 73 60 e0 3d e2 e6 89 bd
       0.10968978 0.11639824 0.10955896 -0.067334905
000360 72 0e 76 bc 24 c5 15 bd 2d 1f a5 bd 81 98 03 3e
       -0.0150180925 -0.03656496 -0.08062587 0.12851144
000370 1a fa 11 3d 33 d0 c3 3b dc 48 87 bc 34 74 f1 3d
       0.035638906 0.005975747 -0.016514234 0.11789742
000380 6c f1 82 3d 57 16 98 3d fd 67 99 bd 16 81 fa bc
       0.06393704 0.07426136 -0.07490537 -0.030579131
000390 14 10 21 bd a0 98 80 3d 81 52 75 3d 3e 85 91 bd
       -0.039321974 0.06279111 0.059893135 -0.07105492
0003a0 b6 ef b2 bd 79 0e fc 3d 67 03 88 3d 15 de c6 3d
       -0.087371275 0.12307448 0.06641274 0.097103275
0003b0 6c 3f e7 bd fe a5 92 3d 91 e3 5f bd 67 35 5f bd
       -0.11291394 0.07160567 -0.054660384 -0.054494288
0003c0 6a 88 bb 3d c7 5c d1 3d 2e 8a df 3d 46 cc 1a 3c
       0.09156878 0.10222774 0.109150276 0.009448117
0003d0 bf a1 de 3d 95 6d f9 3d 10 57 00 be c3 0c 99 bd
       0.10870694 0.12179104 -0.12533212 -0.07473137
0003e0 d5 86 c6 bc 15 55 ad bd af 8c 99 3d 24 b4 e2 bd
       -0.024234215 -0.08463494 0.074975364 -0.11069515
0003f0 0e 88 e9 3d 21 d0 d9 3d 3e 5d 8b 3d c1 c1 00 3e
       0.114029035 0.106354006 0.06804894 0.12573911

network_body.linear_encoder.seq_layers.2.weight f4 [256, 256]
000000 70 15 e6 bd 0d ce d5 3c a9 e0 ff bc 2f 3b 26 be
       -0.11234558 0.02609923 -0.031235056 -0.16233514
000010 8e c8 59 bd a2 89 f1 bd 96 46 d5 3b 17 db 4a 3d
       -0.05316978 -0.117938295 0.0065086586 0.049525347
000020 bf f1 9b 3d 0d 33 1e 3d ed d1 ce bd 7e 2c dd bd
       0.07614469 0.038622905 -0.10098634 -0.10799502
000030 c5 b8 e7 bd 4e 2c 23 3c f7 16 05 be 58 5b 31 bd
       -0.11314539 0.0099592935 -0.12997042 -0.043300003
000040 41 e4 7b bd 78 3b f3 bd eb 28 d4 3d c5 79 58 3d
       -0.061496977 -0.11876577 0.10359367 0.052850503
000050 c7 00 08 be 1a da 78 3d 97 b5 47 3d 1d 94 34 bd
       -0.13281547 0.060754873 0.048757162 -0.044086564
000060 aa 80 c8 3d 1e b0 69 3c 35 e9 93 bd 7c c9 cc 3c
       0.09790166 0.014263181 -0.07222215 0.024998419
000070 5b 4d ff 3d 80 db 1d be 05 3d c2 bd 87 b4 19 3d
       0.12465926 -0.15415764 -0.09484295 0.03752568
000080 a0 d2 2a bd e8 d3 3e be 85 43 4b bc e5 75 90 bd
       -0.041704774 -0.18635523 -0.012406235 -0.070537366
000090 68 12 04 be e6 19 3a be 33 72 19 be dd 09 b1 3d
       -0.12897646 -0.18173942 -0.1498497 0.086444594
0000a0 68 55 dc 3d ea 60 8e bc ed f7 c3 bc db 89 54 3d
       0.107584774 -0.017380197 -0.023921931 0.05188928
0000b0 cc f4 78 bd c9 d6 9d bc b0 c9 6d 3d 78 80 4c be
       -0.06078033 -0.019267457 0.058053672 -0.19970882
0000c0 9b d3 b2 bd 7c 4b 0c 3d 4c c8 f2 bb 76 93 f9 bb
       -0.08731767 0.034251675 -0.007409131 -0.0076164557
0000d0 5b c2 4b 3d 6d 54 56 bc 72 ec a6 bd 84 50 f3 bd
       0.0497459 -0.013081652 -0.08150567 -0.118805915
0000e0 78 62 a8 3d 68 df 17 be fc 94 83 3d 57 75 c5 bd
       0.082219064 -0.14831316 0.06424901 -0.096415214
0000f0 a9 22 47 3c 7e 34 b5 3b cb 2d ff bd 6b 99 12 bd
       0.01215426 0.005529939 -0.12459906 -0.035790842
000100 0d ca f8 3b f1 9e 38 3d 28 48 8e 3c ba 76 1e 3d
       0.0075924457 0.045073453 0.017368391 0.038687445
000110 27 a2 b9 3d 97 ab 08 be 5d 6c ab 3c 7d ba 72 bc
       0.09064131 -0.13346706 0.020925695 -0.01481497
000120 47 f3 eb bd e6 92 12 bc 77 3a bc 3c be ad 9b bd
       -0.11521011 -0.008946156 0.022977097 -0.07601498
000130 d7 97 b9 3d 46 ae 25 be b4 0a 80 be d8 a9 0d bc
       0.09062164 -0.16179761 -0.25008166 -0.008646451
000140 d4 98 17 3d 92 66 db bb 68 97 0b 3d a5 e6 18 3d
       0.037010983 -0.006695577 0.03407994 0.037329335
000150 c7 d1 a2 3c 66 1a 1d bc 28 f3 ee bd 11 ab 6d bd
       0.01987542 -0.009588813 -0.11667472 -0.05802447
000160 c7 0b 8b bd 3b 0e 14 3c 4c 87 04 3c 6e 6c f1 3d
       -0.06789356 0.009036596 0.008088898 0.117882594
000170 4d b7 18 be 27 8d 28 bc 4b 1e 64 3d d8 8e 4f bd
       -0.14913674 -0.01028756 0.055692952 -0.050673336
000180 a6 3b b9 bb 72 c6 b2 bc a8 c4 50 be c1 90 48 3d
       -0.0056528626 -0.021823142 -0.20387518 0.048966173
000190 62 ec ca bc de 2f 0b be 8b 3a a5 bd 90 b0 f2 3c
       -0.02477092 -0.13592479 -0.08067807 0.029625207
0001a0 fa 2c a4 bd 39 e3 0c be 8d 67 1b bd 65 24 c5 bc
       -0.08016391 -0.13758554 -0.03794055 -0.024065206
0001b0 8c e1 ea bd f9 74 53 be 13 f9 67 bc 9e 14 de 3c
       -0.11468801 -0.2065009 -0.014158505 0.02710944
0001c0 24 61 ad 3d d9 d7 c8 3d e4 50 a9 3c 49 58 a0 bd
       0.08465794 0.09806795 0.020668454 -0.07829339
0001d0 85 1e 9c bd 02 65 da bd b9 36 08 be 6b 6d ce bc
       -0.07623009 -0.10663797 -0.13302125 -0.025198659
0001e0 70 eb a4 bd 22 22 75 3c 58 87 18 be 76 d9 7c bd
       -0.08052719 0.014961751 -0.1489538 -0.061730824
0001f0 a0 d4 e2 bd 54 4c 28 3c b3 67 e6 3c 4c ee 2a 3d
       -0.11075711 0.010272104 0.02812562 0.041731164
000200 28 bb 2e bd 1e 66 f8 bb 34 f5 78 3d c8 a5 3c bc
       -0.042658955 -0.0075805327 0.06078072 -0.011514135
000210 0f b8 9b 3d 84 4c d2 3d 93 16 01 bd 89 dd ec bd
       0.07603466 0.102685004 -0.03151567 -0.11565692
000220 d7 9f 05 be 7c 0b 1b be e4 50 f4 bd f3 55 4c 3d
       -0.13049255 -0.151411 -0.11929491 0.049886655
000230 32 04 66 bd 7b 5d 06 bd 30 cd da bb 4a e8 ad bd
       -0.056156345 -0.032803994 -0.0066772923 -0.08491571
000240 2d 88 fe bc 0b 41 f7 ba 68 b3 85 3d 2d 0c fa 3d
       -0.031070793 -0.0018863989 0.0652836 0.122093536
000250 ef 43 bd bd e5 29 68 3c 46 c7 5d 3c 05 fb 95 3d
       -0.09241473 0.014170145 0.01353628 0.07323269
000260 ad d9 af 3c c4 5a 17 be 25 f4 28 be 27 73 7c bd
       0.0214661 -0.14780718 -0.16499384 -0.061633255
000270 38 93 a5 bd 9c ac 9a 3d 3d d6 2f 3e a9 1d 57 3d
       -0.080847204 0.07552454 0.17171569 0.05251852
000280 1b 67 c0 bd 9e 5e fb 3d da 0b 23 bd 74 01 f3 bd
       -0.09394666 0.12273906 -0.039806224 -0.118655115
000290 0d 01 a3 bd e4 74 03 be b0 49 13 3d 99 79 57 bd
       -0.07959185 -0.12837559 0.035958946 -0.0526062
0002a0 54 e9 1d bd 94 3e 45 3d cd 03 dc 3c b0 77 3a bd
       -0.038552597 0.048155382 0.026857281 -0.0455243
0002b0 c4 fd 57 bd b3 04 3b 3d fc c8 99 3c 3a b6 36 be
       -0.052732244 0.04565878 0.018772595 -0.17842951
0002c0 9a f4 80 3d 72 9c ad bd a8 21 c6 3d c3 22 64 bd
       0.06296654 -0.08477105 0.09674388 -0.055697214
0002d0 e8 f1 3b bd a5 1f 5c bd b2 66 2f be d9 4e 88 be
       -0.045884997 -0.053741116 -0.17129019 -0.26622656
0002e0 e8 87 0e bd 79 0b 12 bd 7a 18 95 bd 28 59 ae bc
       -0.03479758 -0.035655472 -0.07280059 -0.021282747
0002f0 55 ef c8 3d bf eb c4 3d 93 fe 09 3d ed ad 9c bd
       0.09811274 0.096152775 0.033690047 -0.07650361
000300 1e 7c 90 bc 0b 6b b0 bd db 66 41 bd 4b 50 42 be
       -0.017637309 -0.08614167 -0.04721723 -0.18975942
000310 82 24 d4 bc 8c 22 a3 bd 37 92 d0 bd eb 3b 97 bd
       -0.025896315 -0.07965574 -0.10184138 -0.07384475
000320 bc 94 ad 3d e7 17 6c 3d 4e 2c fd 3b 52 9c 78 3d
       0.084756345 0.057639983 0.007726229 0.060695954
000330 2c b9 a3 3a cb 9d 10 bd 3f 03 8b bc 73 b6 9a bc
       0.0012491099 -0.035306733 -0.016969321 -0.018885827
000340 4f 78 3e be 28 46 e8 3b 7c 33 24 be bd 51 1b be
       -0.18600582 0.0070884414 -0.16035265 -0.151679
000350 48 eb 53 3d 69 e5 95 bc cf 4a 9c bc 7f c0 8e 3d
       0.051738054 -0.018297868 -0.01907864 0.069703095
000360 01 09 35 bd 8a d2 36 bd 26 3f ad 3d aa 32 92 bc
       -0.04419804 -0.04463438 0.0845931 -0.017846424
000370 ee c5 e0 bd e9 60 61 3d c2 7a 87 bc 47 2d 19 3d
       -0.10975252 0.05502406 -0.016538028 0.037396695
000380 af 76 14 bd 22 99 9b 3c 02 a4 ca bc 5c 0f 02 bc
       -0.036245998 0.018993918 -0.024736408 -0.007938232
000390 92 7b 90 bd 2f b8 d3 bd 81 dc 01 bd 1f 21 d1 3d
       -0.07054819 -0.103378646 -0.03170443 0.102113955
0003a0 31 bd 3f be a1 72 0a 3d c9 53 11 bc 2f d7 19 3e
       -0.18724515 0.033800725 -0.008870074 0.15023492
0003b0 3a de 23 3c bd f6 eb bd 12 89 95 bd 46 2e eb 3d
       0.010001713 -0.11521671 -0.07301535 0.11483435
0003c0 c1 e1 4e bd 09 93 ae bc 06 0b 02 be 90 9f f2 bd
       -0.050508264 -0.021310346 -0.12699518 -0.118468404
0003d0 ee e3 13 bc 61 7d 6a 3c 4f 1f f9 3c 1b be ac 3c
       -0.009026511 0.014312119 0.030410437 0.021086743
0003e0 2c 51 47 3c b6 75 01 be cb 3b 69 bc 34 51 58 3d
       0.012165349 -0.1264256 -0.014235447 0.052811816
0003f0 2a f0 43 3c 95 5b d4 bd 9e 20 ac 3d 5b 39 be 39
       0.011959115 -0.103690304 0.08404659 0.00036282357

network_body.vector_processors.0.normalizer.running_mean f4 [9]
000000 9e 54 d8 bd e8 fb f9 3f 00 00 00 00 04 4e fd bd
       -0.105630144 1.9530001 0.0 -0.12368396
000010 cd fb f9 3f 00 00 00 00 9f 41 38 3d 00 00 00 00
       1.9529969 0.0 0.044984456 0.0
000020 b5 e8 e2 3d
       0.110795416
