config/results/FighterUpdated1/My Behavior/My Behavior-1649946.onnx (onnx, 282099 bytes, 8 tensors)

58 f4 [9]
2.0913453 0.0035192869 0.00077851146 2.0023184 0.003519958 0.00077851146 0.3506091 0.00077851146
0.30291292
00000000: 9ad8 0540 d6a3 663b 0515 4c3a fc25 0040
00000010: 18af 663b 0515 4c3a 0983 b33e 0515 4c3a
00000020: 6717 9b3e

action_model._discrete_distribution.branches.0.bias f4 [6]
0.016216401 -0.01971148 0.026166748 0.061240226 -0.064654104 -0.06396157
00000000: 42d8 843c f879 a1bc a65b d63c 08d7 7a3d
00000010: 5f69 84bd 49fe 82bd

action_model._discrete_distribution.branches.0.weight f4 [6, 256]
-0.021792825 0.010562996 0.006982509 -0.016369507 0.013733544 -0.017144077 0.025270622 0.024817588
0.007649087 0.017371705 -0.005384967 0.012215113 0.004796882 -0.019145068 0.001525385 -0.013913575
-0.001804832 0.027406292 -0.0094089145 0.011761258 0.010649475 0.018586984 -0.017130595 0.021592565
-0.006558458 0.014381278 -0.014605453 -0.009681168 -0.008657868 0.005608423 -0.009996506 -0.0108376965
0.0076512326 0.01659228 0.023361016 0.026931938 0.008927512 -0.012694647 0.020334499 -0.0043246835
-0.008192852 0.020986632 0.012973205 -0.013098408 0.015853377 -0.0045865504 -0.0023806014 -0.0019452021
0.003995884 0.012991716 0.008144677 -0.017275715 0.0008714994 0.00036885584 0.025351234 -0.00056975824
0.018842766 0.019855082 -0.012659754 -0.0010934841 0.014009943 -0.014269233 -0.0028075809 0.0013520267
0.020319195 0.027258063 -0.0035101634 -0.016358975 0.015384531 0.020069394 0.012922568 -0.0059171394
-5.7055666e-05 -0.014279365 0.022444684 0.020875916 -0.013901203 -0.016568104 -0.00014475183 -0.00640464
0.0017105428 -0.0077373865 0.010087212 -0.013799189 -0.00208368 0.010440238 -0.008806391 -0.014259301
-0.0032302658 -0.013490026 -0.0037239636 0.00438125 0.002445773 -0.0040973686 -0.002030226 0.014590212
0.021332812 0.013685863 0.023718825 -0.007684631 -0.013966871 0.012163752 -0.00013148758 0.027467955
0.023661848 -0.002004988 0.00879763 0.01581565 -0.010162608 0.0052508614 0.027497021 0.007406258
0.019658266 0.007710827 0.0050388426 0.018237518 -0.016107567 0.00969929 -0.008854023 0.020668907
0.017081391 -0.023550177 0.018543838 0.021329783 -0.008896189 0.021749975 0.013406245 -0.0011409041
0.005474656 0.019882565 -0.007484733 -0.021900518 0.013536052 0.0028467951 0.011923605 0.0022518623
-0.012665723 0.0222319 0.010717263 0.014849538 -0.010382991 0.009559043 -0.0074730027 0.025789138
0.0020641512 0.013678092 -0.00029913377 0.0142469155 -0.016591823 0.026530284 -0.0026791233 -0.011081779
0.013592767 -0.018003445 0.0075236037 -0.013175313 0.028327357 0.01206492 0.021281114 0.0187041
0.017750878 0.01586112 -0.021699093 0.023744263 0.026455715 0.009530205 0.01635211 -0.0077502425
0.013831508 -0.016096383 -0.0031572205 -0.006541376 0.011559789 -0.010298618 0.013089537 0.015406426
0.021810947 -0.016883291 -0.008632669 0.004763187 0.008090411 0.012855942 0.008982928 -0.012503347
-0.010925215 -0.019788025 0.01483329 0.0064230673 0.0139820445 0.00046807778 0.006675862 0.014183863
0.027524047 -0.0072791255 0.01752322 0.019296484 0.0045861425 0.026763832 0.0030985994 0.006229316
0.013934877 0.014493654 -0.007146045 0.016796306 0.012346009 0.0017765565 0.009451261 0.025609577
-0.0046192524 -0.006681739 -0.009508071 -0.0066452716 0.0074829664 -0.014404424 -0.002209792 0.0021655704
0.027991379 0.002535597 0.008573075 0.0062465323 -0.001643782 -0.009659053 0.012189756 0.011167581
0.007700963 0.0010379802 0.00474126 -0.0032898753 4.075426e-05 0.011352353 -0.0074453624 0.02016567
-0.0064321514 0.026127396 0.013826415 0.015513981 8.224493e-05 -0.017287424 0.0084685795 -0.00625156
0.018454866 -0.01240507 0.02788329 -0.011051177 -0.008968312 0.028619839 -0.003534255 0.0095660295
-0.010757688 0.011606547 0.0095277475 0.013654504 0.009802215 0.029701807 0.030160455 0.0018203456
00000000: de86 b2bc 6b10 2d3c 88cd e43b 5819 86bc
00000010: a902 613c bc71 8cbc 5604 cf3c 414e cb3c
00000020: 31a5 fa3b 1b4f 8e3c 6174 b0bb e621 483c
00000030: 2a2f 9d3b 1ed6 9cbc 6def c73a c3f5 63bc
00000040: 1d90 ecba 2983 e03c d927 1abc 4bb2 403c
00000050: 237b 2e3c bb43 983c 7655 8cbc e4e2 b03c
00000060: 55e8 d6bb 749f 6b3c b64b 6fbc c39d 1ebc
00000070: bbd9 0dbc ddc6 b73b 63c8 23bc 9890 31bc
00000080: 31b7 fa3b 88ec 873c 9a5f bf3c 5ea0 dc3c
00000090: b344 123c 35fd 4fbc 8994 a63c 13b6 8dbb
000000a0: 503b 06bc 28ec ab3c 918d 543c b49a 56bc
000000b0: f1de 813c c64a 96bb dd03 1cbb 27f6 feba
000000c0: e8ef 823b 35db 543c 4071 053c cd85 8dbc
000000d0: 5675 643a fe62 c139 64ad cf3c d45b 15ba
000000e0: 255c 9a3c 20a7 a23c db6a 4fbc 3d53 8fba
000000f0: f689 653c 80c9 69bc 64ff 37bb 7d36 b13a
00000100: 7174 a63c 4d4c df3c c50a 66bb 4203 86bc
00000110: 660f 7c3c 9268 a43c 2eb9 533c 90e4 c1bb
00000120: 0e4f 6fb8 fff3 69bc eadd b73c f803 ab3c
00000130: dfc1 63bc d5b9 87bc 86c8 17b9 04de d1bb
00000140: 4b34 e03a e789 fdbb d544 253c fe15 62bc
00000150: 598e 08bb 880d 2b3c ae48 10bc d89f 69bc
00000160: deb2 53bb 4505 5dbc be0d 74bb 9790 8f3b
00000170: 4349 203b 3843 86bb 8a0d 05bb c90b 6f3c
00000180: 26c2 ae3c ac3a 603c fb4d c23c 5bcf fbbb
00000190: 4ed5 64bc 794a 473c eedf 09b9 7a04 e13c
000001a0: 7ed6 c13c 1e66 03bb ef23 103c d28f 813c
000001b0: 1181 26bc 6b0f ac3b 6f41 e13c 32b0 f23b
000001c0: 5f0a a13c 1bab fc3b e01c a53b d966 953c
000001d0: 04f4 83bc c5e9 1e3c 7710 11bc d751 a93c
000001e0: 46ee 8b3c 4dec c0bc 3fe9 973c ccbb ae3c
000001f0: 52c1 11bc 012d b23c dea5 5b3c 648a 95ba
00000200: be64 b33b c3e0 a23c 7e42 f5bb b768 b3bc
00000210: 51c6 5d3c 4c91 3a3b 395b 433c fb93 133b
00000220: e583 4fbc ac1f b63c 7697 2f3c 7a4b 733c
00000230: 6c1d 2abc 889d 1c3c 17e0 f4bb be43 d33c
00000240: b646 073b 131a 603c 0ed5 9cb9 e56b 693c
00000250: 93eb 87bc 0a56 d93c 3b94 2fbb 5a90 35bc
00000260: 32b4 5e3c f67b 93bc 9088 f63b 45dd 57bc
00000270: c60e e83c f1ab 453c bb55 ae3c 5739 993c
00000280: 4a6a 913c 2eef 813c 4cc2 b1bc 5483 c23c
00000290: a8b9 d83c 9424 1c3c dcf4 853c bff5 fdbb
000002a0: 8d9d 623c 90dc 83bc 5fe9 4ebb 0a59 d6bb
000002b0: 4565 3d3c 89bb 28bc 7f75 563c 3c6b 7c3c
000002c0: dfac b23c d44e 8abc 0a70 0dbc 8214 9c3b
000002d0: a58d 043c bba1 523c 212d 133c d7da 4cbc
000002e0: acff 32bc 7f1a a2bc 5407 733c 9878 d23b
000002f0: f214 653c 5668 f539 30c1 da3b 6f63 683c
00000300: 1c7a e13c bb85 eebb db8c 8f3c a913 9e3c
00000310: 5a47 963b d33f db3c df11 4b3b 4a1f cc3b
00000320: 1c4f 643c ca76 6d3c 5f29 eabb 6898 893c
00000330: ea46 4a3c 58db e83a 76d9 1a3c 2dcb d13c
00000340: 195d 97bb 7df2 dabb bdc7 1bbc 94c0 d9bb
00000350: ac33 f53b 8800 6cbc 28d2 10bb 3eec 0d3b
00000360: 2d4e e53c 422c 263b 1576 0c3c b6af cc3b
00000370: 2c74 d7ba 0141 1ebc 8bb7 473c 3bf8 363c
00000380: 5c58 fc3b d60c 883a 925c 9b3b f39a 57bb
00000390: 8eef 2a38 38ff 393c 3af8 f3bb 7a32 a53c
000003a0: ccc4 d2bb 1f09 d63c 3088 623c 5a2e 7e3c
000003b0: e97a ac38 5b9e 8dbc ccbf 0a3c e3d9 ccbb
000003c0: a92e 973c a23e 4bbc 7f6b e43c ff0f 35bc
000003d0: d4ef 12bc 2774 ea3c f69e 67bb d6ba 1c3c
000003e0: 0441 30bc 6329 3e3c 451a 1c3c 24b7 5f3c
000003f0: 7899 203c 3451 f33c 0f13 f73c aa98 ee3a

network_body.linear_encoder.seq_layers.0.bias f4 [256]
-0.1504176 -0.0057298704 0.15849566 0.11168157 0.09353215 0.030548044 0.15860137 0.11607344
-0.079836294 0.14151983 0.084348366 0.10884899 0.08032324 0.113182046 0.12373772 -0.104054876
-0.016034966 -0.07606681 0.13773292 -0.09722781 0.073917806 -0.01148238 0.15315695 0.0759791
-0.15724099 0.106397845 -0.12601456 0.15342678 0.11046146 0.09682418 -0.16863957 0.12736644
0.18485844 0.13416125 0.13959798 -0.024183543 0.05796943 0.1309443 -0.15250622 0.085841976
0.056151014 0.108027585 0.12094455 -0.13012591 0.08036522 0.011074416 0.0807941 0.06243646
-0.04492688 0.13556571 0.10722415 0.013634331 0.0139543405 -0.10737016 -0.14362994 0.068404004
0.12198336 0.12712659 -0.040492292 0.108464815 0.10940986 0.10274949 0.056557108 0.0680679
-0.006666358 0.154351 0.08799036 -0.14540038 0.114341244 -0.14470585 0.10514212 -0.12638444
0.05037934 0.08974327 0.130131 0.011886854 -0.018360404 -0.03447448 -0.004393489 0.14348544
0.08595621 -0.025215957 -0.06445337 -0.14688829 0.08495476 0.053479094 -0.06470871 0.03533537
-0.08421873 0.12772673 0.13817255 -0.16140918 0.085156314 0.09657864 0.101791054 0.067744404
-0.146996 -0.08673108 0.14010775 0.04519065 0.10926301 0.12296395 -0.14960854 -0.044482645
-0.07746667 0.12691966 0.0035936732 0.14809129 -0.09129931 -0.023019858 -0.07440411 0.10556824
0.12639324 0.15109631 0.17597683 0.0403421 0.016946513 0.15581056 -0.07369218 0.017659707
0.14769201 -0.08391745 0.14797282 0.080146395 -0.14034654 0.08759099 0.110712595 -0.13464919
-0.020783098 -0.16137108 -0.14778115 0.068444066 -0.06934866 0.0335439 0.058219463 0.093093
0.157771 -0.13702309 -0.015741812 0.1118657 -0.04637236 -0.0022909222 0.03507587 0.14905146
0.04449368 -0.0048881513 -0.12933248 -0.11068746 -0.047026124 0.100176536 0.12503152 0.1345829
0.09111435 -0.083566144 0.07830564 -0.15052888 0.1448572 0.1334664 0.06277693 0.03276853
0.111426845 -0.16705003 0.102020286 0.1405115 -0.10339228 0.021572944 0.047953144 0.12710159
-0.1278513 -0.13345677 0.06043321 0.02777313 0.16762325 0.055207577 0.09499109 -0.053690564
-0.07634922 -0.14005099 0.1563263 -0.054989565 -0.08494699 0.12960829 -0.15451312 0.12442098
0.005682779 0.096165985 0.01504996 0.09798275 -0.14691557 -0.1717422 0.1560822 -0.068760484
-0.06672395 0.097706676 0.09490537 -0.14368705 0.014139387 0.12465597 0.16856845 -0.121390425
0.11043927 0.057699654 -0.044573136 0.15602647 0.09558132 0.06848399 -0.16335246 -0.07862513
0.13948375 -0.13718444 0.13087738 0.109411314 0.012137093 -0.020389931 -0.111912094 0.17202324
-0.031940866 -0.16506788 0.09364015 -0.14786302 0.015475718 0.0667749 0.036317956 -0.061094288
0.14758012 0.12700845 0.078356765 -0.10148059 0.013138706 0.07570174 0.054633927 -0.12913936
-0.05507591 -0.15467069 -0.11259909 0.09960282 -0.15541479 0.1660926 0.15984522 0.07209977
-0.17410065 -0.13120165 0.08926876 0.12187842 -0.03651398 -0.10443946 -0.113361716 0.17308879
-0.08880484 -0.0856302 0.0526418 -0.12644276 0.0726175 -0.06994188 0.0050121793 0.11016099
00000000: 1207 1abe a3c1 bbbb b04c 223e 4fb9 e43d
00000010: c98d bf3d e43f fa3c 6668 223e e9b7 ed3d
00000020: 3681 a3bd 93ea 103e d6be ac3d 38ec de3d
00000030: 8380 a43d fdcb e73d 346a fd3d b91a d5bd
00000040: c35b 83bc eac8 9bbd dc09 0d3e 601f c7bd
00000050: 3862 973d 9820 3cbc 2dd5 1c3e ee9a 9b3d
00000060: c803 21be 1de7 d93d f609 01be e91b 1d3e
00000070: 9e39 e23d c14b c63d daaf 2cbe 596c 023e
00000080: 884b 3d3e 9161 093e c6f2 0e3e 911c c6bc
00000090: 5a71 6d3d 4316 063e 972a 1cbe ebcd af3d
000000a0: 9bfe 653d 913d dd3d c7b1 f73d ba3f 05be
000000b0: 8596 a43d 7871 353c 6177 a53d 60bd 7f3d
000000c0: 4005 38bd bdd1 0a3e 5698 db3d 8762 5f3c
000000d0: bfa0 643c e3e4 dbbd ba13 13be 6617 8c3d
000000e0: 69d2 f93d 792d 023e 3fdb 25bd cd22 de3d
000000f0: 4712 e03d 536e d23d 6da8 673d 2f67 8b3d
00000100: 7771 dabb 300e 1e3e 4a34 b43d d6e3 14be
00000110: be2b ea3d c52d 14be c054 d73d ec6a 01be
00000120: 915a 4e3d 52cb b73d 1041 053e 14c1 423c
00000130: 8f68 96bc 1d35 0dbd 42f7 8fbb d9ed 123e
00000140: cf09 b03d b291 cebc 2100 84bd e269 16be
00000150: c3fc ad3d e50c 5b3d 0086 84bd d2bb 103d
00000160: df7a acbd ccca 023e 1b7d 0d3e 7348 25be
00000170: 6f66 ae3d 06cb c53d d477 d03d 94bd 8a3d
00000180: 1f86 16be 11a0 b1bd 6878 0f3e d519 393d
00000190: 49c5 df3d 86d4 fb3d fb32 19be 6f33 36bd
000001a0: d8a6 9ebd 3af7 013e d583 6b3b 3ea5 173e
000001b0: 22fb babd 2494 bcbc 2f61 98bd 2934 d83d
000001c0: 3b6d 013e feb8 1a3e 4533 343e c23d 253d
000001d0: 6ad3 8a3c ce8c 1f3e edeb 96bd 17ab 903c
000001e0: 933c 173e e9dc abbd 3086 173e cb23 a43d
000001f0: 01b7 0fbe e862 b33d 49bd e23d 7ae1 09be
00000200: 5141 aabc 763e 25be f153 17be 672c 8c3d
00000210: ac06 8ebd 5465 093d 8877 6e3d 8ba7 be3d
00000220: b98e 213e c84f 0cbe f9f4 80bc d819 e53d
00000230: f2f0 3dbd 4c23 16bb b7ab 0f3d f2a0 183e
00000240: 013f 363d c92c a0bb bc6f 04be 1bb0 e2bd
00000250: 779e 40bd 5b29 cd3d 4308 003e 1ad0 093e
00000260: 299a ba3d ba24 abbd b55e a03d 3e24 1abe
00000270: 7255 143e 6aab 083e 3191 803d 4b38 063d
00000280: c233 e43d 2a0f 2bbe 03f0 d03d 3fe2 0f3e
00000290: 55bf d3bd beb9 b03c 846a 443d eb26 023e
000002a0: 74eb 02be e4a8 08be d088 773d 7a84 e33c
000002b0: 6ea5 2b3e 5721 623d b08a c23d a3ea 5bbd
000002c0: fb5c 9cbd 8769 0fbe 0014 203e bd3c 61bd
000002d0: b0f8 adbd 09b8 043e b038 1ebe 6dd0 fe3d
000002e0: 9b36 ba3b acf2 c43d 1c94 763c 2eab c83d
000002f0: 0971 16be 30dd 2fbe 03d4 1f3e 4cd2 8cbd
00000300: 91a6 88bd 701a c83d bf5d c23d b322 13be
00000310: e3a8 673c a14b ff3d 359d 2c3e 8b9b f8bd
00000320: fc2d e23d 7956 6c3d 5292 36bd 67c5 1f3e
00000330: 24c0 c33d 5641 8c3d de45 27be 3606 a1bd
00000340: d4d4 0e3e 147a 0cbe b804 063e 0a13 e03d
00000350: a8da 463c c908 a7bc 2b32 e5bd dc26 303e
00000360: 6dd4 02bd 8e07 29be 68c6 bf3d 6769 17be
00000370: de8d 7d3c 47c1 883d 23c2 143d 013e 7abd
00000380: 3e1f 173e 810e 023e 8379 a03d 0ed5 cfbd
00000390: ba43 573c 8409 9b3d d3c7 5f3d 1c3d 04be
000003a0: 4797 61bd fe61 1ebe 5a9a e6bd 90fc cb3d
000003b0: 0e25 1fbe 2e14 2a3e 77ae 233e 0ba9 933d
000003c0: 7147 32be ba59 06be 8ad2 b63d 659b f93d
000003d0: af8f 15bd 5be4 d5bd 302a e8bd 303e 313e
000003e0: 50df b5bd e35e afbd ee9e 573d 367a 01be
000003f0: 7cb8 943d b03d 8fbd 353d a43b 169c e13d

network_body.linear_encoder.seq_layers.0.weight f4 [256, 9]
-0.7206302 -0.04242389 0.11342803 0.043508314 0.11866324 0.33095196 -0.007881434 0.17748716
-0.03736527 -0.31307572 -0.02700929 0.074886516 0.60333264 0.2592396 0.03938123 -0.07352248
-0.010463227 0.3309533 -0.18555668 0.4053332 -0.043988254 0.14070968 -0.2736229 0.3059556
-0.60600966 0.035456866 -0.64079994 -0.15316339 -0.05979225 0.5954114 0.22230674 0.35138434
-0.49770734 -0.7500125 0.44860494 -0.06661648 -0.09069034 0.5725396 -0.41225922 0.10884213
0.37003887 -0.5686707 0.33053613 0.11657581 0.9569045 -0.34743375 -0.15175544 -0.35418436
0.75095224 0.2147769 0.2947216 -0.35342133 0.24190786 -0.2508315 0.25734404 0.6223183
0.39337632 -0.33058783 -0.63890254 0.31824285 -0.73423296 0.079552755 0.30824694 0.26911047
-0.17021307 -0.08845576 0.03197131 -0.5912695 0.10073461 0.269012 -0.27363002 0.06360979
-0.908224 -0.19887231 0.1015608 0.3798711 0.30170798 0.27999967 -0.74766165 0.26235425
0.21397635 0.14502187 -0.10204013 -0.13140674 -0.36041072 -0.35749388 -0.20581613 -0.14811505
-0.33037606 -0.7056511 0.1123067 0.009558969 -0.098628774 0.17989644 -0.2299202 0.37864074
-0.35500172 0.26620057 0.45219493 -0.18755667 0.09496798 -0.21072507 -0.22919735 -0.041590855
0.3810662 -0.026433257 0.1560336 0.5603897 0.55611277 0.6115898 0.18054257 -0.7336251
0.053190004 -0.10092729 0.2980252 0.39106518 -0.27929002 -0.28331947 -0.04203707 -0.47590014
0.12832482 -0.35775232 0.49741238 -0.58669865 -0.83784574 -0.34903947 0.14769243 -0.33062634
0.2745194 -0.14284751 0.039646048 0.014742879 0.36425167 0.59061813 -0.7763301 -0.15825143
-0.08391318 0.6263325 0.032506723 0.37506458 0.05782205 0.41010517 0.037539124 0.120454825
-0.48707542 -0.11348523 0.0038333004 -0.5062028 0.22914377 -0.088920586 -0.14089063 -0.21650717
0.22834162 -0.32298335 -0.019513743 0.035245672 -0.36961058 -0.042321723 -0.0388407 0.14710091
0.04262507 -0.23735593 0.22051345 -0.03384272 -0.22744678 -0.14263488 0.28132653 0.18686067
-0.19964397 0.45217413 -0.23470946 -0.03422542 -0.10549348 -0.49968278 -0.52972925 -0.09710935
0.2737451 0.23290433 -0.34164435 -0.064794295 0.15398481 0.3185377 -0.10908165 -0.58181775
0.18557477 0.13843372 -0.46706742 -0.5006288 -0.60873634 0.5004381 0.20276992 -0.052052706
0.1599262 0.104172245 0.620512 -0.06531709 -0.21606027 0.020604054 0.14256692 -0.615679
0.22601424 -0.15499736 0.05540641 -0.20587635 -0.5371916 -0.28555483 -0.07983802 0.07262441
0.05430424 -0.1381866 0.555564 -0.019875564 0.34696347 0.05439274 -0.13428718 -0.3414568
-0.07755427 -0.40404454 0.45126483 0.07611102 0.04696954 -0.3314117 0.06859045 -0.051750384
-0.022339221 0.72054875 0.3723426 0.014241425 -0.11860729 0.4124537 -0.3085478 -0.26562497
-0.7244829 0.38033363 -0.2869912 0.4250826 -0.4837639 -0.053676005 0.03323693 0.37500188
-0.050570026 0.30322406 0.041289523 -0.30200905 -0.01280194 -0.191854 -0.28554243 -0.598662
-0.87551874 -0.5001315 0.1460479 0.4534124 0.049041294 -0.08623709 0.19010034 0.2906113
00000000: 397b 38bf acc4 2dbd f44c e83d c635 323d
00000010: b605 f33d 8972 a93e 2121 01bc 32bf 353e
00000020: 530c 19bd 764b a0be 9642 ddbc 1a5e 993d
00000030: 0274 1a3f 0ebb 843e 364e 213d f492 96bd
00000040: f46d 2bbc b672 a93e 9202 3ebe d587 cf3e
00000050: 072d 34bd 3316 103e 4d18 8cbe 36a6 9c3e
00000060: 7323 1bbf 383b 113d 770b 24bf ddd6 1cbe
00000070: b8e8 74bd e26c 183f 61a4 633e a6e8 b33e
00000080: 7fd3 febe d200 40bf 8caf e53e 396e 88bd
00000090: dbbb b9bd f591 123f a413 d3be 9fe8 de3d
000000a0: bc75 bd3e 6794 11bf 083c a93e 4cbf ee3d
000000b0: b1f7 743f d6e2 b1be c765 1bbe a757 b5be
000000c0: 683e 403f 7aee 5b3e c0e5 963e a4f3 b4be
000000d0: b2b6 773e fd6c 80be 99c2 833e 4150 1f3f
000000e0: 9f68 c93e cf42 a9be 1e8f 23bf baf0 a23e
000000f0: b1f6 3bbf 8eec a23d 8bd2 9d3e d9c8 893e
00000100: 564c 2ebe 4b28 b5bd 59f4 023d 705d 17bf
00000110: f24d ce3d f1bb 893e 3c19 8cbe d945 823d
00000120: 5e81 68bf 2fa5 4bbe 1cff cf3d 777e c23e
00000130: 7879 9a3e 1e5c 8f3e c166 3fbf 4c53 863e
00000140: 9e1c 5b3e 9d80 143e 6afa d0bd 7d8f 06be
00000150: c187 b8be 7009 b7be 77c1 52be 79ab 17be
00000160: 0d27 a9be 8da5 34bf 0e01 e63d 399d 1c3c
00000170: e2fd c9bd c636 383e 3370 6bbe 33dd c13e
00000180: c9c2 b5be 714b 883e 1886 e73e db0e 40be
00000190: 937e c23d 50c8 57be b6b2 6abe 2c5b 2abd
000001a0: 1c1b c33e 8f8a d8bc 46c7 1f3e b375 0f3f
000001b0: 685d 0e3f 2691 1c3f 27e0 383e dbce 3bbf
000001c0: c3dd 593d f8b2 cebd c296 983e b239 c83e
000001d0: 1aff 8ebe 400f 91be 102f 2cbd 2fa9 f3be
000001e0: 9567 033e 502b b7be d6ac fe3e e231 16bf
000001f0: 0f7d 56bf 4db5 b2be af3c 173e db47 a9be
00000200: cf8d 8c3e 9e46 12be e563 223d 1e8c 713c
00000210: 327f ba3e c032 173f 92bd 46bf aa0c 22be
00000220: acda abbd 5457 203f c525 053d 7708 c03e
00000230: d0d6 6c3d 4ef9 d13e a0c2 193d 05b1 f63d
00000240: f361 f9be f26a e8bd 1c38 7b3b 8296 01bf
00000250: aaa4 6a3e ff1b b6bd a245 10be 0eb4 5dbe
00000260: 63d2 693e 135e a5be 49db 9fbc c45d 103d
00000270: 993d bdbe 8b59 2dbd 6d17 1fbd 9fa1 163e
00000280: a097 2e3d 6f0d 73be 47ce 613e aa9e 0abd
00000290: cfe7 68be e10e 12be 080a 903e 6758 3f3e
000002a0: 786f 4cbe 5e83 e73e ad57 70be f42f 0cbd
000002b0: f70c d8bd 6cd6 ffbe 569c 07bf 44e1 c6bd
000002c0: 5128 8c3e 797e 6e3e 02ec aebe dfb2 84bd
000002d0: 32ae 1d3e 6017 a33e 3366 dfbd 02f2 14bf
000002e0: 5007 3e3e 92c1 0d3e 7623 efbe 3629 00bf
000002f0: 25d6 1bbf b61c 003f eba2 4f3e 3835 55bd
00000300: b2c3 233e 4258 d53d e0d9 1e3f f7c4 85bd
00000310: e73e 5dbe d5c9 a83c 10fd 113e 249d 1dbf
00000320: 4770 673e a1b7 1ebe d5f1 623d 40d1 52be
00000330: 6485 09bf 3e34 92be 1e82 a3bd 1bbc 943d
00000340: 1f6e 5e3d ca80 0dbe 7139 0e3f 14d2 a2bc
00000350: 32a5 b13e ecca 5e3d 9482 09be 6dd3 aebe
00000360: c6d4 9ebd edde cebe 2f0c e73e 18e0 9b3d
00000370: 2263 403d cbae a9be 2679 8c3d 36f8 53bd
00000380: be00 b7bc e275 383f b0a3 be3e de54 693c
00000390: 61e8 f2bd 222d d33e faf9 9dbe ffff 87be
000003a0: b677 39bf 17bb c23e 83f0 92be 6da4 d93e
000003b0: e7af f7be 5fdb 5bbd 7223 083d 3f00 c03e
000003c0: 8422 4fbd 2f40 9b3e 341f 293d eea0 9abe
000003d0: 3abf 51bc 6075 44be 9e32 92be ea41 19bf
000003e0: ff21 60bf 9e08 00bf 958d 153e ac25 e83e
000003f0: 86df 483d 129d b0bd aaa9 423e 01cb 943e

network_body.linear_encoder.seq_layers.2.bias f4 [256]
-0.073869206 0.065360725 0.123510875 -0.10244007 0.12175326 0.007794373 0.11698179 0.073402554
0.063508496 0.001824463 0.050640356 0.089032814 0.045559395 -0.017412558 -0.06693753 -0.053951472
0.020785913 0.13849118 -0.092064016 0.010277155 -0.011782091 0.042981893 -0.11504272 0.13252409
-0.07751052 0.02007807 -0.1194174 0.015320527 -0.1132559 -0.038994905 -0.0676591 -0.09061299
-0.010167048 0.02963452 0.007445709 0.10073118 -0.030252969 -0.08950206 0.058455613 -0.01870565
-0.108116575 0.063738935 0.14325 -0.0689504 0.062641 0.018831354 -0.058730043 0.013545462
-0.06741139 0.13083246 0.01891138 -0.09924992 0.079293594 -0.0033644312 0.11007913 0.01755436
0.09273825 0.10981868 -0.11456774 -0.028690603 0.097630106 -0.047142006 -0.06325914 -0.031827968
0.14895956 0.12959167 -0.05154976 -0.012559598 -0.022024252 0.09116262 0.072473146 -0.064233944
0.03178925 -0.0912484 0.11191616 0.085145414 -0.044229392 0.016364614 -0.047122367 -0.08325209
0.056107573 0.012379951 0.028429361 -0.084427826 -0.11107041 0.017854428 -0.076432 0.028870882
-0.07561364 -0.09504919 -0.0039238534 -0.023416298 -0.035657458 0.09574644 -0.080714285 0.14850858
0.10561383 0.061618723 0.09223946 -0.06961933 -0.08876304 0.106791526 0.02598389 0.064872175
0.032489505 -0.013174817 0.10494844 0.11586994 -0.094615296 -0.03980866 0.059893396 0.048446726
0.03877933 0.07453881 0.07142836 0.008350416 -0.11110539 0.09975143 -0.10298721 0.11372559
0.11511499 -0.11293136 0.14113076 0.09191799 -0.093550466 0.057510827 -0.007733435 -0.08747895
0.11795606 0.07385016 -0.094271034 -0.11751114 0.04276978 0.054021906 -0.030906888 0.0038941226
-0.092209734 -0.01925494 -0.045059353 0.006299123 -0.10583914 0.031830102 0.08862883 0.091141984
0.010752049 0.10756805 0.06426184 0.028420486 -0.10689427 0.121710114 -0.066888645 -0.08168301
0.09312189 -0.072713785 0.0373931 -0.08512583 0.07218336 0.0932704 0.1424504 0.111321375
0.15229651 0.10400281 -0.012885033 0.05967866 0.10877374 -0.010186854 0.0017488762 -0.1202783
-0.0057660593 -0.06475048 -0.048530735 -0.097382404 0.10631105 -0.05964936 0.13471755 0.010498713
0.130294 -0.12063181 -0.11984393 0.023981929 0.036492553 0.04979163 0.047930278 -0.09853807
-0.06249898 -0.098156504 0.09066847 -0.032446843 -0.011455978 -0.018500403 0.016927412 0.10485791
0.09205943 -0.116543375 0.07852718 0.07325047 0.0660593 0.09415027 -0.03752897 -0.024508785
0.02608461 0.09931094 -0.0278556 0.12247076 -0.0015741083 -0.0200181 0.071802154 0.102891274
-0.092932954 -0.049459174 -0.10709839 -0.029662888 0.09494977 -0.101484664 -0.0042834245 -0.010885953
0.14084025 -0.014497469 0.067401245 0.0021599554 0.0075273733 -0.07981387 0.12605958 -0.044244703
0.011231393 -0.04286774 0.07474815 -0.045983423 -0.05416702 0.11606247 -0.0005529601 0.14583299
-0.046279 0.12460613 -0.012928881 0.08010284 -0.07992365 -0.046413213 0.13419598 -0.04880846
0.012066792 -0.07799896 0.1223844 -0.109210834 -0.097700894 0.10652067 -0.07218137 0.046842057
-0.051003326 0.120743595 0.03155447 0.02015712 0.12480311 0.14254844 0.13436514 0.061631095
00000000: bd48 97bd d8db 853d 45f3 fc3d 19cc d1bd
00000010: c659 f93d f167 ff3b 2694 ef3d 1454 963d
00000020: be10 823d d222 ef3a 436c 4f3d d656 b63d
00000030: 7d9c 3a3d c8a4 8ebc 8b16 89bd 38fc 5cbd
00000040: 3847 aa3c a2d0 0d3e 0f8c bcbd 8361 283c
00000050: ac09 41bc c80d 303d 859b ebbd 65b4 073e
00000060: d6bd 9ebd c47a a43c 1c91 f4bd f302 7b3c
00000070: b6f2 e7bd 1fb9 1fbd db90 8abd 4e93 b9bd
00000080: b193 26bc 18c4 f23c 22fb f33b 264c ce3d
00000090: 13d5 f7bc db4c b7bd 276f 6f3d 973c 99bc
000000a0: 396c ddbd 8f89 823d 21b0 123e de35 8dbd
000000b0: ed49 803d 3644 9a3c ea8e 70bd c9ed 5d3c
000000c0: fc0e 8abd f2f8 053e 0aec 9a3c 8b43 cbbd
000000d0: ae64 a23d ca7d 5cbb 2b71 e13d 29ce 8f3c
000000e0: 8ded bd3d 9ee8 e03d 7ea2 eabd 8e08 ebbc
000000f0: 4bf2 c73d fa17 41bd 028e 81bd 0b5e 02bd
00000100: db88 183e aeb3 043e d725 53bd c6c6 4dbc
00000110: 346c b4bc 78b3 ba3d cd6c 943d 168d 83bd
00000120: 7235 023d 71e0 babd 4d34 e53d b860 ae3d
00000130: e129 35bd 150f 863c 6203 41bd 1280 aabd
00000140: 0ed1 653d 47d5 4a3c b1e4 e83c 7fe8 acbd
00000150: e278 e3bd 7343 923c 6188 9cbd a182 ec3c
00000160: 53db 9abd 26a9 c2bd ab93 80bb 89d3 bfbc
00000170: 8e0d 12bd b616 c43d 884d a5bd a212 183e
00000180: 104c d83d ea63 7c3d 0be8 bc3d 9494 8ebd
00000190: 66c9 b5bd 84b5 da3d 2bdc d43c b4db 843d
000001a0: b713 053d 30db 57bc 35ef d63d 384d ed3d
000001b0: aac5 c1bd 680e 23bd c752 753d 1370 463d
000001c0: 13d7 1e3d cea7 983d 0849 923d 2fd0 083c
000001d0: 398b e3bd 7a4a cc3d f5ea d2bd f6e8 e83d
000001e0: 68c1 eb3d 8f48 e7bd 9584 103e 803f bc3d
000001f0: 6397 bfbd 7990 6b3d c168 fdbb 2a28 b3bd
00000200: f292 f13d c13e 973d 2c11 c1bd aea9 f0bd
00000210: 5d2f 2f3d 1346 5d3d 7130 fdbc 8934 7f3b
00000220: 75d8 bcbd 89bc 9dbc 2890 38bd e068 ce3b
00000230: 31c2 d8bd 4860 023d 0883 b53d a6a8 ba3d
00000240: 5d29 303c a34c dc3d b69b 833d 14d2 e83c
00000250: 62eb dabd 2743 f93d eafc 88bd 6c49 a7bd
00000260: b1b6 be3d f7ea 94bd 8229 193d 7356 aebd
00000270: dfd4 933d 8d04 bf3d 85de 113e 76fc e33d
00000280: 9ef3 1b3e 6dff d43d bf1b 53bc 9c71 743d
00000290: c4c4 de3d c3e6 26bc 8c3a e53a 7854 f6bd
000002a0: 36f1 bcbb e69b 84bd 2ac8 46bd 6d70 c7bd
000002b0: 9cb9 d93d e352 74bd 66f3 093e cb02 2c3c
000002c0: ca6b 053e cf0d f7bd bc70 f5bd c075 c43c
000002d0: 3779 153d 4ff2 4b3d 8a52 443d 54ce c9bd
000002e0: eefe 7fbd 4706 c9bd 64b0 b93d fbe6 04bd
000002f0: dbb1 3bbc 288e 97bc 5bab 8a3c bebf d63d
00000300: a889 bc3d 4bae eebd dcd2 a03d 5804 963d
00000310: 194a 873d dbd1 c03d fab7 19bd a6c6 c8bc
00000320: 64af d53c 8963 cb3d 6d31 e4bc f3d1 fa3d
00000330: 4f52 ceba 00fd a3bc 020d 933d a9b8 d23d
00000340: a253 bebd b495 4abd 6756 dbbd 96ff f2bc
00000350: 0675 c23d 31d7 cfbd f85b 8cbb ff5a 32bc
00000360: 6d38 103e cb86 6dbc aa09 8a3d 0a8e 0d3b
00000370: 2fa8 f63b 7475 a3bd c315 013e ef39 35bd
00000380: e003 383c 1596 2fbd 8f15 993d 1d59 3cbd
00000390: 3dde 5dbd 29b2 ed3d 86f4 10ba 3e55 153e
000003a0: 0c8f 3dbd 8031 ff3d a8d3 53bc f50c a43d
000003b0: 03af a3bd c81b 3ebd ac6a 093e 61eb 47bd
000003c0: cbb3 453c ebbd 9fbd aca4 fa3d eea9 dfbd
000003d0: 6817 c8bd 8227 da3d d3d3 93bd 75dd 3f3d
000003e0: dde8 50bd 6b48 f73d 433f 013d 8b20 a53c
000003f0: c698 ff3d 38f8 113e 0497 093e e370 7c3d

network_body.linear_encoder.seq_layers.2.weight f4 [256, 256]
-0.016160673 0.07739705 -0.10039999 -0.1393461 -0.032547433 -0.08275427 0.055461794 -0.0033822304
-0.037252244 -0.07178348 0.053444352 -0.016251182 -0.040583774 -0.066922404 -0.046917696 0.07337405
0.068279356 -0.093304954 -0.08845825 -0.0023082613 -0.028517542 -0.10432331 -0.098083265 0.009595904
0.043620978 -0.031339563 0.031019889 0.042637635 0.048752435 -0.034919705 -0.0059293397 -0.09198135
-0.0183139 -0.027452549 0.00992311 -0.07845637 0.0068291626 -0.029647792 -0.055995345 -0.06428978
-0.075868405 -0.004088691 0.031252928 -0.11221427 -0.018246764 -0.0048287343 -0.07714778 -0.08571457
-0.021286726 -0.014987514 -0.04849649 -0.032507196 -0.036134407 0.04458537 0.086686164 -0.07743453
-0.026941752 -0.21340261 -0.042647276 0.052928828 0.05641054 -0.056538794 -0.031466775 0.046508882
0.041152213 -0.101438165 -0.0529725 0.007933842 -0.108039804 0.0018162226 -0.037998244 0.007650009
-0.020468934 0.06228677 0.098718956 -0.13785177 -0.007721889 -0.025491811 -0.041038316 -0.029606171
-0.083333574 -0.09388987 -0.030148786 -0.061619993 -0.10685651 -0.024547638 0.1432477 -0.03659894
-0.016867083 -0.10483947 -0.15539701 -0.10076525 0.030985083 -0.03876263 0.011225101 -0.02126028
0.051814947 0.029677048 -0.16426846 -0.07579854 0.0703286 0.069632515 0.17755148 0.069760755
-0.02037329 0.006542453 0.008087138 0.0546845 -0.041599657 -0.10842097 0.058003373 0.06890518
0.108443506 -0.07000222 -0.1273115 -0.0674163 -0.010286277 0.022408111 -0.021955768 0.06439504
-0.014801711 -0.025748925 0.062396478 -0.06846932 -0.03129554 -0.14352365 -0.021768034 0.052435715
0.12912552 0.04582964 0.05868739 -0.12078496 0.11602383 -0.038050186 0.016930193 -0.037877
-0.10859497 -0.047127444 -0.1192484 0.0988702 -0.07624888 0.035800513 0.045119718 -0.14566213
0.03865411 -0.07221284 -0.017386526 0.1074787 0.023141474 -0.06470852 0.053624243 0.03595718
-0.035683732 0.040394932 0.057967596 0.09109788 -0.08452978 0.028771246 -0.035016317 0.08459606
0.028886553 0.061133385 -0.1355556 -0.017896742 -0.045850318 -0.025990847 0.029265985 -0.07971547
0.13919589 0.0049098996 0.06283846 0.033630546 -0.050602634 -0.04368194 -0.0653426 -0.0005335995
-0.120676376 -0.057818465 -0.0012802547 0.03329945 -0.13871734 -0.0745252 0.0034215986 -0.109582245
-0.020314889 -0.0023499762 -0.054836124 -0.07812126 -0.011356717 0.047748875 -0.04227303 -0.020275015
0.049332786 0.052293066 -0.01610983 -0.028136577 0.12785892 0.029261524 -0.10312603 0.035707437
-0.074169025 0.054208763 -0.015495938 -0.01983166 0.032984804 -0.07215873 -0.073948786 -0.09819569
-0.002821413 -0.016914923 0.034073655 0.011951953 -0.13779885 0.08025491 0.035649937 -0.047132615
-0.046140086 0.038035877 -0.11648251 0.014084791 -0.030778844 -0.024722895 0.008320126 0.002562997
-0.012326198 -0.044527493 -0.045790803 0.014894057 0.011602552 0.12042934 -0.04857796 -0.07975515
0.03619684 -0.03795984 -0.032936152 -0.04177255 -0.005349207 -0.055183217 -0.024667276 -0.03491651
-0.067162305 0.16098586 -0.024671517 -0.067417346 -0.081968844 -0.0388117 0.06610437 -0.059862252
0.05046566 -0.014739773 -0.05460335 0.018297508 0.051431358 0.0105319815 -0.057694938 -0.1099822
00000000: 6363 84bc 5882 9e3d 839e cdbd beb0 0ebe
00000010: 7550 05bd 127b a9bd e82b 633d 69a8 5dbb
00000020: cf95 18bd 3803 93bd 77e8 5a3d 3321 85bc
00000030: 2c3b 26bd 9d0e 89bd c52c 40bd 2245 963d
00000040: 0cd6 8b3d ab16 bfbd 9929 b5bd 3346 17bb
00000050: 9f9d e9bc 76a7 d5bd e1df c8bd 2338 1d3c
00000060: e9ab 323d ea5d 00bd 6c1d fe3c cda4 2e3d
00000070: a2b0 473d f707 0fbd e84a c2bb b860 bcbd
00000080: 0807 96bc 2be4 e0bc 8a94 223c bcad a0bd
00000090: 2bc7 df3b eddf f2bc 605b 65bd 5caa 83bd
000000a0: e560 9bbd 6dfa 85bb 1203 003d 98d0 e5bd
000000b0: 3d7a 95bc 5c3a 9ebb a8ff 9dbd 1f8b afbd
000000c0: 8061 aebc 318e 75bc 41a4 46bd 4426 05bd
000000d0: ac01 14bd 269f 363d 8488 b13d ff95 9ebd
000000e0: f3b4 dcbc 3786 5abe e9ae 2ebd e6cb 583d
000000f0: bd0e 673d 3995 67bd 4ee3 00bd 1980 3e3d
00000100: 398f 283d d0be cfbd b1f9 58bd f2fc 013c
00000110: f943 ddbd 510e ee3a 0ca4 1bbd edac fa3b
00000120: 77ae a7bc 6a20 7f3d 2a2d ca3d 0429 0dbe
00000130: e607 fdbb 34d4 d0bc cb17 28bd a488 f2bc
00000140: cbaa aabd 5549 c0bd 96fa f6bc 3f65 7cbd
00000150: 96d7 dabd 2118 c9bc 86af 123e c5e8 15bd
00000160: d62c 8abc 13b6 d6bd 6520 1fbe 035e cebd
00000170: 6ed4 fd3c 90c5 1ebd 7ce9 373c 0a2a aebc
00000180: e93b 543d 481d f33c fe35 28be 443c 9bbd
00000190: 7108 903d 7e9b 8e3d 0ed0 353e bade 8e3d
000001a0: e3e5 a6bc 1362 d63b ea7f 043c dbfc 5f3d
000001b0: 6764 2abd d00b debd f294 6d3d 291e 8d3d
000001c0: a117 de3d 535d 8fbd f25d 02be 8f11 8abd
000001d0: c687 28bc 3791 b73c 95dc b3bc 8ce1 833d
000001e0: e082 72bc 69ef d2bc 7393 7f3d a539 8cbd
000001f0: c12f 00bd ddf7 12be e052 b2bc d5c6 563d
00000200: 7b39 043e dcb7 3b3d 3062 703d 1b5e f7bd
00000210: e79d ed3d 83da 1bbd 30b1 8a3c ea24 1bbd
00000220: 0a67 debd b508 41bd 8138 f4bd 767c ca3d
00000230: 5f28 9cbd 8fa3 123d 74cf 383d 7428 15be
00000240: c653 1e3d 53e4 93bd 306e 8ebc cb1d dc3d
00000250: 3093 bd3c e785 84bd 18a5 5b3d d647 133d
00000260: 1b29 12bd 2875 253d 6e6f 6d3d 8691 ba3d
00000270: f31d adbd adb1 eb3c 456d 0fbd b340 ad3d
00000280: 7ea3 ec3c 0067 7a3d 16cf 0abe 309c 92bc
00000290: 8bcd 3bbd c2ea d4bc 38bf ef3c dd41 a3bd
000002a0: 5e89 0e3e 39e3 a03b 73b1 803d 2fc0 093d
000002b0: b544 4fbd d5eb 32bd 57d2 85bd 42e1 0bba
000002c0: 2d25 f7bd 0ed3 6cbd 38ce a7ba 0165 083d
000002d0: eb0b 0ebe aba0 98bd e63c 603b a86c e0bd
000002e0: 696b a6bc 0f02 1abb d89b 60bd 0afe 9fbd
000002f0: 8611 3abc 5394 433d 7c26 2dbd ca17 a6bc
00000300: 2d11 4a3d 4131 563d c3f8 83bc ae7e e6bc
00000310: 73ed 023e ddb5 ef3c bd33 d3bd f641 123d
00000320: eee5 97bd 020a 5e3d ade2 7dbc 0176 a2bc
00000330: 131b 073d f5c7 93bd 7672 97bd d21a c9bd
00000340: 75e7 38bb 2a91 8abc d190 0b3d 20d2 433c
00000350: 241b 0dbe b05c a43d ab05 123d 210e 41bd
00000360: 63fd 3cbd 82cb 1b3d 628e eebd e5c3 663c
00000370: ea23 fcbc ab87 cabc 2351 083c f4f7 273b
00000380: d2f3 49bc 7662 36bd 238f 3bbd 3406 743c
00000390: a118 3e3c a8a3 f63d aff9 46bd ab56 a3bd
000003a0: 2343 143d c77b 1bbd 0fe8 06bd b219 2bbd
000003b0: 6748 afbb cc07 62bd 0713 cabc 9d04 0fbd
000003c0: 648c 89bd 7ad9 243e ec1b cabc 1b12 8abd
000003d0: 48df a7bd 04f9 1ebd ba61 873d 1f32 75bd
000003e0: 14b5 4e3d 177f 71bc c3a7 5fbd a8e4 953c
000003f0: b0a9 523d 558e 2c3c 8751 6cbd 593e e1bd

network_body.vector_processors.0.normalizer.running_mean f4 [9]
1.491295 1.9530432 0.0 1.6438262 1.9530438 0.0 0.1435255 0.0
0.102200344
00000000: c1e2 be3f 52fd f93f 0000 0000 e668 d23f
00000010: 57fd f93f 0000 0000 59f8 123e 0000 0000
00000020: 6a4e d13d
