config/results/FighterUpdated1/My Behavior/My Behavior-1499959.onnx (onnx, 282099 bytes, 8 tensors)

58 f4 [9]
0	0x400655a6	2.0989776
1	0x3b64fb64	0.003493988
2	0x3a560ae4	0.0008165075
3	0x40008e12	2.0086713
4	0x3b65029b	0.003494418
5	0x3a560ae4	0.0008165075
6	0x3eb1e76e	0.3474688
7	0x3a560ae4	0.0008165075
8	0x3e9e2d1f	0.308938

action_model._discrete_distribution.branches.0.bias f4 [6]
0	0x3c4760bd	0.01216906
1	0xbc88d47f	-0.016702889
2	0x3ce5f2b1	0.028069826
3	0x3d787b24	0.06066431
4	0xbd840cf7	-0.06447785
5	0xbd804dc7	-0.06264835

action_model._discrete_distribution.branches.0.weight f4 [6, 256]
0	0xbc802fcd	-0.015647793
1	0x3bcaab3f	0.006184965
2	0x3c00c3a5	0.007859145
3	0xbc216249	-0.009850093
4	0x3c3bc385	0.01146019
5	0xbcad18bc	-0.021129958
6	0x3ca4fbde	0.02013963
7	0x3cb4e88a	0.02208354
8	0x3be3f734	0.006956959
9	0x3c974329	0.018464642
10	0xbc3121d1	-0.010811285
11	0x3c8f246e	0.017473426
12	0x3bc2e6b9	0.0059479144
13	0xbca64e7a	-0.020301092
14	0x3c09bd73	0.008406985
15	0xbc41a326	-0.011818683
16	0xbad713a6	-0.0016409054
17	0x3cc8d949	0.024517672
18	0xb9e3e1d0	-0.00043465057
19	0x3c76463c	0.015031394
20	0x3c2ead90	0.010661498
21	0x3bfe8c70	0.0077682063
22	0xbbf855d0	-0.007578589
23	0x3c8a399a	0.01687317
24	0xba44ddc2	-0.0007509851
25	0x3c2510cf	0.010074808
26	0xbbc34bd8	-0.005959969
27	0xbbecd940	-0.0072280467
28	0xba80d66e	-0.000982953
29	0x3b3433bb	0.0027496654
30	0xbb69b332	-0.0035659787
31	0xbb2975fc	-0.0025857678
32	0x3c2bce76	0.010486236
33	0x3c8a81aa	0.016907532
34	0x3c9948e7	0.01871152
35	0x3cbee68a	0.023303289
36	0x3be89168	0.007097412
37	0xbb558964	-0.0032583112
38	0x3c38147b	0.011235352
39	0xbb7d158e	-0.0038617584
40	0xb9eb33a7	-0.00044861177
41	0x3c632b4e	0.013865305
42	0x3c3449f8	0.011003964
43	0xbc0b0a14	-0.0084862895
44	0x3c1fc5bd	0.009751734
45	0xbc316e56	-0.010829529
46	0x39ff938e	0.00048747327
47	0xbb86edc5	-0.0041177
48	0x3c3c1cf1	0.01148151
49	0x3be9c901	0.0071345572
50	0x3c46bd9a	0.0121301655
51	0xbc3464e0	-0.011010379
52	0x3aad6229	0.0013228107
53	0x3b03b355	0.0020095904
54	0x3cdb8bb7	0.02680002
55	0xbbcd316f	-0.0062619965
56	0x3c843618	0.016139075
57	0x3c8c1992	0.017102037
58	0xbb9f19fa	-0.0048553916
59	0xba1d4688	-0.00059995847
60	0x3c1e74a6	0.009671366
61	0xbc7106ca	-0.014711091
62	0x3b8aa15f	0.0042306627
63	0x3be300c5	0.006927582
64	0x3ca77e88	0.020446077
65	0x3cd12301	0.025529386
66	0xbb4e0201	-0.00314343
67	0xbc85e595	-0.016344825
68	0x3c5f81ad	0.013641757
69	0x3c86aacf	0.01643887
70	0x3c06f538	0.008237176
71	0x3aeee5ad	0.0018226408
72	0xbb403090	-0.002932582
73	0xbbd94941	-0.006631047
74	0x3c9eaac2	0.019368533
75	0x3ca3023c	0.019898526
76	0xbc378e28	-0.011203326
77	0xbc731527	-0.014836586
78	0x3b8b6ad6	0.004254679
79	0xba3d1772	-0.00072132715
80	0x3baf4c6d	0.005349687
81	0xbc06de54	-0.008231718
82	0x3bde1772	0.0067776972
83	0xbc33b9ed	-0.010969621
84	0x3bb1b1d1	0.0054228087
85	0x3c415455	0.0117998915
86	0xbb2a1e27	-0.0025957914
87	0xbc58daf3	-0.013235795
88	0x3c2cc61e	0.010545282
89	0xbbb0f306	-0.0054000644
90	0x39e6f3da	0.00044050702
91	0xba532163	-0.0008053986
92	0x3c094159	0.0083773965
93	0xbb9add40	-0.004726082
94	0x3ba5232c	0.005039593
95	0x3c5d7e04	0.013518814
96	0x3c898c42	0.016790513
97	0x3c3c4711	0.011491553
98	0x3c895d06	0.01676799
99	0x3b5307c8	0.0032200683
100	0xbbe844d8	-0.007088285
101	0x3c228e34	0.009921599
102	0xbbef2791	-0.007298418
103	0x3cdf535c	0.027261429
104	0x3c8b51a2	0.017006699
105	0x39a03864	0.00030559592
106	0x3beea754	0.0072831307
107	0x3c8d36dd	0.017238075
108	0xbb9abbb6	-0.004722084
109	0x3b76e277	0.0037671605
110	0x3ca079e0	0.019589365
111	0xba6e4f93	-0.0009090837
112	0x3c85da8d	0.016339565
113	0x37e77c80	2.759532e-05
114	0xbabf7e53	-0.0014609791
115	0x3c8b0f99	0.016975211
116	0xbc05c7c5	-0.008165305
117	0x3c3b3992	0.0114273
118	0xbb5bb0e7	-0.003352219
119	0x3c9fdfb2	0.019515846
120	0x3c8cdbc1	0.01719463
121	0xbc84ea11	-0.016224893
122	0x3c94f313	0.018182313
123	0x3c9c80be	0.019104358
124	0xb8bb1532	-8.920803e-05
125	0x3c8f4dd5	0.017493168
126	0x3c68d212	0.014210241
127	0x3ab209a3	0.0013583194
128	0x3a8ca033	0.0010728895
129	0x3c8f8882	0.017521147
130	0xbb3b88c5	-0.0028615457
131	0xbc7d1a10	-0.015448108
132	0x3be77e6a	0.0070646303
133	0x3b765614	0.0037587928
134	0x3c567bd9	0.013091051
135	0xb9ae80bf	-0.0003328379
136	0xbb9af935	-0.004729415
137	0x3cac5a94	0.021039285
138	0x3c5072cf	0.012722685
139	0x3c60cf22	0.013721259
140	0xbb3d73f7	-0.0028908232
141	0x3aa71894	0.0012748414
142	0xbbae327f	-0.005316078
143	0x3cc91223	0.024544781
144	0xbaa8e9cc	-0.001288706
145	0x3c49410b	0.012283574
146	0xbb343c0d	-0.0027501613
147	0x3c8da559	0.017290758
148	0xbc0e839e	-0.008698372
149	0x3cc2653e	0.023729917
150	0x3b9e2767	0.0048264745
151	0xbbd4294b	-0.006474649
152	0x3c52f576	0.012875905
153	0xbc5c2a33	-0.013437795
154	0x3bb4bf9c	0.0055160057
155	0xbba94055	-0.0051651397
156	0x3ce659d9	0.028119015
157	0x3c14f234	0.009090949
158	0x3c9353de	0.017984327
159	0x3c9890d3	0.018623745
160	0x3c900772	0.017581675
161	0x3c70acc8	0.014689632
162	0xbc6117c9	-0.013738581
163	0x3cb94b26	0.022618841
164	0x3cc908e9	0.024540382
165	0x3b613502	0.003436387
166	0x3c973e58	0.018462345
167	0xbaca4d73	-0.0015434459
168	0x3c89d7f8	0.016826615
169	0xbc4e7017	-0.0125999665
170	0x3becf59b	0.007231427
171	0x3a3891e5	0.0007040783
172	0x3c43bb50	0.011946514
173	0xbbfce8c7	-0.007718179
174	0x3c44d7b8	0.012014322
175	0x3c601ddd	0.013678995
176	0x3cb199e2	0.021679822
177	0xbc2064c7	-0.009789652
178	0x38efcf3f	0.00011435011
179	0x3c0b9dcd	0.008521509
180	0x3bdb7cfe	0.00669825
181	0x3c3b147e	0.01141846
182	0x3afa19c5	0.0019081166
183	0xbbd4b7bb	-0.006491629
184	0xbbb54cfb	-0.0055328584
185	0xbc72088e	-0.014772547
186	0x3bf99222	0.0076162973
187	0x3bb54a89	0.005532567
188	0x3c66785a	0.01406678
189	0x3bb727fd	0.005589484
190	0x3bd28f0c	0.006425744
191	0x3c3119a1	0.010809333
192	0x3caa0aee	0.020757165
193	0x3a6dfee1	0.00090788124
194	0x3c63fcb1	0.013915227
195	0x3c5eb3bf	0.0135926595
196	0x3b9f3853	0.0048590093
197	0x3cc9cbba	0.024633277
198	0x3b628d1e	0.0034568976
199	0x3b714c71	0.0036819244
200	0x3c19cf77	0.009387842
201	0x3c3970ce	0.011318399
202	0xbc0c1139	-0.008549028
203	0x3c89a2cd	0.016801262
204	0x3c3374ea	0.010953167
205	0x3c24c41d	0.010056523
206	0x3beadc5d	0.0071673826
207	0x3cca8fde	0.024726804
208	0x3bd9683f	0.0066347416
209	0xbbbb2f46	-0.0057124225
210	0xbb034ae3	-0.002003365
211	0xbbfbae79	-0.007680711
212	0x3bcab8d6	0.006186585
213	0xbbbb608a	-0.0057182955
214	0x3b0aba96	0.0021168343
215	0x3c41db1c	0.011832025
216	0x3ce86366	0.02836771
217	0x3bd10028	0.0063781925
218	0x3a42df45	0.00074337824
219	0x3b0b0a01	0.002121568
220	0xba57b9e6	-0.00082293
221	0xbba5deff	-0.0050619836
222	0x3c386599	0.0112546915
223	0x3c6c86a9	0.014436402
224	0x3bbd8635	0.005783821
225	0x3ba5e49e	0.0050626537
226	0x3aa5ac5e	0.001263987
227	0x3bc87961	0.006117985
228	0x3b9dc609	0.0048148674
229	0x3c294857	0.010332189
230	0xbc15a62f	-0.00913386
231	0x3c9405ee	0.018069234
232	0xbbdbf7ba	-0.006712881
233	0x3cc3f013	0.023918187
234	0x3ca2d8dd	0.0198788
235	0x3c7371af	0.014858647
236	0x3b07c7d5	0.0020718474
237	0xbc9dc3da	-0.019258428
238	0x3c0c7548	0.008572884
239	0x381f4481	3.7972353e-05
240	0x3c617fa2	0.01376334
241	0xbc0b38f5	-0.008497466
242	0x3cc6603f	0.024215816
243	0xbb9dadae	-0.004811964
244	0xb9a6d645	-0.0003182163
245	0x3cb365c2	0.021899108
246	0x3b556a0e	0.0032564434
247	0x3c334c31	0.010943458
248	0xbbe03279	-0.0068419543
249	0x3c08d9b2	0.008352684
250	0x3c3b6a17	0.011438868
251	0x3c4bf37a	0.012448186
252	0x3bc4fc00	0.006011486
253	0x3cdcfa90	0.026974946
254	0x3ccd6611	0.025073083
255	0xbae3f1cd	-0.0017390788

network_body.linear_encoder.seq_layers.0.bias f4 [256]
0	0xbe15bde9	-0.14623226
1	0xbc1ec421	-0.009690315
2	0x3e1d630a	0.15369812
3	0x3ddaddbc	0.10686824
4	0x3dbdc5a4	0.092662126
5	0x3cd7a2c5	0.026322732
6	0x3e1f57f2	0.15560892
7	0x3de6a24d	0.11261425
8	0xbda43f49	-0.08019883
9	0x3e0c61eb	0.13709228
10	0x3dab2794	0.08357158
11	0x3dd9e70f	0.10639774
12	0x3da0af30	0.07845914
13	0x3ddc99d4	0.10771528
14	0x3df54764	0.11976507
15	0xbdcda98b	-0.100421034
16	0xbc756b5a	-0.014979208
17	0xbd97aa54	-0.074055344
18	0x3e0b106c	0.13580483
19	0xbdc688b8	-0.09694046
20	0x3d92c173	0.07165804
21	0xbc360771	-0.011110173
22	0x3e18c6fd	0.14919658
23	0x3d944c07	0.072410636
24	0xbe1dd7a7	-0.15414296
25	0x3dda9e1b	0.106746875
26	0xbdf6a926	-0.12043981
27	0x3e1b4ce3	0.15166049
28	0x3dd81b35	0.10552064
29	0x3dbfe275	0.09369365
30	0xbe2905c3	-0.16506104
31	0x3dffd378	0.12491506
32	0x3e386966	0.18008956
33	0x3e05fa60	0.13083792
34	0x3e0aced5	0.13555463
35	0xbcce234b	-0.025163313
36	0x3d6c36ae	0.057669334
37	0x3e04eee5	0.12981756
38	0xbe1646d6	-0.1467546
39	0x3daf62eb	0.08563789
40	0x3d613cd6	0.05498966
41	0x3dddaa4d	0.10823498
42	0x3df1efcb	0.11813315
43	0xbe0482c1	-0.12940504
44	0x3da45d3e	0.08025597
45	0x3c1b1934	0.009466458
46	0x3da6876b	0.08131298
47	0x3d74dfa6	0.0597836
48	0xbd388240	-0.04504609
49	0x3e0911e5	0.13385732
50	0x3dd31979	0.10307593
51	0x3c468998	0.012117766
52	0x3c50a342	0.012734236
53	0xbdd9175a	-0.10600157
54	0xbe0de7d2	-0.13857964
55	0x3d884d5a	0.06655379
56	0x3df56c02	0.119834915
57	0x3df7dcb5	0.121026434
58	0xbd297698	-0.041372865
59	0x3ddadc26	0.10686521
60	0x3ddeea71	0.1088456
61	0x3dd154c7	0.10221248
62	0x3d5c5608	0.053792983
63	0x3d87e8e4	0.06636217
64	0xbbde3708	-0.0067814626
65	0x3e1c0032	0.1523445
66	0x3db08d8e	0.086207494
67	0xbe0fe843	-0.14053445
68	0x3de262fa	0.110540345
69	0xbe0fbdfa	-0.14037314
70	0x3dd2a5f8	0.10285562
71	0xbdfa27ac	-0.12214598
72	0x3d3e8833	0.04651661
73	0x3db518e0	0.08842635
74	0x3e001a23	0.1250997
75	0x3c1de036	0.009635976
76	0xbc9eb687	-0.019374145
77	0xbd10bbb5	-0.03533526
78	0xbb96d3e9	-0.0046028984
79	0x3e0dce5f	0.13848256
80	0x3dad9762	0.084761396
81	0xbcc29675	-0.023753384
82	0xbd857e38	-0.06518215
83	0xbe14dfbb	-0.14538471
84	0x3dade3b7	0.08490699
85	0x3d58fd7b	0.052976113
86	0xbd787846	-0.060661577
87	0x3d0c17b6	0.0342023
88	0xbda1ae69	-0.07894594
89	0x3dfd1fe9	0.12359602
90	0x3e09b49f	0.13447808
91	0xbe228d4f	-0.15874217
92	0x3da4e2dc	0.080510825
93	0x3dc4bd45	0.09606413
94	0x3dd09190	0.10184014
95	0x3d822a98	0.0635578
96	0xbe14ef5b	-0.14544432
97	0xbdacd3d9	-0.08438844
98	0x3e0be95f	0.13663243
99	0x3d31a33e	0.04336857
100	0x3dd6aeee	0.10482584
101	0x3df4a58b	0.11945637
102	0xbe184718	-0.1487087
103	0xbd21c9f8	-0.039499253
104	0xbd9ecfa2	-0.077544466
105	0x3e00a5ad	0.125632
106	0x3b242613	0.0025047108
107	0x3e15c703	0.14626698
108	0xbdb60b99	-0.08888931
109	0xbcd4499a	-0.025914002
110	0xbd907d35	-0.07055131
111	0x3dd586bd	0.1042609
112	0x3e01282f	0.12612985
113	0x3e186c4c	0.14885062
114	0x3e2f3d6e	0.17113277
115	0x3d2329e5	0.039834876
116	0x3c6f2423	0.014596018
117	0x3e1bf5a6	0.15230426
118	0xbd93943b	-0.07206007
119	0x3c97079e	0.01843625
120	0x3e12ad95	0.14324029
121	0xbda7d7a1	-0.08195425
122	0x3e12cf6b	0.14336936
123	0x3da64cd6	0.08120124
124	0xbe098679	-0.13430203
125	0x3da8fe1a	0.08251591
126	0x3ddd5a50	0.10808241
127	0xbe08a0c7	-0.13342582
128	0xbc8093dd	-0.015695507
129	0xbe217082	-0.15765575
130	0xbe1447ad	-0.14480467
131	0x3d831487	0.064004
132	0xbd84d7f6	-0.06486504
133	0x3cfe7bf1	0.03106496
134	0x3d6b0d37	0.05738565
135	0x3db55ad5	0.088552155
136	0x3e1bb36b	0.15205161
137	0xbe0a156a	-0.13484731
138	0xbc8c3426	-0.01711471
139	0x3ddda0d1	0.10821689
140	0xbd4bb29f	-0.049730893
141	0xbbb4195a	-0.005496186
142	0x3d03cce9	0.03217784
143	0x3e154a75	0.14579184
144	0x3d35deaf	0.04440182
145	0xbc0d51da	-0.008625472
146	0xbe001184	-0.12506682
147	0xbde2c0a0	-0.110718966
148	0xbd35e2e5	-0.044405837
149	0x3dcc2dbc	0.09969661
150	0x3df8c8a8	0.12147647
151	0x3e08e9ea	0.13370481
152	0x3db43268	0.08798677
153	0xbdb2ee0d	-0.08736811
154	0x3d9ef5c8	0.07761723
155	0xbe16cd7a	-0.1472682
156	0x3e0e708c	0.1391012
157	0x3e073c4f	0.132066
158	0x3d78f22e	0.060777836
159	0x3d008d95	0.031385023
160	0x3dde5a84	0.10857108
161	0xbe28b8f8	-0.1647681
162	0x3dcf82c2	0.10132362
163	0x3e0b7673	0.13619404
164	0xbdcc60a7	-0.099793725
165	0x3ca98b52	0.020696316
166	0x3d3e3a81	0.046442512
167	0x3dfe660c	0.12421808
168	0xbe022384	-0.1270886
169	0xbe073432	-0.13203505
170	0x3d72f109	0.0593119
171	0x3cdb786b	0.026790818
172	0x3e28c587	0.164816
173	0x3d5e597a	0.05428455
174	0x3dbeaf81	0.093108185
175	0xbd48e6ea	-0.04904834
176	0xbd9e4b5e	-0.07729219
177	0xbe0ee41d	-0.13954206
178	0x3e1b4ba0	0.15165567
179	0xbd6c9d18	-0.057767004
180	0xbda7c335	-0.0819153
181	0x3e031f52	0.12804917
182	0xbe1aa4d6	-0.15101942
183	0x3dfd5fb9	0.12371773
184	0x3ac4060d	0.0014955417
185	0x3dc33ff8	0.095336854
186	0x3c5553e5	0.01302049
187	0x3dc1afef	0.09457385
188	0xbe11aad7	-0.14225326
189	0xbe2b9d1d	-0.16759153
190	0x3e1aca45	0.15116222
191	0xbd93a96c	-0.07210049
192	0xbd84725a	-0.06467123
193	0x3dbf2b58	0.09334439
194	0x3dc61538	0.09672016
195	0xbe11a67c	-0.14223665
196	0x3c53120b	0.01288272
197	0x3dfa83be	0.12232159
198	0x3e27a162	0.16370156
199	0xbdf90aa9	-0.121602364
200	0x3ddc5537	0.10758441
201	0x3d654b17	0.055979814
202	0xbd3ce5be	-0.046117537
203	0x3e1b8c60	0.15190268
204	0x3dc5f445	0.09665731
205	0x3d87d5c8	0.066325724
206	0xbe231c84	-0.15928847
207	0xbd99a0da	-0.07501383
208	0x3e0dee35	0.138604
209	0xbe0b11a9	-0.13580956
210	0x3e0195aa	0.12654749
211	0x3ddb7144	0.10714963
212	0x3bf4c1a3	0.0074693724
213	0xbcbeeb46	-0.023305546
214	0xbde1df82	-0.11028959
215	0x3e2bca18	0.16776311
216	0xbd038386	-0.032107852
217	0xbe24b9a4	-0.16086441
218	0x3dbde718	0.09272593
219	0xbe13940a	-0.14411941
220	0x3c7adfed	0.015312177
221	0x3d878c0a	0.06618507
222	0x3d0f3be4	0.034969226
223	0xbd6b6e53	-0.05747826
224	0x3e13f088	0.14447224
225	0x3dfaf083	0.12252905
226	0x3d9f22fd	0.07770345
227	0xbdd179b3	-0.102282904
228	0x3c40f6d4	0.011777598
229	0x3d988476	0.0744714
230	0x3d55c2a5	0.05218758
231	0xbe027a0f	-0.12741874
232	0xbd5ab80c	-0.053398177
233	0xbe19fcee	-0.15037891
234	0xbde8fbf0	-0.11376178
235	0x3dc9a51b	0.098459445
236	0xbe1bb3e0	-0.15205336
237	0x3e28478b	0.16433541
238	0x3e1ee94d	0.15518685
239	0x3d8a7dbd	0.06762264
240	0xbe2f6546	-0.17128477
241	0xbdffb3da	-0.12485476
242	0x3dae1e44	0.085018665
243	0x3defff56	0.11718623
244	0xbd1231e2	-0.035692103
245	0xbdd2077d	-0.102553345
246	0xbde48c9f	-0.11159634
247	0x3e2ef7a5	0.17086656
248	0xbdb14761	-0.086561926
249	0xbdaead91	-0.08529199
250	0x3d4a02c8	0.04931906
251	0xbe015386	-0.12629518
252	0x3d91dc98	0.07122153
253	0xbd9118a9	-0.07084782
254	0x3c0eeea8	0.008723892
255	0x3ddd7910	0.108141065

network_body.linear_encoder.seq_layers.0.weight f4 [256, 9]
0	0xbf386949	-0.7203565
1	0xbd31d91e	-0.04341995
2	0x3de84cf4	0.11342803
3	0x3d3cb38f	0.046069678
4	0x3def0208	0.11670309
5	0x3ea97289	0.33095196
6	0xbc17fe36	-0.009276917
7	0x3e35bf32	0.17748716
8	0xbd293691	-0.041311804
9	0xbe9eda10	-0.31025743
10	0xbca44cb6	-0.02005611
11	0x3d995e1a	0.074886516
12	0x3f19934c	0.5999038
13	0x3e851f84	0.26000607
14	0x3d214e36	0.03938123
15	0xbd933f35	-0.0718979
16	0xbc2b6df4	-0.010463227
17	0x3eaafabc	0.3339442
18	0xbe39f08f	-0.18158172
19	0x3ed0d1db	0.40785107
20	0xbd342d07	-0.043988254
21	0x3e0deda6	0.13860187
22	0xbe898fb9	-0.26867464
23	0x3e9ca636	0.3059556
24	0xbf199d65	-0.6000579
25	0x3d113b38	0.035456866
26	0xbf22e677	-0.6363291
27	0xbe18e119	-0.14929618
28	0xbd5f3fe7	-0.0545043
29	0x3f186ce2	0.5954114
30	0x3e60902f	0.21930002
31	0x3eb6d47a	0.35708982
32	0xbefed37f	-0.49770734
33	0xbf3ed802	-0.7454835
34	0x3ee5af8c	0.44860494
35	0xbd811e6f	-0.06304633
36	0xbdba6690	-0.091015935
37	0x3f140908	0.5782628
38	0xbed313a4	-0.41225922
39	0x3dd66bc9	0.10469777
40	0x3ebf5a68	0.37373662
41	0xbf119467	-0.5686707
42	0x3eaa5a73	0.33272132
43	0x3deebf4c	0.11657581
44	0x3f756840	0.958622
45	0xbeb02862	-0.3440581
46	0xbe15dce6	-0.14635047
47	0xbeb557a7	-0.35418436
48	0x3f3fc4d2	0.749097
49	0x3e64001f	0.22265671
50	0x3e96e5c0	0.2947216
51	0xbeb31b61	-0.34981826
52	0x3e77b6b2	0.24190786
53	0xbe7cd2b1	-0.24689747
54	0x3e8406ff	0.25786588
55	0x3f1f13c6	0.62139547
56	0x3ec9689f	0.39337632
57	0xbea6e2bf	-0.3259487
58	0xbf2315c7	-0.63705105
59	0x3ea2f0ba	0.31824285
60	0xbf3b3579	-0.7312847
61	0x3da2ec8e	0.079552755
62	0x3e9e091f	0.30866334
63	0x3e8a2baf	0.26986453
64	0xbe2ca01a	-0.16857949
65	0xbdb5284b	-0.08845576
66	0x3d08a8c9	0.03336409
67	0xbf199b66	-0.60002744
68	0x3dce4df2	0.10073461
69	0x3e89d596	0.26920766
70	0xbe8c193c	-0.27363002
71	0x3d825aba	0.06364961
72	0xbf67a26f	-0.9048223
73	0xbe502d96	-0.2032989
74	0x3dcfff1c	0.1015608
75	0x3ebe916e	0.3722033
76	0x3e99092f	0.2988982
77	0x3e8f5c1e	0.27999967
78	0xbf40d46e	-0.7532414
79	0x3e86534c	0.26235425
80	0x3e5c0781	0.21487238
81	0x3e16e88f	0.14737152
82	0xbdd746f1	-0.10511578
83	0xbe068f7d	-0.13140674
84	0xbeb64991	-0.35603002
85	0xbeb5f6b6	-0.35539788
86	0xbe52c177	-0.20581613
87	0xbe15ce47	-0.1462947
88	0xbea9270d	-0.33037606
89	0xbf339e12	-0.7016307
90	0x3de9f66a	0.11423953
91	0x3c2225bf	0.009896695
92	0xbdc9fde2	-0.098628774
93	0x3e38a8c9	0.18033136
94	0xbe64263f	-0.22280215
95	0x3ec1dd33	0.37864074
96	0xbeb58dd4	-0.3545977
97	0x3e884b71	0.26620057
98	0x3ee8aa6b	0.4544252
99	0xbe3ff9f6	-0.18747696
100	0x3dc8c103	0.09802439
101	0xbe57c850	-0.21072507
102	0xbe6980ee	-0.22803089
103	0xbd1d570b	-0.03841309
104	0x3ec31b1c	0.3810662
105	0xbcb98cd3	-0.022650158
106	0x3e1fc746	0.1560336
107	0x3f109d02	0.56489575
108	0x3f0e565d	0.5560053
109	0x3f1d45ca	0.61434615
110	0x3e38e027	0.18054257
111	0xbf3a2cb2	-0.7272445
112	0x3d653d46	0.055966638
113	0xbdceb2f8	-0.10092729
114	0x3e989a6c	0.29805315
115	0x3ec839b2	0.39106518
116	0xbe8f3149	-0.2796729
117	0xbe8f4b60	-0.27987194
118	0xbd243e89	-0.0400987
119	0xbef3a92f	-0.47590014
120	0x3e014bd0	0.12626576
121	0xbeaf52e3	-0.34242925
122	0x3efeacd6	0.49741238
123	0xbf14917b	-0.58034486
124	0xbf567d0f	-0.83784574
125	0xbeb0077e	-0.34380716
126	0x3e185324	0.14875466
127	0xbea82b53	-0.32845554
128	0x3e8c8dcf	0.2745194
129	0xbe122b43	-0.14274316
130	0x3d2549c1	0.04035354
131	0x3c718c1e	0.014742879
132	0x3ebb338a	0.3656276
133	0x3f1732c0	0.59061813
134	0xbf45d575	-0.77278835
135	0xbe2366f0	-0.15957236
136	0xbdb6a961	-0.08919025
137	0x3f205754	0.6263325
138	0x3cf94ab5	0.03043113
139	0x3ebcfb69	0.3691056
140	0x3d6cd6d0	0.05782205
141	0x3ed2251e	0.41043943
142	0x3d19c2a0	0.037539124
143	0x3df11d7e	0.11773203
144	0xbefa254a	-0.48856574
145	0xbde73338	-0.11289066
146	0x3b7b381c	0.0038333004
147	0xbefe879e	-0.49712843
148	0x3e6d5287	0.23176013
149	0xbdb61bff	-0.088920586
150	0xbe0f2579	-0.13979138
151	0xbe5db40e	-0.21650717
152	0x3e6a3aea	0.22874036
153	0xbea4b0e6	-0.32166213
154	0xbcb40c1f	-0.021978436
155	0x3d105dc4	0.035245672
156	0xbeb6ce80	-0.35704422
157	0xbd2f46f2	-0.042792268
158	0xbd1f176d	-0.0388407
159	0x3e132322	0.14368871
160	0x3d2e97a0	0.04262507
161	0xbe748ee0	-0.23882627
162	0x3e628397	0.2212051
163	0xbd03d08f	-0.03218132
164	0xbe68e7cf	-0.22744678
165	0xbe0f1ca2	-0.13975766
166	0x3e914042	0.28369337
167	0x3e3f5867	0.18686067
168	0xbe4b380b	-0.19845597
169	0x3ee7835e	0.45217413
170	0xbe7033ab	-0.2345721
171	0xbd127144	-0.03575255
172	0xbdd59d31	-0.104303725
173	0xbeffd66c	-0.49968278
174	0xbf0477c5	-0.51745254
175	0xbdc05154	-0.09390512
176	0x3e8c2851	0.2737451
177	0x3e6a753f	0.22896288
178	0xbeaeec02	-0.34164435
179	0xbd872396	-0.06598584
180	0x3e20a24a	0.15686908
181	0x3ea48f4c	0.32140577
182	0xbddf6633	-0.10908165
183	0xbf12ee58	-0.57394934
184	0x3e418b55	0.18900807
185	0x3e0dc192	0.13843372
186	0xbeecae39	-0.4622667
187	0xbf002936	-0.5006288
188	0xbf1b6191	-0.6069575
189	0x3f0048d5	0.5011113
190	0x3e54ac95	0.2076896
191	0xbd553538	-0.052052706
192	0x3e253d52	0.16136673
193	0x3dd9dde7	0.10638028
194	0x3f1ed9e0	0.620512
195	0xbd87a3b1	-0.066230185
196	0xbe5d3ee7	-0.21606027
197	0x3ca69975	0.020336846
198	0x3e1488fc	0.1450538
199	0xbf1e0542	-0.6172677
200	0x3e677047	0.22601424
201	0xbe1af8d5	-0.15133984
202	0x3d691171	0.0569014
203	0xbe52d140	-0.20587635
204	0xbf0889b4	-0.5333512
205	0xbe92343e	-0.28555483
206	0xbda02cd2	-0.07821049
207	0x3d994313	0.074834965
208	0x3d6c904e	0.057754807
209	0xbe0d80ca	-0.1381866
210	0x3f0dd47f	0.5540237
211	0xbc7f3218	-0.015575908
212	0x3eb1a532	0.34696347
213	0x3d67b0de	0.056565158
214	0xbe098294	-0.13428718
215	0xbeaced1b	-0.33774647
216	0xbda1acdf	-0.07894301
217	0xbecd794d	-0.40131608
218	0x3ee70c2f	0.45126483
219	0x3d9433d9	0.07236452
220	0x3d444148	0.04791382
221	0xbea9aecb	-0.3314117
222	0x3d8adacb	0.06780013
223	0xbd53f836	-0.051750384
224	0xbcc8fe0c	-0.024535201
225	0x3f382bfa	0.719421
226	0x3ebfb051	0.37439206
227	0x3c6954de	0.014241425
228	0xbdef3266	-0.116795346
229	0x3ed49018	0.41516185
230	0xbe9df9fa	-0.3085478
231	0xbe889396	-0.266751
232	0xbf3977b6	-0.7244829
233	0x3ec1d0a9	0.37854508
234	0xbe9332ba	-0.2874964
235	0x3ed9639e	0.42458814
236	0xbef7afe7	-0.4837639
237	0xbd5bb22c	-0.053636715
238	0x3d04aab7	0.03238937
239	0x3ec0003f	0.37500188
240	0xbd59266d	-0.05301516
241	0x3e9b402f	0.30322406
242	0x3d1bb843	0.038017523
243	0xbe99bdc5	-0.30027595
244	0xbcae715e	-0.021294292
245	0xbe447560	-0.191854
246	0xbe8d9a84	-0.2765695
247	0xbf186bf1	-0.59539706
248	0xbf6021ff	-0.87551874
249	0xbefea112	-0.49732262
250	0x3e158d95	0.1460479
251	0x3ee86143	0.45386705
252	0x3d576a69	0.052591715
253	0xbda4e4ca	-0.080514506
254	0x3e42a9aa	0.19010034
255	0x3e946868	0.28985906

network_body.linear_encoder.seq_layers.2.bias f4 [256]
0	0xbd95cdb8	-0.07314628
1	0x3d84f8f4	0.064927965
2	0x3df61d57	0.12017315
3	0xbdce11c0	-0.10061979
4	0x3dfc094e	0.12306462
5	0x3c1efa90	0.009703293
6	0x3de9d3a8	0.11417323
7	0x3d895441	0.06705523
8	0x3d77e33a	0.060519435
9	0xbb4d456f	-0.0031321903
10	0x3d5913f3	0.05299754
11	0x3dad18fd	0.08452032
12	0x3d3ae241	0.04562593
13	0xbc874b46	-0.016515385
14	0xbd870cfd	-0.06594274
15	0xbd6477cd	-0.055778313
16	0x3cad4447	0.021150721
17	0x3e07c2ed	0.13257952
18	0xbdb9d61a	-0.0907404
19	0x3c19c789	0.009385952
20	0xbc40931a	-0.011753822
21	0x3d2cf4f6	0.0422258
22	0xbde892b6	-0.11356108
23	0x3e04f327	0.1298338
24	0xbd9da386	-0.07697205
25	0x3c9568a8	0.01823838
26	0xbdf1734b	-0.117895685
27	0x3c89974f	0.016795782
28	0xbde53565	-0.11191825
29	0xbd2e15bf	-0.042501207
30	0xbd943033	-0.07235756
31	0xbdb819fd	-0.08989332
32	0xbc4258b3	-0.011861968
33	0x3cefa398	0.029252812
34	0xba8d2062	-0.0010767097
35	0x3dc3e110	0.09564412
36	0xbd0e45d2	-0.034734555
37	0xbdb6631f	-0.089056246
38	0x3d5932ae	0.053026848
39	0xbc9df9f6	-0.01928423
40	0xbddb00be	-0.10693501
41	0x3d7609c3	0.060067903
42	0x3e105927	0.14096509
43	0xbd922f1b	-0.07137891
44	0x3d7b74f3	0.06139083
45	0x3c9438f6	0.018093567
46	0xbd6b66e7	-0.057471182
47	0x3c4d84ca	0.012543866
48	0xbd868035	-0.06567422
49	0x3e013167	0.12616502
50	0x3c991305	0.018685827
51	0xbdcd1897	-0.10014456
52	0x3da4004c	0.08007869
53	0xbba52ddc	-0.0050408673
54	0x3dd6cd75	0.104884066
55	0x3c8318b0	0.016002983
56	0x3db693fb	0.08914944
57	0x3ddc02d7	0.10742729
58	0xbde828f8	-0.11335939
59	0xbce9b000	-0.028526306
60	0x3dc144b3	0.094369315
61	0xbd3f9b21	-0.0467788
62	0xbd8063a1	-0.06269003
63	0xbd01ae8e	-0.03166061
64	0x3e15565f	0.14583729
65	0x3dfd6afb	0.123739205
66	0xbd534686	-0.05158093
67	0xbc3de8e9	-0.011591175
68	0xbcdb7427	-0.026788784
69	0x3db2e793	0.087355755
70	0x3d905c28	0.070488274
71	0xbd82602b	-0.06365999
72	0x3d01d374	0.031695798
73	0xbdb76216	-0.08954255
74	0x3de05053	0.10952821
75	0x3da4d15d	0.080477454
76	0xbd2d1be2	-0.04226292
77	0x3c94ebc7	0.018178834
78	0xbd4888e2	-0.048958667
79	0xbdabfba7	-0.08397608
80	0x3d59bcbd	0.05315851
81	0x3c28d618	0.01030495
82	0x3cd0800a	0.025451679
83	0xbdab6a11	-0.0836984
84	0xbdde49b4	-0.108539015
85	0x3c65ed14	0.014033575
86	0xbda22e11	-0.07918943
87	0x3cf1065d	0.02942198
88	0xbd99d35a	-0.07511015
89	0xbdbfe32b	-0.09369501
90	0xbba74b94	-0.005105445
91	0xbcb9e3a6	-0.022691559
92	0xbd281d36	-0.041043483
93	0x3dc4d13b	0.0961022
94	0xbda5a2b9	-0.080876775
95	0x3e157cf7	0.14598452
96	0x3dced76e	0.10099684
97	0x3d6ae911	0.057351176
98	0x3db3122b	0.087437
99	0xbd8f8c38	-0.070091665
100	0xbdb9c0f2	-0.090700045
101	0x3dd0d613	0.101970814
102	0x3cd5ca1b	0.026097348
103	0x3d8461d6	0.06463973
104	0x3cfe54ea	0.03104635
105	0xbc31aeb7	-0.010844878
106	0x3dd20750	0.10255301
107	0x3dee5b8a	0.116385534
108	0xbdc5fd06	-0.09667401
109	0xbd2cb5df	-0.042165633
110	0x3d5fb932	0.054619975
111	0x3d42b8b7	0.04753944
112	0x3d08a037	0.033355918
113	0x3d945c1f	0.07244133
114	0x3d8f4365	0.06995276
115	0x3b2bfc40	0.0026242882
116	0xbde122f6	-0.109929964
117	0x3dcc4909	0.09974868
118	0xbdcf67a4	-0.1012719
119	0x3dea46f0	0.114393115
120	0x3de7fcf7	0.11327546
121	0xbde777c3	-0.113021396
122	0x3e0ee949	0.13956179
123	0x3db7dca9	0.089776345
124	0xbdbcda2d	-0.09221301
125	0x3d60df29	0.054900322
126	0xbc029079	-0.007969015
127	0xbdc09696	-0.09403722
128	0x3df13abc	0.11778781
129	0x3d95fb79	0.07323355
130	0xbdbe25a7	-0.09284525
131	0xbdee57b1	-0.116378196
132	0x3d25dd3e	0.040494196
133	0x3d517d4c	0.051144883
134	0xbcf1c10b	-0.029510995
135	0x3b91b07d	0.004446088
136	0xbdbaa110	-0.091127515
137	0xbca6ca45	-0.020360122
138	0xbd3a7b9a	-0.045528032
139	0x3bcc4554	0.0062338505
140	0xbdd66c8a	-0.10469921
141	0x3d044cca	0.032299794
142	0x3dba5b7f	0.09099483
143	0x3db66aa0	0.08907056
144	0x3c2968b2	0.010339903
145	0x3dd269c9	0.10274083
146	0x3d87414a	0.0660425
147	0x3ce9a2de	0.028520044
148	0xbdd8f7ad	-0.105941154
149	0x3dec8151	0.11548103
150	0xbd84e5fb	-0.06489178
151	0xbdaa6941	-0.08320857
152	0x3db69c65	0.08916549
153	0xbd8e6fb3	-0.06954899
154	0x3d245101	0.040116314
155	0xbdacf9f6	-0.08446114
156	0x3d90679a	0.070510104
157	0x3db84a5e	0.089985594
158	0x3e0bfc7b	0.13670532
159	0x3dda4fe4	0.10659769
160	0x3e18a144	0.14905268
161	0x3dce87bf	0.10084485
162	0xbc37397d	-0.01118314
163	0x3d6654a3	0.05623306
164	0x3dd797a8	0.10526973
165	0xbc6aa176	-0.014320722
166	0x3ac2c459	0.0014859542
167	0xbdf2e90d	-0.11860857
168	0xbbdac782	-0.006676615
169	0xbd851346	-0.06497817
170	0xbd49798b	-0.049188178
171	0xbdc3ff95	-0.09570233
172	0x3dd15a1e	0.102222666
173	0xbd74ecfd	-0.059796322
174	0x3e0720b4	0.13196069
175	0x3c288c70	0.010287389
176	0x3e01a61b	0.1266102
177	0xbdf4ecab	-0.11959203
178	0xbdf11613	-0.117717884
179	0x3cbd3349	0.023095744
180	0x3d189526	0.037251614
181	0x3d4c583c	0.049888834
182	0x3d4fb877	0.05071303
183	0xbdcb424f	-0.09924757
184	0xbd79ab51	-0.060954396
185	0xbdc92ebf	-0.09823369
186	0x3db77010	0.08956921
187	0xbd16107e	-0.036636822
188	0xbc3b7198	-0.011440657
189	0xbc929f5f	-0.01789826
190	0x3c5e5c3e	0.013571797
191	0x3dd1a467	0.102364354
192	0x3db1b6a4	0.08677414
193	0xbdec3713	-0.11533942
194	0x3d9dc89b	0.07704278
195	0x3d92ec30	0.071739554
196	0x3d80f8ee	0.062974796
197	0x3dbf8665	0.093518056
198	0xbd15fd0e	-0.036618285
199	0xbcdf99ea	-0.027295072
200	0x3cb2fc41	0.0218488
201	0x3dc7244c	0.0972372
202	0xbcd6740c	-0.026178382
203	0x3df16996	0.11787717
204	0xbb02d192	-0.001996134
205	0xbc9e9803	-0.019359594
206	0x3d9439cc	0.072375864
207	0x3dc57996	0.09642331
208	0xbdbd4766	-0.09242134
209	0xbd496dc0	-0.04917693
210	0xbdd89716	-0.10575692
211	0xbcf5a84a	-0.029987473
212	0x3dc443cb	0.09583243
213	0xbdce3bdd	-0.10070012
214	0xbb732798	-0.0037102457
215	0xbc1e01c5	-0.009643977
216	0x3e0ae8b3	0.1356533
217	0xbc7cd5de	-0.015431849
218	0x3d85666d	0.06513677
219	0x3b0a1308	0.0021068472
220	0x3be6b1da	0.0070402445
221	0xbd9fcd24	-0.07802799
222	0x3dfa1dfd	0.12212751
223	0xbd332be1	-0.043743018
224	0x3c2e3e55	0.010634978
225	0xbd319e8f	-0.043364104
226	0x3d9ec486	0.077523276
227	0xbd30676e	-0.04306739
228	0xbd61d0eb	-0.05513088
229	0x3de3c912	0.111223355
230	0xb93bb9ee	-0.00017902974
231	0x3e0fc8f6	0.14041504
232	0xbd416b4b	-0.047221463
233	0x3df925a9	0.12165386
234	0xbc6f637f	-0.014611124
235	0x3da5e46a	0.08100207
236	0xbda9caa0	-0.08290601
237	0xbd2ee284	-0.04269649
238	0x3e06bb03	0.13157277
239	0xbd4add4d	-0.049527455
240	0x3c14c4f6	0.009080162
241	0xbda585bb	-0.08082148
242	0x3df51f6e	0.11968885
243	0xbddd79ce	-0.10814248
244	0xbdc545ba	-0.0963244
245	0x3dc80992	0.097674504
246	0xbd9651c7	-0.073398165
247	0x3d40e5d2	0.047094174
248	0xbd4c5faa	-0.04989592
249	0x3df334de	0.11875318
250	0x3d016448	0.031589776
251	0x3c891063	0.016731447
252	0x3dfaff8e	0.122557744
253	0x3e0cf315	0.13764603
254	0x3e01d1f1	0.12677743
255	0x3d7d0852	0.061775513

network_body.linear_encoder.seq_layers.2.weight f4 [256, 256]
0	0xbc7a139b	-0.015263463
1	0x3d9f6bfe	0.0778427
2	0xbdc573c6	-0.09641223
3	0xbe0a3125	-0.1349531
4	0xbd0996c4	-0.033591047
5	0xbda2b996	-0.07945554
6	0x3d63d392	0.05562169
7	0xbbb6867e	-0.005570232
8	0xbd0e1335	-0.034686286
9	0xbd912840	-0.07087755
10	0x3d5cf9a0	0.053949
11	0xbc8a261b	-0.016863873
12	0xbd2c339c	-0.042041406
13	0xbd81015d	-0.06299088
14	0xbd459d0e	-0.048245482
15	0x3d93ae2d	0.07210956
16	0x3d8d1d14	0.06890312
17	0xbdbfdb90	-0.0936805
18	0xbdb1acff	-0.086755745
19	0xbb935e9f	-0.0044973637
20	0xbcde7d79	-0.02715944
21	0xbdd6634c	-0.10468158
22	0xbdc34354	-0.09534326
23	0x3c162f6a	0.009166578
24	0x3d2dcf55	0.042434055
25	0xbcffeb4f	-0.031240134
26	0x3d08ec91	0.033428732
27	0x3d31ba08	0.043390304
28	0x3d49c72d	0.049262214
29	0xbd145216	-0.036211096
30	0xbba094b7	-0.0049005407
31	0xbdc16c4d	-0.09444485
32	0xbc894aa3	-0.016759222
33	0xbce088db	-0.027409008
34	0x3c132739	0.008981519
35	0xbd9bd51e	-0.07609008
36	0x3ba868ad	0.0051394315
37	0xbcf88d8b	-0.03034093
38	0xbd5bbc26	-0.05364623
39	0xbd8432cb	-0.064550005
40	0xbd9fc09f	-0.078004114
41	0xbb88157d	-0.004152952
42	0x3cfaf089	0.030632274
43	0xbde87d11	-0.113519795
44	0xbc931ae4	-0.017957158
45	0xbbb90018	-0.005645763
46	0xbda01c50	-0.078179
47	0xbdb16e04	-0.08663562
48	0xbcbda038	-0.023147687
49	0xbc5b960a	-0.013402471
50	0xbd3f0e60	-0.04664457
51	0xbd0b1d76	-0.033963643
52	0xbd1a6725	-0.037696023
53	0x3d34849a	0.04407177
54	0x3db52c87	0.088463835
55	0xbda263ae	-0.07929169
56	0xbce6944c	-0.028146885
57	0xbe58305c	-0.21112198
58	0xbd351f43	-0.044219267
59	0x3d554149	0.052064214
60	0x3d64b84f	0.055839833
61	0xbd6f6db4	-0.05845423
62	0xbd0a07a3	-0.03369869
63	0x3d36dab7	0.044642176
64	0x3d1e4a88	0.038645297
65	0xbdcf7176	-0.10129063
66	0xbd5f0f6f	-0.054458078
67	0x3be12e1a	0.006871951
68	0xbddb5347	-0.10709243
69	0x3b807ade	0.003920897
70	0xbd1a0723	-0.037604462
71	0x3c1fbfd0	0.0097503215
72	0xbcaa5bdd	-0.020795757
73	0x3d7790d7	0.060440864
74	0x3dd0e990	0.102007985
75	0xbe0deb55	-0.13859303
76	0xbc13e1e3	-0.009026024
77	0xbce18462	-0.027528945
78	0xbd30461e	-0.04303562
79	0xbcd8810c	-0.026428722
80	0xbdae5baa	-0.08513577
81	0xbdc1eec2	-0.094693676
82	0xbcf7004b	-0.030151507
83	0xbd80a443	-0.062813304
84	0xbdd8a1f1	-0.10577763
85	0xbcd6a997	-0.026203914
86	0x3e11d2b7	0.14240538
87	0xbd1e1dea	-0.038602747
88	0xbc94c6f8	-0.018161282
89	0xbdd40c56	-0.103539154
90	0xbe1cde42	-0.1531916
91	0xbdd0e174	-0.10199252
92	0x3d08e1f4	0.03341861
93	0xbd27b897	-0.040947523
94	0x3c245210	0.010029331
95	0xbcb1a714	-0.021686114
96	0x3d4f9253	0.050676655
97	0x3cefe5b5	0.029284338
98	0xbe26553d	-0.16243453
99	0xbd974f4d	-0.07388172
100	0x3d96bedb	0.073606215
101	0x3d8d0c82	0.06887151
102	0x3e355259	0.17707194
103	0x3d928f73	0.07156267
104	0xbcb910c3	-0.022591
105	0x3bbfa8b0	0.0058489665
106	0x3bd8f8fa	0.006621477
107	0x3d61a674	0.055090383
108	0xbd2f2d29	-0.042767677
109	0xbddb83c2	-0.1071849
110	0x3d6c60e5	0.057709593
111	0x3d8a34f3	0.067483805
112	0x3dde7edf	0.108640425
113	0xbd914cc2	-0.070947185
114	0xbdfeb206	-0.12436299
115	0xbd8a9681	-0.067669876
116	0xbc255bb1	-0.010092662
117	0x3cbf6e5b	0.023368051
118	0xbcbedc6a	-0.023298461
119	0x3d8073fc	0.06272122
120	0xbc5ed4ef	-0.013600572
121	0xbce09b37	-0.027417762
122	0x3d837bbd	0.064200856
123	0xbd8e3252	-0.069431916
124	0xbcf42536	-0.0298029
125	0xbe0ed041	-0.1394663
126	0xbcab5a1c	-0.020916991
127	0x3d524856	0.051338516
128	0x3e03021c	0.12793773
129	0x3d3d84a5	0.046269078
130	0x3d6aab3a	0.0572922
131	0xbdf403aa	-0.11914761
132	0x3df1c093	0.11804309
133	0xbd235696	-0.039877497
134	0x3c846682	0.01616216
135	0xbd13269e	-0.0359255
136	0xbdd72fb7	-0.10507148
137	0xbd3e6d59	-0.046491
138	0xbdf4f7e7	-0.11961346
139	0x3dc6f664	0.09714964
140	0xbd9e378c	-0.077254385
141	0x3d12c618	0.03583345
142	0x3d41c91f	0.047310945
143	0xbe14c26c	-0.14527291
144	0x3d1c96f3	0.038229894
145	0xbd8bacac	-0.06820044
146	0xbc97ef84	-0.018546827
147	0x3ddc1e98	0.10748023
148	0x3cb16637	0.021655185
149	0xbd8520d9	-0.06500406
150	0x3d622178	0.0552077
151	0x3d0d4ac3	0.034495126
152	0xbd1593ac	-0.036517784
153	0x3d2527a1	0.040320996
154	0x3d71473e	0.058905832
155	0x3db9635f	0.09052157
156	0xbda5a34c	-0.08087787
157	0x3cea84cf	0.028627781
158	0xbd183c2f	-0.03716677
159	0x3db2ef49	0.08737046
160	0x3cdcf6e4	0.026973195
161	0x3d77f5d7	0.060537186
162	0xbe0c6000	-0.13708496
163	0xbc7a858c	-0.015290629
164	0xbd3a545e	-0.045490615
165	0xbcd58be3	-0.02606768
166	0x3ce27100	0.027641773
167	0xbd9f967f	-0.07792377
168	0x3e0d7fb9	0.13818254
169	0x3b803c68	0.003913451
170	0x3d7a9fc7	0.06118753
171	0x3d068edd	0.03285109
172	0xbd4d172d	-0.05007093
173	0xbd3306f0	-0.043707788
174	0xbd88f3ad	-0.066871025
175	0xb8ae8510	-8.3217514e-05
176	0xbdfa18a0	-0.12211728
177	0xbd6aa551	-0.057286564
178	0x3a97f654	0.0011593797
179	0x3d13eb6a	0.03611318
180	0xbe0f044f	-0.13966487
181	0xbd994104	-0.07483104
182	0x3b9a9f7e	0.00471872
183	0xbde09de4	-0.10967615
184	0xbca9feed	-0.02075144
185	0xbb82a12c	-0.0039864983
186	0xbd6724b6	-0.056431495
187	0xbda295b4	-0.0793871
188	0xbc4e6f45	-0.012599771
189	0x3d48f671	0.04906315
190	0xbd22f5ac	-0.039785072
191	0xbca33e83	-0.019927269
192	0x3d41dafe	0.047327988
193	0x3d642994	0.055703714
194	0xbc8a8ab3	-0.01691184
195	0xbcf32224	-0.029679365
196	0x3e0548e9	0.13016094
197	0x3cf658bb	0.030071607
198	0xbdcc8fc8	-0.099883616
199	0x3d0b17ed	0.033958364
200	0xbd9b08ee	-0.075700626
201	0x3d649330	0.05580443
202	0xbc542181	-0.012947441
203	0xbca08ed2	-0.019599352
204	0x3d0a1814	0.03371437
205	0xbd965fed	-0.07342515
206	0xbd94e421	-0.07270075
207	0xbdcb769e	-0.09934734
208	0xbb6fb2ee	-0.0036575156
209	0xbc95ab91	-0.018270286
210	0x3d081a64	0.033228293
211	0x3c4548b6	0.012041261
212	0xbe08cb3f	-0.13358782
213	0x3da72e38	0.081631124
214	0x3d0c8c6f	0.034313615
215	0xbd375720	-0.044760823
216	0xbd3ec62d	-0.046575714
217	0x3d1a44ec	0.037663385
218	0xbdf1da20	-0.11809182
219	0x3c7f8b2a	0.015597144
220	0xbce4114d	-0.02784028
221	0xbcd85ce0	-0.026411474
222	0x3bcc2f53	0.0062312274
223	0x3b642f0a	0.0034818077
224	0xbc46b413	-0.012127894
225	0xbd29ae09	-0.04142574
226	0xbd42c52b	-0.047551315
227	0x3c71da06	0.0147614535
228	0x3c235263	0.009968373
229	0x3df4aa1e	0.1194651
230	0xbd46ea63	-0.048563372
231	0xbda2de86	-0.07952599
232	0x3d192f05	0.037398357
233	0xbd21363e	-0.03935837
234	0xbd0d8719	-0.034552667
235	0xbd2c669f	-0.042090055
236	0xbbb02b46	-0.0053762523
237	0xbd618dc4	-0.05506684
238	0xbcc49923	-0.023998803
239	0xbd0b103d	-0.033951033
240	0xbd89b8a2	-0.06724669
241	0x3e252752	0.16128281
242	0xbcd5e981	-0.02611232
243	0xbd86871a	-0.06568737
244	0xbdaa0d58	-0.08303326
245	0xbd1b3526	-0.037892483
246	0x3d84cd79	0.06484503
247	0xbd74ff2f	-0.059813675
248	0x3d52af10	0.051436484
249	0xbc38c7a9	-0.011278071
250	0xbd67dc37	-0.056606498
251	0x3c90e1dc	0.017685823
252	0x3d4d8937	0.050179686
253	0x3c1c84a6	0.00955311
254	0xbd6b83d2	-0.05749876
255	0xbddf2786	-0.1089621

network_body.vector_processors.0.normalizer.running_mean f4 [9]
0	0x3fb4efa5	1.4135634
1	0x3ff9fd68	1.9530458
2	0x00000000	0.0
3	0x3fcfdbce	1.6238954
4	0x3ff9fd6c	1.9530463
5	0x00000000	0.0
6	0x3e0fd5fa	0.1404647
7	0x00000000	0.0
8	0x3ddad9ee	0.10686098
