config/results/NewRun1/My Behavior.onnx (onnx, 282099 bytes, 8 tensors)

58 f4 [9]
1.4834989 0.032848075 0.014960407 1.3236392 0.032848075 0.014960407 0.17783031 0.014960407
0.3991683
00000000: 4be3 bd3f b48b 063d 7f1c 753c 026d a93f
00000010: b48b 063d 7f1c 753c 2619 363e 7f1c 753c
00000020: ca5f cc3e

action_model._discrete_distribution.branches.0.bias f4 [6]
0.0 0.0 0.0 0.0 0.0 0.0
00000000: 0000 0000 0000 0000 0000 0000 0000 0000
00000010: 0000 0000 0000 0000

action_model._discrete_distribution.branches.0.weight f4 [6, 256]
0.008883177 0.0072725317 -0.00019821971 0.009718615 0.0033762928 -0.00091674033 0.010792471 0.0064674467
-0.00045868484 0.0057344167 0.0017769587 -0.007114978 -0.00425381 -7.212671e-05 0.0020780547 0.0072211004
-0.000505705 -0.007945113 -0.0035600688 0.00092498213 -0.0039752596 0.005394681 0.012317552 0.008990251
-0.00825056 0.006509257 0.001960083 0.011578436 -0.0073717856 -0.0019153546 -0.00584845 -0.00038205597
0.0048918785 0.004175264 0.008129065 -0.0046586357 -0.0010587329 0.0034043945 0.011628053 0.015699394
0.0045946967 -0.002189382 0.0065674484 0.015512434 0.0060808957 0.0030698415 -8.357256e-06 0.00567785
0.0029470173 -0.00073399977 0.001125883 -0.012220102 9.790404e-05 -0.010022108 0.009384958 0.0042872275
-0.003635288 -0.011923228 6.936266e-05 0.0053483616 0.008854601 -0.012515041 0.0062024803 -0.0020023498
-0.0035548867 -0.0046483404 -0.015203275 0.008781488 -0.008215773 0.010569766 -0.00016461864 -0.0031772547
-0.013918324 0.0077454792 -0.0018125469 -0.0017103975 0.0011652481 0.00015692424 0.00032278628 0.001907428
-0.0025769707 0.00439579 0.0011894593 0.0017169602 0.0026524325 -0.0010623198 -0.006253157 0.0147405015
0.01047458 -0.00059137755 -0.006962273 -5.9438644e-06 -0.0012496625 0.0009237733 -0.014424707 0.0022000002
0.009651171 0.0052592005 0.0054068277 0.00035217789 0.012647608 -0.010574557 -0.001766021 -0.004669879
-0.0010371967 -0.0064640916 -0.0012053142 -0.0021231347 -0.0067054178 0.0034256706 0.0023137738 0.0028090244
-0.011690633 -0.00060874905 -0.00082424795 -0.0045525585 0.00030245303 0.0044492083 -0.0035069163 0.0006035943
-0.005372342 0.0100321965 0.015103528 -0.0015099783 0.0018108337 -0.0013163224 0.0030652971 0.0043959604
0.014410711 0.0039092666 -0.0005681151 -0.0022861653 -0.009470533 0.0075537167 0.0059482954 -0.0005899605
0.0060295244 0.0032889233 -0.0059836255 -0.0008680757 -0.007110243 0.00256283 -0.00012480438 0.0005438392
0.0041552135 -0.00023507993 -0.006394494 0.010517907 0.012909058 -0.0034944199 0.003177813 -0.008532903
0.0051286924 0.005057429 -0.000519879 0.0077665555 0.0031118102 0.0045030275 -0.00081984495 -0.00060395984
0.0020366784 0.0020123085 -0.0006713085 -0.005291816 0.0039695124 -0.010933584 0.003129904 0.015969245
-0.0034627342 -0.0028592756 0.009424609 -0.01347782 3.065971e-05 0.0043311096 -0.007914578 0.005251802
0.0075118965 -0.009282972 -0.0034218964 -0.0057148617 0.00288353 0.014239705 0.002612883 -0.0007957026
-0.002857226 0.00584489 0.0053204605 -0.010221821 0.008012784 0.00952966 -0.0071369023 0.013372733
-0.0031220005 -0.0020286913 -0.003686495 -0.0019487537 -0.0020734554 -0.00844196 -0.010103425 0.0076572048
0.0028368724 -0.0033011658 0.006725115 0.0039594215 0.0042976043 0.0019440238 0.008360132 -0.00027172625
0.014032112 -0.004950171 -0.0059256293 -0.0016803185 -0.00010134806 -0.0020425676 0.004339372 -0.004086769
-0.008780899 0.00063354097 0.0025304162 -0.010147829 0.0110162115 0.013381918 -0.0037344396 -0.0018653736
0.0004261626 -0.008721672 -0.0033854868 0.0045105335 0.009817257 -0.0012502427 -0.0030692196 0.009201284
0.008992833 0.0016264189 -0.008348369 -8.894307e-05 -0.0038004604 0.0020217258 -0.0050514177 -0.008409751
0.007011026 0.0010526322 0.010155742 -0.0054876725 -0.004494373 0.008957141 0.002556533 0.0056811064
-0.0135437 0.0076780394 -0.0024428442 0.00069619896 -0.0016235764 -0.004495092 -0.00038254063 -0.0015239742
00000000: bf8a 113c 6b4e ee3b 33d9 4fb9 d33a 1f3c
00000010: cb44 5d3b 6751 70ba e7d2 303c e0ec d33b
00000020: a37b f0b9 c6e7 bb3b d7e8 e83a c324 e9bb
00000030: 8b63 8bbb bc42 97b8 f92f 083b fb9e ec3b
00000040: 4a91 04ba 382c 02bc 0b50 69bb 807a 723a
00000050: e542 82bb ddc5 b03b 8fcf 493c d94b 133c
00000060: 5b2d 07bc 9b4b d53b bc74 003b 7bb3 3d3c
00000070: 058f f1bb a30c fbba 5ba4 bfbb af4e c8b9
00000080: 0d4c a03b a7d0 883b c52f 053c 78a7 98bb
00000090: 2ec5 8aba 431c 5f3b 9783 3e3c 049c 803c
000000a0: 1c8f 963b bc7b 0fbb c033 d73b dd27 7e3c
000000b0: 4042 c73b 652f 493b 2436 0cb7 420d ba3b
000000c0: bf22 413b e469 40ba 5d92 933a d336 48bc
000000d0: d551 cd38 c533 24bc 5ec3 193c df7b 8c3b
000000e0: 033e 6ebb a559 43bc cb76 9138 4f41 af3b
000000f0: e312 113c e30b 4dbc 2d3e cb3b db39 03bb
00000100: 1af9 68bb 1b51 98bb 2817 79bc 3be0 0f3c
00000110: 739b 06bc d02c 2d3c 7b9d 2cb9 7d39 50bb
00000120: af09 64bc cacd fd3b fb92 edba 6b2f e0ba
00000130: 3dbb 983a 088c 2439 a43b a939 aa02 fa3a
00000140: 65e2 28bb 8f0a 903b a2e7 9b3a a00b e13a
00000150: 6fd4 2d3b 8a3d 8bba 48e7 ccbb 2582 713c
00000160: 939d 2b3c ad06 1bba c723 e4bb 6871 c7b6
00000170: b7cb a3ba 6029 723a 9b55 6cbc e12d 103b
00000180: f21f 1e3c 5f55 ac3b c22b b13b 84a4 b839
00000190: ea37 4f3c e840 2dbc d579 e7ba c905 99bb
000001a0: 8cf2 87ba bbd0 d3bb a2fb 9dba 4a24 0bbb
000001b0: 1fb9 dbbb 3781 603b afa2 173b 9c17 383b
000001c0: 128a 3fbc 7594 1fba 5812 58ba a12d 95bb
000001d0: 8f92 9e39 aaca 913b 4bd4 65bb 873a 1e3a
000001e0: 790a b0bb 155e 243c ca74 773c 77ea c5ba
000001f0: 7f59 ed3a 7388 acba 27e3 483b fd0b 903b
00000200: e71a 6c3c 4e19 803b 8fed 14ba 7dd3 15bb
00000210: 4b2a 1bbc 2b85 f73b ebe9 c23b 94a7 1aba
00000220: 5193 c53b fa8a 573b 4a12 c4bb 938f 63ba
00000230: 0bfd e8bb 27f5 273b ecdd 02b9 6e90 0e3a
00000240: 7528 883b ca7f 76b9 e788 d1bb 4d53 2c3c
00000250: 8380 533c a302 65bb db42 503b 97cd 0bbc
00000260: 970e a83b cab8 a53b 7d48 08ba 977e fe3b
00000270: 83ef 4b3b 228e 933b ddea 56ba 0f53 1eba
00000280: cb79 053b efe0 033b c0fa 2fba f866 adbb
00000290: af12 823b c622 33bc 131f 4d3b efd1 823c
000002a0: 0aef 62bb af62 3bbb ad69 1a3c 13d2 5cbc
000002b0: 9d98 0038 fbeb 8d3b 25ac 01bc 4f17 ac3b
000002c0: 5b26 f63b 9b17 18bc e541 60bb bc43 bbbb
000002d0: 9bf9 3c3b a74d 693c e73c 2b3b b396 50ba
000002e0: 4c40 3bbb 7e86 bf3b 4257 ae3b 6d79 27bc
000002f0: 0d48 033c 4b22 1c3c addc e9bb 4f19 5b3c
00000300: 7a9a 4cbb cbf3 04bb 1f99 71bb 536d ffba
00000310: cfe2 07bb 2650 0abc d688 25bc 4ae9 fa3b
00000320: d2ea 393b 5f58 58bb 5a5e dc3b 09be 813b
00000330: ebd2 8c3b 9dce fe3a eff8 083c 7b76 8eb9
00000340: f2e6 653c 0b35 a2bb c82b c2bb 223e dcba
00000350: d38a d4b8 99dc 05bb 4a31 8e3b 4eea 85bb
00000360: c3dd 0fbc 3714 263a 57d5 253b 1443 26bc
00000370: 577d 343c d53f 5b3c 80bd 74bb 8d7f f4ba
00000380: 936e df39 58e5 0ebc 0bdf 5dbb 19cd 933b
00000390: 8fd8 203c 2fdf a3ba f624 49bb fbc0 163c
000003a0: ad56 133c 902d d53a 99c7 08bc f286 bab8
000003b0: 2511 79bb ee7e 043b 5d86 a5bb 0dc9 09bc
000003c0: c0bc e53b 7af8 893a 4564 263c efd1 b3bb
000003d0: 8945 93bb f9c0 123c 828b 273b 9328 ba3b
000003e0: 65e6 5dbc 1098 fb3b 2018 20bb 1f81 363a
000003f0: 2fce d4ba 914b 93bb bc8f c8b9 17c0 c7ba

network_body.linear_encoder.seq_layers.0.bias f4 [256]
0.0 0.0 0.0 0.0 0.0 0.0 0.0 0.0
0.0 0.0 0.0 0.0 0.0 0.0 0.0 0.0
0.0 0.0 0.0 0.0 0.0 0.0 0.0 0.0
0.0 0.0 0.0 0.0 0.0 0.0 0.0 0.0
0.0 0.0 0.0 0.0 0.0 0.0 0.0 0.0
0.0 0.0 0.0 0.0 0.0 0.0 0.0 0.0
0.0 0.0 0.0 0.0 0.0 0.0 0.0 0.0
0.0 0.0 0.0 0.0 0.0 0.0 0.0 0.0
0.0 0.0 0.0 0.0 0.0 0.0 0.0 0.0
0.0 0.0 0.0 0.0 0.0 0.0 0.0 0.0
0.0 0.0 0.0 0.0 0.0 0.0 0.0 0.0
0.0 0.0 0.0 0.0 0.0 0.0 0.0 0.0
0.0 0.0 0.0 0.0 0.0 0.0 0.0 0.0
0.0 0.0 0.0 0.0 0.0 0.0 0.0 0.0
0.0 0.0 0.0 0.0 0.0 0.0 0.0 0.0
0.0 0.0 0.0 0.0 0.0 0.0 0.0 0.0
0.0 0.0 0.0 0.0 0.0 0.0 0.0 0.0
0.0 0.0 0.0 0.0 0.0 0.0 0.0 0.0
0.0 0.0 0.0 0.0 0.0 0.0 0.0 0.0
0.0 0.0 0.0 0.0 0.0 0.0 0.0 0.0
0.0 0.0 0.0 0.0 0.0 0.0 0.0 0.0
0.0 0.0 0.0 0.0 0.0 0.0 0.0 0.0
0.0 0.0 0.0 0.0 0.0 0.0 0.0 0.0
0.0 0.0 0.0 0.0 0.0 0.0 0.0 0.0
0.0 0.0 0.0 0.0 0.0 0.0 0.0 0.0
0.0 0.0 0.0 0.0 0.0 0.0 0.0 0.0
0.0 0.0 0.0 0.0 0.0 0.0 0.0 0.0
0.0 0.0 0.0 0.0 0.0 0.0 0.0 0.0
0.0 0.0 0.0 0.0 0.0 0.0 0.0 0.0
0.0 0.0 0.0 0.0 0.0 0.0 0.0 0.0
0.0 0.0 0.0 0.0 0.0 0.0 0.0 0.0
0.0 0.0 0.0 0.0 0.0 0.0 0.0 0.0
00000000: 0000 0000 0000 0000 0000 0000 0000 0000
00000010: 0000 0000 0000 0000 0000 0000 0000 0000
00000020: 0000 0000 0000 0000 0000 0000 0000 0000
00000030: 0000 0000 0000 0000 0000 0000 0000 0000
00000040: 0000 0000 0000 0000 0000 0000 0000 0000
00000050: 0000 0000 0000 0000 0000 0000 0000 0000
00000060: 0000 0000 0000 0000 0000 0000 0000 0000
00000070: 0000 0000 0000 0000 0000 0000 0000 0000
00000080: 0000 0000 0000 0000 0000 0000 0000 0000
00000090: 0000 0000 0000 0000 0000 0000 0000 0000
000000a0: 0000 0000 0000 0000 0000 0000 0000 0000
000000b0: 0000 0000 0000 0000 0000 0000 0000 0000
000000c0: 0000 0000 0000 0000 0000 0000 0000 0000
000000d0: 0000 0000 0000 0000 0000 0000 0000 0000
000000e0: 0000 0000 0000 0000 0000 0000 0000 0000
000000f0: 0000 0000 0000 0000 0000 0000 0000 0000
00000100: 0000 0000 0000 0000 0000 0000 0000 0000
00000110: 0000 0000 0000 0000 0000 0000 0000 0000
00000120: 0000 0000 0000 0000 0000 0000 0000 0000
00000130: 0000 0000 0000 0000 0000 0000 0000 0000
00000140: 0000 0000 0000 0000 0000 0000 0000 0000
00000150: 0000 0000 0000 0000 0000 0000 0000 0000
00000160: 0000 0000 0000 0000 0000 0000 0000 0000
00000170: 0000 0000 0000 0000 0000 0000 0000 0000
00000180: 0000 0000 0000 0000 0000 0000 0000 0000
00000190: 0000 0000 0000 0000 0000 0000 0000 0000
000001a0: 0000 0000 0000 0000 0000 0000 0000 0000
000001b0: 0000 0000 0000 0000 0000 0000 0000 0000
000001c0: 0000 0000 0000 0000 0000 0000 0000 0000
000001d0: 0000 0000 0000 0000 0000 0000 0000 0000
000001e0: 0000 0000 0000 0000 0000 0000 0000 0000
000001f0: 0000 0000 0000 0000 0000 0000 0000 0000
00000200: 0000 0000 0000 0000 0000 0000 0000 0000
00000210: 0000 0000 0000 0000 0000 0000 0000 0000
00000220: 0000 0000 0000 0000 0000 0000 0000 0000
00000230: 0000 0000 0000 0000 0000 0000 0000 0000
00000240: 0000 0000 0000 0000 0000 0000 0000 0000
00000250: 0000 0000 0000 0000 0000 0000 0000 0000
00000260: 0000 0000 0000 0000 0000 0000 0000 0000
00000270: 0000 0000 0000 0000 0000 0000 0000 0000
00000280: 0000 0000 0000 0000 0000 0000 0000 0000
00000290: 0000 0000 0000 0000 0000 0000 0000 0000
000002a0: 0000 0000 0000 0000 0000 0000 0000 0000
000002b0: 0000 0000 0000 0000 0000 0000 0000 0000
000002c0: 0000 0000 0000 0000 0000 0000 0000 0000
000002d0: 0000 0000 0000 0000 0000 0000 0000 0000
000002e0: 0000 0000 0000 0000 0000 0000 0000 0000
000002f0: 0000 0000 0000 0000 0000 0000 0000 0000
00000300: 0000 0000 0000 0000 0000 0000 0000 0000
00000310: 0000 0000 0000 0000 0000 0000 0000 0000
00000320: 0000 0000 0000 0000 0000 0000 0000 0000
00000330: 0000 0000 0000 0000 0000 0000 0000 0000
00000340: 0000 0000 0000 0000 0000 0000 0000 0000
00000350: 0000 0000 0000 0000 0000 0000 0000 0000
00000360: 0000 0000 0000 0000 0000 0000 0000 0000
00000370: 0000 0000 0000 0000 0000 0000 0000 0000
00000380: 0000 0000 0000 0000 0000 0000 0000 0000
00000390: 0000 0000 0000 0000 0000 0000 0000 0000
000003a0: 0000 0000 0000 0000 0000 0000 0000 0000
000003b0: 0000 0000 0000 0000 0000 0000 0000 0000
000003c0: 0000 0000 0000 0000 0000 0000 0000 0000
000003d0: 0000 0000 0000 0000 0000 0000 0000 0000
000003e0: 0000 0000 0000 0000 0000 0000 0000 0000
000003f0: 0000 0000 0000 0000 0000 0000 0000 0000

network_body.linear_encoder.seq_layers.0.weight f4 [256, 9]
0.70373106 -0.14251688 -0.26880392 -0.36689112 -0.4239108 -0.40743113 -0.1440419 0.13663402
0.26967353 0.38335824 0.056836277 -0.8871219 0.5686923 0.03210105 -0.66798896 -0.50247383
-0.056206204 -0.077308744 -0.020936158 0.11452114 0.1091288 0.23456913 -0.09222811 -0.10827193
0.13263941 -0.3413391 0.056846406 -0.0858372 -0.30475542 0.23983938 0.5178184 -0.3843403
-0.12365102 -0.61576545 -0.135357 0.16814187 -0.028232729 0.2547079 0.09441273 -0.7788493
-0.01930714 0.15986902 -0.3664654 0.04646957 -0.44387805 -0.06367475 0.48366433 -0.53989667
0.3945107 0.5927139 0.21240845 -0.10621089 -0.14383325 0.25595996 0.018765364 -0.25768384
-0.48213214 -0.2634857 0.025278755 -0.05520557 0.26233196 0.0012278508 -0.48442584 0.038267396
0.1110713 0.04103252 0.05582717 -0.26264453 -0.13774695 -0.030182486 0.030426815 0.13361111
0.2373941 0.30493382 0.13127708 -0.519332 -0.3295985 -0.05038227 0.04917092 -0.0070345653
0.12829907 -0.3658139 -0.222045 -0.29889917 -0.41887164 -0.17197631 0.014904378 -0.031027338
-0.5403608 1.0519828 0.3599317 0.5969088 0.45463663 0.082297936 -0.15497874 -0.41133493
-0.037799217 0.019467305 0.19232821 -0.08279712 -0.1941974 -0.26103163 -0.1625745 -0.15773389
0.4717923 0.12219784 0.35380003 -0.051350053 0.13104022 -0.13885745 0.29727024 0.05404736
0.16613096 0.5141604 0.2359538 0.049792424 0.3411555 -0.043793425 -0.19706514 -0.1063227
-0.3554647 -0.30109665 0.12864202 -0.22774976 -0.2626845 0.25540358 0.3619152 -0.28373998
-0.032570943 -0.22978836 0.26580447 0.10891365 0.6131538 -0.43558544 0.18063258 0.20412134
-0.16167288 0.0041124066 0.4815464 -0.6072617 0.1364086 -0.012042663 0.4011672 0.027349522
0.22574489 -0.092620336 -0.064150706 -0.33833656 0.015848756 0.059884407 0.11697414 -0.33834368
0.62670434 -0.14519311 -0.3219313 -0.21352206 -0.18592659 0.13862176 0.010565626 -0.046598546
0.079261854 -0.08667173 -0.10088861 0.27523607 -0.03198081 -0.22516362 -0.28442135 0.21822965
-0.37867293 -0.23758054 -0.021925852 0.1292001 -0.014603494 0.08348446 0.008405949 -0.81597227
-0.16227278 -0.43601763 -0.5207099 0.4005252 0.28764617 -0.22436687 0.2897979 0.69083714
0.024040215 -0.00025028092 -0.18264252 -0.32019252 0.114245735 0.17553973 0.19410256 -0.046214312
0.083996385 0.053002633 0.015085157 0.2849949 -0.07868032 0.3819453 -0.0986981 -0.47577125
-0.17820273 -0.14818925 0.23815641 -0.0062702354 -0.28562212 -0.68002576 -0.12798455 0.2733482
0.15398252 -0.11134346 0.14862628 0.4165321 -0.45849404 -0.34962106 -0.14157155 0.48469907
0.08513807 -0.2058942 -0.043802273 -0.16747415 0.13251512 0.0604311 0.59395397 -0.4726482
-0.16263574 0.22001666 0.28381577 -0.036542762 0.38061345 0.2531054 0.41096592 -0.50421864
0.5232891 0.40081653 0.33592474 -0.56524706 -0.12622525 -0.28321388 -0.28092825 -0.38813442
0.484159 -0.055717282 0.28626776 0.24311012 0.5593484 -0.7784552 0.3794944 -0.25256053
-0.28941327 0.35451815 -0.45513433 0.09796132 -0.059340447 0.49637264 -0.38202453 -0.7206619
00000000: b827 343f f2ef 11be aba0 89be 27d9 bbbe
00000010: d60a d9be d09a d0be b87f 13be cae9 0b3e
00000020: a612 8a3e 8847 c43e 28cd 683d 6c1a 63bf
00000030: d295 113f 647c 033d 5301 2bbf 20a2 00bf
00000040: 7a38 66bd 0c54 9ebd 4e82 abbc 0f8a ea3d
00000050: ec7e df3d e432 703e 17e2 bcbd acbd ddbd
00000060: a0d2 073e 00c4 aebe c7d7 683d 6acb afbd
00000070: e708 9cbe 7498 753e bf8f 043f 40c8 c4be
00000080: bf3c fdbd cea2 1dbf 079b 0abe 622d 2c3e
00000090: 5348 e7bc 1369 823e 765b c13d ab62 47bf
000000a0: 022a 9ebc b4b4 233e 5aa1 bbbe e056 3e3d
000000b0: fc43 e3be e867 82bd daa2 f73e ab36 0abf
000000c0: 4efd c93e 19bc 173f 9a81 593e 1885 d9bd
000000d0: 0649 13be 2f0d 833e d2b9 993c 23ef 83be
000000e0: 06da f6be 99e7 86be 6415 cf3c 3c1f 62bd
000000f0: 6050 863e d6ef a03a aa06 f8be 46be 1c3d
00000100: 5a79 e33d b711 283d 08ab 643d 5879 86be
00000110: 890d 0dbe 4341 f7bc a841 f93c 5ad1 083e
00000120: 7017 733e 4920 9c3e 806d 063e f1f2 04bf
00000130: 22c1 a8be a45d 4ebd 7267 493d 3682 e6bb
00000140: d560 033e f64b bbbe c45f 63be 5009 99be
00000150: 5876 d6be 8f1a 30be 7e31 743c 0b2d febc
00000160: 1655 0abf 5fa7 863f f848 b83e 04cf 183f
00000170: 22c6 e83e d28b a83d bfb2 1ebe 7e9a d2be
00000180: 5ad3 1abd e679 9f3c b0f1 443e 8991 a9bd
00000190: afdb 46be f0a5 85be ee79 26be fe84 21be
000001a0: c38e f13e dc42 fa3d 4725 b53e 6f54 52bd
000001b0: 682f 063e a630 0ebe ce33 983e c460 5d3d
000001c0: 3c1e 2a3e 04a0 033f df9d 713e 24f3 4b3d
000001d0: efab ae3e bc60 33bd 72cb 49be b7bf d9bd
000001e0: 78ff b5be 5729 9abe bcba 033e 3c37 69be
000001f0: 957e 86be 42c4 823e f34c b93e 5e46 91be
00000200: 1c69 05bd a44d 6bbe 8617 883e 1f0e df3d
00000210: a6f7 1c3f 0e05 dfbe bff7 383e 2f05 513e
00000220: 938d 25be 5ec1 863b 408d f63e 8175 1bbf
00000230: b2ae 0b3e 974e 45bc ca65 cd3e 1b0c e03c
00000240: ab29 673e bbaf bdbd 7261 83bd 733a adbe
00000250: 40d5 813c 5a49 753d 2390 ef3d 623b adbe
00000260: b26f 203f 81ad 14be 2ed4 a4be 87a5 5abe
00000270: 8a63 3ebe ddf2 0d3e 731b 2d3c 1ede 3ebd
00000280: 0a54 a23d f380 b1bd b09e cebd beeb 8c3e
00000290: 4ffe 02bd 4b91 66be ad9f 91be 9877 5f3e
000002a0: 6be1 c1be 5048 73be d89d b3bc 084d 043e
000002b0: 7e43 6fbc e7f9 aa3d 1bb9 093c 8fe3 50bf
000002c0: d62a 26be b43d dfbe 3e4d 05bf a411 cd3e
000002d0: 5c46 933e 6ec0 65be 6460 943e b4da 303f
000002e0: fcef c43c 2338 83b9 a406 3bbe 46f0 a3be
000002f0: abf9 e93d b0c0 333e d2c2 463e 384b 3dbd
00000300: 4c06 ac3d 4a19 593d bc27 773c daea 913e
00000310: 2623 a1bd 568e c33e 3b22 cabd 4a98 f3be
00000320: c77a 36be ecbe 17be 46df 733e 8c76 cdbb
00000330: 103d 92be 2b16 2ebf 620e 03be 4cf4 8b3e
00000340: 98ad 1d3e 0a08 e4bd 7d31 183e b243 d53e
00000350: bbbf eabe 8801 b3be 22f8 10be 7a2a f83e
00000360: de5c ae3d eed5 52be 036a 33bd 587e 2bbe
00000370: 0bb2 073e 9a86 773d 5e0d 183f f2fe f1be
00000380: fc89 26be 0c4c 613e 4d50 913e ddad 15bd
00000390: c4df c23e 0897 813e 206a d23e 7914 01bf
000003a0: 46f6 053f d337 cd3e 54fe ab3e 08b4 10bf
000003b0: 3141 01be 6901 91be d4d5 8fbe 8eb9 c6be
000003c0: b0e3 f73e ce37 64bd b091 923e dcf1 783e
000003d0: 7531 0f3f d748 47bf 174d c23e 9d4f 81be
000003e0: fa2d 94be 6783 b53e 5e07 e9be f29f c83d
000003f0: f80e 73bd 8e24 fe3e b898 c3be 4c7d 38bf

network_body.linear_encoder.seq_layers.2.bias f4 [256]
0.0 0.0 0.0 0.0 0.0 0.0 0.0 0.0
0.0 0.0 0.0 0.0 0.0 0.0 0.0 0.0
0.0 0.0 0.0 0.0 0.0 0.0 0.0 0.0
0.0 0.0 0.0 0.0 0.0 0.0 0.0 0.0
0.0 0.0 0.0 0.0 0.0 0.0 0.0 0.0
0.0 0.0 0.0 0.0 0.0 0.0 0.0 0.0
0.0 0.0 0.0 0.0 0.0 0.0 0.0 0.0
0.0 0.0 0.0 0.0 0.0 0.0 0.0 0.0
0.0 0.0 0.0 0.0 0.0 0.0 0.0 0.0
0.0 0.0 0.0 0.0 0.0 0.0 0.0 0.0
0.0 0.0 0.0 0.0 0.0 0.0 0.0 0.0
0.0 0.0 0.0 0.0 0.0 0.0 0.0 0.0
0.0 0.0 0.0 0.0 0.0 0.0 0.0 0.0
0.0 0.0 0.0 0.0 0.0 0.0 0.0 0.0
0.0 0.0 0.0 0.0 0.0 0.0 0.0 0.0
0.0 0.0 0.0 0.0 0.0 0.0 0.0 0.0
0.0 0.0 0.0 0.0 0.0 0.0 0.0 0.0
0.0 0.0 0.0 0.0 0.0 0.0 0.0 0.0
0.0 0.0 0.0 0.0 0.0 0.0 0.0 0.0
0.0 0.0 0.0 0.0 0.0 0.0 0.0 0.0
0.0 0.0 0.0 0.0 0.0 0.0 0.0 0.0
0.0 0.0 0.0 0.0 0.0 0.0 0.0 0.0
0.0 0.0 0.0 0.0 0.0 0.0 0.0 0.0
0.0 0.0 0.0 0.0 0.0 0.0 0.0 0.0
0.0 0.0 0.0 0.0 0.0 0.0 0.0 0.0
0.0 0.0 0.0 0.0 0.0 0.0 0.0 0.0
0.0 0.0 0.0 0.0 0.0 0.0 0.0 0.0
0.0 0.0 0.0 0.0 0.0 0.0 0.0 0.0
0.0 0.0 0.0 0.0 0.0 0.0 0.0 0.0
0.0 0.0 0.0 0.0 0.0 0.0 0.0 0.0
0.0 0.0 0.0 0.0 0.0 0.0 0.0 0.0
0.0 0.0 0.0 0.0 0.0 0.0 0.0 0.0
00000000: 0000 0000 0000 0000 0000 0000 0000 0000
00000010: 0000 0000 0000 0000 0000 0000 0000 0000
00000020: 0000 0000 0000 0000 0000 0000 0000 0000
00000030: 0000 0000 0000 0000 0000 0000 0000 0000
00000040: 0000 0000 0000 0000 0000 0000 0000 0000
00000050: 0000 0000 0000 0000 0000 0000 0000 0000
00000060: 0000 0000 0000 0000 0000 0000 0000 0000
00000070: 0000 0000 0000 0000 0000 0000 0000 0000
00000080: 0000 0000 0000 0000 0000 0000 0000 0000
00000090: 0000 0000 0000 0000 0000 0000 0000 0000
000000a0: 0000 0000 0000 0000 0000 0000 0000 0000
000000b0: 0000 0000 0000 0000 0000 0000 0000 0000
000000c0: 0000 0000 0000 0000 0000 0000 0000 0000
000000d0: 0000 0000 0000 0000 0000 0000 0000 0000
000000e0: 0000 0000 0000 0000 0000 0000 0000 0000
000000f0: 0000 0000 0000 0000 0000 0000 0000 0000
00000100: 0000 0000 0000 0000 0000 0000 0000 0000
00000110: 0000 0000 0000 0000 0000 0000 0000 0000
00000120: 0000 0000 0000 0000 0000 0000 0000 0000
00000130: 0000 0000 0000 0000 0000 0000 0000 0000
00000140: 0000 0000 0000 0000 0000 0000 0000 0000
00000150: 0000 0000 0000 0000 0000 0000 0000 0000
00000160: 0000 0000 0000 0000 0000 0000 0000 0000
00000170: 0000 0000 0000 0000 0000 0000 0000 0000
00000180: 0000 0000 0000 0000 0000 0000 0000 0000
00000190: 0000 0000 0000 0000 0000 0000 0000 0000
000001a0: 0000 0000 0000 0000 0000 0000 0000 0000
000001b0: 0000 0000 0000 0000 0000 0000 0000 0000
000001c0: 0000 0000 0000 0000 0000 0000 0000 0000
000001d0: 0000 0000 0000 0000 0000 0000 0000 0000
000001e0: 0000 0000 0000 0000 0000 0000 0000 0000
000001f0: 0000 0000 0000 0000 0000 0000 0000 0000
00000200: 0000 0000 0000 0000 0000 0000 0000 0000
00000210: 0000 0000 0000 0000 0000 0000 0000 0000
00000220: 0000 0000 0000 0000 0000 0000 0000 0000
00000230: 0000 0000 0000 0000 0000 0000 0000 0000
00000240: 0000 0000 0000 0000 0000 0000 0000 0000
00000250: 0000 0000 0000 0000 0000 0000 0000 0000
00000260: 0000 0000 0000 0000 0000 0000 0000 0000
00000270: 0000 0000 0000 0000 0000 0000 0000 0000
00000280: 0000 0000 0000 0000 0000 0000 0000 0000
00000290: 0000 0000 0000 0000 0000 0000 0000 0000
000002a0: 0000 0000 0000 0000 0000 0000 0000 0000
000002b0: 0000 0000 0000 0000 0000 0000 0000 0000
000002c0: 0000 0000 0000 0000 0000 0000 0000 0000
000002d0: 0000 0000 0000 0000 0000 0000 0000 0000
000002e0: 0000 0000 0000 0000 0000 0000 0000 0000
000002f0: 0000 0000 0000 0000 0000 0000 0000 0000
00000300: 0000 0000 0000 0000 0000 0000 0000 0000
00000310: 0000 0000 0000 0000 0000 0000 0000 0000
00000320: 0000 0000 0000 0000 0000 0000 0000 0000
00000330: 0000 0000 0000 0000 0000 0000 0000 0000
00000340: 0000 0000 0000 0000 0000 0000 0000 0000
00000350: 0000 0000 0000 0000 0000 0000 0000 0000
00000360: 0000 0000 0000 0000 0000 0000 0000 0000
00000370: 0000 0000 0000 0000 0000 0000 0000 0000
00000380: 0000 0000 0000 0000 0000 0000 0000 0000
00000390: 0000 0000 0000 0000 0000 0000 0000 0000
000003a0: 0000 0000 0000 0000 0000 0000 0000 0000
000003b0: 0000 0000 0000 0000 0000 0000 0000 0000
000003c0: 0000 0000 0000 0000 0000 0000 0000 0000
000003d0: 0000 0000 0000 0000 0000 0000 0000 0000
000003e0: 0000 0000 0000 0000 0000 0000 0000 0000
000003f0: 0000 0000 0000 0000 0000 0000 0000 0000

network_body.linear_encoder.seq_layers.2.weight f4 [256, 256]
0.005793912 0.06683018 0.0338924 0.077747844 -0.00928466 0.027293669 0.04590204 -0.04243878
-0.03179753 0.040066604 -0.005281161 -0.005475492 -0.027294058 -0.06599663 0.06691 -0.046193007
-0.044807006 -0.1222094 0.053730965 -0.038530458 0.034737162 -0.038393136 -0.06267925 0.06921537
-0.039214347 0.031435408 0.11416829 -0.09180172 -0.09731696 0.06404751 -0.08189156 0.0013299148
-0.09334782 -0.06327757 0.066174574 0.10723057 -0.052169014 0.036604304 0.16082948 -0.06941132
-0.09054972 -0.14747185 -0.011512326 -0.15443675 0.100885786 -0.031524133 -0.10428765 -0.07230841
0.059611753 0.08735401 0.021325292 0.0053060083 0.058213048 -0.122877195 0.030189587 0.02712705
0.013670354 0.056005973 -0.013981947 -0.0076084766 0.025302125 -0.034804802 -0.07249465 -0.039630122
0.063429706 -0.00959601 0.04161327 -0.032939553 -0.06255414 -0.06981584 0.05328396 -0.053912703
-0.08647265 0.11537758 -0.00072429876 0.027752664 0.054004833 -0.1348364 -0.035407376 -0.05907034
-0.03741493 0.012265623 -0.045108724 -0.13293134 -0.06269161 -0.018820163 -0.010131231 -0.09258848
0.09324332 0.037065662 -0.018741772 0.111898996 -0.08476079 -0.018157795 0.03543043 0.04299725
0.06552989 0.034743696 -0.0047253 -0.010295969 0.088121474 0.061086595 0.053684246 -0.008164922
-0.026412351 0.16053781 -0.048479285 -0.08324775 0.011977525 0.03217329 -0.1302118 -0.053108245
0.04236218 0.064921096 0.013934469 0.038075622 -0.0026775715 0.11869683 -0.1026895 0.002655908
0.05243285 -0.023729283 0.07351115 0.029794898 0.11152882 -0.09044676 0.044215713 0.054486174
0.018635063 -0.0023580238 0.001509514 0.10278419 -0.007201687 -0.0010392176 0.0331393 -0.00012846204
0.054970004 -0.1232286 0.022464681 -0.028153129 0.008343435 0.018135583 -0.0054152934 0.07441432
-0.012587625 0.03824803 -0.046772346 0.031821333 0.18319051 0.11728983 -0.021171968 -0.07009009
0.026204908 -0.009355029 0.033525158 -0.08408255 0.042357884 0.06935849 0.033026524 0.09715557
0.07309115 -0.06833466 0.08535906 0.0376558 -0.08007706 0.04030306 0.11236776 -0.011244065
0.017503366 -0.019254113 -0.0010277956 -0.003930764 -0.02441188 0.017411757 -0.02706502 -0.014312934
-0.033497732 -0.028134866 0.016478855 0.020663315 -0.017208988 0.046316482 -0.1284451 0.0016782474
-0.018249214 0.04496729 -0.05160571 0.01223504 0.010647517 -0.040900975 -0.04512423 0.04059068
-0.09651421 -0.005470164 -0.049345452 -0.019926287 -0.0143695455 -0.048359282 0.10492302 -0.030504415
-0.006762103 0.04076738 -0.02481171 0.0147003485 0.028303578 -0.0075400537 0.032070577 -0.007863394
-0.0052309544 0.05586501 0.035614844 -0.0330949 0.056510333 -0.0012179752 -0.070715666 -0.0048711435
0.002686911 -0.08999242 -0.054277524 -0.03997847 -0.009100454 0.075424805 -0.11499321 -0.059934154
-0.15619715 0.037245613 0.018799704 0.05770954 -0.08937649 -0.004856549 -0.06779152 0.06981601
0.004757188 0.029487373 -0.055274196 0.04984294 0.09919358 -0.06416659 -0.001423387 0.046114802
0.053253267 -0.0534875 -0.0491326 0.02505504 0.024598593 -0.0015331752 -0.02183002 -0.00806966
0.017276146 -0.017205952 -0.0010493584 0.0445495 0.026614973 -0.027200177 0.06342736 -0.13444798
00000000: dbda bd3b 43de 883d c2d2 0a3d 433a 9f3d
00000010: b01e 18bc f996 df3c c703 3c3d 49d4 2dbd
00000020: 203e 02bd e11c 243d 970d adbb c26b b3bb
00000030: ca97 dfbc 3e29 87bd 1c08 893d e134 3dbd
00000040: 8d87 37bd ec48 fabd 0015 5c3d 1dd2 1dbd
00000050: 8e48 0e3d 1f42 1dbd fb5d 80bd cac0 8d3d
00000060: 399f 20bd 6ac2 003d 10d1 e93d 8a02 bcbd
00000070: 1d4e c7bd 572b 833d c3b6 a7bd 8950 ae3a
00000080: 242d bfbd ac97 81bd 8986 873d b39b db3d
00000090: 2daf 55bd 65ee 153d 7cb0 243e 8627 8ebd
000000a0: 2272 b9bd dc02 17be 329e 3cbc ab24 1ebe
000000b0: 359d ce3d 731f 01bd c394 d5bd 6f16 94bd
000000c0: 742b 743d a9e6 b23d 61b2 ae3c 06de ad3b
000000d0: ce70 6e3d 0aa7 fbbd 2750 f73c 8c39 de3c
000000e0: 9ff9 5f3c 8566 653d 8914 65bc 8750 f9bb
000000f0: 6746 cf3c 7b8f 0ebd 1378 94bd 3253 22bd
00000100: 6fe7 813d 9538 1dbc ad72 2a3d a0eb 06bd
00000110: 631c 80bd 9bfb 8ebd 4840 5a3d 91d3 5cbd
00000120: 9318 b1bd 154b ec3d dede 3dba 8e59 e33c
00000130: 2c34 5d3d 8e12 0abe 5307 11bd bef3 71bd
00000140: 6640 19bd c0f5 483c edc3 38bd 271f 08be
00000150: 7564 80bd be2c 9abc 76fd 25bc 079f bdbd
00000160: 5bf6 be3d 2ad2 173d 5888 99bc 4d2b e53d
00000170: 1197 adbd a8bf 94bc 801f 113d e21d 303d
00000180: 8934 863d 684f 0e3d b0d6 9abb 6db0 28bc
00000190: 0879 b43d f035 7a3d 03e4 5b3d 2ac6 05bc
000001a0: b75e d8bc 0664 243e 3792 46bd cc7d aabd
000001b0: 623d 443c 24c8 033d 3e56 05be 0888 59bd
000001c0: f783 2d3d 5af5 843d 664d 643c 2ff5 1b3d
000001d0: 327a 2fbb 5317 f33d df4e d2bd be0e 2e3b
000001e0: d4c3 563d ea63 c2bc 048d 963d 6e14 f43c
000001f0: 3969 e43d 273c b9bd 891b 353d e52c 5f3d
00000200: 8fa8 983c 1389 1abb e3da c53a 8480 d23d
00000210: 21fc ebbb 5b36 88ba 13bd 073d c4b3 06b9
00000220: 3a28 613d 475f fcbd da07 b83c 64a1 e6bc
00000230: e7b2 083c 1391 943c c672 b1bb 8966 983d
00000240: 533c 4ebc f7a9 1c3d 5c94 3fbd 1657 023d
00000250: 4b96 3b3e a735 f03d d670 adbc 658b 8fbd
00000260: adab d63c d645 19bc ad51 093d 7933 acbd
00000270: 767f 2d3d d30b 8e3d d246 073d 80f9 c63d
00000280: d0b0 953d 0bf3 8bbd bbd0 ae3d f83c 1a3d
00000290: 71ff a3bd d214 253d 1121 e63d 0739 38bc
000002a0: 3863 8f3c cdba 9dbc 19b7 86ba a3cd 80bb
000002b0: 6cfb c7bc 1aa3 8e3c 76b7 ddbc cc80 6abc
000002c0: eb34 09bd 177b e6bc aafe 863c 1d46 a93c
000002d0: ddf9 8cbc 5ab6 3d3d 1d87 03be a3f8 db3a
000002e0: 607f 95bc 9f2f 383d 8260 53bd 7a75 483c
000002f0: ec72 2e3c c887 27bd 2fd4 38bd 6a42 263d
00000300: 3ea9 c5bd 103f b3bb 751e 4abd 743c a3bc
00000310: 3e6e 6bbc 6214 46bd e1e1 d63d 65e4 f9bc
00000320: a294 ddbb b2fb 263d ed41 cbbc bbd9 703c
00000330: e8dc e73c 8e12 f7bb 705c 033d 77d5 00bc
00000340: 6d68 abbb b5d2 643d dfe0 113d 858e 07bd
00000350: 6177 673d 77a4 9fba 60d3 90bd 1d9e 9fbb
00000360: e316 303b f24d b8bd 1c52 5ebd 77c0 23bd
00000370: 121a 15bc 5278 9a3d 8f81 ebbd 847d 75bd
00000380: 25f2 1fbe db8e 183d d601 9a3c d760 6c3d
00000390: 050b b7bd b023 9fbb 48d6 8abd b2fb 8e3d
000003a0: 2fe2 9b3b 818f f13c 3267 62bd 1c28 4c3d
000003b0: 0126 cb3d c669 83bd f190 baba e0e2 3c3d
000003c0: 1920 5a3d b515 5bbd 443f 49bd 3a40 cd3c
000003d0: fd82 c93c d3f4 c8ba dfd4 b2bc 9b36 04bc
000003e0: b486 8d3c 7ff3 8cbc a08a 89ba 8979 363d
000003f0: a507 da3c e8d2 debc 34e6 813d bbac 09be

network_body.vector_processors.0.normalizer.running_mean f4 [9]
-2.0641847 1.9525188 0.0 1.5369647 1.9525188 0.0 0.032453004 0.0
0.19852282
00000000: 9a1b 04c0 23ec f93f 0000 0000 42bb c43f
00000010: 23ec f93f 0000 0000 71ed 043d 0000 0000
00000020: 9149 4b3e
