config/results/FighterUpdated4/My Behavior/My Behavior-14499963.onnx (onnx, 282099 bytes, 8 tensors)

58 f4 [9]
000000 10 20 35 40 c6 a6 4d 3c 59 af 89 39 e6 a6 34 40
       2.830082 0.012551969 0.0002626132 2.8226867
000010 84 8d 4f 3c 59 af 89 39 d4 00 ce 3e 59 af 89 39
       0.012668017 0.0002626132 0.40235007 0.0002626132
000020 fb 69 45 3e
       0.1927871

action_model._discrete_distribution.branches.0.bias f4 [6]
000000 e0 8a 2e 3d e0 78 44 3c 43 54 d7 bd 70 9c b5 3d
       0.04261291 0.0119917095 -0.105141185 0.08867729
000010 81 dc ef bd e0 ca 3a bc
       -0.1171198 -0.011400908

action_model._discrete_distribution.branches.0.weight f4 [6, 256]
000000 e0 d1 7f bd 94 3d f4 bc d5 2e 09 3b 13 4f 29 3d
       -0.06245601 -0.029814519 0.0020932455 0.041335177
000010 fb 3d 72 bc f6 c2 41 3d eb 9e bc 3c a5 57 27 3d
       -0.014785285 0.04730507 0.023024997 0.04085507
000020 5c 54 02 bc 2e e7 81 3d bb 55 80 3d 39 7a 51 3d
       -0.007954683 0.06342922 0.06266352 0.05114195
000030 60 9c 46 3d b7 8a 01 bd 65 d3 b6 3d c0 83 a6 3c
       0.048488975 -0.03162643 0.08927039 0.020326495
000040 b8 06 73 3d 9e 50 15 3d 1d 64 a6 3c db 2e 03 bc
       0.05933258 0.036453836 0.02031141 -0.008006777
000050 71 c2 58 3d 27 fe 9d 3b cd 74 46 bd ab 71 ec 3c
       0.05291981 0.004821557 -0.048451234 0.028862795
000060 fa c3 02 bd 38 d5 b3 bc dc ba 0a 3d c5 dd 76 3d
       -0.03192518 -0.021952257 0.03386961 0.06027009
000070 76 e2 19 bd a9 6e 02 3d 29 57 19 3d f6 52 4d 3d
       -0.037569486 0.031843815 0.037436638 0.050127946
000080 71 20 9a 3d e0 03 1d bc 2c fa b7 ba 1f aa 0f 3d
       0.07525719 -0.009583443 -0.0014036349 0.03507435
000090 38 f6 6d 3d 85 08 76 3d a5 38 5b 3d c2 f8 0d bb
       0.05809614 0.06006672 0.053520817 -0.0021663164
0000a0 45 8f c8 3c a3 6d 72 bd 7f 57 47 bd fb 04 0f 3d
       0.024482379 -0.05918659 -0.048667427 0.03491686
0000b0 e7 0a 1e 3d 6e 1d 3d 3d dd 37 a4 3d 30 fe 17 3d
       0.038584616 0.046170644 0.080184676 0.037107646
0000c0 a7 cd b4 3d 5e 36 33 bd 02 6e 6f bc a8 94 a4 3c
       0.088282876 -0.04375302 -0.01461363 0.020090416
0000d0 b0 55 f6 3b a8 da 88 3c 0a 0b 18 3d 9d 7d 06 3d
       0.007517539 0.016705826 0.037119903 0.032834638
0000e0 9e 37 f3 3c e1 80 91 3c ef 36 07 bc d1 f1 44 bc
       0.029689606 0.01776165 -0.008252843 -0.012020544
0000f0 ca b2 9c bc 57 89 1e 3d 9e 0d 45 3c bb b6 11 bc
       -0.019128222 0.038705196 0.012027172 -0.008893664
000100 bf 4a 2e 3d 20 7a 1f 3d b4 5f 13 3d e9 b5 29 bd
       0.042551752 0.038934827 0.03597994 -0.04143325
000110 09 a2 08 3d ea 57 05 3d 94 22 52 bd 69 c9 cf 3c
       0.033357654 0.032554545 -0.051302508 0.025364595
000120 17 ae e8 3c 37 62 81 bd e8 e3 5a bc 2f 77 37 3d
       0.028403325 -0.06317561 -0.013360001 0.044791397
000130 b8 90 0e 3d c9 8a 4c 3d 45 c8 04 bc 5b 48 15 3d
       0.034805983 0.049937043 -0.008104389 0.036445957
000140 56 e9 57 3d 4a cd 8e 3c e6 9b 0d 3d 26 6d e4 b9
       0.05271276 0.017431874 0.034572504 -0.0004356887
000150 e9 33 4c 3d 73 c1 57 bd 0c 60 99 bc 7b b4 8c bb
       0.049854193 -0.052674722 -0.018722557 -0.004293976
000160 a1 6b 57 3b 2c bf 8a 3c 24 f4 72 bc 5f 96 b8 3a
       0.0032870548 0.016936861 -0.0148287155 0.00140829
000170 a4 7d b0 3d d6 ff 61 3d 7a 01 72 3d 81 d0 93 bd
       0.08617714 0.055175625 0.05908344 -0.07217503
000180 f2 66 b3 3a 8a fd cf bc e1 68 9f bc 3f bf 79 bd
       0.0013687296 -0.025389452 -0.01945919 -0.060973402
000190 7c 3a 3e 3d 16 3e ac bc 0b 85 2b 3d 53 f7 a0 bc
       0.046442494 -0.021025699 0.041874927 -0.019649183
0001a0 90 5c c4 bc e2 0a f7 bc 9c 16 44 3d e6 8b 3f bc
       -0.023969918 -0.030156557 0.047873124 -0.011691069
0001b0 6d 11 5c 3d b9 0f 5d bd 63 24 83 3c 27 3a 5b 3d
       0.053727556 -0.053970072 0.016008561 0.053522255
0001c0 d2 57 6d bc 9c a3 75 3c 58 10 d8 bc d8 12 df bc
       -0.01448627 0.014992621 -0.02637498 -0.027230665
0001d0 4a 42 16 3c 10 36 f2 ba f6 69 1d 3c d4 f6 40 3d
       0.009171078 -0.0018479247 0.009607783 0.047110394
0001e0 85 f2 3f bd d4 f9 0f 3d bc 71 2c 3b d5 3b bf 3b
       -0.046862144 0.035150364 0.0026312908 0.00583599
0001f0 6f e1 cb bb d3 aa 27 3d 94 b1 4f 3b b8 b5 4b 3d
       -0.006221942 0.040934395 0.0031691538 0.049733847
000200 1c 09 27 3b 2b 16 cd 3c 57 38 b4 bc e6 56 03 3d
       0.0025487607 0.025034985 -0.021999521 0.032065295
000210 81 e0 1b 3d e0 e3 c7 3c 95 58 42 bd 52 b5 a6 bc
       0.0380559 0.024400651 -0.04744776 -0.020350132
000220 1c 8c 2a 3d af 5c 96 3c 69 aa 74 3d 48 de 42 bc
       0.041637525 0.018354742 0.05973283 -0.011893816
000230 9c 69 3d 3d 35 95 d7 3c 53 e1 ea bc b5 23 f3 bc
       0.046243295 0.026316265 -0.028671896 -0.029680112
000240 b9 dc 34 bc d9 c6 7b 3b 5c 49 82 3c ff 49 42 bc
       -0.0110389525 0.0038418083 0.015904121 -0.011858462
000250 d6 64 5a bd b1 92 0f bd 35 7c cb bc 4a c0 81 3d
       -0.05331882 -0.035052005 -0.0248395 0.06335504
000260 4f 58 1f 3d 71 c7 82 3d e6 89 6a 3d 40 74 88 3d
       0.038902577 0.06385697 0.057260416 0.06662798
000270 10 13 68 3c 2d c8 19 bd f0 fb ef 3c 2c 25 39 3d
       0.014164701 -0.037544418 0.029294938 0.045201465
000280 a0 21 2a bd 59 df cb 3c 80 3b 87 bd 87 12 ae 3c
       -0.041535974 0.024886774 -0.066031456 0.021249069
000290 10 75 e2 bb 9d 39 f5 3c 84 f5 58 3d 9a a8 2c 3d
       -0.0069109276 0.029934699 0.052968517 0.04215298
0002a0 af 13 97 3c 7b 56 07 3d 7d 10 19 bd f3 1c 6f 3d
       0.018442003 0.03304146 -0.03736924 0.058377218
0002b0 dd 0c 2a bd 4f ee fe bc 3c d7 b7 bc 3f f7 9d bb
       -0.041516174 -0.031119494 -0.022441499 -0.004820734
0002c0 c3 0f 22 3d 8d ac 36 3d c9 77 35 3d 7b b1 1d 3d
       0.039565813 0.04459815 0.04430369 0.038499337
0002d0 c8 94 88 bd c6 91 3f 3d 7f d6 3c 3d 70 d0 11 bd
       -0.06669003 0.04676988 0.046102997 -0.035599172
0002e0 6e 68 b0 bc 02 dc 13 bd 0d bf 86 bd 7e f8 38 3d
       -0.021534171 -0.036098488 -0.06579409 0.045158856
0002f0 c7 4d 93 bc 00 da 6c 3c 9f 12 1f 3d a4 70 30 3d
       -0.017981423 0.014456272 0.038836118 0.043076172
000300 36 28 e4 3c 6e 62 8e bd 7a 92 84 3b 11 d4 99 39
       0.027851205 -0.06952368 0.0040457817 0.00029340436
000310 4d 5d c4 bb 79 dc 64 3d 42 4e b0 bc f7 d2 70 3d
       -0.0059925676 0.05587432 -0.021521691 0.05879494
000320 8d 4b 2c 3c 5c fa c9 3c ad 47 48 bb bc 9f 05 3d
       0.01051606 0.024655513 -0.00305603 0.032623038
000330 3e 04 3e bc 3f 30 7e 3d 08 d8 66 bd c1 ab 15 3d
       -0.011597691 0.06205773 -0.056358367 0.03654075
000340 8e c2 85 bd 3c c9 73 3c a9 4f 26 3b 6f 69 57 3d
       -0.06531249 0.014879521 0.002537707 0.052590784
000350 f8 43 28 3d f3 db 4b bd 64 a7 13 3d 97 43 31 bd
       0.041080445 -0.049770307 0.036048308 -0.04327735
000360 08 46 03 3c e7 f0 d1 3c d6 ab 17 3d b6 17 13 bd
       0.008012302 0.025627567 0.03702911 -0.035911284
000370 e9 18 15 3d b4 9b d1 3c a3 3c 6f 3c de cc 0a 3c
       0.03640071 0.02558694 0.014601859 0.008471696
000380 cf ff 6a bb 70 fe 0c bd cb 18 21 bc 2b 70 2b 3d
       -0.003585804 -0.034422338 -0.009832571 0.04185502
000390 94 50 42 3d 70 4d e0 bb 80 45 ef 3b 13 93 5b bc
       0.047440127 -0.006845169 0.007301986 -0.013401764
0003a0 7a 27 20 3c 09 fc 3e 3d ad f8 f3 bc 13 eb 3a 3d
       0.009775037 0.04662708 -0.029781664 0.04563434
0003b0 ea 48 72 bc 2f e6 7f bd 09 45 69 3d 0c 90 8c bd
       -0.014787892 -0.06247538 0.056950603 -0.06863412
0003c0 57 56 53 3d 21 df 2b bd 05 e0 08 bd 25 0d 0b bd
       0.051596012 -0.04196084 -0.033416767 -0.033948082
0003d0 ec 07 16 3d 0b 14 7d bd c7 a8 94 3d c2 78 21 bd
       0.03662865 -0.061786693 0.07258754 -0.039421804
0003e0 0b 3f 14 bc a6 8d 21 3d 88 57 2c 3d 81 26 93 3c
       -0.009048234 0.039441727 0.042075664 0.017962696
0003f0 2c 14 85 3d bb 1c 06 3d ee 4f 28 bd 61 f9 f5 3c
       0.06497988 0.032742243 -0.041091852 0.03002614

network_body.linear_encoder.seq_layers.0.bias f4 [256]
000000 11 14 7f 3d a2 cd b3 bd 99 ed 4d bd 68 8d 60 3d
       0.062274996 -0.08779456 -0.05027542 0.054822356
000010 a3 57 54 3d 99 f9 77 3d d5 52 ff 3d 45 c8 16 3d
       0.05184139 0.06054077 0.12466971 0.036812086
000020 fd f2 1f 3d 51 63 15 3d a6 4e 9a 3d 68 78 16 3d
       0.03905009 0.03647167 0.07534532 0.036735922
000030 1b 01 9a 3d 13 31 27 3c 8c 2c 90 bc 1d 8e d2 3d
       0.07519742 0.010204571 -0.017599367 0.10281012
000040 5b 33 2a 3d 88 eb ff 3d 53 3c 2f 3d 03 e2 03 3e
       0.041552883 0.12496096 0.04278214 0.12879185
000050 67 5b da 3d 95 48 92 bd 03 54 50 3d 74 f4 1c 3c
       0.10661965 -0.0714275 0.05086137 0.009579767
000060 ac c2 e9 3d 6e 1c a6 3d d2 cb 9b 3d ef 51 34 bd
       0.11414084 0.08110891 0.07607235 -0.04402345
000070 f8 24 05 3e 44 40 af 3d 32 32 12 3e b3 c2 a9 3d
       0.13002384 0.085571796 0.1427696 0.08289089
000080 d6 d2 ce 3d 48 44 fb 3d ab 72 af 3c 37 ac 93 3d
       0.100988075 0.12268883 0.021416983 0.07210582
000090 da 28 40 3d a8 f6 86 3d 9a ea 13 3e f9 27 9d 3d
       0.04691396 0.06590015 0.14444962 0.0767364
0000a0 5d 23 cd 3d 22 33 25 3a a1 6a 11 3d 62 95 1f 3d
       0.10016511 0.000630187 0.03550208 0.038960822
0000b0 15 c2 66 bd 8b db 84 3a 64 f3 a1 bc cf 32 e9 3d
       -0.056337435 0.001013623 -0.019769378 0.11386644
0000c0 8f db 00 3e a1 8d 4c 3d 21 dd 0a 3e 3e 32 cf 3d
       0.12583755 0.049939755 0.13560916 0.10117005
0000d0 8b e1 d4 3d f9 79 34 bd 7b 70 30 bd c7 8e 00 3e
       0.103945814 -0.044061635 -0.04307602 0.12554465
0000e0 49 7a 4d 3d c6 61 83 ba e6 dd c4 3d 52 c1 59 bd
       0.05016545 -0.0010023646 0.09612636 -0.05316288
0000f0 e4 d8 95 3d 84 b9 e5 3d 25 f2 06 3e 2e 10 88 3d
       0.07316759 0.11217025 0.13178308 0.06643711
000100 0b 2e f7 3d 02 78 c3 3d f7 30 6e 3d 9d 8f cc 3d
       0.12069329 0.09544374 0.058152165 0.099883296
000110 62 92 f4 3d 4b f5 e7 3d cb 4b ca 3d 32 b6 8e 3d
       0.11941983 0.11326083 0.098777376 0.06968345
000120 98 db 0d 3e a1 bd f5 3d c2 2c 6c bd 23 ef dc 3d
       0.138533 0.119990595 -0.057659872 0.10787799
000130 c0 c4 c0 3d 69 ee 21 3d 8b e9 b9 3d 8f 41 94 3c
       0.09412527 0.039534006 0.09077748 0.018097667
000140 5c c5 97 3d 6e 42 de 3d 77 3b 73 3d 09 35 09 3e
       0.0741069 0.10852514 0.059382882 0.13399138
000150 a4 79 eb 3d 4d 85 34 bd aa f3 38 bd 66 bf 02 3e
       0.114978105 -0.044072438 -0.04515425 0.12768325
000160 1a f1 50 bb ff 20 09 3d 1b 3d a2 3d b9 c2 e6 3d
       -0.003188199 0.033478733 0.07921811 0.11267609
000170 28 df 78 3d a2 0d 56 3d 08 a2 fa 3d d1 47 87 3d
       0.060759693 0.052259095 0.12237936 0.06605495
000180 a9 19 56 3d 27 9b 8d 3d ea c6 6a bd 4a 2f c8 3d
       0.052270565 0.069143586 -0.057318605 0.09774645
000190 f4 e0 b5 3d 47 b7 fe 3d 1e a0 67 3d f6 30 3f 3d
       0.08880797 0.12437301 0.056549184 0.046677552
0001a0 a5 57 54 3d 9a 85 8a bd e7 14 ac 3d af ba 22 3d
       0.051841397 -0.06763764 0.08402424 0.039728817
0001b0 35 b1 0e 3d 8d 48 39 3d 1d 4f 6c bd 14 5a 78 3d
       0.034836967 0.045235205 -0.057692636 0.06063278
0001c0 93 63 b0 3d be c9 7f bb f2 58 49 3d 83 c1 eb 3c
       0.08612742 -0.003903016 0.04915709 0.028778797
0001d0 d9 fc 7a bc 7b 0b be bc b9 d3 4d bb 41 b5 0f 3e
       -0.015319073 -0.023198834 -0.0031406714 0.14033987
0001e0 c2 93 84 3c da 44 ce 3d 28 27 ab 3d 84 a9 9f bd
       0.016183738 0.10071726 0.08357078 -0.077960044
0001f0 a6 3d ad 3d d8 3b ab 3d b0 59 b6 3d 1d bd 1d 3e
       0.08459024 0.08361024 0.08903825 0.15404172
000200 45 1e 15 3e 0d 8f 87 3d 35 f5 cc 3d f4 94 cb bc
       0.14562328 0.06619082 0.10007707 -0.0248513
000210 9d cd 3e 3d 07 0c 28 3d dd c5 99 3d 1d 81 81 3d
       0.046582807 0.041027095 0.075084426 0.063234545
000220 50 30 1c 3e 75 66 4e bc fe 7d e9 3d 1e af 74 3d
       0.15252805 -0.01259767 0.11400984 0.059737317
000230 51 06 22 3c 11 ec 6f 3d 2c 58 fa 3d 22 6a eb 3d
       0.009889201 0.05857474 0.12223849 0.114948526
000240 1b 7c bc 3d 58 84 c8 3b 0d 6c f2 3d 31 4b 01 3e
       0.09203359 0.006119292 0.11837015 0.1262634
000250 58 c0 90 3d 6b 90 e7 3d f0 4d 04 3d 22 59 87 bd
       0.07067937 0.113068424 0.03230089 -0.066087976
000260 c7 cf c8 3d 05 27 93 3d aa 7d 56 3d 6d 29 6c 3d
       0.098052554 0.07185177 0.052365936 0.057656694
000270 50 98 c0 3d f3 78 2f 3c 5b ce 50 3d 49 93 99 3d
       0.09404051 0.010709989 0.050978046 0.074987955
000280 2f 19 34 3d fd cd c1 3d 6d 50 c6 3c 87 f1 6a 3a
       0.04396933 0.09463117 0.024208272 0.0008962382
000290 c5 4b bd 3d 7d 4c b5 bd e5 db 60 bd 15 b9 b9 3b
       0.092429675 -0.088524796 -0.054897208 0.0056678155
0002a0 ed 36 bc 3d 67 a2 6d 3d a7 07 ae bd b9 f7 81 3d
       0.09190164 0.058016207 -0.08497553 0.063460775
0002b0 f4 52 97 3d d0 b6 ff 3d 01 30 da 3d 8f e0 a8 bd
       0.07388869 0.124860406 0.10653687 -0.08245956
0002c0 e2 76 14 be 21 56 c6 3d be 23 d7 bc f9 c9 ad bd
       -0.14498475 0.096843965 -0.02626216 -0.08485789
0002d0 4d 69 89 3d 2b e6 81 3d 22 52 85 3d 8b 66 53 3c
       0.06709538 0.06342729 0.06509806 0.012902866
0002e0 90 59 51 3c b6 ae 3d bd 03 b1 b3 3b 10 2e 13 3e
       0.012777701 -0.046309195 0.005483748 0.1437304
0002f0 fb cd 09 3e 1d ee f7 3d e6 ca 9f 3d 01 e6 03 3d
       0.13457482 0.121059634 0.07802372 0.03220177
000300 4d d5 8a 3d 73 21 b6 3d 99 22 ed 3d c0 2b 0c 3d
       0.06778965 0.08893099 0.115788646 0.03422141
000310 8b 98 f9 3d da 72 d4 3c c1 df 83 3d 96 e5 cb 3d
       0.121872984 0.025933672 0.06439162 0.099558994
000320 e0 cf a4 3d 9c 60 df 3d 88 10 b8 bc 19 fa 25 3e
       0.080474615 0.10907099 -0.02246882 0.16208686
000330 a4 16 d4 3c 36 0d 2d 3e bb d7 5d 3d cb 00 49 bc
       0.025889702 0.16899571 0.054160815 -0.012268255
000340 89 eb 85 3d 8e 5b d9 3d f1 54 94 3c fd 84 ec 3c
       0.065390654 0.10613166 0.01810691 0.028872008
000350 e8 0a 29 bd ed 7f d8 3d 51 52 6a 3d 8e 6a 8a 3c
       -0.041270167 0.10571275 0.05720741 0.016896512
000360 ab c6 0c 3e f5 e5 b2 3d e3 23 a3 3c f6 da da 3d
       0.13747661 0.08735267 0.019914573 0.10686295
000370 d3 cf 7b bc b6 a3 6e 3d 5f cd 03 3e 84 da 78 bc
       -0.015369373 0.058261596 0.12871312 -0.015188817
000380 1f 2e 84 3d 18 bc 1a 3d 1e 00 17 3e 46 7c 00 3e
       0.064541094 0.037777036 0.14746138 0.12547407
000390 9b c4 03 3e 1c e1 c0 3b 8c 54 01 3e b7 cc 9d 3d
       0.12867968 0.00588621 0.12629908 0.07705062
0003a0 ac ad ff 3d bc 5a d5 3d 57 a5 98 3d c5 bc 8e bc
       0.12484297 0.10417697 0.07453411 -0.017423997
0003b0 25 26 57 bd 3b d0 ab 3d 01 2d 8a bb 4c 66 9d 3d
       -0.05252661 0.08389326 -0.0042167907 0.07685527
0003c0 00 c7 bd 3d 25 d8 8e bd 28 ed 4c 3d 49 71 b2 3d
       0.09266472 -0.0697482 0.050030857 0.08713014
0003d0 c0 f6 c5 3d 0f a1 27 bd 07 8f d9 3d 20 20 42 3b
       0.096662045 -0.04092508 0.106229834 0.0029621199
0003e0 b3 17 b8 3b 0e c1 bf 3d 56 e1 34 bc 48 7d 21 3d
       0.0056180595 0.09362994 -0.011040052 0.039426118
0003f0 d7 ef ad bd 0d 6c a8 3d a3 aa 20 3e d1 1f 24 3e
       -0.084930114 0.08223734 0.15690093 0.16027762

network_body.linear_encoder.seq_layers.0.weight f4 [256, 9]
000000 93 9c 65 3b 2f f3 ea 3d 8c 18 05 bf 07 7c be be
       0.0035035952 0.11472165 -0.5199058 -0.37204
000010 15 59 8c be cc 24 1f bc a8 9f d2 be 53 0e 33 3d
       -0.27411714 -0.009713363 -0.41137433 0.043714833
000020 4b 1d 13 3e b9 b1 dd 3d bf cb ad 3e 8e 05 33 bf
       0.14366643 0.108249135 0.33944508 -0.6993035
000030 40 21 07 be a3 b6 68 bf 90 76 01 bf 38 c8 7f 3d
       -0.13196278 -0.9090368 -0.50571537 0.062446803
000040 bb 01 ec be cd ad 92 bd e5 a4 aa be 4c d7 82 be
       -0.4609507 -0.07162056 -0.3332893 -0.25554883
000050 0c 6f e4 3e bd d2 c8 3e f7 70 27 3d 1f 78 81 be
       0.44615972 0.3922328 0.040879216 -0.25286958
000060 aa 54 49 3d 58 27 b5 3d 44 e7 16 bd 73 07 22 bf
       0.049153008 0.08845395 -0.036841646 -0.63292617
000070 ab 82 db be 42 07 9c 3e b6 30 14 bf 9d ac 0c 3d
       -0.4287313 0.30474287 -0.57886827 0.034344304
000080 10 31 10 bf 26 d5 93 bd 98 f7 ae be 77 9a 4f 3f
       -0.56324863 -0.07218389 -0.34173274 0.8109507
000090 f2 ab cc 3d 17 4d 3e 3f 14 7c d9 be 4a 16 64 bb
       0.099937335 0.7433638 -0.42477477 -0.0034803324
0000a0 ed ef 9b 3e 0c e0 0c be 40 0a 36 3f 6f 89 e5 bc
       0.30456486 -0.13757342 0.7110939 -0.028019635
0000b0 da d0 8f 3e 2b 7b 3d 3c ca 35 e6 bd 42 7c 5a be
       0.2808903 0.01156501 -0.11240728 -0.21336463
0000c0 47 39 4f bd 1c 0e 47 3d 93 e0 32 3e 89 f4 bb 3d
       -0.050591733 0.04859744 0.17468481 0.09177501
0000d0 1a d4 58 3e 25 ca f5 be 1b ed 97 3d b7 1a e0 3e
       0.2117466 -0.48005787 0.07418271 0.43770382
0000e0 8c 69 c1 3e 9e 83 b6 3b b2 dc 33 3f 21 4f 11 be
       0.37775838 0.005569889 0.7025863 -0.14190342
0000f0 56 74 12 bf e4 3a 26 be 5f 4a 27 be 77 23 01 bf
       -0.57208765 -0.16233402 -0.16336964 -0.5044474
000100 67 53 be 3e 64 b3 9c 3e 66 41 fd 3e ee ba 15 3f
       0.37173006 0.30605614 0.49463958 0.5848836
000110 e2 4c 9c 3e 62 1d 77 bf 7e 0e 9b be 09 64 36 be
       0.30527407 -0.9652921 -0.30284494 -0.17811598
000120 c9 96 e0 3e 45 85 bf bd 8e 1b 4d be 5f ba 6c 3e
       0.4386504 -0.09351591 -0.20030043 0.2311797
000130 9f 2d 62 3e b5 f8 89 3d f5 9f 13 be 48 9b c5 3e
       0.22087716 0.0673689 -0.14416488 0.38595033
000140 8e 97 b1 3d f3 5c a6 bd b0 ff 5a 3e e7 81 25 bf
       0.08671485 -0.081231974 0.213866 -0.6465134
000150 31 50 2e be 66 32 6d 3d 98 5a 39 3e 2b 5c 0f 3e
       -0.17022778 0.05790939 0.18100965 0.14000003
000160 18 3b a0 3e 57 44 fa 3e 2e 1f 22 3f e8 00 2d 3d
       0.31295085 0.48880264 0.63328826 0.042237192
000170 57 f8 41 3d 42 d1 94 be e8 16 ad 3e 9e 4b 12 bd
       0.047355976 -0.290659 0.3380654 -0.035716645
000180 1e 4e 31 3e 9e 06 a6 3d 65 3d 93 be 99 ce bd 3e
       0.17314956 0.08106731 -0.28757778 0.37071684
000190 8d 96 18 3e d7 e9 0e 3e a5 81 cd be 62 a4 9c 3e
       0.1490118 0.1395639 -0.40137973 0.30594164
0001a0 4a be 05 be 82 d5 93 3e 83 8b b0 be a5 28 c1 be
       -0.13060871 0.2887383 -0.3448144 -0.37726322
0001b0 95 b4 19 3e 5b 19 e9 3c 80 e0 c9 be 15 57 32 bf
       0.15010293 0.028454473 -0.39429092 -0.69664127
0001c0 f8 b2 c1 3e 3e e5 98 be b9 e0 a2 be 56 83 cc 3e
       0.37831855 -0.29862398 -0.31812075 0.3994395
0001d0 2a 12 89 be ed 95 9d 3e df 42 f8 3e fb c1 4b 3e
       -0.2677167 0.30778447 0.4848852 0.19898216
0001e0 4c 2e a4 be 71 40 3c 3e 77 a8 fa 3e e8 b8 23 3e
       -0.32066572 0.18383957 0.48956653 0.15988505
0001f0 48 bf 50 be 9e 3f 94 be 46 64 60 be 03 be 1a 3e
       -0.20385468 -0.28954786 -0.21913251 0.15111546
000200 b4 d5 98 be ce a2 74 3d b8 f8 45 be f0 e2 e7 be
       -0.29850543 0.059725575 -0.1933316 -0.45290327
000210 96 83 36 be 7e e9 17 be fa 81 d9 bd ac 6d 6d 3f
       -0.17823634 -0.14835164 -0.10620494 0.9274547
000220 74 fd b8 3e a8 a3 06 be 55 59 1d bf 88 cb 37 3e
       0.3613087 -0.13148367 -0.61464435 0.17948735
000230 ed 86 10 3e 04 bb ac be 64 4b f7 be d4 00 14 be
       0.1411397 -0.33736432 -0.48299706 -0.14453441
000240 7b 16 4d bf 11 5e 9c 3e de 10 af 3e 3b ac 7b bf
       -0.8011243 0.30540517 0.34192556 -0.9830968
000250 bc 74 12 3e 4f c7 65 3e 44 06 6f 3e a6 86 03 bf
       0.14302343 0.22439311 0.23342234 -0.5137733
000260 89 13 ba bd 8c 58 2e bf 66 2e 75 bd 06 3d 06 3f
       -0.09085757 -0.6810386 -0.059858702 0.52436864
000270 85 36 9a 3e bc c8 4c 3e d4 b9 d7 3e fe 02 48 bf
       0.3011972 0.19998449 0.42133963 -0.78129566
000280 53 25 78 3e c8 6e ec be d9 b7 ab 3d 3b 2c 37 3f
       0.24232988 -0.4617827 0.083846755 0.71551865
000290 3e 96 2d 3e ba 94 57 bf c6 ef 09 3f 3a 33 21 bf
       0.16951844 -0.84211314 0.5388149 -0.6296879
0002a0 0c 69 4b 3d b6 00 5b be ae 24 58 be 25 45 0c 3f
       0.049660727 -0.2138699 -0.21107742 0.54793006
0002b0 2f 8f 2c 3f e2 6d 2f 3e e2 2e 82 3e d5 a7 a0 bb
       0.6740598 0.1713176 0.25426394 -0.0049028196
0002c0 a8 2a 64 bd f6 68 5d 3f 3c 9a 84 3e 66 24 1c bf
       -0.055704743 0.8648828 0.2589892 -0.6099304
0002d0 83 f6 3b 3f de 3d 72 3e 49 75 94 bd b6 17 04 bf
       0.7342302 0.23656413 -0.07248933 -0.5159868
0002e0 d2 ed f8 bd a5 be 03 3d 78 a3 01 bf 9a f2 b8 be
       -0.121547356 0.032164235 -0.5064006 -0.3612259
0002f0 da 9a aa be a9 42 87 be 6f d4 15 3e bc 43 14 bf
       -0.33321267 -0.26418045 0.14631818 -0.57915854
000300 5e bb 0c 3f 18 78 c2 3e 0b 2a 27 bd 08 cb 41 3d
       0.549734 0.3798225 -0.04081158 0.047312766
000310 9b ce 3b 3e be 7d 34 3e a6 a7 ef be 50 46 8e 3e
       0.18340532 0.17626092 -0.46807593 0.2778802
000320 06 83 c6 be bf e6 33 bf 56 45 84 3e 4a ac 6b 3e
       -0.38771838 -0.70273966 0.2583415 0.23014942
000330 dc dc ef 3d d7 14 8b 3e 72 9e 79 3e c4 38 0e be
       0.117120475 0.27164337 0.24376848 -0.13888842
000340 55 73 8d be 9c c6 05 bc 38 da 9a 3e 95 9a 1c 3e
       -0.27627054 -0.008165028 0.30244613 0.15293343
000350 4f 69 be 3d 60 86 8d 3e 18 2e b2 be 7f f2 84 be
       0.0929743 0.27641582 -0.34800792 -0.2596626
000360 8b 26 03 3f 8e 35 4b be 17 21 40 3e 2c b8 b2 3e
       0.51230687 -0.19844648 0.18762623 0.34906137
000370 d5 3d 8e 3d c8 b0 99 3e 0a a7 89 bb 8b 43 16 3f
       0.06945387 0.30017686 -0.004200821 0.5869681
000380 89 0a 04 bf d7 7b 12 be c2 b6 ac be b4 6c ab be
       -0.51578575 -0.14305054 -0.33733183 -0.3348137
000390 d1 f4 ef bc ff 63 1c be 63 b8 d0 3d ad 02 06 3f
       -0.029291542 -0.1527252 0.10191419 0.5234783
0003a0 a6 b6 ee 3d 76 71 6b 3f 7a 2a fe 3e 6b 1b af 3d
       0.11655931 0.9197 0.49641782 0.085501514
0003b0 ae a7 73 3d 25 c4 0a bd 8f 54 cb 3d eb 93 60 3e
       0.059486084 -0.033878464 0.09928238 0.21931426
0003c0 a6 17 b0 be fa 21 bb bc 55 75 ae 3e 00 34 1b 3e
       -0.34393042 -0.02284335 0.34073892 0.15156555
0003d0 ba 61 56 bf c3 7e 96 3d 15 e3 2d be 74 67 07 3e
       -0.8374287 0.07348397 -0.16981156 0.13223058
0003e0 8e 03 12 3f 2d 59 c9 bd 26 dd 85 bd 81 73 03 3f
       0.57036674 -0.09831462 -0.06536321 0.5134812
0003f0 dd 57 10 3d 13 a5 26 be a5 79 86 bd 36 54 2a 3f
       0.035240043 -0.16273908 -0.065661706 0.66534746

network_body.linear_encoder.seq_layers.2.bias f4 [256]
000000 ed 12 ce bd e4 85 9d bd 5a 6f 74 bd 50 5b 23 3e
       -0.100622036 -0.07691553 -0.059676506 0.15952802
000010 48 6d c4 3d 16 ea b0 3d c2 e1 fe 3d b9 e8 ef 3d
       0.09591156 0.08638398 0.12445404 0.1171431
000020 6e 4e 75 bd 12 2d 1a 3d 11 dc 65 bd 3e 05 f3 3d
       -0.05988925 0.03764064 -0.056118075 0.11866234
000030 dc 82 9a 3d 15 ce 8a bd d7 14 65 bd cf 64 be 3d
       0.07544491 -0.06777588 -0.055928078 0.092965715
000040 81 11 0e 3e 5f 95 bc 3d 83 7e c9 3d 5a 9e 80 bd
       0.13873865 0.09208178 0.09838583 -0.06280203
000050 02 9d fa 3d 3a 41 80 bd 33 d1 ce bd 95 36 44 bd
       0.12236978 -0.06262441 -0.10098495 -0.047903616
000060 07 d2 8a bd 92 8f e3 3c 70 4b 6f bd 5d 0c 09 3e
       -0.06778341 0.02777842 -0.058421552 0.13383622
000070 4c 30 a8 bd c9 5a 04 3e 96 a7 a2 3d dc 00 9d 3d
       -0.08212337 0.12925257 0.07942121 0.076661795
000080 2f fc 91 bc 70 37 bc 3d ac ab c7 3d 69 3e 0f 3e
       -0.017820446 0.09190261 0.09749541 0.13988651
000090 86 c5 ff 3d 19 d8 f2 3d ea af f7 3d 1a 43 66 bd
       0.124888465 0.118576236 0.120941 -0.056216337
0000a0 ac 69 eb 3d 5b 10 98 bd db 57 27 bc c5 8a 32 3e
       0.11494765 -0.074249946 -0.0102138175 0.17435749
0000b0 12 49 1c 3e bb 47 8b 3d 4e 18 81 bd 5c 31 dc 3d
       0.15262249 0.06800791 -0.06303464 0.10751602
0000c0 97 18 4d bd 7f c4 7c bd 2b dc 3a bd 57 65 0c 3e
       -0.05007228 -0.06171083 -0.045620125 0.13710533
0000d0 8c 4a 09 3e 7d f5 23 3e cd 68 0b 3e cb 89 9e bd
       0.13407344 0.16011615 0.13614197 -0.07741126
0000e0 a7 58 00 3e d5 30 eb 3d 09 54 02 3e e5 f4 52 bd
       0.12533818 0.11483923 0.1272737 -0.05150308
0000f0 e6 58 c2 bd 6c e1 bb 3d d4 99 b7 3d 39 07 a6 3d
       -0.09489612 0.09173855 0.08964887 0.08106846
000100 b4 4a 05 bc d6 6e b7 3d cb 16 01 3e be 24 76 3b
       -0.008135486 0.08956687 0.12606351 0.003755852
000110 2e ac c1 3d 42 50 e0 3d 26 a5 9f bd 03 05 b7 3c
       0.09456669 0.10952808 -0.077951714 0.022341257
000120 bd 4d d4 3d ce 7c 7f bd 25 b0 8c 3d e0 28 0e 3e
       0.1036639 -0.062374882 0.068695344 0.1388278
000130 f8 be cc 3d 4c 8a 0a 3e 69 e9 b3 3d 7f 59 ae 3d
       0.09997362 0.13529319 0.08784754 0.08513164
000140 2a c1 17 3e c9 97 24 3d fd a2 ff 3d e6 a8 b4 3d
       0.1481978 0.040183816 0.124822594 0.08821277
000150 42 9f 78 bc 3d a5 97 bd 0b 02 a4 bd 8d 53 ee 3d
       -0.015174689 -0.074045636 -0.08008202 0.1163703
000160 bb de cf bc 81 cf 83 3d a7 e9 08 3e 9c 2d cc 3d
       -0.02537476 0.064360626 0.13370381 0.09969637
000170 93 d1 ce bc 9f 92 d5 3d 2d 94 ea 3c 0c 08 9a bd
       -0.025246417 0.104283564 0.028635109 -0.07521066
000180 76 da 19 3e c4 08 08 3e 09 2e 92 bd 0e b3 96 bd
       0.15024742 0.13284594 -0.07137687 -0.07358371
000190 95 f0 0d 3d 43 0f d2 3d a5 fd e9 3d 76 5d 59 3d
       0.034653265 0.10256817 0.11425332 0.053067647
0001a0 20 b4 99 bd 5a 2f 6e bd 9e 75 ad 3d e1 b3 86 bd
       -0.07505059 -0.058150627 0.08469699 -0.06577278
0001b0 30 06 dc 3d 5a 9a a9 bd e7 2f 2a 3c bc d8 d4 3d
       0.10743368 -0.08281393 0.010387397 0.10392901
0001c0 e8 09 b3 3d d1 a4 d8 3d cb 50 a6 bd ff 0b 44 bd
       0.08742124 0.10578311 -0.08120879 -0.047863003
0001d0 2f ae fe 3d ca 12 1a 3e 98 29 af bb 70 a1 34 bd
       0.12435567 0.1504623 -0.0053455345 -0.04409927
0001e0 1a 06 c9 bd a2 16 c7 3d 38 b3 d9 3d 69 67 a0 3d
       -0.09815617 0.09721114 0.106298864 0.07832224
0001f0 ec 76 6f bd a9 8e d9 3d 0a 97 47 bd 3f 79 bc 3d
       -0.058463022 0.106229134 -0.048728026 0.09202813
000200 5c 7a eb 3d 61 75 c3 3d 51 40 c4 3d 51 0c e2 3d
       0.114979476 0.095438726 0.0958258 0.110375054
000210 f5 94 fa 3d ce 04 7e bd 2b 3f b7 bc 18 82 4e bd
       0.122354425 -0.0620163 -0.022368988 -0.050417036
000220 ec 74 0c 3e a9 1e bd 3d 3d be b8 3d 41 c1 02 3e
       0.13716477 0.092343636 0.0902066 0.12769033
000230 74 ec a9 3d 01 54 0a bd 12 69 df bd a6 9f 97 3d
       0.08297053 -0.03377152 -0.109087124 0.074034974
000240 a5 ad d7 bd 18 d5 02 3e ef 50 ee 3d 89 3b 9a bc
       -0.10531167 0.12776601 0.116365306 -0.018827217
000250 16 15 9f bd 28 25 87 3d 3a c4 66 bd e3 2b 81 bd
       -0.07767694 0.06598884 -0.05633948 -0.06307199
000260 b1 ed c6 3d 2f 66 1c bc b9 de f5 3d 84 ff 26 3b
       0.09713305 -0.009545847 0.120053716 0.002548189
000270 60 39 01 3e 8b 1b a0 bd d1 49 a6 3b 13 cb 81 bd
       0.12619543 -0.078177534 0.0050747176 -0.063375615
000280 45 ba d5 bd 83 c9 a7 3d 8c 8c 04 be f7 2a fe 3d
       -0.10435919 0.08192732 -0.1294424 0.12410539
000290 11 52 de 3d 82 9c e2 3d 11 27 f2 3d 66 34 0c 3e
       0.10855497 0.11065008 0.118238576 0.13691863
0002a0 35 cc 66 3c c7 11 7d bd f1 24 a8 bd 88 3e cb 3d
       0.014086773 -0.061784532 -0.08210171 0.09924036
0002b0 50 84 a4 bd 74 eb b6 bd e5 61 99 3d 48 a2 d0 3d
       -0.08033049 -0.08931628 0.07489375 0.10187203
0002c0 e4 85 65 3d bf 38 e6 3d 7f 55 d6 3a 43 ba fe 3d
       0.05603589 0.11241292 0.0016352384 0.1243787
0002d0 30 fa 22 3d 31 b3 e4 3d f9 02 eb 3d 46 55 9b bd
       0.03978938 0.111669905 0.11475176 -0.07584624
0002e0 20 71 96 3d 47 2a 89 bd 90 41 d7 bd 6e ac fe 3d
       0.07345796 -0.06697517 -0.10510552 0.12435232
0002f0 a6 f6 ff bc 8b 5b bd 3d 75 01 9d 3d 33 72 1e 3e
       -0.03124554 0.09245976 0.076662935 0.15473251
000300 91 ae 0c 3d 3e b8 aa bd 79 d9 c9 bc 4a 40 ee 3d
       0.034346167 -0.08335923 -0.024639832 0.11633356
000310 e8 e6 1a bd 6d ae 8d 3d 06 51 8d bd 15 cf af 3d
       -0.037817866 0.06918035 -0.069002196 0.0858442
000320 6a ce d2 3d 7a 0f 50 3d 93 81 80 bd 47 d6 99 bc
       0.102932766 0.05079601 -0.06274714 -0.018778933
000330 46 52 29 3e 4d ad 1d bd b3 20 b4 bd 69 ad ce 3c
       0.16535291 -0.03849535 -0.087952994 0.025229173
000340 60 47 a2 bd e7 98 7b bd 75 39 a2 3d 77 b1 29 3e
       -0.0792377 -0.061425116 0.07921115 0.16571604
000350 db 32 27 3e 15 91 e6 bd 20 8c 0e 3e 5e e0 7d bd
       0.16327994 -0.11258141 0.13920641 -0.06198155
000360 04 2c 11 3e dc 8d 63 3d b6 cf 00 3e 06 59 04 3d
       0.14176947 0.05555521 0.12579235 0.032311462
000370 59 2a 78 3d 3d 8f 33 bd 8b 8b e0 3d 4f 87 79 bd
       0.06058726 -0.043837775 0.10964116 -0.060920056
000380 a7 61 b5 3d 17 1f c5 bd 22 c3 01 3e 29 8a c3 bc
       0.08856516 -0.096250705 0.12672094 -0.02386959
000390 20 df 01 3e c1 65 f8 3d 27 6d a9 3c 05 28 89 bd
       0.12682772 0.12128783 0.02068193 -0.06697086
0003a0 78 cf de 3d 2d c2 10 3e 39 fd 83 bd 5b c1 c0 3d
       0.10879415 0.14136572 -0.06444783 0.0941188
0003b0 9e dc 78 3c ec 88 a6 bd 43 e2 ec 3d 0b eb d3 bd
       0.015189318 -0.081315845 0.115665935 -0.10347565
0003c0 f5 76 f6 3d 5e e5 c0 bd e9 0a c6 bd bc 6c 10 3d
       0.12034408 -0.09418748 -0.0967005 0.035259947
0003d0 64 90 08 bd b7 24 bb bd 8a 4f 2a bd 31 2c 17 3d
       -0.033340827 -0.09137862 -0.04157976 0.03690738
0003e0 a5 ab ac 3d 01 0d 0f 3e fd 3c ec 3d cc cc 35 3e
       0.08431176 0.13969804 0.1153507 0.17753905
0003f0 6d b4 7c bd d5 9b 11 3e 17 2f 89 bc 92 92 82 bd
       -0.061695505 0.14219601 -0.016746087 -0.06375612

network_body.linear_encoder.seq_layers.2.weight f4 [256, 256]
000000 0f 76 f8 bc 42 dc 5d 3c 74 53 c2 3d 86 f0 bb 3c
       -0.030329732 0.013541283 0.09488574 0.022941839
000010 81 39 68 bd 03 c0 b3 bd 2e a1 a8 bc a7 93 06 be
       -0.056695465 -0.08776858 -0.020584669 -0.13142262
000020 55 55 2c 3b 18 25 9b 3d ed 43 f6 bd 65 0f c3 bd
       0.002629598 0.075754344 -0.120246746 -0.09524421
000030 dc 35 49 bd c1 4c 35 be 7e 32 a9 3d 18 9c 6f be
       -0.04912363 -0.1770506 0.08261584 -0.23399389
000040 63 5e a5 3c 8e 6a c9 3d 1c 87 1e bc 8d a5 3d bd
       0.020186609 0.09834777 -0.009675767 -0.04630046
000050 81 54 0c be d5 92 d8 3b 42 9f 65 3c 36 f2 2d bd
       -0.1370411 0.0066093006 0.014015021 -0.04246732
000060 11 02 fe bd 58 d4 c5 bd b2 f2 b3 bd aa 87 13 be
       -0.12402738 -0.09659642 -0.08786525 -0.1440722
000070 aa 5f 24 3d b9 ef 89 3d c6 c3 c3 bd ba a6 ba bd
       0.040130295 0.067351766 -0.09558825 -0.09113832
000080 d8 1c df bc 8a 96 f9 bd 07 9b c6 bb 04 ff ec 3d
       -0.027235433 -0.12186916 -0.006060961 0.11572078
000090 88 43 84 3c 4b 37 3a be 07 a9 6d bd 70 e5 86 3c
       0.016145483 -0.18185155 -0.058022525 0.016466826
0000a0 05 d4 ff bd 64 40 36 bd e0 12 25 bd 0e a4 95 bd
       -0.124916114 -0.044495 -0.040301204 -0.073066816
0000b0 e5 52 53 bd 29 11 67 3d 17 b1 fe bd 42 fd 37 be
       -0.051592726 0.05641285 -0.12436121 -0.17967704
0000c0 59 08 16 be 1d 72 97 b9 b3 b3 f6 bd 5c 37 8a 3d
       -0.14651622 -0.00028885985 -0.12045994 0.0674884
0000d0 c5 34 d6 3d 87 23 c9 bc f2 4b e4 bd 04 b7 9e bd
       0.10459284 -0.024553074 -0.11147298 -0.07749751
0000e0 3b c5 88 bc 70 93 12 bd ab 60 99 bd 3f 24 03 bd
       -0.01669561 -0.03578514 -0.07489141 -0.03201699
0000f0 56 51 93 bc 29 b7 48 be f2 0d fd bd 22 12 b5 bd
       -0.01798312 -0.1960112 -0.123561755 -0.08841349
000100 d7 f0 6e be 6d e8 00 be f5 a4 83 bb 22 dc 21 bd
       -0.2333406 -0.12588663 -0.004017467 -0.039516576
000110 a8 09 93 3c d0 8e 00 be b2 cc e6 bd 62 48 5c bd
       0.01794894 -0.12554479 -0.11269511 -0.053779967
000120 3c 53 12 be 66 4b 87 bc 5a e6 90 3d 06 4f cb bd
       -0.14289564 -0.016515445 0.07075186 -0.09927182
000130 a4 a1 ea bd 0f 16 4d 3d b3 0f 65 bd 98 0b 2b 3d
       -0.11456612 0.050069865 -0.055923175 0.041759104
000140 c5 4b 27 be b7 fc 0a bd 2b 24 0b bc 99 c1 91 3d
       -0.16337498 -0.033932414 -0.00849251 0.07117004
000150 4c b4 16 be 60 7a 14 bc a5 36 c6 bd 5d 37 e7 bd
       -0.14717215 -0.00906238 -0.09678391 -0.112898566
000160 ac c8 17 be 88 dc f9 bc 0f 5e 26 bd c1 58 af bd
       -0.14822644 -0.030500665 -0.040617045 -0.0856185
000170 6e 21 fc bc 44 40 bd bc 5e 56 93 bd 11 dd 05 be
       -0.03077766 -0.023101933 -0.071942076 -0.13072611
000180 29 c7 f7 3d 36 be 50 bb 85 aa ae 3c 0e cb 68 be
       0.12098534 -0.0031851656 0.021321544 -0.22733709
000190 40 d1 c2 bd 93 3a 15 bb a1 0e ff bd ce 94 7a bd
       -0.095125675 -0.0022770509 -0.12453962 -0.061177067
0001a0 51 1c b8 bd f6 d7 9f 3d 7d 73 18 be 29 77 df bd
       -0.08989776 0.07804863 -0.14887805 -0.109114
0001b0 d8 3f 0e 3e 0b 3f 86 3c f5 0b 42 3e 5a 8a 05 3d
       0.13891542 0.016387483 0.18949874 0.032602645
0001c0 e1 10 4d be 90 7c c6 3d 8e 33 22 3c 49 6d 9d bd
       -0.2002597 0.09691727 0.009899987 -0.0768686
0001d0 b7 8e d4 3d 41 de da ba 3c 17 39 3c 4e 2f 41 be
       0.10378783 -0.0016698317 0.011297043 -0.18865702
0001e0 91 8d a1 bd 6d 78 05 3d a8 fd b1 bd b5 1f a3 3d
       -0.0788833 0.03258555 -0.08690959 0.07965032
0001f0 7e 05 38 be c8 4e 9a 3b b9 21 0b 3d 25 34 b6 3d
       -0.17970845 0.0047090985 0.033967707 0.088966645
000200 26 a3 b9 b8 5c e0 8a bc 83 0a fe bd 51 2f b5 3d
       -8.851876e-05 -0.016952686 -0.12404349 0.088469155
000210 39 40 8d bd 7b eb c0 bd a6 81 69 bd f5 f6 1d 3d
       -0.06897015 -0.09419914 -0.057008408 0.038565595
000220 fe 80 82 3d f8 5b 31 bd f8 81 b7 bd bc 80 a7 bd
       0.063722596 -0.0433006 -0.089603364 -0.08178851
000230 d7 d4 b9 bd b3 0a 9d 3b 89 c1 bf 3d e8 db 22 be
       -0.09073799 0.004792535 0.09363086 -0.159042
000240 3b 70 3f bd 07 ef 94 bd 49 01 11 be e0 0d 1d be
       -0.04673789 -0.07272153 -0.14160646 -0.15337324
000250 3a 63 c5 bc 97 8a cf 3d ff 33 00 be 20 68 ed 3c
       -0.024095166 0.10133856 -0.12519835 0.028980315
000260 b6 1f 0d be 64 fa ea bd d5 c1 e1 3b 8a 84 10 be
       -0.13781628 -0.114735395 0.0068895617 -0.1411306
000270 30 d6 f6 bc c4 f0 0c bd 42 33 c2 3c 05 26 50 bd
       -0.03013143 -0.0344093 0.023706082 -0.05081751
000280 91 35 b5 bd 18 d4 4c 3d b5 65 92 bc ca 20 8b bc
       -0.088481076 0.050006956 -0.017870763 -0.016983408
000290 61 82 6a bd 2a 88 1f bd 45 8d 8b bc db f8 3f bd
       -0.057253245 -0.038948216 -0.017035136 -0.046868186
0002a0 77 f9 31 3d b7 7d d5 3d b1 c6 00 be 2e 82 59 bd
       0.0434508 0.10424369 -0.12575795 -0.053102665
0002b0 6c c3 08 bb c1 38 78 bd 58 0b 57 be d1 f1 c7 3c
       -0.0020868434 -0.060601 -0.21000421 0.0244073
0002c0 54 11 47 3c 34 a2 d8 b9 f9 39 b8 3c b9 ea 5d 3d
       0.012150127 -0.0004131958 0.022488581 0.054178927
0002d0 9c 91 d7 3b a6 d7 13 bd 52 e5 ce 3c 18 f1 bb 3d
       0.0065786373 -0.03609433 0.025255833 0.09176844
0002e0 81 f7 eb bd c3 1d b5 3d d7 1b 0f bd 6a c4 d6 bd
       -0.11521817 0.08843567 -0.03493866 -0.10486682
0002f0 a8 97 a3 bd d5 2f cb 3b 02 14 61 3c 15 a9 a7 bd
       -0.079879105 0.0062007704 0.01373768 -0.08186547
000300 35 0a e1 3c 5d 6f b9 bd 36 9c 90 3d c6 db d1 b9
       0.027470687 -0.09054444 0.07061045 -0.0004002733
000310 77 50 34 bd 63 96 e2 3c 72 bf 05 be 12 82 66 bc
       -0.04402205 0.0276596 -0.13061312 -0.014069097
000320 0b ef 3d ba e6 53 f3 bd 24 2e 1d 3d e2 38 4c bd
       -0.0007245398 -0.11881237 0.03837408 -0.049858935
000330 38 04 fc 3d ab ea d8 bd 93 7b dd 3c 2a 88 90 3d
       0.12305492 -0.10591634 0.027036464 0.07057221
000340 23 ee e8 3c fb 9e d9 bd 98 c6 23 bc f2 1a b3 bc
       0.028433865 -0.10626026 -0.009996079 -0.021863434
000350 84 86 85 3a c0 b1 cf 3b 6f bf 64 3d 03 7b a2 bd
       0.0010187184 0.006338328 0.055846628 -0.07933619
000360 c7 d2 11 3d da 74 0e 3e b6 88 40 3d 78 b0 0d 3d
       0.035601404 0.13911763 0.047005378 0.03459212
000370 5c 91 0e 3d 46 ba 21 be fa 51 cd bd 73 4e 7c bd
       0.034806594 -0.15793714 -0.100254014 -0.061598253
000380 8a 25 a8 3c 29 e2 25 be f9 ae 69 bd 55 f5 7c bd
       0.020525713 -0.16199555 -0.057051633 -0.061757404
000390 76 4f 81 3c 43 5b e0 bd a3 f1 3d bd 4b 80 34 be
       0.01578496 -0.10954907 -0.04637302 -0.17627065
0003a0 05 94 e1 3d b9 bb c9 3b a9 6e 25 bb 68 73 e6 3b
       0.110145606 0.0061564115 -0.002524296 0.0070328005
0003b0 57 6c 32 be 8b eb 0f bd 98 8d eb 3d 43 79 c8 bd
       -0.17424141 -0.03513674 0.11501616 -0.09788754
0003c0 7d 57 93 3d e3 64 1d 3e 3d 71 d0 bd fb 4c 20 3d
       0.071944214 0.15370516 -0.101778485 0.039135914
0003d0 e9 b5 b5 bd d1 f6 88 3d c0 81 98 bd 3e 49 79 3a
       -0.08872587 0.066877015 -0.07446623 0.000950951
0003e0 55 c1 01 3c ee 99 60 bd 39 dd 28 3d 32 f3 75 3d
       0.007919629 -0.0548343 0.0412266 0.060046382
0003f0 8a 11 1f 3e e4 a3 4f be 13 a2 4d 3d 1c 35 6e 3d
       0.15534034 -0.20277363 0.050203394 0.058156118

network_body.vector_processors.0.normalizer.running_mean f4 [9]
000000 a1 cb 23 40 67 b7 f9 3f 00 00 00 00 1e 45 25 40
       2.5593035 1.9509095 0.0 2.5823436
000010 db b6 f9 3f 00 00 00 00 3e 0a 50 3e 00 00 00 00
       1.9508928 0.0 0.20316407 0.0
000020 8d 5c 1e 3d
       0.038662482
