config/results/FighterUpdated4/My Behavior/My Behavior-15999936.onnx (onnx, 282099 bytes, 8 tensors)

58 f4 [9]
00000000: e233 2f40 84b0 473c 8012 8339 9dd6 2e40
00000010: 4897 493c 8012 8339 c5be cd3e 8012 8339
00000020: 607c 3c3e
2.7375417 0.012188081 0.0002500005 2.731849 0.012304135 0.0002500005 0.40184608 0.0002500005
0.1840682

action_model._discrete_distribution.branches.0.bias f4 [6]
00000000: c9fb 203d a884 883c 68ca ecbd ed7f bd3d
00000010: e443 f2bd 526d 02bc
0.03930262 0.016664818 -0.115620434 0.092529155 -0.11829355 -0.007960634

action_model._discrete_distribution.branches.0.weight f4 [6, 256]
00000000: 9554 56bd b4d9 adbc 5d3d 1a3c 3d77 153d
00000010: c584 c2bc 5a70 513d 7a62 b33c 0bab 143d
00000020: 4672 96ba 39d8 8c3d 7652 8f3d 3982 443d
00000030: 49e4 4d3d 5ef9 cabc 749b c33d 18e0 783c
00000040: 04cc 593d 8aca 233d 5898 a83c ef15 f0ba
00000050: a17c 5d3d 4600 383c 9c7a 1abd b4d7 153d
00000060: 281e b2bc bb71 edbc 05eb 2c3d f796 883d
00000070: d9e8 e7bc c71c 013d afff 1a3d ca48 503d
00000080: 567d a33d 7b09 57bc 4d11 97bb 341b ff3c
00000090: 381e 553d cbe2 8c3d 11f0 7e3d 5e29 913b
000000a0: 21ba a23c ddd6 4bbd 639b 07bd cc1a f73c
000000b0: 2870 033d 019e 423d 1ae4 af3d 32f5 343d
000000c0: 0b36 c43d 2e87 23bd 689c fdbb aebe 873c
000000d0: bb96 5a3b 19f4 3a3c 8c2b 2a3d 6f9c 283d
000000e0: dcaa d83c 238e 863c ebc0 5abc 11b0 b5bb
000000f0: a06b 09bc 6e26 203d 917f e03b d343 23bc
00000100: 208a 393d 2a15 2f3d d30c fb3c 1414 43bd
00000110: 9473 073d 1857 023d 51c6 27bd 9376 f73c
00000120: d0e9 ae3c 7e5a 5cbd 5590 a2bc a3bf 2e3d
00000130: 78b0 183d 8be7 2e3d 3007 47bc ca7f 3b3d
00000140: 2930 473d 61d3 a63c 0479 0a3d 308a 32bc
00000150: 4d39 713d aba4 27bd 1a89 15bc 0476 05bc
00000160: 0f79 e43b 270d a13c 6442 97bc 0e24 d3bb
00000170: 2bea be3d d601 803d 646d 7a3d 59fb 8bbd
00000180: c7a6 6dbb a091 0dbd 6269 30bc 5232 6bbd
00000190: 4a80 483d c0b1 d7bc 9a92 503d 7c3d a4bc
000001a0: 7496 51bc 39ae aebc 7487 5b3d fb1c 583a
000001b0: 408a 5a3d 6074 31bd 0e6f 263c 99c3 5d3d
000001c0: c08b 80bc 0e4b 7a3c f993 90bc 0b51 98bc
000001d0: e421 e13b baec 24bc 3cc4 593c 6990 543d
000001e0: 396e 12bd ea4c f53c 1a5e 01bb d471 de3b
000001f0: e062 d53b af9d 283d 7057 e93b 1050 473d
00000200: 97ff 943a 094d df3c ab08 c6bc aa35 f83c
00000210: bcf1 313d 9539 043d c8ae a8bc db24 5abc
00000220: dd7e 213d 1d33 873c e9cd 773d 8153 80bc
00000230: b82e 4b3d 9ee2 ee3c 598b 9cbc dfeb 01bd
00000240: e52d adbb 6d82 c33a c8a8 6b3c bd4c eabb
00000250: 6b1b 32bd b9a1 1dbd 7fef 8bbc c688 8f3d
00000260: cc27 1d3d c28f 883d 43bd 733d be87 8d3d
00000270: 71d8 3b3c 32be dcbc 3960 043d e163 433d
00000280: dbd0 07bd 35c7 093d 9a4f 67bd 6eb2 9e3c
00000290: 8cec a7bc 87f5 e73c 208f 453d 6cab 4c3d
000002a0: da48 b83c 12c9 203d 1c92 e9bc 0e39 7f3d
000002b0: 1efb edbc 0855 b4bc 1159 babc 2e77 49bc
000002c0: 68a2 413d feab 4f3d 2530 4b3d f04e 2a3d
000002d0: 8f08 8cbd 2b4a 3e3d 7165 593d c237 bfbc
000002e0: fdf6 a7bc b632 f5bc a847 55bd 7f7d 503d
000002f0: 1835 d1bc 3a6f 783c 4b5b 433d 7cb4 203d
00000300: 977a 023d 4b83 70bd 5bbc f53b 8876 20bb
00000310: fa73 aa3b 95fb 693d 0309 5abc 013e 563d
00000320: c776 163c 0217 d83c 7b35 8a3b e73c 113d
00000330: 42a3 a7bc afac 833d 77d9 37bd ce46 373d
00000340: e433 6dbd 6b77 ab3c 399f 9c38 9140 5c3d
00000350: a76d 113d 00b4 21bd e79c 2d3d c924 12bd
00000360: 2877 2eba 37c5 de3c 28ac 103d b970 22bd
00000370: 7a00 1b3d 88d5 eb3c a61f 503c 5acc 813c
00000380: 101c dcbb 8ebf dfbc 5bd4 4abc 70fc 373d
00000390: b799 4f3d 7b47 33bc 37c4 77bc 6b4f 9fbb
000003a0: a41a 273b c4c7 403d 20d6 b3bc 3b3a 243d
000003b0: 4b8d e3bc 147e 57bd 8944 723d 2562 67bd
000003c0: a11c 323d 5805 febc d0f9 b5bc b884 39bd
000003d0: a0a0 223d 2a5c 64bd cff3 a03d 38c2 31bd
000003e0: a40d 12bc b1eb 143d 6483 273d 9e94 543c
000003f0: 423c 953d 0cbf ec3c 1cb5 e3bc bfa3 083d
-0.052326757 -0.021221973 0.009414044 0.036490668 -0.02374495 0.051132537 0.021897543 0.03629593
-0.0011478148 0.06877179 0.0699815 0.047975753 0.050266538 -0.02477711 0.09551135 0.015190147
0.05317308 0.03998808 0.020580456 -0.0018317084 0.054073934 0.011230534 -0.037714586 0.036582664
-0.021742895 -0.028984895 0.04221632 0.06669419 -0.028309273 0.031521585 0.037841495 0.050850667
0.0798289 -0.013124819 -0.0046102167 0.031140901 0.052030772 0.06879195 0.062240664 0.00442998
0.019864144 -0.049765456 -0.033107173 0.030164145 0.032089382 0.047513966 0.08588429 0.04417915
0.095806204 -0.03992384 -0.0077395923 0.016570415 0.0033354003 0.0114107365 0.041545436 0.04116481
0.02644866 0.016425198 -0.013351659 -0.0055446704 -0.008387476 0.03909915 0.0068511446 -0.009964901
0.045297742 0.042744793 0.030645764 -0.04762657 0.03306921 0.03182134 -0.040960614 0.030207908
0.021351725 -0.053797238 -0.019844214 0.042663228 0.03727767 0.042701285 -0.01214771 0.045776166
0.048629913 0.020364465 0.033806816 -0.010897204 0.058892537 -0.040928524 -0.009126926 -0.008145813
0.006972439 0.019659592 -0.018464275 -0.006443507 0.09322008 0.0625035 0.06113948 -0.0683505
-0.0036262737 -0.034562707 -0.010767313 -0.057421036 0.04895047 -0.026329875 0.05092106 -0.02004885
-0.0127922185 -0.02132331 0.053595975 0.00082440645 0.0533545 -0.043323874 0.010158313 0.054141615
-0.015691638 0.0152766835 -0.017648684 -0.018593332 0.006870495 -0.010066206 0.013291415 0.051895533
-0.035749648 0.029943902 -0.0019739927 0.0067884717 0.006512031 0.041166004 0.007121019 0.048660338
0.0011367676 0.027258413 -0.024174055 0.030299027 0.043443426 0.032281477 -0.020591155 -0.013314451
0.039427627 0.016503865 0.060499106 -0.015664818 0.0496051 0.029160794 -0.019109415 -0.031719085
-0.005285012 0.0014916189 0.014383502 -0.007150261 -0.04348318 -0.03848431 -0.017081974 0.07008509
0.03836803 0.066680446 0.059506666 0.069106564 0.011465178 -0.026946161 0.032318328 0.047702674
-0.033158164 0.033637244 -0.0564724 0.019372191 -0.020498537 0.028315319 0.048232198 0.04996817
0.022495676 0.039254256 -0.028512053 0.06231027 -0.029050406 -0.022013202 -0.022747548 -0.012296481
0.047274023 0.050701134 0.04960646 0.041579187 -0.0683757 0.04645745 0.053075258 -0.023342017
-0.020503515 -0.029931407 -0.05207029 0.050900932 -0.025538012 0.015163237 0.047694486 0.039234623
0.031855192 -0.05871896 0.0074992604 -0.0024484713 0.0052018138 0.057124693 -0.013307813 0.052305225
0.009183592 0.026378158 0.004217801 0.03545847 -0.02046359 0.06429421 -0.044885125 0.04474526
-0.057910815 0.020930966 7.468317e-05 0.053772513 0.035504963 -0.039478302 0.04238596 -0.035679612
-0.0006655329 0.027193649 0.03532043 -0.039658282 0.03784225 0.028788343 0.012702858 0.015844513
-0.0067172125 -0.02731302 -0.012379731 0.044918478 0.050683703 -0.010942335 -0.015122465 -0.0048617623
0.0025498057 0.04706551 -0.021952689 0.040094595 -0.027777335 -0.05261047 0.05914739 -0.056490082
0.043484334 -0.031008407 -0.022213846 -0.045292586 0.039703965 -0.055751957 0.07859003 -0.043398112
-0.008914385 0.036357585 0.04089679 0.012974886 0.07286884 0.028899692 -0.02779632 0.033359285

network_body.linear_encoder.seq_layers.0.bias f4 [256]
00000000: 3965 803d 5ca9 a7bd c359 52bd 7428 413d
00000010: 4819 5e3d ac81 853d b8a6 023e d3c2 213d
00000020: c25f 3e3d d4f6 f43c 40d2 9c3d e85b 183d
00000030: ff3e 9a3d b563 2b3c 8e89 8bbc 1475 d33d
00000040: 411e 183d 3d0a 023e b27a 2c3d f921 0c3e
00000050: 88d1 dc3d a933 95bd 235a 3d3d 8705 463c
00000060: b992 fe3d b2c3 9d3d 70c9 9f3d 7e7f 43bd
00000070: 53ce 0a3e 0927 a63d 667e 1c3e 562a be3d
00000080: 58ad d83d e016 003e 98c9 713c 764c 863d
00000090: 130d 5e3d ee4e 9f3d f25a 1c3e 6ec7 9e3d
000000a0: ee2e d13d 9944 77bb 9ee6 023d 571f 323d
000000b0: 4a94 64bd 6283 b73a d1fb 8fbc dc35 ef3d
000000c0: e9d3 073e 23f4 3b3d 7eaf 123e 16be dd3d
000000d0: 30f9 db3d b893 41bd d701 3dbd c878 0e3e
000000e0: 61a5 533d 6086 7ebb 90d8 c13d 4b87 5fbd
000000f0: 79be 9f3d cecb e53d 87db 0c3e 8452 873d
00000100: c0e9 fa3d e184 c23d ba01 723d 968a dd3d
00000110: 9d67 fe3d 52f6 f63d 4e4d cd3d 7f7a 983d
00000120: e184 143e 29f5 fb3d c364 6dbd 0dc2 d63d
00000130: f096 c03d fa34 343d 59f8 ce3d ecda b23c
00000140: db36 923d 1dee e53d 5fd9 623d db9a 083e
00000150: 9903 033e 678e 38bd a5fd 30bd 3ca8 033e
00000160: 6e0a ddbb 7251 f43c 0fee b83d c2c8 f33d
00000170: e263 8c3d ca00 4a3d a200 023e 2f5c 893d
00000180: e5ec 313d 4250 993d 8a5d 74bd 5969 cc3d
00000190: ec29 d03d 163c fc3d ac31 753d d56e 433d
000001a0: 2dc0 783d bbcd 94bd e56d ac3d 2d35 173d
000001b0: 8f20 d53c 8168 2b3d 5b54 7abd f003 743d
000001c0: 7a9d b33d c1e9 16bc c192 4a3d 4ff4 d63c
000001d0: 39cb b2bc 673f f0bc dda1 11bc 3590 0f3e
000001e0: 119e 8d3c 021b d23d 374a a93d 1ece a5bd
000001f0: 158c b33d f453 ae3d 0f10 b53d 41e9 213e
00000200: e32e 163e f68d 8f3d 040c ce3d fa1b dfbc
00000210: d1a3 573d c6f5 1e3d 0845 af3d 36fb 753d
00000220: 098a 2c3e ef79 75bc 3a89 f13d bd88 823d
00000230: 385a 913c ed5e 663d 977f f43d 5fed f23d
00000240: 878c c23d 2697 903a 61c0 ff3d a1e2 023e
00000250: 4b41 923d fbe0 e43d 9744 0d3d b591 89bd
00000260: 2be8 c93d 22bb 8e3d b2e7 6a3d 2afa 6c3d
00000270: 487e cb3d bae6 853b f89f 3f3d 2f71 a63d
00000280: c0a9 203d ccd4 c33d a17c e03c 551b 073b
00000290: 982a bb3d 3c3d b5bd 9ce0 68bd 38cf 403a
000002a0: 396b af3d 010a 653d 7483 a8bd e21a 7f3d
000002b0: a7f0 943d 1d23 043e 5812 df3d 272e 9cbd
000002c0: d17b 15be 33ed c23d ee33 e4bc 900d b3bd
000002d0: 9274 863d 8c55 833d 9137 883d 58ca 853c
000002e0: 7de6 e03b 6b02 45bd 6ed3 573b 1fca 1f3e
000002f0: 8ba6 133e 51e9 f73d c877 a03d eb23 033d
00000300: e05b 8a3d ad86 b73d 1442 f93d 68b5 223d
00000310: b554 083e 5d13 923c 8ca3 7e3d a6fd d53d
00000320: 7716 ac3d 8ff5 e73d 5515 cbbc d472 333e
00000330: 5f6c d93c cc97 3a3e 6ef2 4a3d facd 57bc
00000340: 57cf 823d ce01 ec3d e102 733c ab4d b23c
00000350: ccef 2bbd b5e0 dc3d 3a9a 7a3d e56d 823c
00000360: b1ec 0c3e c0ea bc3d 40cb 503c dcc5 e73d
00000370: 3ac5 a4bc 1d22 5f3d cec6 103e 254f 9cbc
00000380: b24d 883d fcb7 1a3d 1623 213e e259 013e
00000390: d737 053e bc04 b73b 5886 0b3e f815 9c3d
000003a0: 06af 003e 5fa7 d63d a8dd 953d a8b8 6bbc
000003b0: 7d19 4ebd 4d81 ae3d 8c6d 04bc f21c ad3d
000003c0: 843c b73d e61f 99bd 88b4 493d 7fb5 a73d
000003d0: 5a1d d13d ff3f 31bd fae7 eb3d e4d9 913b
000003e0: a43b 253c 3ebf c03d 0ce7 05bc d547 0c3d
000003f0: 0d36 b2bd 2dd2 a93d cabe 2d3e d376 2a3e
0.06269307 -0.081865996 -0.051355135 0.04715772 0.05422333 0.065188736 0.1275891 0.03949244
0.04647804 0.029902853 0.076572895 0.037197024 0.07531547 0.010460784 -0.017033365 0.10325065
0.037138227 0.12699218 0.0421092 0.13684835 0.107821524 -0.07285244 0.04622854 0.012086279
0.12430329 0.077033415 0.07802093 -0.047729008 0.13555269 0.08112914 0.15282592 0.09285419
0.10579938 0.12508726 0.014757536 0.065575525 0.054211687 0.077787265 0.15269068 0.07752882
0.10214029 -0.0037730096 0.031958215 0.04348692 -0.055805482 0.0014000947 -0.01757613 0.11680195
0.13264431 0.045887124 0.14324757 0.10827272 0.10740888 -0.047260016 -0.046144333 0.13913262
0.05167139 -0.0038837418 0.09465134 -0.054572385 0.07800002 0.11220513 0.13755618 0.066075355
0.122516155 0.09498001 0.059083678 0.10817449 0.124221064 0.120587006 0.1002451 0.07445239
0.14503814 0.1230262 -0.057957422 0.10486231 0.09403789 0.043995835 0.10105962 0.021832906
0.07139369 0.11227057 0.055383082 0.13340323 0.12794341 -0.04505768 -0.043210644 0.12857145
-0.006745628 0.029823992 0.09029781 0.11903526 0.06854989 0.04931716 0.12695554 0.06707036
0.04343881 0.07486011 -0.05965952 0.09981031 0.10164246 0.12316148 0.059861824 0.04771312
0.060730148 -0.072658025 0.08419398 0.036915947 0.026016502 0.04184771 -0.061115604 0.059574068
0.08770271 -0.009211005 0.04945636 0.026239542 -0.02182542 -0.029327108 -0.008888689 0.14019854
0.017287286 0.102590576 0.082661085 -0.08095954 0.08766953 0.085121065 0.088409536 0.15811636
0.14666323 0.07009499 0.100608855 -0.02723502 0.052646462 0.038808607 0.085580885 0.060054027
0.16849531 -0.0149826845 0.11793752 0.06373737 0.017743215 0.056242872 0.11938398 0.11861681
0.0949946 0.0011031374 0.12487865 0.12781765 0.0714136 0.11175724 0.03448924 -0.067172445
0.09858736 0.069692865 0.057349868 0.057855763 0.099361956 0.0040863426 0.046783417 0.08127057
0.039224386 0.09562072 0.027403178 0.0020615656 0.091389835 -0.0884957 -0.05685483 0.0007355097
0.08565373 0.055917744 -0.08228198 0.062281497 0.07272463 0.1290402 0.10892171 -0.0762599
-0.14598013 0.095178984 -0.027856793 -0.08742821 0.06565203 0.06412801 0.066512235 0.016331837
0.006863414 -0.04809801 0.0032932418 0.15604447 0.14419 0.121050484 0.078353465 0.032016676
0.06755805 0.08961234 0.121708065 0.039723784 0.13313563 0.017831499 0.06216769 0.1044877
0.08402722 0.113261335 -0.024790445 0.17524272 0.026540933 0.18221968 0.049547605 -0.013171667
0.06387203 0.11523782 0.014832229 0.02176555 -0.041976735 0.10785047 0.06118224 0.015921542
0.13762166 0.092244625 0.012743771 0.113170356 -0.020113576 0.054475892 0.14138338 -0.019080708
0.06655444 0.037773117 0.1573604 0.12631944 0.13009582 0.005585281 0.13625467 0.07621378
0.12566766 0.10481142 0.07317668 -0.014387287 -0.050317276 0.08520756 -0.008082759 0.084527865
0.08947089 -0.07476787 0.049244434 0.081889145 0.102106765 -0.043273922 0.115188554 0.0044510234
0.01008502 0.094114766 -0.008172762 0.034248192 -0.087017156 0.08292041 0.16967312 0.1664689

network_body.linear_encoder.seq_layers.0.weight f4 [256, 9]
00000000: aa7d 5d3b 32c8 e23d 8c18 05bf 81d1 bfbe
00000010: 9ea4 8cbe cc24 1fbc 14b4 d2be 530e 333d
00000020: b0b0 123e 9259 d63d ffec ad3e 8e05 33bf
00000030: 9c2d 0bbe f812 67bf 9076 01bf 78e0 5a3d
00000040: bb01 ecbe 1c55 9ebd ebf1 a9be 0651 81be
00000050: 0c6f e43e 566c cb3e ac51 163d 1f78 81be
00000060: dc8c 443d 5827 b53d 2590 12bd c87d 22bf
00000070: 8896 ddbe 4207 9c3e 42bf 14bf 9439 fb3c
00000080: 1031 10bf 71cf 87bd 98f7 aebe 8c84 513f
00000090: d8f9 c03d c602 3f3f 147c d9be 7170 51bc
000000a0: d20b a23e 0ce0 0cbe df06 383f 6f89 e5bc
000000b0: 529f 8e3e c8bc 353c ed7e e0bd 427c 5abe
000000c0: 4089 53bd 9bd2 583d 93e0 323e f154 be3d
000000d0: 1ad4 583e 9b1c f8be f556 9a3d 1e8c dd3e
000000e0: 8c69 c13e eff4 e43b 87fe 333f 214f 11be
000000f0: b424 13bf e43a 26be 9536 2abe 8c41 ffbe
00000100: f076 c03e 64b3 9c3e fb24 fe3e abb1 133f
00000110: e24c 9c3e a6d2 77bf 7e0e 9bbe a212 39be
00000120: 7368 de3e 4054 c8bd 8e1b 4dbe 5417 6e3e
00000130: aa11 713e b5f8 893d ae63 1abe 489b c53e
00000140: b4cb a23d 1fe0 acbd fe4e 5c3e e781 25bf
00000150: 8b67 32be 7bcc 683d 985a 393e 0352 143e
00000160: 183b a03e 578f fd3e 33c9 203f 6cbc 1d3d
00000170: 57f8 413d 864c 96be f7cf b23e 9e4b 12bd
00000180: b7c5 323e 9e06 a63d 50da 93be 7357 bb3e
00000190: 85c3 153e d7e9 0e3e 4e8a cfbe bdd6 a13e
000001a0: 4abe 05be 10d2 953e 838b b0be dc63 c1be
000001b0: 9b19 183e 4566 cc3c 80e0 c9be 389f 33bf
000001c0: 4677 c43e 3ee5 98be e8a1 a2be 5683 cc3e
000001d0: e421 89be 0608 9c3e 1278 f63e fbc1 4b3e
000001e0: b889 a6be bea0 443e 77a8 fa3e 5262 263e
000001f0: 48bf 50be b160 94be f18b 57be 268e 1e3e
00000200: b4d5 98be 5b6c 7c3d 3904 4dbe f0e2 e7be
00000210: 5e14 39be 7ee9 17be dfa4 dabd 697b 6c3f
00000220: f6d6 b63e a8a3 06be 5a31 1ebf b262 403e
00000230: ed86 103e c83a adbe 644b f7be 9971 14be
00000240: d600 4ebf 09a2 9c3e de10 af3e bfd0 7cbf
00000250: f5cd 133e 4fc7 653e db1c 753e a686 03bf
00000260: 1f3c b1bd 561e 2cbf eb49 5cbd 063d 063f
00000270: d1b3 9a3e f3e6 423e d4b9 d73e 8292 48bf
00000280: 5325 783e f872 edbe 0b12 a83d 554b 363f
00000290: 3e96 2d3e 8e08 59bf 018e 0b3f 3a33 21bf
000002a0: 2545 543d b600 5bbe 8878 57be 3013 0a3f
000002b0: b5c2 2d3f e26d 2f3e b466 803e 4134 323c
000002c0: a82a 64bd 5c46 5f3f 3c9a 843e f026 1ebf
000002d0: ea3c 3b3f 5722 6d3e 4975 94bd 25f1 04bf
000002e0: 3794 eebd a5be 033d d601 02bf 9af2 b8be
000002f0: ea34 abbe ce73 86be af10 183e bc43 14bf
00000300: 2c3f 0e3f f2fc bf3e 0b2a 27bd 0fa0 393d
00000310: 9bce 3b3e 40eb 353e 3edd f0be afc9 8d3e
00000320: 0683 c6be 380f 35bf 2265 843e 4aac 6b3e
00000330: 59df fa3d d714 8b3e ce41 7e3e 1606 0dbe
00000340: 23db 88be 9cc6 05bc 3fd0 9a3e 3a8b 1a3e
00000350: 4f69 be3d fc06 8d3e 182e b2be 9432 86be
00000360: d236 023f a836 49be 1721 403e 2911 b33e
00000370: f06f a43d c8b0 993e 5ede 36bc 8b43 163f
00000380: 8993 06bf 761a 17be d75f aabe b46c abbe
00000390: 4873 08bd 0f5c 17be 63b8 d03d 1031 083f
000003a0: a6b6 ee3d e275 6c3f 2e9a fc3e 9e55 a23d
000003b0: aea7 733d c42f 10bd 25b6 dc3d eb93 603e
000003c0: c60a b1be fa21 bbbc 3f7c ad3e 5a1c 143e
000003d0: 1aa4 58bf c37e 963d 9310 31be 47cc 0f3e
000003e0: 8e03 123f d461 c6bd 26dd 85bd 6260 043f
000003f0: 83ba 0a3d 5850 1dbe a579 86bd 6e35 2a3f
0.0033796825 0.110733405 -0.5199058 -0.37464526 -0.27469343 -0.009713363 -0.41153014 0.043714833
0.14325213 0.10466303 0.33969876 -0.6993035 -0.13591617 -0.9026332 -0.50571537 0.053436726
-0.4609507 -0.07731077 -0.3319238 -0.25257128 0.44615972 0.3973109 0.036698982 -0.25286958
0.047985896 0.08845395 -0.035782 -0.63473177 -0.4327891 0.30474287 -0.58104336 0.030667104
-0.56324863 -0.06631363 -0.34173274 0.81842875 0.09422654 0.74613607 -0.42477477 -0.012783156
0.31649643 -0.13757342 0.71885484 -0.028019635 0.27855927 0.011092372 -0.10961709 -0.21336463
-0.051644564 0.052935224 0.17468481 0.09293545 0.2117466 -0.48459324 0.07536117 0.43270963
0.37775838 0.006987206 0.7031025 -0.14190342 -0.5747788 -0.16233402 -0.16622384 -0.49854696
0.37590742 0.30605614 0.4963759 0.57692975 0.30527407 -0.968058 -0.30284494 -0.18073514
0.43439063 -0.097816944 -0.20030043 0.23251086 0.23541895 0.0673689 -0.15077087 0.38595033
0.079490095 -0.08441185 0.21514508 -0.6465134 -0.17422311 0.056835633 0.18100965 0.1448441
0.31295085 0.49523422 0.62807006 0.03850977 0.047355976 -0.29355258 0.3492429 -0.035716645
0.17458235 0.08106731 -0.28877497 0.36590156 0.14625366 0.1395639 -0.40535206 0.31609145
-0.13060871 0.29261827 -0.3448144 -0.377715 0.14853518 0.02495111 -0.39429092 -0.70164824
0.38372248 -0.29862398 -0.3176415 0.3994395 -0.2678367 0.3047487 0.4813848 0.19898216
-0.32526946 0.19201943 0.48956653 0.16248444 -0.20385468 -0.2898002 -0.21049477 0.15483913
-0.29850543 0.061626773 -0.20021142 -0.45290327 -0.18074176 -0.14835164 -0.10675978 0.9237581
0.35710877 -0.13148367 -0.61794055 0.1878765 0.1411397 -0.3383391 -0.48299706 -0.14496459
-0.80470026 0.30592373 0.34192556 -0.9875602 0.14434035 0.22439311 0.23936789 -0.5137733
-0.08654045 -0.6723379 -0.05378143 0.52436864 0.30215314 0.19033413 0.42133963 -0.78348553
0.24232988 -0.46376777 0.082065664 0.712087 0.16951844 -0.8477868 0.54513556 -0.6296879
0.051823754 -0.2138699 -0.21042073 0.5393553 0.67875224 0.1713176 0.25078356 0.010876716
-0.055704743 0.87216735 0.2589892 -0.61778164 0.7313982 0.23157631 -0.07248933 -0.5193046
-0.116493635 0.032164235 -0.5078405 -0.3612259 -0.33438808 -0.26260227 0.14850114 -0.57915854
0.5556514 0.3749767 -0.04081158 0.04531866 0.18340532 0.17765522 -0.47043794 0.27692935
-0.38771838 -0.70726347 0.25858408 0.23014942 0.122496314 0.27164337 0.2482979 -0.13771853
-0.26729688 -0.008165028 0.30237004 0.15092173 0.0929743 0.2754439 -0.34800792 -0.26210463
0.508649 -0.19649756 0.18762623 0.3497403 0.08029163 0.30017686 -0.011161415 0.5869681
-0.5256887 -0.14756188 -0.33276245 -0.3348137 -0.033313066 -0.14781211 0.10191419 0.53199863
0.11655931 0.92367375 0.4933638 0.079264864 0.059486084 -0.035201803 0.10776929 0.21931426
-0.34578532 -0.02284335 0.33883855 0.1446394 -0.846254 0.07348397 -0.17291479 0.1404277
0.57036674 -0.09686628 -0.06536321 0.5170957 0.033869278 -0.1536268 -0.065661706 0.6648778

network_body.linear_encoder.seq_layers.2.bias f4 [256]
00000000: ad14 d6bd 30c4 a1bd e5ff 7bbd db0c 283e
00000010: 48e6 d73d 5ec9 a33d e1ec 013e 321b f73d
00000020: 7123 7ebd 31e0 0a3d 21fc 6dbd e48c f33d
00000030: cb83 893d c96b 8fbd e6dd 6ebd 6c4d ca3d
00000040: 2d09 133e 6a89 b33d 706b c83d 7725 85bd
00000050: 508b f23d d7d0 84bd 16ea d3bd 22ba 4cbd
00000060: cb36 92bd 99c7 1d3d 935f 58bd 2c72 043e
00000070: 23c4 acbd 0aa0 043e a489 9b3d 5dc2 8e3d
00000080: e26b bdbc c4be c93d 695b d53d 03f0 103e
00000090: dd1b 063e e142 ed3d b62c f93d 8e18 6fbd
000000a0: cfda fa3d ecca 9fbd e666 3cbc 703f 363e
000000b0: 3d0d 233e d54b 803d 8a70 85bd 5cc0 dd3d
000000c0: f75c 54bd 77c3 7abd 66fd 53bd 1622 133e
000000d0: d462 103e 293c 2c3e 9632 0d3e 36b0 a1bd
000000e0: 929d 063e 0b33 f03d 3c8c 093e fadc 63bd
000000f0: 5e2b cdbd f45e af3d 3386 c93d 2cfe ad3d
00000100: d8fc 54bc 7e15 af3d 63aa 083e bc2e 633c
00000110: af8b be3d 7208 e13d 67b2 a4bd 3a2b 5e3c
00000120: ba20 d83d c0d9 83bd 58ec 9e3d b49b 103e
00000130: 5652 c63d 3f1f 0d3e 24da c33d 9cc6 b83d
00000140: b4db 1a3e 9e38 fb3c fbc6 ff3d f909 c83d
00000150: c8ab 3bbb 6afb 9dbd 0748 a8bd d558 fe3d
00000160: a713 0cbd ba95 803d 18e9 0f3e 9d42 df3d
00000170: 00f3 dfbc eacf cd3d a307 af3c 8400 98bd
00000180: 713b 223e 75da 113e 37aa 96bd 919f 9cbd
00000190: 44a6 e83c ed97 e33d 7c1b f13d d0f6 653d
000001a0: 7b9d 9fbd 3c28 79bd 3ea2 a23d 775b 8cbd
000001b0: b36a ce3d 95c7 afbd 3b1a 553c 7135 ca3d
000001c0: 9256 bb3d 769b d93d 793b abbd 7a1f 4cbd
000001d0: 5d74 043e 1b8d 243e f9bb 5fbc a580 48bd
000001e0: c6b6 d0bd aeaf cd3d 3ee9 e83d 77ed a13d
000001f0: 74d8 84bd 7348 d63d ca8e 5fbd af5d bd3d
00000200: 9ac8 f23d 4ea6 c33d 93d2 cd3d eca8 e23d
00000210: cea7 f93d 13bb 82bd 6a3b e0bc 783f 56bd
00000220: cc9b 0d3e d2c6 c53d 3a9d a73d 165b 093e
00000230: 0729 9b3d afaf 19bd ec00 e3bd d607 a03d
00000240: a369 e4bd 6beb 073e bdc9 f53d 4a1d 9bbc
00000250: 40d6 a4bd d6fa 933d 4060 6dbd 04cd 84bd
00000260: 5acd c23d 8ae2 62bc bf83 e93d ce13 13bb
00000270: a892 063e 7bbb a4bd a2d8 75bb 9767 8abd
00000280: 2a87 dfbd 4cf6 a93d 9366 0dbe 8eaf 023e
00000290: 14e3 f33d ca5b e73d 3067 f93d 3d84 0b3e
000002a0: 7588 063c bfcf 82bd 0af1 aebd c1d4 bf3d
000002b0: 2e63 aabd 12c0 bbbd eddf 9e3d 8825 e43d
000002c0: 2966 523d 758f e23d 2462 40bb 1018 fd3d
000002d0: 6473 353d 5b5b de3d f4c9 eb3d 04b5 a0bd
000002e0: 93a2 993d e499 8dbd 453a dbbd 4b31 f93d
000002f0: 6a68 c3bc 8184 bd3d 912d b03d dff1 203e
00000300: 86da ee3c f33a b0bd 1820 f9bc 71ef f93d
00000310: d1ed 24bd cdd2 7d3d 7fda 91bd 7745 b33d
00000320: fab6 d93d 34c1 363d 9cb4 84bd d23a c6bc
00000330: 523e 333e 71b0 2bbd 869b b9bd 6be8 b23c
00000340: fbfb afbd 9dff 89bd a23d ad3d d958 263e
00000350: f9cd 293e b108 f3bd 964c 113e 61c8 84bd
00000360: 3e6b 193e 6659 4c3d f6ce 033e eb0d 1e3d
00000370: 73e2 583d 3854 48bd e469 ea3d a488 81bd
00000380: 90ec c23d ff18 c7bd b375 073e 62a0 e9bc
00000390: be4c fc3d 4b86 033e 4422 e93c 24eb 8cbd
000003a0: 10c8 ed3d f591 0d3e 2bb0 8cbd be88 c83d
000003b0: 5882 d83c 69dc abbd 3ddc e33d 76e0 d6bd
000003c0: 05e1 fd3d 6cab c5bd 5a4f cabd b35b 413d
000003d0: 3e2a 1cbd cb0c c7bd 0c49 34bd 3d38 313d
000003e0: ca33 b23d 1903 123e 2c9c ea3d cda1 3f3e
000003f0: ddad 81bd 404b 153e fc43 a0bc 0a1c 8cbd
-0.10453162 -0.07898748 -0.061523337 0.16411154 0.105419695 0.07997392 0.12688018 0.12065734
-0.06204552 0.03390521 -0.058101777 0.11892107 0.06714591 -0.0700298 -0.058317088 0.09878048
0.14358969 0.08766444 0.09786117 -0.065012865 0.11842978 -0.064851455 -0.10347383 -0.049982198
-0.07139357 0.03852043 -0.05282552 0.12934178 -0.084358476 0.12951675 0.07594612 0.069706656
-0.023122732 0.09850839 0.10417826 0.14154057 0.13096566 0.11585022 0.12166731 -0.058373027
0.12248766 -0.07802376 -0.011499142 0.17797637 0.15923019 0.06264464 -0.06515606 0.10827705
-0.05184647 -0.061221566 -0.05175533 0.14368472 0.141002 0.16819824 0.13788828 -0.07894938
0.13146046 0.11728486 0.13432401 -0.05563066 -0.10018037 0.08563033 0.098400496 0.08495745
-0.012999736 0.08549021 0.13346247 0.013866123 0.09303986 0.10987939 -0.0804184 0.013560111
0.10553117 -0.06438017 0.07759923 0.14121896 0.09683673 0.1378145 0.095630914 0.09022257
0.15122873 0.030666646 0.124891244 0.09767527 -0.0028636325 -0.07713969 -0.08216863 0.12419287
-0.03419843 0.06278558 0.14053762 0.10901377 -0.027337551 0.10049422 0.021365946 -0.07421973
0.15842988 0.14243491 -0.07356685 -0.076476224 0.028399594 0.11112962 0.1177282 0.056143582
-0.07793709 -0.060829386 0.079411015 -0.06853383 0.10078945 -0.08582989 0.013006742 0.098734744
0.09147371 0.10625355 -0.08360953 -0.049834706 0.12935014 0.16069452 -0.013655656 -0.04895081
-0.10191111 0.10043274 0.113726124 0.07906621 -0.06486598 0.10463037 -0.054579534 0.09246384
0.11854668 0.095532045 0.100499295 0.110673755 0.12190209 -0.06383338 -0.02737208 -0.052306622
0.13828963 0.096570626 0.081842855 0.13413653 0.07576185 -0.03752106 -0.1108416 0.078139946
-0.11152961 0.13273399 0.12001369 -0.018934865 -0.080486774 0.072255775 -0.05795312 -0.06484416
0.09511824 -0.013847956 0.11402082 -0.0022442224 0.13141882 -0.080435716 -0.0037513156 -0.067580394
-0.109144524 0.082989305 -0.1380866 0.12762281 0.11908546 0.11296804 0.121778846 0.13624664
0.008211245 -0.06387281 -0.08542068 0.093667515 -0.08319698 -0.09167494 0.07757554 0.11139971
0.05136696 0.110625185 -0.0029355371 0.12358105 0.0442995 0.108572684 0.11513129 -0.07847026
0.07501712 -0.06914118 -0.107044734 0.12167605 -0.0238535 0.09253789 0.08602441 0.15717266
0.029156934 -0.08604994 -0.030410811 0.12203873 -0.040265862 0.061968613 -0.07121753 0.08753484
0.10630603 0.044617847 -0.06479761 -0.02419797 0.17504242 -0.041916315 -0.09062867 0.021839341
-0.08592983 -0.067382075 0.08459021 0.1624483 0.16582479 -0.11866892 0.14189371 -0.06483532
0.14982316 0.049889944 0.12871918 0.038587492 0.052950334 -0.048908442 0.11445978 -0.0632489
0.09517777 -0.097215645 0.13228492 -0.02851886 0.12319325 0.12844197 0.028458722 -0.06880787
0.116104245 0.1382521 -0.06869539 0.097917065 0.02642934 -0.08391649 0.111259915 -0.10492031
0.12396435 -0.09651837 -0.09878416 0.04720659 -0.038126223 -0.09719237 -0.044014975 0.043266524
0.08701284 0.14258994 0.11455569 0.18714066 -0.0633199 0.14579487 -0.019563667 -0.068412855

network_body.linear_encoder.seq_layers.2.weight f4 [256, 256]
00000000: 4577 02bd d07b 6e3c 4372 bf3d e59f 923c
00000010: 9c0e 82bd 46fc c3bd cabc b2bc 8e9e 06be
00000020: 9205 c13b d433 943d 7a35 fdbd 2a0e d1bd
00000030: 162e 6cbd d1e3 3abe 2d18 ac3d b70a 73be
00000040: 5dfb 453c 4b93 c83d 0e4c c0bc bc99 5abd
00000050: d225 12be a3d8 c03b 7a9d b73b 82bc 53bd
00000060: 816a 01be 3530 cebd 30a9 aebd c668 13be
00000070: 9f5a f43c 20ea 6c3d 5b8c c5bd 7a00 cabd
00000080: caa9 e8bc a950 04be af25 c6bb 4fea ea3d
00000090: 72a4 2f3c 4cc4 3dbe d31a 71bd 3723 9e3c
000000a0: 17b9 03be 3af0 4fbd a87e 35bd 36ef 97bd
000000b0: e4f6 4ebd 3ff9 503d a169 01be 0458 3bbe
000000c0: 7925 19be 9c7f 03bb e95a edbd d661 8b3d
000000d0: 9426 d73d 842a d0bc 6b48 e6bd c0dc b1bd
000000e0: 9627 b3bc 27dc 1fbd 4741 adbd a7fc 11bd
000000f0: f504 a2bc 08e2 4fbe 5dde fdbd c37a c5bd
00000100: 857d 6bbe 79ea 02be 995b 1ebc 7c32 1ebd
00000110: cfff 813c 65f7 00be 4ce0 debd 18db 58bd
00000120: 68b5 12be 9619 a3bc 8cab 8b3d 6093 d8bd
00000130: 2fca eabd a4b4 483d 42fa 66bd c5bd 273d
00000140: a431 29be ddc8 0abd 64c3 8fbc ace1 903d
00000150: 6781 13be a7e2 04bc 9dc1 cfbd 6ce8 e8bd
00000160: 0af0 18be afad 0abd 43f5 14bd 0b07 b2bd
00000170: 9aba febc 85c2 07bd e37b 97bd 5cb8 0dbe
00000180: 1309 f43d c963 8ebb 0568 873c 3239 6bbe
00000190: b287 d9bd 55c3 54bb e88b 03be 6665 8fbd
000001a0: 3b12 bcbd ebaf a33d 5692 19be b63e e4bd
000001b0: 3eff 0d3e 5fa4 723c c537 423e 3bab 093d
000001c0: cedf 52be 844a c73d 3035 483c f852 9fbd
000001d0: 7f94 d33d a30a fdb9 523c e53b 8baf 42be
000001e0: 1fd2 aabd 4f2e fd3c 19d6 b5bd f6c4 9e3d
000001f0: 4b87 42be 2d8e 653a e1fa 083d b353 a93d
00000200: 1763 a539 a423 9dbc b7b7 fabd 9b34 b23d
00000210: eccf 96bd dd2d dabd 92af 65bd 2a98 de3c
00000220: ad65 5f3d 989f 3bbd e174 b9bd 6b21 a4bd
00000230: 278f bcbd 09d2 36bb f2a5 b73d 041d 22be
00000240: a696 58bd 0de3 a5bd 7ae7 13be c43c 1dbe
00000250: 220a 11bd b32c bf3d e0a1 07be 01fb e13c
00000260: c794 0ebe 48b5 f8bd 4400 fa3b 0537 14be
00000270: ba6e 07bd 9dc7 23bd b5dc b03c d1e3 5bbd
00000280: 004b d0bd ec93 433d 9e1f 04bd 30a5 8abc
00000290: dc63 75bd cf08 0bbd 6141 acbc 0bdb 62bd
000002a0: 04f6 283d b0d1 c73d 3d4b 01be 57f7 57bd
000002b0: d78d efbb 037e 80bd 78e8 55be 23b4 e73c
000002c0: e041 383c 4d41 14bc 74df aa3c f641 5d3d
000002d0: e255 5f3b e6c5 35bd 832b aa3c 00e7 bf3d
000002e0: b5d4 f5bd a9ac b53d 9426 1ebd ff86 dcbd
000002f0: e7bc b4bd 2ab7 c33b 5e67 493c 87aa b2bd
00000300: ff20 de3c cdaf c4bd caf9 913d 64fe 24bc
00000310: 220c 3abd a562 e53c 13bb 0fbe 86a5 b8bc
00000320: 9e81 ffbb 6271 01be 3514 193d 6c59 52bd
00000330: e69b ee3d e463 d8bd ad7a da3c 07c0 813d
00000340: ba05 f73c 9206 dfbd 331c 49bc de7b b7bc
00000350: f9b8 fdb9 0931 b03b 0a98 693d cef5 a5bd
00000360: 8288 133d 143f 0e3e 509e 373d 2305 133d
00000370: a9aa db3c b98e 22be 8bbd e5bd 43f0 79bd
00000380: 014f b03c dc15 28be a78b 65bd 5ad3 8abd
00000390: 2fcc 773c 2f15 f6bd 2244 45bd 3dc8 38be
000003a0: ae3f df3d 4dd4 8a3b 544b 8bbc faee ed3b
000003b0: 8789 3bbe 0db4 28bd 0c1f eb3d 748e d3bd
000003c0: 78f9 833d 8266 1f3e 0458 dbbd c5d2 023d
000003d0: db27 b7bd 4d89 813d d319 9ebd 0df0 d6bb
000003e0: 6ea4 8c3a 7117 6bbd e346 1a3d acfb 4e3d
000003f0: bc8e 1f3e a487 50be b5a9 4c3d 61cb 713d
-0.031852026 0.014555886 0.093479656 0.01789851 -0.06350443 -0.09569602 -0.021818537 -0.13146421
0.0058905566 0.07236448 -0.123637155 -0.1020778 -0.05766114 -0.18250968 0.08403049 -0.23734556
0.012083855 0.09793719 -0.023473766 -0.05336927 -0.1427224 0.0058852 0.0056034895 -0.051693447
-0.12638284 -0.100677885 -0.08528364 -0.14395437 0.029828368 0.057840466 -0.09645911 -0.09863372
-0.028401274 -0.12921394 -0.0060469727 0.11470472 0.010720359 -0.18531913 -0.058863472 0.019303901
-0.12863575 -0.050766207 -0.044310242 -0.07418673 -0.050528422 0.05101895 -0.1263795 -0.18295294
-0.14955701 -0.0020065075 -0.11589605 0.0680577 0.10505405 -0.025410898 -0.112442814 -0.08684683
-0.021869462 -0.039028313 -0.08459716 -0.03564134 -0.019777754 -0.20301068 -0.12395928 -0.096425556
-0.229971 -0.12784757 -0.009665393 -0.038622364 0.01586905 -0.12594374 -0.10882625 -0.05294332
-0.14327013 -0.019909661 0.06819829 -0.105749846 -0.11464345 0.049000397 -0.05639101 0.040952463
-0.16522843 -0.033882964 -0.017549224 0.070742935 -0.14404832 -0.008110679 -0.10144351 -0.11372456
-0.14935318 -0.033857044 -0.036366712 -0.086927496 -0.031094838 -0.033144493 -0.073966764 -0.13839859
0.11915793 -0.0043453914 0.016529093 -0.22971037 -0.10621585 -0.003246506 -0.12846339 -0.07001762
-0.09183165 0.07992538 -0.14997229 -0.11144774 0.13866898 0.014809697 0.18966587 0.033610564
-0.20593187 0.097310096 0.012219712 -0.07779497 0.10331058 -0.00048263845 0.006995716 -0.19012277
-0.08340859 0.03090587 -0.088787265 0.07752411 -0.18996923 0.00087568426 0.03344238 0.082679175
0.0003154508 -0.019182034 -0.12242072 0.0870144 -0.07363877 -0.10653279 -0.05607564 0.027172167
0.054540325 -0.045806497 -0.09055496 -0.080141865 -0.09206992 -0.0027896187 0.089671984 -0.15831381
-0.052878045 -0.08099947 -0.1444377 -0.15355211 -0.035410054 0.093346976 -0.13245344 0.027585508
-0.13923942 -0.12143952 0.007629426 -0.14474113 -0.03306458 -0.039985288 0.021589616 -0.05368406
-0.10170555 0.04774849 -0.032256715 -0.01692447 -0.059909686 -0.033943947 -0.021027269 -0.055384677
0.041250244 0.097567916 -0.12626357 -0.052726116 -0.00731061 -0.06274035 -0.20889461 0.028284138
0.011246175 -0.009048772 0.020858504 0.054017983 0.003407829 -0.044378184 0.020772701 0.09370232
-0.12003461 0.08870823 -0.03861101 -0.10767936 -0.08825093 0.0059727626 0.012292711 -0.08723932
0.027115343 -0.09603844 0.071277216 -0.010070417 -0.045421727 0.028001139 -0.14036207 -0.022539865
-0.007797434 -0.12640908 0.037372787 -0.05135481 0.11650829 -0.105659276 0.026669824 0.063354544
0.030154098 -0.10889925 -0.01227479 -0.022397932 -0.00048393736 0.005376939 0.05702976 -0.08103524
0.036018856 0.1389125 0.044828713 0.03589357 0.026814776 -0.15874757 -0.11217793 -0.061020147
0.021522047 -0.16414589 -0.056041386 -0.06778593 0.015124365 -0.12015759 -0.04816068 -0.18045135
0.10900818 0.004236734 -0.017003693 0.0072611542 -0.18314181 -0.041187335 0.11480531 -0.10329905
0.06444067 0.15566447 -0.10710147 0.031939287 -0.08943149 0.06325016 -0.07719769 -0.006559378
0.0010730156 -0.057395402 0.03766526 0.05053298 0.15581793 -0.20364243 0.049966533 0.059031848

network_body.vector_processors.0.normalizer.running_mean f4 [9]
00000000: 172b 1e40 c6b6 f93f 0000 0000 db24 1f40
00000010: 2fb6 f93f 0000 0000 0957 4f3e 0000 0000
00000020: 2cd6 0f3d
2.47138 1.9508903 0.0 2.4866245 1.9508723 0.0 0.20248045 0.0
0.03511636
