config/results/FighterUpdated4/My Behavior/My Behavior-14999981.onnx (onnx, 282099 bytes, 8 tensors)

58 f4 [9]
2.7961822 0.012453453 0.00025819903 2.7907372 0.0125663625 0.00025819903 0.4021032 0.00025819903
0.18979247
00000000: a6f4 3240 9109 4c3c e35e 8739 709b 3240
00000010: 25e3 4d3c e35e 8739 78e0 cd3e e35e 8739
00000020: f558 423e

action_model._discrete_distribution.branches.0.bias f4 [6]
0.04233807 0.015583686 -0.110744156 0.08905299 -0.117092505 -0.012171492
00000000: af6a 2d3d b752 7f3c d5cd e2bd 6a61 b63d
00000010: 32ce efbd f06a 47bc

action_model._discrete_distribution.branches.0.weight f4 [6, 256]
-0.059673194 -0.02776511 0.003513543 0.040185872 -0.015572495 0.049925156 0.023492344 0.040471997
-0.006483755 0.065914854 0.064042136 0.050632775 0.04908609 -0.030290281 0.090365686 0.019098945
0.058153685 0.038142424 0.020660706 -0.0067914296 0.05460763 0.0066214507 -0.045539413 0.030817315
-0.028379612 -0.023610737 0.037384905 0.06475756 -0.035361245 0.031967364 0.03787913 0.05065804
0.07603075 -0.009715151 -0.0013106372 0.035077382 0.05640921 0.065223694 0.057804994 -0.0007473308
0.023863506 -0.056277584 -0.04037895 0.033734523 0.036719263 0.04672514 0.08134285 0.041170757
0.08960572 -0.043134294 -0.013641497 0.01935018 0.0065715844 0.015528328 0.040389296 0.034730405
0.029532213 0.01808344 -0.008655218 -0.009691735 -0.016558755 0.039102573 0.011694966 -0.008517161
0.042673167 0.04151401 0.035089727 -0.042136297 0.03366419 0.032747068 -0.04852938 0.026860166
0.026239382 -0.060997527 -0.014017704 0.04512818 0.036882516 0.048022214 -0.008739082 0.040581383
0.051697228 0.018468019 0.035911277 -0.001861875 0.05421764 -0.049081706 -0.016371721 -0.004822812
0.005758517 0.019053787 -0.015027003 -7.18644e-05 0.087767996 0.059231628 0.05910886 -0.071485646
0.000616617 -0.026492443 -0.016889296 -0.060143664 0.046474036 -0.021556003 0.045529854 -0.018813096
-0.020334028 -0.027891487 0.051191125 -0.007691549 0.05388942 -0.050982926 0.014066071 0.054539025
-0.013684176 0.01552693 -0.023942789 -0.025074614 0.009286706 -0.003712166 0.010850659 0.047459844
-0.043696318 0.033942923 0.002012989 0.006736833 -0.0018295401 0.041798506 0.0031177145 0.05099131
0.0030578098 0.027720114 -0.021253755 0.032305833 0.04231282 0.026221823 -0.03482645 -0.018889092
0.042593166 0.018532498 0.060228553 -0.011902347 0.0480501 0.026157046 -0.026714915 -0.02884737
-0.009289042 0.003880051 0.015904212 -0.012863206 -0.050553426 -0.034584172 -0.02316932 0.06474131
0.038967934 0.06408271 0.05904996 0.06662387 0.01396809 -0.03446755 0.030215807 0.04531094
-0.03909203 0.028387016 -0.06480613 0.021453572 -0.008804863 0.03073664 0.051735383 0.04667092
0.01860811 0.034367364 -0.034857586 0.061027538 -0.037853282 -0.027690617 -0.021262996 -0.005830447
0.0432615 0.04894942 0.045261506 0.04171105 -0.06607548 0.046925012 0.05020894 -0.031766802
-0.019786658 -0.03488522 -0.063013025 0.04911607 -0.018832408 0.015587447 0.042941637 0.042930868
0.029476693 -0.067139916 0.004259871 0.00019767859 -0.0021040328 0.056414247 -0.019235585 0.056907907
0.010880204 0.025575772 -0.0013661694 0.03270801 -0.012655875 0.062029835 -0.05322499 0.041052826
-0.06469415 0.01578642 0.0025156701 0.054632284 0.039986305 -0.047031354 0.037984155 -0.04149337
0.0063282996 0.02600624 0.038462766 -0.035826888 0.036978014 0.025912996 0.015126631 0.01054007
-0.0040982193 -0.035548404 -0.009761845 0.04225916 0.050231524 -0.007395813 -0.0011425402 -0.011450278
0.007981906 0.047684938 -0.028995529 0.045032397 -0.017545722 -0.059617266 0.058973424 -0.06616879
0.04952761 -0.03872974 -0.03093558 -0.036228664 0.036921512 -0.061074503 0.07432316 -0.03917703
-0.007606727 0.038838893 0.04285842 0.016851593 0.066561095 0.031909212 -0.034380723 0.030438699
00000000: e16b 74bd a873 e3bc 7843 663b f199 243d
00000010: c723 7fbc 527e 4c3d 0473 c03c f7c5 253d
00000020: ae75 d4bb 5efe 863d 8628 833d 5064 4f3d
00000030: 7f0e 493d 5323 f8bc a511 b93d 6475 9c3c
00000040: 8f32 6e3d 3b3b 1c3d a440 a93c a48a debb
00000050: 40ac 5f3d c1f8 d83b 8987 3abd 9874 fc3c
00000060: 5c7c e8bc 4e6b c1bc ea20 193d 9d9f 843d
00000070: f4d6 10bd 36f0 023d 2627 1b3d ce7e 4f3d
00000080: 03b6 9b3d 4c2c 1fbc b0c9 abba 4dad 0f3d
00000090: 580d 673d 0094 853d eec4 6c3d 85e8 43ba
000000a0: 667d c33c 5383 66bd 6664 25bd 362d 0a3d
000000b0: f066 163d dc62 3f3d 1597 a63d aba2 283d
000000c0: 3483 b73d 96ad 30bd 9680 5fbc 4584 9e3c
000000d0: 7256 d73b 876a 7e3c 3f6f 253d 7841 0e3d
000000e0: 8aed f13c b923 943c 9ece 0dbc 15ca 1ebc
000000f0: 3aa6 87bc 052a 203d 3e9c 3f3c 908b 0bbc
00000100: 0fca 2e3d 980a 2a3d 3fba 0f3d 1c97 2cbd
00000110: 76e3 093d ca21 063d bec6 46bd da09 dc3c
00000120: f9f3 d63c 8bd8 79bd 83aa 65bc 54d8 383d
00000130: 1f12 173d f1b2 443d 5e2e 0fbc aa38 263d
00000140: 79c0 533d 3e4a 973c b417 133d 280a f4ba
00000150: 5113 5e3d e609 49bd fd1d 86bc ae08 9ebb
00000160: f1b1 bc3b b016 9c3c d233 76bc e8b5 96b8
00000170: b5bf b33d dd9c 723d 221c 723d 1167 92bd
00000180: 77a4 213a ae06 d9bc 6c5b 8abc 3459 76bd
00000190: 8f5b 3e3d 3796 b0bc 837d 3a3d ec1d 9abc
000001a0: 8c93 a6bc b07c e4bc c9ad 513d 6409 fcbb
000001b0: 27bb 5c3d 79d3 50bd 6175 663c 5064 5f3d
000001c0: 9833 60bc aa64 7e3c ab23 c4bc 4769 cdbc
000001d0: 4527 183c d047 73bb f6c6 313c 4165 423d
000001e0: e9fa 32bd bc07 0b3d 5aec 033b a7c0 dc3b
000001f0: 2ecd efba e934 2b3d 9252 4c3b 44dc 503d
00000200: 8965 483b 4b15 e33c 5b1c aebc 1f53 043d
00000210: 3550 2d3d 26cf d63c 2ea6 0ebd 4cbd 9abc
00000220: 2c76 2e3d 77d1 973c 37b2 763d 1002 43bc
00000230: 2fd0 443d 4d47 d63c 3dd9 dabc 5251 ecbc
00000240: 1131 18bc 7448 7e3b 8d49 823c 32c0 52bc
00000250: 1c11 4fbd 22a8 0dbd 96cd bdbc 1897 843d
00000260: d79c 1f3d cc3d 833d 5fde 713d 1872 883d
00000270: 6ada 643c d92d 0dbd 2487 f73c f797 393d
00000280: f71e 20bd e38b e83c 14b9 84bd 67bf af3c
00000290: 4642 10bc 68cb fb3c 7be8 533d 022a 3f3d
000002a0: 0970 983c cbc4 0c3d d4c6 0ebd 03f8 793d
000002b0: 0b0c 1bbd 6fd7 e2bc bc2f aebc 560d bfbb
000002c0: f832 313d 307f 483d 2164 393d 35d9 2a3d
000002d0: 9552 87bd 7134 403d e4a7 4d3d e81d 02bd
000002e0: a117 a2bc cee3 0ebd f90c 81bd ef2d 493d
000002f0: 6c46 9abc 7e62 7f3c 92e3 2f3d 47d8 2f3d
00000300: 1b79 f13c a780 89bd 6396 8b3b f147 4f39
00000310: d0e3 09bb a012 673d f293 9dbc 4418 693d
00000320: e242 323c 4884 d13c 0a11 b3ba d6f8 053d
00000330: 965a 4fbc ff12 7e3d 7202 5abd 0227 283d
00000340: 5e7e 84bd 8652 813c f1dd 243b 1ac6 5f3d
00000350: aec8 233d f3a3 40bd 4695 1b3d f4f4 29bd
00000360: a05d cf3b 0a0b d53c 228b 1d3d 37bf 12bd
00000370: 4276 173d 7e47 d43c b0d5 773c 42b0 2c3c
00000380: 5b4a 86bb 349b 11bd 25f0 1fbc f117 2d3d
00000390: 92bf 4d3d 9358 f2bb 4ac1 95ba f299 3bbc
000003a0: 8ac6 023c 4851 433d 0888 edbc e473 383d
000003b0: 0cbc 8fbc 3c31 74bd 1e8e 713d 8183 87bd
000003c0: 77dd 4a3d 13a3 1ebd 9d6c fdbc 8264 14bd
000003d0: 033b 173d 4229 7abd be36 983d 1878 20bd
000003e0: da41 f9bb 8815 1f3d 508c 2f3d 5a0c 8a3c
000003f0: 2f51 883d 3cb3 023d cdd2 0cbd 945a f93c

network_body.linear_encoder.seq_layers.0.bias f4 [256]
0.061649993 -0.08654235 -0.04951359 0.049513962 0.05223766 0.06254054 0.12539378 0.038119785
0.04254897 0.03168147 0.07500062 0.035988275 0.07435834 0.009335779 -0.016828908 0.10224851
0.038034756 0.12606022 0.041523393 0.13175078 0.1063222 -0.07113585 0.047243573 0.012493344
0.11829036 0.07914184 0.07629756 -0.04639307 0.13474242 0.08259632 0.148102 0.089058965
0.10290993 0.12596144 0.01742255 0.06906686 0.051741786 0.072436884 0.14872095 0.07689693
0.10019203 -0.0033494025 0.03301326 0.03947935 -0.05467871 0.002674938 -0.01880364 0.11479246
0.12865336 0.04672858 0.13856424 0.10526817 0.10654283 -0.04685294 -0.045369137 0.13363472
0.050484445 -0.003214007 0.096408755 -0.05234788 0.07539751 0.11136669 0.13446544 0.06547729
0.120903686 0.09434207 0.058916677 0.10276596 0.121608 0.11790889 0.09899202 0.0734661
0.141211 0.12098794 -0.056362566 0.10654337 0.09335378 0.04110199 0.09619825 0.019542614
0.072051436 0.110591166 0.05656917 0.13331038 0.12093648 -0.04368107 -0.04277035 0.12772277
-0.0059059886 0.030700043 0.085352555 0.11579855 0.06462333 0.049676407 0.124225646 0.06560018
0.046999022 0.07111115 -0.05760931 0.09771334 0.09589354 0.123608716 0.05695975 0.049241174
0.057635684 -0.07033406 0.083788276 0.037365425 0.029293831 0.04423804 -0.05857029 0.059482407
0.08606127 -0.006597917 0.048499268 0.026304469 -0.018251276 -0.026739964 -0.007055874 0.1406484
0.01850521 0.10106136 0.0827325 -0.07832224 0.08489912 0.08352514 0.08801804 0.15798408
0.14611445 0.06846988 0.09981544 -0.02510432 0.050340727 0.039368406 0.07903851 0.06055994
0.16115744 -0.014192528 0.11622682 0.06155295 0.013919401 0.056734562 0.121022664 0.11538993
0.09269928 0.00215592 0.12107745 0.12652674 0.07001198 0.11312779 0.032539617 -0.06541813
0.097517505 0.07132559 0.05510692 0.057222895 0.096296705 0.00556379 0.047929555 0.07836581
0.040579855 0.096387945 0.024937896 0.0023904932 0.093202524 -0.08734804 -0.05487681 0.0019633435
0.08922314 0.057998795 -0.084762044 0.062111415 0.072505146 0.12664007 0.10685308 -0.07937277
-0.14607249 0.09590029 -0.025908154 -0.08495292 0.06563542 0.06551601 0.0650305 0.016196925
0.008889315 -0.046397302 0.0038005495 0.14956456 0.1409912 0.12072428 0.07816514 0.0335398
0.066580296 0.08849636 0.11962036 0.036745936 0.12796748 0.021083035 0.062345613 0.103833795
0.08366559 0.10995732 -0.022508603 0.16887525 0.027385471 0.17625757 0.050631616 -0.011168997
0.06499786 0.10997336 0.015778512 0.023653476 -0.040182237 0.106949106 0.059396997 0.015955871
0.1379817 0.08959862 0.016010268 0.110934526 -0.019095317 0.05594438 0.13538554 -0.01754124
0.066055804 0.036984522 0.15337226 0.12546805 0.12933023 0.0059488593 0.13167879 0.07634168
0.12438992 0.1038876 0.07306369 -0.015536814 -0.051801376 0.085759275 -0.0056979097 0.08013544
0.09139078 -0.07260415 0.04949566 0.08374013 0.099168845 -0.041376017 0.11053211 0.0052138017
0.0094750235 0.095436916 -0.008169602 0.035886932 -0.08572785 0.08165002 0.16382967 0.16427578
00000000: b484 7c3d 1e3d b1bd c3ce 4abd 27cf 4a3d
00000010: 28f7 553d 4115 803d 3a67 003e 7e23 1c3d
00000020: d447 2e3d 6ec4 013d ed99 993d 7168 133d
00000030: 2f49 983d 18f5 183c c7dc 89bc ab67 d13d
00000040: 55ca 1b3d ee15 013e 6f14 2a3d ade9 063e
00000050: 74bf d93d acaf 91bd 7a82 413d e2b0 4c3c
00000060: 3742 f23d 1e15 a23d e541 9c3d a906 3ebd
00000070: ebf9 093e 4228 a93d 0da8 173e 8c64 b63d
00000080: 71c2 d23d 09fc 003e bcb9 8e3c ed72 8d3d
00000090: 32ef 533d ca59 943d 4e4a 183e 237c 9d3d
000000a0: 7b31 cd3d a681 5bbb ea38 073d 19b5 213d
000000b0: c8f6 5fbd 034e 2f3b 170a 9abc 4f18 eb3d
000000c0: b5bd 033e 7866 3f3d c9e3 0d3e d796 d73d
000000d0: 2133 da3d dee8 3fbd fdd4 39bd 8ad7 083e
000000e0: c7c8 4e3d 17a2 52bb f471 c53d bb6a 56bd
000000f0: 026a 9a3d 3814 e43d 4fb1 093e f518 863d
00000100: 5a9c f73d 6a36 c13d 9d52 713d f676 d23d
00000110: 9d0d f93d 377a f13d 54bc ca3d 6575 963d
00000120: 9e99 103e 86c8 f73d 6fdc 66bd 6933 da3d
00000130: 4430 bf3d 8f5a 283d 9703 c53d d517 a03c
00000140: b48f 933d 9f7d e23d 13b5 673d 8482 083e
00000150: 8cad f73d ecea 32bd f62f 2fbd c2c9 023e
00000160: 0687 c1bb a87e fb3c 52cd ae3d ca27 ed3d
00000170: 3d59 843d 7d79 4b3d 046a fe3d 6359 863d
00000180: 0c82 403d b9a2 913d bdf7 6bbd ee1d c83d
00000190: d563 c43d 9126 fd3d a04e 693d 1db1 493d
000001a0: 6513 6c3d 4e0b 90bd 3099 ab3d 7d0c 193d
000001b0: 9ef9 ef3c f232 353d 67e7 6fbd d3a3 733d
000001c0: e440 b03d 5733 d8bb 2ba7 463d 787c d73c
000001d0: b383 95bc c50d dbbc f634 e7bb 2206 103e
000001e0: 3d98 973c 42f9 ce3d a86f a93d 6967 a0bd
000001f0: 97df ad3d 3b0f ab3d cd42 b43d 94c6 213e
00000200: 079f 153e f039 8c3d 0a6c cc3d 93a7 cdbc
00000210: 1432 4e3d c440 213d f1de a13d b30d 783d
00000220: 7506 253e c787 68bc 5408 ee3d f21e 7c3d
00000230: 330e 643c 8062 683d bbda f73d 8e51 ec3d
00000240: 1fd9 bd3d 564a 0d3b 74f7 f73d 3a90 013e
00000250: 7162 8f3d 8baf e73d 4348 053d f1f9 85bd
00000260: 42b7 c73d 2713 923d cbb7 613d 8e62 6a3d
00000270: 3537 c53d 7450 b63b c851 443d 417e a03d
00000280: 1037 263d 0b67 c53d 8f4a cc3c d2a9 1c3b
00000290: f7e0 be3d 87e3 b2bd 82c6 60bd 70ab 003b
000002a0: 9fba b63d 2590 6d3d b997 adbd 8a68 7e3d
000002b0: 947d 943d efad 013e cad5 da3d 318e a2bd
000002c0: 0794 15be 5f67 c43d 563d d4bc ccfb adbd
000002d0: dd6b 863d 422d 863d b62e 853d 6aaf 843c
000002e0: 7da4 113c 190b 3ebd a412 793b 7427 193e
000002f0: ff5f 103e 4b3e f73d 0b15 a03d 0861 093d
00000300: 405b 883d 943d b53d 85fb f43d e882 163d
00000310: e809 033e 54b6 ac3c 1d5e 7f3d d0a6 d43d
00000320: dd58 ab3d 4e31 e13d f663 b8bc a2ed 2c3e
00000330: 7f57 e03c dd7c 343e 1963 4f3d 2bfe 36bc
00000340: 991d 853d b739 e13d f041 813c efc4 c13c
00000350: 2196 24bd 2208 db3d 444a 733d e3b5 823c
00000360: 134b 0d3e 7b7f b73d f727 833c a431 e33d
00000370: c86d 9cbc ef25 653d 82a2 0a3e a6b2 8fbc
00000380: 4448 873d 157d 173d 9e0d 1d3e b27a 003e
00000390: 256f 043e a6ee c23b ced6 063e 0759 9c3d
000003a0: 24c0 fe3d 06c3 d43d 6aa2 953d 1f8e 7ebc
000003b0: ae2d 54bd 8fa2 af3d 88b5 babb 0d1e a43d
000003c0: 172b bb3d 7cb1 94bd f6bb 4a3d f27f ab3d
000003d0: 0919 cb3d e679 29bd a95e e23d 8ad8 aa3b
000003e0: 213d 1b3c 6e74 c33d cbd9 05bc 2dfe 123d
000003f0: 1592 afbd 2038 a73d f7c2 273e e937 283e

network_body.linear_encoder.seq_layers.0.weight f4 [256, 9]
0.0035682674 0.11553256 -0.5199058 -0.37319466 -0.2746767 -0.009713363 -0.410741 0.043714833
0.14427552 0.1092418 0.3398361 -0.6993035 -0.13210823 -0.90908706 -0.50571537 0.0584862
-0.4609507 -0.072825186 -0.33340946 -0.256429 0.44615972 0.39395908 0.03918512 -0.25286958
0.048390064 0.08845395 -0.037583206 -0.6300989 -0.42759952 0.30474287 -0.57983875 0.031640846
-0.56324863 -0.06771252 -0.34173274 0.8161323 0.098718785 0.7456178 -0.42477477 -0.008579722
0.31331053 -0.13757342 0.7143541 -0.028019635 0.2805044 0.010085887 -0.110098496 -0.21336463
-0.052041348 0.050303593 0.17468481 0.09224044 0.2117466 -0.48200455 0.07386954 0.4380911
0.37775838 0.006195692 0.6998759 -0.14190342 -0.572884 -0.16233402 -0.16407667 -0.50430226
0.37233496 0.30605614 0.49497718 0.5763867 0.30527407 -0.9667541 -0.30284494 -0.17939182
0.43547714 -0.09360289 -0.20030043 0.23251668 0.22883153 0.0673689 -0.14746925 0.38595033
0.08331166 -0.07831917 0.21358508 -0.6465134 -0.17281866 0.056892414 0.18100965 0.1431461
0.31295085 0.49349505 0.6323397 0.042503398 0.047355976 -0.29125816 0.34587428 -0.035716645
0.1734195 0.08106731 -0.28724238 0.36996683 0.14940052 0.1395639 -0.4024856 0.31336352
-0.13060871 0.28988135 -0.3448144 -0.37653407 0.15007316 0.029266765 -0.39429092 -0.6981211
0.3819589 -0.29862398 -0.317369 0.3994395 -0.26689804 0.30747855 0.48507294 0.19898216
-0.32192108 0.18923512 0.48956653 0.16081586 -0.20385468 -0.28870016 -0.21710421 0.1515122
-0.29850543 0.059632983 -0.19920106 -0.45290327 -0.1794448 -0.14835164 -0.106956504 0.92686284
0.36166996 -0.13148367 -0.6152953 0.18549012 0.1411397 -0.3372959 -0.48299706 -0.14398733
-0.79964936 0.30595002 0.34192556 -0.98483855 0.14492722 0.22439311 0.23694381 -0.5137733
-0.08741513 -0.68028367 -0.058562223 0.52436864 0.30054477 0.19050528 0.42133963 -0.7824866
0.24232988 -0.46285403 0.08410052 0.7159624 0.16951844 -0.84391636 0.5430077 -0.6296879
0.05051726 -0.2138699 -0.2098465 0.5439277 0.67688227 0.1713176 0.25350982 0.0042752265
-0.055704743 0.86705947 0.2589892 -0.61281383 0.73347515 0.23698902 -0.07248933 -0.51642597
-0.11803914 0.032164235 -0.5062811 -0.3612259 -0.33292392 -0.2639691 0.14477973 -0.57915854
0.55276847 0.37749952 -0.04081158 0.04633981 0.18340532 0.1759772 -0.4663871 0.27814785
-0.38771838 -0.70460737 0.2590497 0.23014942 0.120366074 0.27164337 0.24730772 -0.1399953
-0.27410266 -0.008165028 0.3013615 0.15221229 0.0929743 0.27661133 -0.34800792 -0.26250145
0.5092497 -0.19651438 0.18762623 0.34988937 0.073651135 0.30017686 -0.006950262 0.5869681
-0.51982516 -0.14317864 -0.33305395 -0.3348137 -0.032293465 -0.14783783 0.10191419 0.52882165
0.11655931 0.9216187 0.49537304 0.08547096 0.059486084 -0.033607695 0.10474842 0.21931426
-0.34433547 -0.02284335 0.3405186 0.15430005 -0.8389186 0.07348397 -0.1703266 0.13900511
0.57036674 -0.09740884 -0.06536321 0.51578987 0.03274181 -0.15943193 -0.065661706 0.66457176
00000000: 98d9 693b 569c ec3d 8c18 05bf 5f13 bfbe
00000010: 6da2 8cbe cc24 1fbc a54c d2be 530e 333d
00000020: f6bc 133e 2aba df3d fffe ad3e 8e05 33bf
00000030: 6147 07be eeb9 68bf 9076 01bf 3a8f 6f3d
00000040: bb01 ecbe 5f25 95bd a5b4 aabe a94a 83be
00000050: 0c6f e43e 01b5 c93e 9480 203d 1f78 81be
00000060: a934 463d 5827 b53d d9f0 19bd 294e 21bf
00000070: 53ee dabe 4207 9c3e 5070 14bf d599 013d
00000080: 1031 10bf ddac 8abd 98f7 aebe 0cee 503f
00000090: 132d ca3d cfe0 3e3f 147c d9be f691 0cbc
000000a0: 3d6a a03e 0ce0 0cbe e9df 363f 6f89 e5bc
000000b0: 469e 8f3e 473f 253c 527b e1bd 427c 5abe
000000c0: 4f29 55bd 240b 4e3d 93e0 323e 8ee8 bc3d
000000d0: 1ad4 583e 4dc9 f6be ea48 973d 7a4d e03e
000000e0: 8c69 c13e 3b05 cb3b 112b 333f 214f 11be
000000f0: 87a8 12bf e43a 26be b703 28be f419 01bf
00000100: b0a2 be3e 64b3 9c3e a66d fd3e 148e 133f
00000110: e24c 9c3e 327d 77bf 7e0e 9bbe 7db2 37be
00000120: dcf6 de3e dfb2 bfbd 8e1b 4dbe da18 6e3e
00000130: d052 6a3e b5f8 893d 2e02 17be 489b c53e
00000140: 4e9f aa3d cd65 a0bd 0cb6 5a3e e781 25bf
00000150: 60f7 30be 0508 693d 985a 393e e494 123e
00000160: 183b a03e 62ab fc3e 04e1 213f 0b18 2e3d
00000170: 57f8 413d ca1f 95be 6f16 b13e 9e4b 12bd
00000180: e294 313e 9e06 a63d 6f11 93be 4b6c bd3e
00000190: 73fc 183e d7e9 0e3e 9812 cebe 2f71 a03e
000001a0: 4abe 05be 546b 943e 838b b0be 13c9 c0be
000001b0: c7ac 193e dbc0 ef3c 80e0 c9be 10b8 32bf
000001c0: 1e90 c33e 3ee5 98be 317e a2be 5683 cc3e
000001d0: dca6 88be d46d 9d3e 7b5b f83e fbc1 4b3e
000001e0: d7d2 a4be dac6 413e 77a8 fa3e eaac 243e
000001f0: 48bf 50be 82d0 93be 9150 5ebe 0426 1b3e
00000200: b4d5 98be b741 743d 5dfb 4bbe f0e2 e7be
00000210: 61c0 37be 7ee9 17be 030c dbbd e246 6d3f
00000220: ce2c b93e a8a3 06be fe83 1dbf 1ff1 3d3e
00000230: ed86 103e 0cb2 acbe 644b f7be 6a71 13be
00000240: d2b5 4cbf 7ba5 9c3e de10 af3e 611e 7cbf
00000250: cd67 143e 4fc7 653e 66a1 723e a686 03bf
00000260: b406 b3bd 1227 2ebf f1de 6fbd 063d 063f
00000270: 01e1 993e d113 433e d4b9 d73e 0b51 48bf
00000280: 5325 783e 34fb ecbe e53c ac3d 5049 373f
00000290: 3e96 2d3e e70a 58bf 8d02 0b3f 3a33 21bf
000002a0: 30eb 4e3d b600 5bbe 00e2 56be d93e 0b3f
000002b0: 2848 2d3f e26d 2f3e 0acc 813e 3317 8c3b
000002c0: a82a 64bd 9cf7 5d3f 3c9a 843e 5ee1 1cbf
000002d0: 07c5 3b3f 40ad 723e 4975 94bd 7e34 04bf
000002e0: 81be f1bd a5be 033d a39b 01bf 9af2 b8be
000002f0: 0175 aabe f526 87be 2341 143e bc43 14bf
00000300: 3c82 0d3f 9e47 c13e 0b2a 27bd d0ce 3d3d
00000310: 9bce 3b3e 5e33 343e 4aca eebe 6569 8e3e
00000320: 0683 c6be 2661 34bf 2aa2 843e 4aac 6b3e
00000330: 7d82 f63d d714 8b3e 3c3e 7d3e ee5a 0fbe
00000340: 2f57 8cbe 9cc6 05bc 0e4c 9a3e 8add 1b3e
00000350: 4f69 be3d 00a0 8d3e 182e b2be 9766 86be
00000360: 305e 023f 113b 49be 1721 403e b324 b33e
00000370: 68d6 963d c8b0 993e 06bf e3bb 8b43 163f
00000380: 4313 05bf 6c9d 12be 0c86 aabe b46c abbe
00000390: 2746 04bd cd62 17be 63b8 d03d db60 073f
000003a0: a6b6 ee3d 34ef 6b3f 89a1 fd3e 660b af3d
000003b0: aea7 733d 39a8 09bd 5786 d63d eb93 603e
000003c0: bd4c b0be fa21 bbbc 7458 ae3e d500 1e3e
000003d0: 5fc3 56bf c37e 963d 196a 2ebe 5b57 0e3e
000003e0: 8e03 123f 497e c7bd 26dd 85bd ce0a 043f
000003f0: 471c 063d 2042 23be a579 86bd 6021 2a3f

network_body.linear_encoder.seq_layers.2.bias f4 [256]
-0.104566805 -0.0767525 -0.0591487 0.16368403 0.099918894 0.08293857 0.12431723 0.12024814
-0.059791338 0.03625871 -0.0552199 0.12030119 0.0735075 -0.068088196 -0.055276066 0.09739277
0.14364126 0.08912493 0.09706976 -0.062605016 0.12098785 -0.06239374 -0.1024257 -0.047544185
-0.07129626 0.03299277 -0.060062453 0.13133621 -0.082380876 0.1301962 0.076898836 0.07300348
-0.019821694 0.09489924 0.10007546 0.14211875 0.1298674 0.11720555 0.1214748 -0.05601203
0.12002474 -0.076963596 -0.012213862 0.1780311 0.1577628 0.06489632 -0.062119186 0.108816944
-0.048873495 -0.06373218 -0.048057593 0.14173213 0.13793632 0.16551834 0.13831937 -0.076086424
0.12943588 0.114625074 0.13071007 -0.053535398 -0.09979347 0.08782352 0.09383602 0.08245372
-0.0104119135 0.08703286 0.13138826 0.007736751 0.09244248 0.108325906 -0.078806445 0.018646104
0.10628489 -0.06294346 0.07261001 0.14039586 0.09880486 0.138595 0.09179543 0.087666124
0.15160666 0.03414019 0.12587671 0.09335278 -0.010958148 -0.075614996 -0.07975815 0.12033106
-0.028565966 0.062556036 0.13659033 0.104652606 -0.024412433 0.10122747 0.026057178 -0.0780099
0.15440495 0.13668694 -0.070995934 -0.079081036 0.03214319 0.10643334 0.116383836 0.05389017
-0.07681523 -0.05954149 0.08128591 -0.06819883 0.10604062 -0.08462783 0.012905581 0.10207828
0.088647 0.10494074 -0.0816994 -0.04740082 0.12596695 0.15507907 -0.011076829 -0.046214197
-0.10100971 0.09975404 0.11067837 0.0777754 -0.062321838 0.10550751 -0.051011562 0.093512505
0.115467586 0.09644392 0.0972835 0.11055294 0.1234958 -0.061334763 -0.026817042 -0.050174836
0.13913807 0.093288854 0.08632606 0.1304064 0.07824207 -0.03565334 -0.10934334 0.07521263
-0.1105135 0.12915614 0.11796235 -0.018161384 -0.079025194 0.0678698 -0.05572312 -0.061952762
0.09557148 -0.011689499 0.11727852 0.00033553972 0.12864664 -0.07916255 0.0013178184 -0.06545354
-0.10730327 0.08309042 -0.13392623 0.12457845 0.11352335 0.11244601 0.121394046 0.13728248
0.011654957 -0.06111582 -0.08372606 0.09642112 -0.08207683 -0.09009643 0.07522074 0.10665988
0.052511055 0.11265368 0.0011243521 0.12451288 0.040770248 0.10899892 0.11629111 -0.07772863
0.073006414 -0.06706056 -0.107484676 0.12359988 -0.027161086 0.09127653 0.08035347 0.15729347
0.031278566 -0.08547036 -0.0270987 0.1189387 -0.039512303 0.06571075 -0.06933308 0.08896758
0.103346884 0.04657817 -0.062437724 -0.02127744 0.16898988 -0.04023596 -0.089418 0.023368249
-0.07923728 -0.06395209 0.081795834 0.16463475 0.16640359 -0.11801536 0.14085075 -0.06314124
0.1469601 0.051652953 0.12864749 0.03429264 0.05612365 -0.046150286 0.11151392 -0.06090714
0.09183435 -0.095005825 0.1290985 -0.026092006 0.12526892 0.12473842 0.025093 -0.06662601
0.11384706 0.13978343 -0.06567395 0.097369544 0.020967033 -0.08291512 0.11420043 -0.105637856
0.124461964 -0.095151156 -0.0968417 0.040569272 -0.035673406 -0.09111716 -0.040903278 0.03881496
0.08491225 0.14255907 0.11595853 0.18301666 -0.060375944 0.14681904 -0.019791877 -0.065974094
00000000: 1f27 d6bd 6a30 9dbd e845 72bd c99c 273e
00000010: 47a2 cc3d b2db a93d 089a fe3d a844 f63d
00000020: c3e7 74bd 0384 143d 432e 62bd 7860 f63d
00000030: 1a8b 963d d371 8bbd 2869 62bd dc75 c73d
00000040: b216 133e 2287 b63d 83cc c63d 0f37 80bd
00000050: 7ac8 f73d 9490 7fbd 91c4 d1bd b1bd 42bd
00000060: c603 92bd 6d23 073d 0c04 76bd 007d 063e
00000070: 4eb7 a8bd 2752 053e 237d 9d3d d982 953d
00000080: 1b61 a2bc 885a c23d 5df4 cc3d 9487 113e
00000090: f6fb 043e 7709 f03d c8c7 f83d df6c 65bd
000000a0: 88cf f53d 179f 9dbd a61c 48bc c94d 363e
000000b0: 928c 213e 5de8 843d b070 7ebd 6bdb de3d
000000c0: 932f 48bd 0486 82bd 0ad8 44bd 3a22 113e
000000d0: 2e3f 0d3e a47d 293e 98a3 0d3e 33d3 9bbd
000000e0: d78a 043e 8dc0 ea3d dcd8 053e ef47 5bbd
000000f0: 8560 ccbd d1dc b33d 192d c03d 7fdd a83d
00000100: bb96 2abc 493e b23d a58a 063e 9284 fd3b
00000110: 7c52 bd3d f9d9 dd3d 4665 a1bd b7bf 983c
00000120: e4ab d93d 80e8 80bd 8fb4 943d efc3 0f3e
00000130: 345a ca3d d9eb 0d3e 3eff bb3d 4c8a b33d
00000140: c73e 1b3e 95d6 0b3d d3e5 003e be2f bf3d
00000150: ce89 33bc 09dc 9abd 3e58 a3bd 2170 f63d
00000160: 2c03 eabc 611d 803d 56de 0b3e 1b54 d63d
00000170: 95fc c7bc 5950 cf3d dd75 d53c a8c3 9fbd
00000180: 551c 1e3e a9f7 0b3e 5166 91bd 3df5 a1bd
00000190: 94a8 033d b9f9 d93d a65a ee3d f0bb 5c3d
000001a0: 4e51 9dbd c7e1 73bd 3a79 a63d d4ab 8bbd
000001b0: d32b d93d 5b51 adbd ee71 533c 6b0e d13d
000001c0: 8f8c b53d 2ceb d63d 0452 a7bd 5d27 42bd
000001d0: 7bfd 003e 0ccd 1e3e 977b 35bc 194b 3dbd
000001e0: 2ede cebd d94b cc3d 57ab e23d b548 9f3d
000001f0: 2f45 7fbd 5214 d83d 80f1 50bd 7c83 bf3d
00000200: 457a ec3d 6484 c53d 923c c73d 9469 e23d
00000210: 5eeb fc3d 293a 7bbd 6aaf dbbc 2184 4dbd
00000220: 367a 0e3e 3a0e bf3d b8cb b03d 4189 053e
00000230: 613d a03d 3d09 12bd 67ef dfbd 1409 9a3d
00000240: e754 e2bd 8241 043e 3f96 f13d 2fc7 94bc
00000250: f6d7 a1bd 52ff 8a3d ed3d 64bd 2ec2 7dbd
00000260: fbba c33d 5085 3fbc b82f f03d 61eb af39
00000270: f2bb 033e fa1f a2bd a6ba ac3a 810c 86bd
00000280: d1c1 dbbd 4f2b aa3d f523 09be fd22 ff3d
00000290: ee7e e83d 184a e63d 719d f83d c793 0c3e
000002a0: 6ff4 3e3c 9554 7abd 9278 abbd 7078 c53d
000002b0: e617 a8bd 7a84 b8bd 550d 9a3d 7f70 da3d
000002c0: d515 573d f9b6 e63d ff5e 933a 9c00 ff3d
000002d0: b4fe 263d d33a df3d 092a ee3d 3030 9fbd
000002e0: 6384 953d 0c57 89bd ed20 dcbd ef21 fd3d
000002f0: ed80 debc 30ef ba3d 5c90 a43d 8a11 213e
00000300: f41d 003d 160b afbd 18fe ddbc 2296 f33d
00000310: a7d7 21bd 5c93 863d 80fe 8dbd a234 b63d
00000320: 88a7 d33d c0c8 3e3d b3be 7fbd 074e aebc
00000330: af0b 2d3e 76ce 24bd c920 b7bd c56e bf3c
00000340: 2847 a2bd 50f9 82bd 9384 a73d 0396 283e
00000350: b465 2a3e 09b2 f1bd 2e3b 103e 3250 81bd
00000360: b57c 163e 0c92 533d 2bbc 033e 7076 0c3d
00000370: eae1 653d 1508 3dbd 6961 e43d c479 79bd
00000380: a613 bc3d 6a92 c2bd 6632 043e e7be d5bc
00000390: 7f46 003e db76 ff3d d68f cd3c 3873 88bd
000003a0: a628 e93d 6323 0f3e 1080 86bd af69 c73d
000003b0: 0ec3 ab3c 67cf a9bd eae1 e93d a958 d8bd
000003c0: eae5 fe3d 9cde c2bd f154 c6bd f72b 263d
000003d0: 471e 12bd a29b babd 328a 27bd 6ffc 1e3d
000003e0: 79e6 ad3d 01fb 113e aa7b ed3d b868 3b3e
000003f0: c44c 77bd bb57 163e 9322 a2bc 6d1d 87bd

network_body.linear_encoder.seq_layers.2.weight f4 [256, 256]
-0.03349578 0.014714489 0.09375911 0.016211258 -0.060432494 -0.094087996 -0.023056 -0.13315684
0.008728595 0.07259334 -0.1205299 -0.09837397 -0.05546463 -0.1799402 0.081311665 -0.23378411
0.011063131 0.09635722 -0.020502834 -0.04933863 -0.13858992 0.0056806784 0.00453942 -0.046385154
-0.11819478 -0.09787625 -0.08356247 -0.1412826 0.03710224 0.058985796 -0.09432701 -0.09227876
-0.028660664 -0.124469854 -0.008383287 0.112630405 0.012111974 -0.17818438 -0.059181325 0.020720545
-0.12699716 -0.048505697 -0.041237727 -0.071971305 -0.047823805 0.05557616 -0.12720723 -0.18381721
-0.14499922 -0.0056112125 -0.11293487 0.06615176 0.1038423 -0.023455214 -0.110821754 -0.07877382
-0.022136299 -0.03652616 -0.08208954 -0.034581263 -0.020050105 -0.19762851 -0.12539352 -0.093236834
-0.22957024 -0.12555878 -0.0064571216 -0.036264308 0.015746903 -0.12316605 -0.108263835 -0.048177466
-0.1431333 -0.019895734 0.07003014 -0.105593756 -0.116612524 0.047905292 -0.0531971 0.03959626
-0.16293144 -0.035896707 -0.017077172 0.06884051 -0.14025818 -0.010418554 -0.09749254 -0.11514927
-0.14724909 -0.031767514 -0.03815413 -0.08751048 -0.031882204 -0.028324917 -0.0741056 -0.13612309
0.11689185 -0.001186767 0.018744174 -0.22648875 -0.09550374 -0.004825616 -0.12512793 -0.06490202
-0.09032616 0.07574114 -0.1472505 -0.1092692 0.13573258 0.01292724 0.18775043 0.035057217
-0.20398554 0.09360836 0.011994612 -0.076222286 0.10136632 -0.004836739 0.009465717 -0.19153282
-0.08103929 0.030152937 -0.08664564 0.07743215 -0.18383746 0.0039581056 0.030969447 0.08913592
-0.0017741733 -0.020844914 -0.121054165 0.08621159 -0.073408775 -0.09977576 -0.05408229 0.031564564
0.06118523 -0.043224882 -0.09154456 -0.08273044 -0.09108858 -0.0018624531 0.08846877 -0.15623224
-0.051940784 -0.07902167 -0.14217079 -0.15537454 -0.032301225 0.0953155 -0.12729031 0.029686937
-0.1358789 -0.118140616 0.005835098 -0.14180963 -0.028885307 -0.042223494 0.019661818 -0.0547037
-0.09723706 0.047238737 -0.023604726 -0.018233363 -0.056786302 -0.031704206 -0.019444305 -0.053890087
0.039424688 0.1009046 -0.12333348 -0.051383507 -0.007849088 -0.06363025 -0.20701435 0.02835209
0.012444571 -0.0054925946 0.02340572 0.053445123 0.006718754 -0.039316986 0.022149945 0.09693396
-0.1172733 0.08578302 -0.035704423 -0.10382358 -0.08211319 0.004068859 0.010238612 -0.0864702
0.027449023 -0.09458682 0.06935723 -0.0051273396 -0.045076508 0.024865601 -0.13960281 -0.015476959
-0.0034840791 -0.120156355 0.035987135 -0.04880254 0.12032582 -0.10265639 0.02369862 0.06773679
0.027640605 -0.10508101 -0.009799652 -0.026179599 -0.00013229446 0.006094319 0.055632856 -0.07869434
0.033989817 0.13753563 0.04289579 0.033734992 0.027903039 -0.15716398 -0.10332179 -0.05951323
0.019196915 -0.16533174 -0.056540214 -0.0681308 0.013323263 -0.11542551 -0.047855344 -0.1770601
0.107362166 0.0037312158 -0.009051216 0.0028521426 -0.1779771 -0.037113685 0.1128693 -0.100781426
0.067056164 0.15618089 -0.103859365 0.03168033 -0.090654075 0.06616799 -0.076506205 -0.001365436
0.0069203074 -0.057106305 0.040758573 0.05101736 0.15357098 -0.20112896 0.051612683 0.057708118
00000000: df32 09bd 0a15 713c c704 c03d 79cd 843c
00000010: 1088 77bd 35b1 c0bd f0df bcbc 445a 08be
00000020: 6202 0f3c d1ab 943d 61d8 f6bd 4b78 c9bd
00000030: e12e 63bd 3e42 38be bb86 a63d 1a65 6fbe
00000040: 2242 353c ef56 c53d 8ff5 a7bc 4e17 4abd
00000050: 84ea 0dbe fc24 ba3b 6abf 943b 5cfe 3dbd
00000060: 1b10 f2bd 5873 c8bd cd22 abbd 63ac 10be
00000070: 85f8 173d 179b 713d 852e c1bd a6fc bcbd
00000080: c5c9 eabc 0dea febd 0e5a 09bc c5aa e63d
00000090: 4d71 463c f775 36be 1e68 72bd 22be a93c
000000a0: 8b0b 02be e9ad 46bd e4e8 28bd b165 93bd
000000b0: e5e2 43bd d4a3 633d 9d42 02be 943a 3cbe
000000c0: ad7a 14be 43de b7bb 664a e7bd 937a 873d
000000d0: 46ab d43d 2625 c0bc 84f6 e2bd 2b54 a1bd
000000e0: 2f57 b5bc 749c 15bd 901e a8bd 15a5 0dbd
000000f0: 1e40 a4bc 215f 4abe 2967 00be f4f2 bebd
00000100: 7614 6bbe 7b92 00be 4396 d3bb e289 14bd
00000110: a6ff 803c 7b3e fcbd 6eb9 ddbd bc55 45bd
00000120: 8991 12be 61fc a2bc f66b 8f3d 8a41 d8bd
00000130: 8cd2 eebd 5738 443d 34e5 59bd b02f 223d
00000140: 80d7 26be 6d08 13bd 6de5 8bbc 41fc 8c3d
00000150: d79f 0fbe 95b2 2abc 2baa c7bd 61d3 ebbd
00000160: 77c8 16be a71e 02bd 8147 1cbd b238 b3bd
00000170: ea96 02bd a809 e8bc adc4 97bd da63 0bbe
00000180: ff64 ef3d 4b8d 9bba 628d 993c abec 67be
00000190: 7797 c3bd 3320 9ebb 8921 00be 5aeb 84bd
000001a0: ecfc b8bd 2c1e 9b3d d6c8 16be 88c8 dfbd
000001b0: 7bfd 0a3e c6cc 533c a641 403e 2898 0f3d
000001c0: 96e1 50be bdb5 bf3d 0d85 443c 6e1a 9cbd
000001d0: 2599 cf3d 827d 9ebb 1816 1b3c 2e21 44be
000001e0: edf7 a5bd 4b03 f73c 4573 b1bd bf94 9e3d
000001f0: e33f 3cbe ffb2 813b a3b3 fd3c e58c b63d
00000200: 618b e8ba f4c2 aabc 3feb f7bd b48f b03d
00000210: 5757 96bd 3c57 ccbd 6485 5dbd d849 013d
00000220: 5d9d 7a3d 930c 31bd b77b bbbd 946e a9bd
00000230: a68c babd 8e1d f4ba 1d2f b53d 58fb 1fbe
00000240: dcbf 54bd 1dd6 a1bd 3895 11be 811a 1fbe
00000250: 4a4e 04bd c634 c33d 6458 02be 0532 f33c
00000260: d723 0bbe b5f3 f1bd 5a34 bf3b 8b36 11be
00000270: e1a0 ecbc 8bf2 2cbd d211 a13c fd10 60bd
00000280: 3924 c7bd 687d 413d b35e c1bc 225e 95bc
00000290: c198 68bd 45dc 01bd aa49 9fbc dabb 5cbd
000002a0: c87b 213d 12a7 ce3d 4396 fcbd 8377 52bd
000002b0: 7699 00bc 9450 82bd 92fb 53be a442 e83c
000002c0: 50e4 4b3c 39fb b3bb 5abd bf3c 46e9 5a3d
000002d0: fe28 dc3b d90a 21bd cd73 b53c 5085 c63d
000002e0: fc2c f0bd 02af af3d cd3e 12bd 75a1 d4bd
000002f0: f62a a8bd 1054 853b dabf 273c 4a17 b1bd
00000300: c6dc e03c bcb6 c1bd 2a0b 8e3d 3e03 a8bb
00000310: 25a2 38bd f2b2 cb3c 0af4 0ebe 1293 7dbc
00000320: 2655 64bb 8914 f6bd 3f67 133d 2ce5 47bd
00000330: 626d f63d 833d d2bd 9c23 c23c 96b9 8a3d
00000340: 8d6e e23c b634 d7bd b88e 20bc 9976 d6bc
00000350: 86b8 0ab9 dab2 c73b 47df 633d 802a a1bd
00000360: e838 0b3d 24d6 0c3e 7fb3 2f3d b42d 0a3d
00000370: ea94 e43c 98ef 20be 609a d3bd 25c4 73bd
00000380: d942 9d3c b94c 29be b696 67bd 2988 8bbd
00000390: d149 5a3c 3664 ecbd f703 44bd 3e4f 35be
000003a0: b2e0 db3d 6a87 743b 8d4b 14bc 03eb 3a3b
000003b0: a13f 36be 8504 18bd 0528 e73d 7e66 cebd
000003c0: be54 893d e2ed 1f3e 38b4 d4bd 3cc3 013d
000003d0: d8a8 b9bd 1583 873d 49af 9cbd 6ef8 b2ba
000003e0: bfc3 e23b 4de8 69bd 76f2 263d 94f7 503d
000003f0: b641 1d3e c0f4 4dbe d267 533d 595f 6c3d

network_body.vector_processors.0.normalizer.running_mean f4 [9]
2.5330565 1.9508965 0.0 2.549818 1.95088 0.0 0.20283109 0.0
0.03742327
00000000: 991d 2240 fab6 f93f 0000 0000 3830 2340
00000010: 70b6 f93f 0000 0000 f4b2 4f3e 0000 0000
00000020: 2549 193d
