config/results/FighterUpdated4/My Behavior/My Behavior-16499987.onnx (onnx, 282099 bytes, 8 tensors)

58 f4 [9]
0	0x402d7c97	2.7107294
1	0x3c45af59	0.012065732
2	0x39811222	0.00024618307
3	0x402d0970	2.703701
4	0x3c477fa8	0.012176432
5	0x39811222	0.00024618307
6	0x3ecdbd07	0.4018328
7	0x39811222	0.00024618307
8	0x3e39bd22	0.18138555

action_model._discrete_distribution.branches.0.bias f4 [6]
0	0x3d2011a2	0.039079316
1	0x3c80e083	0.015732056
2	0xbdf1d157	-0.118075065
3	0x3dc08c67	0.094017796
4	0xbdfbc69e	-0.122937426
5	0xbc697216	-0.014248392

action_model._discrete_distribution.branches.0.weight f4 [6, 256]
0	0xbd53e852	-0.05173523
1	0xbca8c986	-0.020603906
2	0x3c2671bb	0.010158951
3	0x3d14efe3	0.036361586
4	0xbcb8f4a0	-0.022577584
5	0x3d536518	0.051610082
6	0x3cae8e93	0.021308219
7	0x3d15bd36	0.0365574
8	0xb9e52bf8	-0.00043711043
9	0x3d8eb68c	0.06968412
10	0x3d90b900	0.07066536
11	0x3d439687	0.047750976
12	0x3d4fe895	0.050758917
13	0xbcc620a2	-0.024185482
14	0x3dc568b2	0.0963911
15	0x3c80284c	0.015644215
16	0x3d594364	0.053042784
17	0x3d220eae	0.03956478
18	0x3ca3123b	0.019906154
19	0xbaa26215	-0.001238885
20	0x3d5cbae3	0.053889167
21	0x3c3f523d	0.011677322
22	0xbd188cf2	-0.03724379
23	0x3d188caf	0.03724354
24	0xbcad0775	-0.02112172
25	0xbce3412a	-0.027741034
26	0x3d39ef6d	0.04539435
27	0x3d8b46ce	0.06800614
28	0xbce1d3b3	-0.027566766
29	0x3d051701	0.03249264
30	0x3d17cfbb	0.03706334
31	0x3d4bd89e	0.04976713
32	0x3da11ca4	0.07866791
33	0xbc536f8f	-0.012905016
34	0xbb921c25	-0.0044589215
35	0x3cffa7f4	0.031208016
36	0x3d55b6d2	0.052176304
37	0x3d9429a8	0.07234508
38	0x3d88cb7e	0.06679438
39	0x3b9bc23b	0.0047533787
40	0x3ca3476c	0.019931518
41	0xbd4993cc	-0.049213216
42	0xbcf67f21	-0.030089917
43	0x3cf4041e	0.02978712
44	0x3d04904c	0.032364175
45	0x3d3e514d	0.046464253
46	0x3db0ddb8	0.086360395
47	0x3d466964	0.048440352
48	0x3dc665fd	0.096874215
49	0xbd2120f5	-0.03933807
50	0xbc0b664b	-0.008508275
51	0x3c89d5dc	0.016825609
52	0x3b704387	0.0036661343
53	0x3c3fff02	0.011718513
54	0x3d394686	0.045233272
55	0x3d2bb8b9	0.041924212
56	0x3cd8c8ca	0.026462931
57	0x3c827d66	0.015928935
58	0xbc51dbcb	-0.01280875
59	0xbba71994	-0.0050994847
60	0xbc00150d	-0.007817519
61	0x3d1cd206	0.03828623
62	0x3bec462f	0.007210515
63	0xbc200cf0	-0.00976871
64	0x3d357f65	0.044310946
65	0x3d2f9a3b	0.042871695
66	0x3cfb44dc	0.030672483
67	0xbd3477a4	-0.04405941
68	0x3d045b19	0.03231344
69	0x3cfefb28	0.03112562
70	0xbd2595b1	-0.04042596
71	0x3ce95ce8	0.028486684
72	0x3caad822	0.020855013
73	0xbd5a84e6	-0.053349398
74	0xbc9a9c01	-0.018873217
75	0x3d2da1c2	0.042390592
76	0x3d19b863	0.03752936
77	0x3d2d8b89	0.0423694
78	0xbc40aa5a	-0.011759365
79	0x3d4d082c	0.05005662
80	0x3d467f3d	0.048461188
81	0x3ca05721	0.019572796
82	0x3d0bb179	0.034104798
83	0xbc245ecd	-0.010032368
84	0x3d80e4d7	0.06293648
85	0xbd257ab0	-0.040400207
86	0xbc083c2f	-0.00831513
87	0xbbff6c7a	-0.007794914
88	0x3baaeb8b	0.005216067
89	0x3c9fbba6	0.019498657
90	0xbc95556c	-0.018229209
91	0xbbb4378b	-0.0054997853
92	0x3dc0a544	0.09406522
93	0x3d82f637	0.06394618
94	0x3d74f448	0.059803277
95	0xbd8ae975	-0.0678281
96	0xbb44c035	-0.003002179
97	0xbd08db1c	-0.033412084
98	0xbc272ffb	-0.0102043105
99	0xbd6919b3	-0.056909274
100	0x3d43269a	0.047644235
101	0xbcd45f80	-0.025924444
102	0x3d62c68c	0.05536513
103	0xbca0cc5f	-0.019628702
104	0xbc493b6f	-0.0122822365
105	0xbcaa3a6e	-0.020779815
106	0x3d5f9336	0.05458375
107	0x3b1976ff	0.0023416874
108	0x3d5b42dc	0.05353056
109	0xbd2f1cfe	-0.04275226
110	0x3c5c69d8	0.0134529695
111	0x3d5efc1f	0.05443966
112	0xbc807bb5	-0.015683988
113	0x3c70ffda	0.014709437
114	0xbc8ee29a	-0.017442036
115	0xbc94d622	-0.018168513
116	0x3bdb92f3	0.0067008673
117	0xbc09d30c	-0.008412134
118	0x3c4ccf47	0.012500591
119	0x3d4f4ed0	0.05061227
120	0xbd0fe229	-0.035127793
121	0x3cef7d9a	0.029234696
122	0xbacda867	-0.0015690447
123	0x3bcf9442	0.0063348124
124	0x3b90c812	0.0044183815
125	0x3d271bfc	0.040798172
126	0x3bc272d3	0.0059340983
127	0x3d4a3e62	0.0493759
128	0x3a3d6ccc	0.000722599
129	0x3cf3142b	0.029672703
130	0xbcc5bbce	-0.024137404
131	0x3cf3ea0b	0.029774686
132	0x3d403896	0.046928965
133	0x3d067a46	0.032831453
134	0xbcad43f5	-0.021150569
135	0xbc4fdd98	-0.012687109
136	0x3d22de09	0.03976253
137	0x3c855157	0.016274137
138	0x3d734f0e	0.059401564
139	0xbc7eb618	-0.015546344
140	0x3d4ce7b3	0.050025653
141	0x3ce75fb5	0.028243879
142	0xbc983a04	-0.018582352
143	0xbd01d694	-0.03169878
144	0xbb9a797b	-0.0047141886
145	0x3aa34861	0.0012457484
146	0x3c69ffc3	0.01428217
147	0xbbd17950	-0.0063926354
148	0xbd2f751f	-0.042836305
149	0xbd1c7de5	-0.038206
150	0xbc8665a8	-0.016405895
151	0x3d90e76e	0.07075392
152	0x3d19760e	0.0374661
153	0x3d86a142	0.06573726
154	0x3d6fc119	0.05853376
155	0x3d8b89d0	0.06813395
156	0x3c395a36	0.011313012
157	0xbcd69f67	-0.026199056
158	0x3cfa908f	0.030586509
159	0x3d3f1b29	0.04665676
160	0xbd04190c	-0.03225045
161	0x3d19d863	0.037559878
162	0xbd725d3f	-0.059170958
163	0x3c9b48af	0.018955557
164	0xbc992e8a	-0.01869895
165	0x3ce8bc03	0.028409963
166	0x3d453c9d	0.04815351
167	0x3d5e0a49	0.054209027
168	0x3cad95eb	0.02118965
169	0x3d232fb9	0.039840434
170	0xbce68d36	-0.028143506
171	0x3d7e07a5	0.06201901
172	0xbce6d94b	-0.028179785
173	0xbcb0546f	-0.021524636
174	0xbcbcd9ba	-0.023053039
175	0xbc39fbf4	-0.011351574
176	0x3d464dd1	0.048414055
177	0x3d5de82c	0.054176494
178	0x3d4e1f99	0.050323103
179	0x3d2fa892	0.04288537
180	0xbd89b0fe	-0.06723212
181	0x3d3b09a7	0.045663502
182	0x3d6b02e7	0.057375815
183	0xbcb6d4a2	-0.022318188
184	0xbca8271e	-0.020526465
185	0xbcf17790	-0.029475957
186	0xbd4fd2e4	-0.05073823
187	0x3d5a6d85	0.053327102
188	0xbcbda734	-0.023151018
189	0x3c6e0a83	0.014528873
190	0x3d5770d8	0.05259785
191	0x3d1fd455	0.039020855
192	0x3cfb92ec	0.030709706
193	0xbd6cef67	-0.0578455
194	0x3bd2ca7d	0.00643283
195	0xbb22acac	-0.0024822159
196	0x3bbce179	0.005764183
197	0x3d646a48	0.05576542
198	0xbc51c096	-0.012802264
199	0x3d55c444	0.052189127
200	0x3c0f9fb6	0.008766105
201	0x3cd2a2d0	0.0257124
202	0x3b9dd4e9	0.0048166406
203	0x3d0cf2b1	0.034411136
204	0xbc9ec3e0	-0.01938051
205	0x3d817492	0.06321062
206	0xbd34db7b	-0.044154625
207	0x3d3b5545	0.045735616
208	0xbd69ccb7	-0.057079997
209	0x3ca072b4	0.019585945
210	0x398c7658	0.00026791054
211	0x3d5db910	0.054131567
212	0x3d0f3942	0.034966715
213	0xbd1f33d3	-0.038867783
214	0x3d3feb67	0.046855357
215	0xbd1038e2	-0.035210498
216	0x394a6f15	0.00019305602
217	0x3cd96776	0.026538592
218	0x3d169fce	0.036773495
219	0xbd1e8cb3	-0.0387084
220	0x3d178f35	0.037001807
221	0x3ce33c60	0.02773875
222	0x3c50df7d	0.012748596
223	0x3c864767	0.01639147
224	0xbbcc2f17	-0.0062311995
225	0xbcde9c1f	-0.027174054
226	0xbc4b7d8a	-0.012420068
227	0x3d33e323	0.043917786
228	0x3d51ddcc	0.051236913
229	0xbc2e954a	-0.0106557105
230	0xbc0d7c65	-0.008635615
231	0xbb927964	-0.0044700373
232	0x3b4b12ca	0.003098654
233	0x3d3fe65e	0.046850555
234	0xbcbd5380	-0.023111105
235	0x3d240a7e	0.04004907
236	0xbcc3b1f3	-0.023888564
237	0xbd561920	-0.052270055
238	0x3d6e0f42	0.05812002
239	0xbd63428b	-0.055483382
240	0x3d32f94f	0.04369479
241	0xbcf95fc6	-0.030441176
242	0xbcb1082e	-0.021610346
243	0xbd2ffd86	-0.04296639
244	0x3d1eaa45	0.0387366
245	0xbd61fbac	-0.055171654
246	0x3da2a017	0.07940691
247	0xbd2f33ae	-0.042773895
248	0xbc114640	-0.008866847
249	0x3d13e108	0.03610328
250	0x3d272e58	0.04081568
251	0x3c5d16a5	0.013494168
252	0x3d96bccd	0.0736023
253	0x3cedf3a9	0.02904685
254	0xbce4c86c	-0.0279276
255	0x3d04931c	0.032366857

network_body.linear_encoder.seq_layers.0.bias f4 [256]
0	0x3d806a49	0.06270272
1	0xbda5f984	-0.08104232
2	0xbd50901c	-0.050918683
3	0x3d3f4a44	0.046701685
4	0x3d60ab0e	0.05485063
5	0x3d85f2f7	0.065404825
6	0x3e02b256	0.12763342
7	0x3d2669bf	0.04062819
8	0x3d3e5887	0.046471145
9	0x3cf4358f	0.029810695
10	0x3d9bb7e2	0.07603432
11	0x3d171750	0.036887467
12	0x3d99f0a4	0.07516602
13	0x3c24af33	0.010051536
14	0xbc863fed	-0.016387904
15	0x3dd30c71	0.103051074
16	0x3d176f1d	0.0369712
17	0x3e0337b2	0.12814215
18	0x3d2b99b9	0.04189465
19	0x3e0d08fe	0.13772961
20	0x3ddca154	0.107729584
21	0xbd9448f7	-0.072404794
22	0x3d3c0459	0.045902584
23	0x3c5a6cd0	0.013331607
24	0x3e000e92	0.12505558
25	0x3da0cef9	0.07851977
26	0x3d9ea433	0.07746162
27	0xbd4750ed	-0.04866116
28	0x3e0cd87e	0.1375446
29	0x3da72601	0.081615455
30	0x3e1d0875	0.15335257
31	0x3dbf4967	0.09340172
32	0x3dd8504e	0.10562192
33	0x3e01f6e3	0.12691836
34	0x3c70af43	0.014690223
35	0x3d868630	0.06568563
36	0x3d640191	0.055665556
37	0x3da19e05	0.07891468
38	0x3e1d03d5	0.15333493
39	0x3d9cdc7e	0.07659243
40	0x3dd0bc76	0.10192196
41	0xbb604da0	-0.0034225956
42	0x3cff982f	0.031200496
43	0x3d32c159	0.043641422
44	0xbd67a2b5	-0.056551654
45	0x3b2070f1	0.002448138
46	0xbc9d023d	-0.019166106
47	0x3df08e88	0.11745936
48	0x3e07f19c	0.1327576
49	0x3d3b2e44	0.04569842
50	0x3e12f26e	0.14350292
51	0x3ddf5b26	0.10906057
52	0x3ddd8506	0.10816388
53	0xbd44a213	-0.04800613
54	0xbd41689a	-0.047218896
55	0x3e10a3e5	0.14125021
56	0x3d558cbf	0.05213618
57	0xbb99ee14	-0.0046975706
58	0x3dc37039	0.09542889
59	0xbd5e0dd4	-0.054212406
60	0x3d9f2f79	0.077727266
61	0x3de56b8a	0.11202152
62	0x3e0d6348	0.13807404
63	0x3d86874a	0.06568773
64	0x3df9b9e2	0.121936575
65	0x3dc1504a	0.09439142
66	0x3d74d05c	0.05976902
67	0x3ddeb71c	0.10874769
68	0x3dfe27ab	0.1240991
69	0x3df68eb4	0.12038937
70	0x3dcc035f	0.099615805
71	0x3d99ef46	0.07516341
72	0x3e14cc2c	0.1453101
73	0x3dfd669b	0.12373086
74	0xbd6b12b4	-0.057390884
75	0x3dd7ab5f	0.10530733
76	0x3dc0d4d9	0.094155975
77	0x3d34de24	0.044157162
78	0x3dcff385	0.101538695
79	0x3cae9a9a	0.021313954
80	0x3d90dd72	0.07073487
81	0x3de7bfe0	0.11315894
82	0x3d62fcd2	0.05541689
83	0x3e0928b7	0.13394438
84	0x3e046b55	0.12931569
85	0xbd3659d3	-0.044519257
86	0xbd2d2993	-0.042275976
87	0x3e0448d0	0.12918401
88	0xbbfbf937	-0.007689621
89	0x3cf04a51	0.029332312
90	0x3dbb728a	0.09152706
91	0x3df474ba	0.11936326
92	0x3d8d66ae	0.0690435
93	0x3d486eaa	0.048933662
94	0x3e021a8d	0.12705441
95	0x3d89fb93	0.06737437
96	0x3d30cd25	0.04316439
97	0x3d99964b	0.07499369
98	0xbd71d0f1	-0.059037153
99	0x3dcbd3d9	0.09952516
100	0x3dd3928f	0.10330688
101	0x3dfd7e95	0.12377659
102	0x3d75d4b7	0.060017314
103	0x3d48f924	0.049065724
104	0x3d7cef0d	0.061751414
105	0xbd94868a	-0.07252224
106	0x3daac6fb	0.08338734
107	0x3d145181	0.03621054
108	0x3cd38ee2	0.025824968
109	0x3d2c6431	0.042087737
110	0xbd7970dd	-0.06089865
111	0x3d702338	0.058627337
112	0x3db336d9	0.08750696
113	0xbc18e802	-0.009332659
114	0x3d478ab1	0.04871625
115	0x3ccf456a	0.025301654
116	0xbcb458d0	-0.022015005
117	0xbcf70903	-0.030155664
118	0xbc1acd5f	-0.009448378
119	0x3e101123	0.14069037
120	0x3c952125	0.018204281
121	0x3dd1ad01	0.10238076
122	0x3da86eee	0.08224283
123	0xbda57c1e	-0.08080314
124	0x3db435f6	0.08799355
125	0x3dad130f	0.08450901
126	0x3db5c97c	0.08876321
127	0x3e22fe78	0.15917385
128	0x3e175f2c	0.14782399
129	0x3d9214ec	0.07132897
130	0x3dcbb37d	0.09946344
131	0xbcdcf7ec	-0.026973687
132	0x3d5ea038	0.054352015
133	0x3d1d1fde	0.03836047
134	0x3db10437	0.08643382
135	0x3d74a202	0.059724815
136	0x3e2eddc8	0.1707679
137	0xbc8364bb	-0.016039243
138	0x3df1b292	0.11801638
139	0x3d820345	0.0634828
140	0x3c91e823	0.017810887
141	0x3d652ce6	0.05595102
142	0x3df60770	0.12013137
143	0x3df24973	0.118304156
144	0x3dc281c3	0.09497406
145	0x3a82fb7c	0.0009993161
146	0x3dff80bb	0.12475725
147	0x3e02ddf9	0.12779988
148	0x3d91fd4b	0.0712839
149	0x3de6bbcc	0.11266288
150	0x3d0c6050	0.03427154
151	0xbd87f2f2	-0.06638135
152	0x3dc8d584	0.0980635
153	0x3d90f74d	0.07078419
154	0x3d7171d9	0.058946464
155	0x3d6a62bd	0.05722307
156	0x3dca4c66	0.09877853
157	0x3b641a4e	0.0034805718
158	0x3d3d916a	0.046281256
159	0x3da8740b	0.082252584
160	0x3d1f0dc3	0.038831484
161	0x3dc62eeb	0.09676918
162	0x3cdda3ef	0.027055709
163	0x3b473d00	0.003040135
164	0x3dbce790	0.092238545
165	0xbdb4807a	-0.088135675
166	0xbd662800	-0.05619049
167	0x39ed5d6b	0.00045273764
168	0x3daf65a9	0.08564312
169	0x3d65014d	0.055909444
170	0xbda9c33e	-0.082891926
171	0x3d7bcdd7	0.0614756
172	0x3d942e72	0.07235421
173	0x3e04f65f	0.12984608
174	0x3dde8898	0.10865897
175	0xbd9bfa78	-0.076161325
176	0xbe16a6c2	-0.1471205
177	0x3dc50fc2	0.09622146
178	0xbcdf728f	-0.027276305
179	0xbdb2eca8	-0.08736545
180	0x3d84d47f	0.06485843
181	0x3d858517	0.065195255
182	0x3d867c27	0.06566649
183	0x3c8dc5a1	0.01730615
184	0x3bd342f8	0.0064471923
185	0xbd42c8bf	-0.047554728
186	0x3b1c8b91	0.00238869
187	0x3e20af62	0.15691903
188	0x3e16dc9c	0.14732593
189	0x3df94091	0.12170518
190	0x3da07608	0.07835013
191	0x3d06e8f9	0.032937024
192	0x3d897b0b	0.06712922
193	0x3db73acb	0.08946761
194	0x3dfa202b	0.12213167
195	0x3d1fca77	0.039011445
196	0x3e09715e	0.13422152
197	0x3c91bfca	0.017791647
198	0x3d7db076	0.061935864
199	0x3dd936fa	0.10606189
200	0x3daf9378	0.08573049
201	0x3de7dc3c	0.11321303
202	0xbcc8dd9a	-0.02451973
203	0x3e34ead0	0.17667699
204	0x3ce78dc0	0.028265834
205	0x3e3c309c	0.18377918
206	0x3d4a327d	0.049364556
207	0xbc4bc087	-0.012436039
208	0x3d8375b3	0.06418934
209	0x3dec9e7c	0.11553666
210	0x3c639433	0.013890314
211	0x3caefb64	0.021360107
212	0xbd29c115	-0.041443903
213	0x3ddae40b	0.10688027
214	0x3d7773af	0.06041306
215	0x3c7ae2ba	0.015312845
216	0x3e0ddbb1	0.13853337
217	0x3dbe075d	0.09278748
218	0x3c4e0f62	0.01257691
219	0x3de93626	0.11387281
220	0xbca94935	-0.02066479
221	0x3d5ab926	0.053399228
222	0x3e11678d	0.14199658
223	0xbca62146	-0.020279538
224	0x3d8a84bb	0.067635976
225	0x3d196baa	0.037456192
226	0x3e21bfef	0.15795873
227	0x3e01d6e3	0.12679629
228	0x3e05ff62	0.13085702
229	0x3bc0d67a	0.0058849426
230	0x3e0d1e18	0.13781011
231	0x3d9a3c64	0.0753105
232	0x3e00bf54	0.12572986
233	0x3dd5ee36	0.10445826
234	0x3d950d17	0.07277887
235	0xbc699948	-0.0142577365
236	0xbd518268	-0.051149756
237	0x3db15828	0.086593926
238	0xbbffac9c	-0.007802559
239	0x3dadb200	0.084812164
240	0x3db9190c	0.090379804
241	0xbd993db5	-0.07482473
242	0x3d472aeb	0.048624914
243	0x3da81e23	0.08208873
244	0x3dd1b7c5	0.102401294
245	0xbd2dca03	-0.04242898
246	0x3decfc29	0.11571533
247	0x3bbd0585	0.0057684802
248	0x3c3d7948	0.01156456
249	0x3dc21202	0.09476091
250	0xbbf60c7b	-0.007508812
251	0x3d0c31a4	0.03422703
252	0xbdb194f8	-0.08670992
253	0x3da89d89	0.082331724
254	0x3e2f2558	0.1710409
255	0x3e2c005e	0.16797015

network_body.linear_encoder.seq_layers.0.weight f4 [256, 9]
0	0x3b6dfc99	0.003631389
1	0x3ddf6928	0.10908729
2	0xbf05188c	-0.5199058
3	0xbec3a9c4	-0.38215458
4	0xbe8d20a2	-0.2756396
5	0xbc1f24cc	-0.009713363
6	0xbed2bb70	-0.41158628
7	0x3d330e53	0.043714833
8	0x3e12ade3	0.14324145
9	0x3dd260f7	0.10272401
10	0x3eaf114d	0.34192887
11	0xbf33058e	-0.6993035
12	0xbe0b4d6b	-0.13603751
13	0xbf6687bc	-0.90050864
14	0xbf017690	-0.50571537
15	0x3d44ca60	0.048044562
16	0xbeec01bb	-0.4609507
17	0xbd9ff55a	-0.07810469
18	0xbeaa22aa	-0.33229572
19	0xbe806c8d	-0.25082818
20	0x3ee46f0c	0.44615972
21	0x3ece0392	0.402371
22	0x3d1b3753	0.03789456
23	0xbe81781f	-0.25286958
24	0x3d42c464	0.047550574
25	0x3db52758	0.08845395
26	0xbd144e52	-0.036207505
27	0xbf22b051	-0.6355029
28	0xbedf8e60	-0.4366331
29	0x3e9c0742	0.30474287
30	0xbf154298	-0.5830474
31	0x3cf902c8	0.030396834
32	0xbf103110	-0.56324863
33	0xbd871307	-0.06595426
34	0xbeaef798	-0.34173274
35	0x3f51a1af	0.81887335
36	0x3dbeee49	0.09322793
37	0x3f3ee920	0.7457447
38	0xbed97c14	-0.42477477
39	0xbc82f51b	-0.015986016
40	0x3ea25d84	0.31711972
41	0xbe0ce00c	-0.13757342
42	0x3f385f96	0.7202085
43	0xbce5896f	-0.028019635
44	0x3e8e4e7e	0.2779426
45	0x3c43bafe	0.011946438
46	0xbde12631	-0.109936126
47	0xbe5a7c42	-0.21336463
48	0xbd60e4a3	-0.054905545
49	0x3d54f12d	0.051987816
50	0x3e32e093	0.17468481
51	0x3dbf5a2b	0.0934337
52	0x3e58d41a	0.2117466
53	0xbef83889	-0.48480633
54	0x3d9c0d1d	0.07619689
55	0x3edc0c84	0.429783
56	0x3ec1698c	0.37775838
57	0x3b88ed2e	0.0041786646
58	0x3f342a3a	0.7037693
59	0xbe114f21	-0.14190342
60	0xbf132488	-0.5747762
61	0xbe263ae4	-0.16233402
62	0xbe2a4223	-0.16626792
63	0xbefed3d2	-0.4977098
64	0x3ec0f58e	0.37687343
65	0x3e9cb364	0.30605614
66	0x3efe328a	0.49647933
67	0x3f13c060	0.57715416
68	0x3e9c4ce2	0.30527407
69	0xbf781b3b	-0.9691655
70	0xbe9b0e7e	-0.30284494
71	0xbe3a3647	-0.18184768
72	0x3ede657f	0.4343681
73	0xbdc8db27	-0.09807425
74	0xbe4d1b8e	-0.20030043
75	0x3e6dd88d	0.23227139
76	0x3e71aa7e	0.23600194
77	0x3d89f8b5	0.0673689
78	0xbe1ae501	-0.1512642
79	0x3ec59b48	0.38595033
80	0x3da2cf02	0.0794964
81	0xbdb1bf79	-0.08679099
82	0x3e5da51b	0.21645014
83	0xbf2581e7	-0.6465134
84	0xbe330359	-0.17481746
85	0x3d6ca627	0.057775643
86	0x3e395a98	0.18100965
87	0x3e14b42c	0.14521855
88	0x3ea03b18	0.31295085
89	0x3efd9b10	0.49532366
90	0x3f20949c	0.6272676
91	0x3d1669a6	0.036721848
92	0x3d41f857	0.047355976
93	0xbe96c410	-0.2944646
94	0x3eb31ce2	0.34982973
95	0xbd124b9e	-0.035716645
96	0x3e3323c7	0.17494117
97	0x3da6069e	0.08106731
98	0xbe939544	-0.28824818
99	0x3ebae190	0.36500216
100	0x3e14348a	0.14473167
101	0x3e0ee9d7	0.1395639
102	0xbed036b6	-0.4066674
103	0x3ea22c20	0.3167429
104	0xbe05be4a	-0.13060871
105	0x3e9611f2	0.29310566
106	0xbeb08b83	-0.3448144
107	0xbec13c33	-0.3774124
108	0x3e17e748	0.1483432
109	0x3cc21166	0.023689937
110	0xbec9e080	-0.39429092
111	0xbf348ab8	-0.7052417
112	0x3ec4d872	0.38446385
113	0xbe98e53e	-0.29862398
114	0xbea29901	-0.31757358
115	0x3ecc8356	0.3994395
116	0xbe890ee2	-0.26769167
117	0x3e9bd4a8	0.3043568
118	0x3ef59c23	0.47970685
119	0x3e4bc1fb	0.19898216
120	0xbea7adf0	-0.3274989
121	0x3e44ad98	0.19206846
122	0x3efaa877	0.48956653
123	0x3e26e520	0.16298342
124	0xbe50bf48	-0.20385468
125	0xbe942c62	-0.2894011
126	0xbe55ec60	-0.20890951
127	0x3e1ff067	0.1561905
128	0xbe98d5b4	-0.29850543
129	0x3d7f0841	0.06226373
130	0xbe499abc	-0.19687933
131	0xbee7e2f0	-0.45290327
132	0xbe3a01b5	-0.18164714
133	0xbe17e97e	-0.14835164
134	0xbddbf0bf	-0.10739278
135	0x3f6c4666	0.9229492
136	0x3eb62fba	0.35583287
137	0xbe06a3a8	-0.13148367
138	0xbf1ea936	-0.61976945
139	0x3e40d101	0.18829729
140	0x3e1086ed	0.1411397
141	0xbead4c99	-0.33847502
142	0xbef74b64	-0.48299706
143	0xbe143e8d	-0.14476986
144	0xbf4e3e71	-0.8056403
145	0x3e9cb613	0.30607662
146	0x3eaf10de	0.34192556
147	0xbf7d4433	-0.9893219
148	0x3e1356e6	0.14388618
149	0x3e65c74f	0.22439311
150	0x3e75d311	0.24006297
151	0xbf0386a6	-0.5137733
152	0xbdb0e75e	-0.0863788
153	0xbf2bb330	-0.67070293
154	0xbd580175	-0.052735765
155	0x3f063d06	0.52436864
156	0x3e9a8fde	0.30187887
157	0x3e440c8d	0.19145413
158	0x3ed7b9d4	0.42133963
159	0xbf48defc	-0.7846525
160	0x3e782553	0.24232988
161	0xbeee06b3	-0.46489486
162	0x3da728a6	0.0816205
163	0x3f35fc38	0.7108798
164	0x3e2d963e	0.16951844
165	0xbf59d20b	-0.85086125
166	0x3f0bd3e1	0.54620177
167	0xbf21333a	-0.6296879
168	0x3d54d476	0.05196043
169	0xbe5b00b6	-0.2138699
170	0xbe5741d7	-0.2102121
171	0x3f0a1ae4	0.5394728
172	0x3f2d7090	0.6774988
173	0x3e2f6de2	0.1713176
174	0x3e7eb15d	0.24872346
175	0x3c0d0f0b	0.008609544
176	0xbd642aa8	-0.055704743
177	0x3f5fa9e5	0.87368613
178	0x3e849a3c	0.2589892
179	0xbf1e5f5b	-0.6186425
180	0x3f3b1f8b	0.73095006
181	0x3e6b762e	0.229943
182	0xbd947549	-0.07248933
183	0xbf05a2de	-0.5220164
184	0xbdf22f41	-0.11825419
185	0x3d03bea5	0.032164235
186	0xbf0204e0	-0.5078869
187	0xbeb8f29a	-0.3612259
188	0xbeab2945	-0.33429924
189	0xbe86c1ed	-0.2631983
190	0x3e1a8cc6	0.15092763
191	0xbf1443bc	-0.57915854
192	0x3f0ffbb7	0.5624346
193	0x3ebfe860	0.37481976
194	0xbd272a0b	-0.04081158
195	0x3d37250c	0.044713065
196	0x3e3bce9b	0.18340532
197	0x3e3578c3	0.17721848
198	0xbef137a1	-0.47112754
199	0x3e8da586	0.27665347
200	0xbec68306	-0.38771838
201	0xbf35949f	-0.709299
202	0x3e845224	0.25843918
203	0x3e6bac4a	0.23014942
204	0x3dfc8502	0.12330057
205	0x3e8b14d7	0.27164337
206	0x3e7e94d4	0.24861461
207	0xbe0d51cf	-0.13800739
208	0xbe88285c	-0.26593292
209	0xbc05c69c	-0.008165028
210	0x3e9b20f3	0.30298576
211	0x3e1a8904	0.1509133
212	0x3dbe694f	0.0929743
213	0x3e8cb793	0.27483806
214	0xbeb22e18	-0.34800792
215	0xbe86d1de	-0.2633199
216	0x3f026056	0.50928247
217	0xbe48712f	-0.19574426
218	0x3e402117	0.18762623
219	0x3eb2622f	0.34840533
220	0x3da1aa82	0.0789385
221	0x3e99b0c8	0.30017686
222	0xbc4554dd	-0.012044159
223	0x3f16438b	0.5869681
224	0xbf06c3d1	-0.5264254
225	0xbe195d91	-0.14977099
226	0xbeac4ce4	-0.33652413
227	0xbeab6cb4	-0.3348137
228	0xbd0dbe19	-0.03460512
229	0xbe15c72d	-0.14626761
230	0x3dd0b863	0.10191419
231	0x3f089084	0.53345513
232	0x3deeb6a6	0.11655931
233	0x3f6c166e	0.92221725
234	0x3efc8261	0.4931822
235	0x3d9d86cd	0.07691727
236	0x3d73a7ae	0.059486084
237	0xbd169f94	-0.03677328
238	0x3ddb69d4	0.107135445
239	0x3e6093eb	0.21931426
240	0xbeb0cb8c	-0.34530294
241	0xbcbb21fa	-0.02284335
242	0x3eadc3d0	0.33938456
243	0x3e0fdaca	0.14048305
244	0xbf5976c8	-0.8494687
245	0x3d967ec3	0.07348397
246	0xbe3185e4	-0.17336231
247	0x3e102c1c	0.14079326
248	0x3f12038e	0.57036674
249	0xbdc5bb83	-0.09654906
250	0xbd85dd26	-0.06536321
251	0x3f049c4b	0.51800984
252	0x3d05abd1	0.03263456
253	0xbe1b1e41	-0.1514826
254	0xbd8679a5	-0.065661706
255	0x3f2a750d	0.66584855

network_body.linear_encoder.seq_layers.2.bias f4 [256]
0	0xbdd6cddc	-0.10488483
1	0xbda2223c	-0.07916686
2	0xbd7c60ef	-0.06161588
3	0x3e288abd	0.16459174
4	0x3dd82d01	0.10555459
5	0x3da49b44	0.08037427
6	0x3e031916	0.12802538
7	0x3df97597	0.121806316
8	0xbd7edfc9	-0.062225137
9	0x3d0cc7ab	0.034370106
10	0xbd6db01b	-0.058029275
11	0x3df5f09b	0.120087825
12	0x3d8ae4b5	0.06781904
13	0xbd9004dd	-0.070321776
14	0xbd6ee1a7	-0.058320668
15	0x3dca1043	0.09866383
16	0x3e14ad7a	0.14519301
17	0x3db4eac8	0.088338435
18	0x3dca4d6a	0.09878047
19	0xbd85c003	-0.06530764
20	0x3df2f447	0.118629985
21	0xbd8531ef	-0.06503665
22	0xbdd40cce	-0.10354005
23	0xbd4cce68	-0.05000153
24	0xbd92ab93	-0.071616314
25	0x3d21d039	0.039505217
26	0xbd5d36f9	-0.054007504
27	0x3e049016	0.1294559
28	0xbdad0d3d	-0.084497906
29	0x3e04eece	0.12981722
30	0x3d9d40f3	0.07678404
31	0x3d8f9050	0.07009947
32	0xbccb35c3	-0.024805909
33	0x3dcad215	0.09903351
34	0x3dd7b883	0.1053324
35	0x3e116c5a	0.14201489
36	0x3e072d98	0.13200986
37	0x3dedd197	0.11612242
38	0x3dfa6487	0.12226205
39	0xbd6fd1e3	-0.058549773
40	0x3dfc13c2	0.12308456
41	0xbda0a7c5	-0.078444995
42	0xbc3c22c7	-0.011482901
43	0x3e3664f1	0.17811944
44	0x3e238091	0.15967013
45	0x3d819130	0.063265204
46	0xbd85e884	-0.065384895
47	0x3ddf968b	0.10917386
48	0xbd532545	-0.051549215
49	0xbd7fd95d	-0.062463153
50	0xbd5d48f2	-0.054024644
51	0x3e133362	0.1437507
52	0x3e10dd56	0.14146933
53	0x3e2caa1f	0.16861771
54	0x3e0e16c9	0.1387588
55	0xbda18d16	-0.07888238
56	0x3e076ba5	0.13224657
57	0x3df2acd8	0.118493736
58	0x3e099dc3	0.13439088
59	0xbd6641da	-0.056215145
60	0xbdcf2102	-0.101137176
61	0x3db0a041	0.08624316
62	0x3dcb52b2	0.09927882
63	0x3daecb1b	0.08534833
64	0xbc6fab0e	-0.014628185
65	0x3db0381d	0.08604453
66	0x3e097ecd	0.13427277
67	0x3c580cf3	0.013186681
68	0x3dc087bc	0.09400889
69	0x3de36900	0.111040115
70	0xbda4e20d	-0.08050928
71	0x3c499852	0.012304382
72	0x3dd7ffcf	0.105468385
73	0xbd83c386	-0.064337775
74	0x3d9fa773	0.0779561
75	0x3e1202fd	0.14258952
76	0x3dc766dd	0.097364165
77	0x3e0d2ad5	0.1378587
78	0x3dc513ec	0.096229404
79	0x3db926d4	0.09040609
80	0x3e1bf874	0.15231496
81	0x3cfe7a2f	0.031064121
82	0x3e008649	0.12551226
83	0x3dc7e398	0.09760207
84	0xbb81c5a1	-0.003960327
85	0xbd9e65c0	-0.07734251
86	0xbda88678	-0.08228773
87	0x3dff8ce2	0.12478043
88	0xbcfb2911	-0.03065923
89	0x3d82724a	0.06369455
90	0x3e10a23a	0.14124385
91	0x3de029f4	0.10945502
92	0xbcdf4f53	-0.027259504
93	0x3dcf0832	0.10108985
94	0x3c9da4b2	0.019243572
95	0xbd98fe93	-0.07470431
96	0x3e22f4de	0.15913722
97	0x3e122536	0.14272007
98	0xbd97127f	-0.07376575
99	0xbd9acda4	-0.07558754
100	0x3cd72e46	0.026267182
101	0x3de579d8	0.112048805
102	0x3df14a56	0.117817566
103	0x3d668732	0.056281276
104	0xbda0c224	-0.078495294
105	0xbd79a8a6	-0.06095185
106	0x3da3adcf	0.07992136
107	0xbd8cdedb	-0.06878444
108	0x3dd22f3f	0.10262918
109	0xbdb026b1	-0.0860113
110	0x3c508034	0.0127258785
111	0x3dce6693	0.10078158
112	0x3dbc4709	0.091932364
113	0x3ddb6db9	0.10714287
114	0xbdaba4a9	-0.08381016
115	0xbd4cf7f3	-0.05004115
116	0x3e057951	0.1303456
117	0x3e254cf8	0.16142642
118	0xbc55dd3d	-0.013053236
119	0xbd4f8202	-0.050661094
120	0xbdd1b612	-0.10239805
121	0x3dcff2be	0.10153721
122	0x3de94e10	0.11391842
123	0x3da33e5b	0.07970878
124	0xbd898461	-0.067147024
125	0x3dd79546	0.105265185
126	0xbd68543c	-0.056720957
127	0x3dbf42c0	0.093389034
128	0x3df512b8	0.11966461
129	0x3dc575cd	0.09641609
130	0x3dce2928	0.10066444
131	0x3de3bca1	0.111199625
132	0x3dfab466	0.122414395
133	0xbd82d1bc	-0.0638766
134	0xbce1b04c	-0.027549885
135	0xbd570d08	-0.052502662
136	0x3e0e5fc4	0.13903719
137	0x3dc85f58	0.097838104
138	0x3da75dae	0.08172165
139	0x3e09e4b5	0.13466151
140	0x3d9c200d	0.07623301
141	0xbd1f6788	-0.038917094
142	0xbde2463a	-0.11048551
143	0x3da06b50	0.07832968
144	0xbde752de	-0.112951025
145	0x3e0905d6	0.13381132
146	0x3df6c5a5	0.120494165
147	0xbc9dc756	-0.01926009
148	0xbda576a8	-0.080792725
149	0x3d95648c	0.072945684
150	0xbd6de93e	-0.058083765
151	0xbd84da8a	-0.064869955
152	0x3dc4829e	0.09595226
153	0xbc7b52c0	-0.015339553
154	0x3de9e076	0.11419766
155	0xbb7bd06d	-0.0038423792
156	0x3e0742e9	0.13209118
157	0xbda4d9fc	-0.0804939
158	0xbb91db8f	-0.0044512223
159	0xbd8d75c6	-0.06907229
160	0xbde275fb	-0.11057659
161	0x3da7f71f	0.082014315
162	0xbe108745	-0.14114101
163	0x3e03f356	0.12885794
164	0x3df3b632	0.118999854
165	0x3de930ce	0.11386262
166	0x3dfcae88	0.12337977
167	0x3e0c6028	0.13708556
168	0x3bc02b4a	0.0058645355
169	0xbd832d2b	-0.064050995
170	0xbdb03dff	-0.08605575
171	0x3dbfbf2a	0.093626335
172	0xbdaadd0a	-0.08342941
173	0xbdbc67cf	-0.091994874
174	0x3d9fa632	0.07795371
175	0x3de4caa8	0.11171466
176	0x3d542716	0.051795088
177	0x3de3419e	0.110965
178	0xbb08b8ab	-0.0020862024
179	0x3dfec066	0.12439041
180	0x3d35b128	0.044358402
181	0x3de0396b	0.109484516
182	0x3ded7340	0.11594248
183	0xbda15af8	-0.07878679
184	0x3d9ad044	0.07559255
185	0xbd8e6d90	-0.06954491
186	0xbdda5cdf	-0.10662245
187	0x3df9b1d9	0.12192125
188	0xbcc80491	-0.02441624
189	0x3dbf96d4	0.0935494
190	0x3db1a4a5	0.086739816
191	0x3e21ea00	0.1581192
192	0x3cf63d39	0.03005849
193	0xbdb061cd	-0.08612404
194	0xbd04cd0d	-0.032422114
195	0x3dfb00b1	0.12255991
196	0xbd25e20e	-0.040498786
197	0x3d7de949	0.061990056
198	0xbd921f43	-0.07134869
199	0x3db40fad	0.087920524
200	0x3ddc0c82	0.10744573
201	0x3d391bd0	0.04519254
202	0xbd84f49d	-0.06491969
203	0xbcd4b595	-0.025965491
204	0x3e33e15e	0.1756644
205	0xbd3121e5	-0.043245215
206	0xbdb9da51	-0.09074844
207	0x3cb1d3e4	0.021707483
208	0xbdb95394	-0.090491444
209	0xbd8e7823	-0.06956508
210	0x3dae073f	0.08497476
211	0x3e26c7ec	0.16287202
212	0x3e2a2a83	0.1661778
213	0xbdf64b74	-0.1202611
214	0x3e126294	0.14295417
215	0xbd856544	-0.065134555
216	0x3e19af22	0.15008214
217	0x3d4e8b5f	0.050425883
218	0x3e04da35	0.12973864
219	0x3d1fbe47	0.038999822
220	0x3d5a9a1b	0.053369623
221	0xbd4fc954	-0.05072911
222	0x3dec1972	0.11528291
223	0xbd821613	-0.063518666
224	0x3dc4119f	0.095736735
225	0xbdc7fbe8	-0.09764844
226	0x3e07f4b9	0.13276948
227	0xbcf741c3	-0.030182725
228	0x3dfd3df2	0.12365331
229	0x3e042386	0.12904176
230	0x3ce65aa2	0.028119389
231	0xbd8d0d1e	-0.068872675
232	0x3dedf35e	0.11618684
233	0x3e0e5a7c	0.13901705
234	0xbd9062cf	-0.07050096
235	0x3dcb1da3	0.09917762
236	0x3cd3e96f	0.025868146
237	0xbdac2b91	-0.08406747
238	0x3de32dcd	0.1109272
239	0xbdd5c81d	-0.10438559
240	0x3dfe88e2	0.12428452
241	0xbdc5e3b1	-0.09662569
242	0xbdca223e	-0.098698124
243	0x3d44195f	0.04787576
244	0xbd22c89e	-0.039742105
245	0xbdd04c39	-0.10170788
246	0xbd34687f	-0.044044968
247	0x3d32d6c2	0.04366184
248	0x3db30990	0.08742058
249	0x3e128cfa	0.14311591
250	0x3dec8f91	0.115508206
251	0x3e40c0e1	0.18823577
252	0xbd81533c	-0.06314704
253	0x3e153434	0.14570695
254	0xbc96a85c	-0.018390827
255	0xbd8f7732	-0.070051566

network_body.linear_encoder.seq_layers.2.weight f4 [256, 256]
0	0xbd141445	-0.036152143
1	0x3c339e66	0.010963058
2	0x3dc25775	0.09489337
3	0x3c4f4d0b	0.012652646
4	0xbd81318b	-0.06308278
5	0xbdc784e4	-0.09742144
6	0xbcae0c8d	-0.021246219
7	0xbe055abd	-0.13022895
8	0x3bfc1b8d	0.007693714
9	0x3d913b13	0.07091346
10	0xbe00271e	-0.12514922
11	0xbdd63241	-0.10458804
12	0xbd82cd27	-0.06386786
13	0xbe3cccff	-0.18437575
14	0x3dacf5cb	0.08445319
15	0xbe76ed77	-0.24114023
16	0x3c05d561	0.008168549
17	0x3dc9e77b	0.098586045
18	0xbcfa8248	-0.030579701
19	0xbd592fff	-0.05302429
20	0xbe18adbf	-0.14910029
21	0x3c17a4b7	0.00925558
22	0x3ad26b8a	0.0016053778
23	0xbd51b964	-0.051202193
24	0xbdfe5fbc	-0.12420604
25	0xbdd0f4f6	-0.102029726
26	0xbdaf0b26	-0.08547048
27	0xbe157284	-0.14594465
28	0x3cfc8474	0.030824877
29	0x3d601379	0.05470607
30	0xbdc30700	-0.095228195
31	0xbdbf134d	-0.09329853
32	0xbcdf07cf	-0.027225403
33	0xbe06878b	-0.13137643
34	0xbbe5724a	-0.0070021497
35	0x3deb8e23	0.1150172
36	0x3c525131	0.01283674
37	0xbe40717e	-0.18793294
38	0xbd6a61fe	-0.05722236
39	0x3ca63072	0.020286772
40	0xbe068c92	-0.13139561
41	0xbd68080b	-0.056648295
42	0xbd446870	-0.04795116
43	0xbd9c781f	-0.07640099
44	0xbd4e032e	-0.050296
45	0x3d55795f	0.0521177
46	0xbdf7a330	-0.120916724
47	0xbe3d117f	-0.18463705
48	0xbe1a08c9	-0.15042414
49	0xbb88a459	-0.0041699824
50	0xbde3dc8d	-0.11126051
51	0x3d8e7546	0.06955962
52	0x3ddb04c8	0.10694271
53	0xbcdcc98b	-0.026951572
54	0xbde923a4	-0.11383751
55	0xbdb37f0b	-0.08764466
56	0xbceb5bdd	-0.028730327
57	0xbd2b60d7	-0.0418404
58	0xbdb73934	-0.089464575
59	0xbd1a6321	-0.037692193
60	0xbca082f5	-0.019593695
61	0xbe56bd6a	-0.20970693
62	0xbdfcc3f8	-0.123420656
63	0xbdd4f4d5	-0.103982605
64	0xbe6b81ce	-0.22998735
65	0xbe0418c9	-0.1290008
66	0xbc1f5b45	-0.00972635
67	0xbd25ae44	-0.040449396
68	0x3c823b37	0.015897376
69	0xbdf64dda	-0.12026568
70	0xbddd9682	-0.10819723
71	0xbd6806e6	-0.056647204
72	0xbe111c18	-0.14170873
73	0xbcb44995	-0.022007743
74	0x3d8df24d	0.06930981
75	0xbddc6113	-0.10760703
76	0xbde987c1	-0.11402846
77	0x3d4aa660	0.049475074
78	0xbd550395	-0.05200537
79	0x3d32f9ba	0.04369519
80	0xbe2a7fa7	-0.16650258
81	0xbd095bd0	-0.033534825
82	0xbcb2bc0a	-0.02181818
83	0x3d9133fa	0.07089992
84	0xbe126257	-0.14295326
85	0xbbdc2957	-0.0067187953
86	0xbdcf77b5	-0.10130254
87	0xbde81d2d	-0.1133369
88	0xbe1b9b24	-0.151959
89	0xbd10ffd8	-0.03540024
90	0xbd082ae7	-0.03324404
91	0xbdb0c49c	-0.0863125
92	0xbcf246e9	-0.029574828
93	0xbd271092	-0.040787287
94	0xbd970a28	-0.07374984
95	0xbe17403d	-0.14770599
96	0x3df3652e	0.11884533
97	0xbc447b95	-0.011992355
98	0x3c92c1a5	0.017914603
99	0xbe6ccd91	-0.23125292
100	0xbde097d3	-0.10966458
101	0xbb68758d	-0.0035470456
102	0xbe09e501	-0.13466264
103	0xbd923a6e	-0.07140051
104	0xbdb6f8a5	-0.08934144
105	0x3da5026a	0.08057101
106	0xbe1a57ee	-0.15072605
107	0xbdeb49e8	-0.11488706
108	0x3e0e7c3e	0.13914582
109	0x3c76199d	0.015020755
110	0x3e43f676	0.19136986
111	0x3d05c361	0.03265703
112	0xbe58e135	-0.2117966
113	0x3dc6efe1	0.09713722
114	0x3c4bc2f4	0.012436617
115	0xbda53f15	-0.080686726
116	0x3dd3aa7c	0.10335252
117	0xbbd53678	-0.0065067373
118	0x3b425850	0.002965469
119	0xbe431446	-0.19050702
120	0xbda90ef0	-0.08254802
121	0x3cfa2a8b	0.030537864
122	0xbdb735c9	-0.089458056
123	0x3d9fa55f	0.07795214
124	0xbe4783d4	-0.19483882
125	0xb886b533	-6.423369e-05
126	0x3d0c88f1	0.034310285
127	0x3dadc37c	0.08484551
128	0x3acfbfb3	0.0015849977
129	0xbc8de3ea	-0.017320592
130	0xbdfabd4e	-0.12243138
131	0x3db418e0	0.08793807
132	0xbd90e6c4	-0.07075265
133	0xbdeec8e2	-0.11659409
134	0xbd69f720	-0.057120442
135	0x3c8dfa5b	0.017331293
136	0x3d5fd046	0.054641984
137	0xbd42cbbd	-0.04755758
138	0xbdb8d252	-0.090244904
139	0xbda0a869	-0.07844622
140	0xbdc59e27	-0.09649306
141	0xbc37f345	-0.011227434
142	0x3db5f1f1	0.08884037
143	0xbe225e6b	-0.1585633
144	0xbd624f1f	-0.055251237
145	0xbd9c45e6	-0.076305196
146	0xbe138638	-0.14406669
147	0xbe1d020c	-0.15332812
148	0xbd2b14d9	-0.04176793
149	0x3dbe040e	0.09278117
150	0xbe0ea307	-0.13929377
151	0x3cf270b2	0.029594753
152	0xbe10b315	-0.14130814
153	0xbdfd236e	-0.12360273
154	0x3c1d5c2a	0.009604493
155	0xbe15550d	-0.14583226
156	0xbcd44ec0	-0.025916457
157	0xbd4d7cef	-0.050167974
158	0x3c92f2d1	0.01793805
159	0xbd55a230	-0.052156627
160	0xbde63ca3	-0.11242034
161	0x3d46e0aa	0.0485541
162	0xbd082c65	-0.033245463
163	0xbc737bdb	-0.014861072
164	0xbd777e49	-0.06042317
165	0xbd026d29	-0.031842384
166	0xbc8ad4fe	-0.016947266
167	0xbd813db9	-0.06310601
168	0x3d29d553	0.041463207
169	0x3dce4ecb	0.10073622
170	0xbe03440d	-0.12818928
171	0xbd6193ec	-0.05507271
172	0xbc3feba9	-0.011713901
173	0xbd801025	-0.06253079
174	0xbe56b31e	-0.20966765
175	0x3ce2e582	0.027697328
176	0x3c6c2070	0.014412031
177	0xbc4346fa	-0.011918778
178	0x3cc6b5e6	0.024256658
179	0x3d601d2b	0.054715317
180	0x3a24bbe7	0.0006284103
181	0xbd37cc25	-0.04487242
182	0x3c90e36e	0.017686572
183	0x3dbc0143	0.09179928
184	0xbdffefc0	-0.124969006
185	0x3db8c8d3	0.09022679
186	0xbd273798	-0.040824503
187	0xbdd8a4a5	-0.105782785
188	0xbdb453e2	-0.08805062
189	0x3bd134ff	0.0063844915
190	0x3c21a65b	0.009866322
191	0xbdb02151	-0.086001046
192	0x3ccc336a	0.02492686
193	0xbdd05202	-0.10171892
194	0x3d9007bf	0.070327275
195	0xbbeb2094	-0.0071755145
196	0xbd30ec9a	-0.04319439
197	0x3ce7d56f	0.028300015
198	0xbe1c1af3	-0.15244655
199	0xbcb32f3d	-0.02187311
200	0xbc0ed7a2	-0.008718403
201	0xbe03bfd6	-0.12866148
202	0x3d196f36	0.037459575
203	0xbd47ed41	-0.048810247
204	0x3decec46	0.11568503
205	0xbdd2d0fb	-0.10293766
206	0x3ccefb4b	0.02526631
207	0x3d78fbb4	0.060786918
208	0x3d00e788	0.031470805
209	0xbddd85bb	-0.10816523
210	0xbc7aabe8	-0.015299775
211	0xbcbeb377	-0.023278935
212	0x3a140701	0.00056467956
213	0x3bc5e4b0	0.0060392246
214	0x3d646ac9	0.0557659
215	0xbda82690	-0.0821048
216	0x3d17f1f9	0.037095997
217	0x3e0f09d0	0.13968587
218	0x3d2afad3	0.04174311
219	0x3d17478d	0.03693347
220	0x3c96710a	0.018364448
221	0xbe243455	-0.16035588
222	0xbde5aba1	-0.11214376
223	0xbd7c0809	-0.0615311
224	0x3cbaa1ee	0.022782292
225	0xbe2bb75d	-0.16769166
226	0xbd604b50	-0.054759324
227	0xbd8ad07a	-0.06778045
228	0x3c703b06	0.01466251
229	0xbe0efbe6	-0.13963279
230	0xbd3f072a	-0.04663769
231	0xbe3ac090	-0.1823752
232	0x3de03109	0.10946853
233	0x3b24ebb2	0.00251649
234	0xbce905de	-0.02844518
235	0x3aba706c	0.0014224178
236	0xbe3d9143	-0.18512444
237	0xbd2d39c6	-0.042291425
238	0x3ded93d4	0.116004616
239	0xbdd62c0d	-0.10457621
240	0x3d7ce29c	0.06173955
241	0x3e1dd4ff	0.15413283
242	0xbdddbdfe	-0.10827254
243	0x3cfa633e	0.0305649
244	0xbdb53368	-0.088476956
245	0x3d7d2a7f	0.061808106
246	0xbd96fa40	-0.0737195
247	0xbbaad998	-0.0052139275
248	0xba9540e9	-0.0011387143
249	0xbd60811a	-0.05481062
250	0x3d1e0a65	0.03858413
251	0x3d41685e	0.047218673
252	0x3e21f9f3	0.15818004
253	0xbe51e21f	-0.20496415
254	0x3d50e4b6	0.050999366
255	0x3d797710	0.060904562

network_body.vector_processors.0.normalizer.running_mean f4 [9]
0	0x401c3645	2.4408123
1	0x3ff9b6b3	1.950888
2	0x00000000	0.0
3	0x401d7508	2.460268
4	0x3ff9b619	1.9508697
5	0x00000000	0.0
6	0x3e4f50ec	0.20245713
7	0x00000000	0.0
8	0x3d0b84e8	0.034062296
