config/results/FighterUpdated4/My Behavior/My Behavior-15499935.onnx (onnx, 282099 bytes, 8 tensors)

58 f4 [9]
00000000: fc1a 3140 9dd7 493c 682b 8539 949c 3040
00000010: a4c0 4b3c 682b 8539 6dcc cd3e 682b 8539
00000020: 2d5c 3f3e
2.767272 0.012319473 0.00025400077 2.7595568 0.012436066 0.00025400077 0.40195027 0.00025400077
0.18687506

action_model._discrete_distribution.branches.0.bias f4 [6]
00000000: 43c0 223d 12c8 8d3c 8cfa e5bd 0acf ba3d
00000010: 32de edbd efd2 2abc
0.039734136 0.017307315 -0.11229429 0.09121521 -0.11614646 -0.010426267

action_model._discrete_distribution.branches.0.weight f4 [6, 256]
00000000: 9497 64bd a521 d0bc 782e ad3b ec26 193d
00000010: 2f29 b0bc 32c8 4d3d 0b3e b53c 67e2 173d
00000020: 4e4b 9bbb 6d4a 883d cbde 853d 3293 473d
00000030: cf11 4a3d ca35 e6bc 6037 bb3d bc32 833c
00000040: 6cee 5f3d d855 1f3d 27d1 a73c 4154 a7bb
00000050: c00a 5c3d 6be6 ff3b a289 2abd b466 043d
00000060: f425 cebc 0939 e3bc f40b 213d 9c7f 853d
00000070: d54f 05bd 0771 fb3c f551 1a3d 7b4a 4f3d
00000080: 6247 9d3d 0012 48bc daa8 76bb cc27 023d
00000090: ce5a 5a3d e913 873d cc02 713d 8396 8b3a
000000a0: 20f7 aa3c f5fc 59bd fdd1 10bd 2969 fe3c
000000b0: 1880 083d cc78 403d d326 a83d f1e5 293d
000000c0: 6ce2 b93d c450 25bd 020d 55bc 78e2 8c3c
000000d0: 41ff 7e3b 5748 4c3c 0c89 213d 9fe5 123d
000000e0: c694 df3c 465c 893c 90b2 4bbc 5edc 02bc
000000f0: e672 44bc eb25 203d 9a0d 073c 7a71 22bc
00000100: 3681 2c3d c23c 2b3d 4459 023d 2354 37bd
00000110: c119 083d 1162 033d 6ab9 38bd 9818 e43c
00000120: 9bdd b73c 1e0a 6cbd 16cb 95bc 5642 313d
00000130: c74f 163d 56ca 343d 1d6f 37bc c9f6 2d3d
00000140: f7c7 4a3d 3526 a13c a5eb 0a3d 484c 08bc
00000150: c3e1 643d 67bd 39bd 48c8 64bc 0956 eebb
00000160: 74ed c53b 7508 9d3c 4ba6 8fbc b957 a3bb
00000170: 11c5 b53d 3c86 773d 5fc2 703d 5eaf 8cbd
00000180: d662 33bb cdf3 04bd 9e64 76bc b003 6dbd
00000190: dc2a 3d3d 0eb9 cbbc cb8f 413d 27b5 a5bc
000001a0: 39e3 8abc bf0b cdbc 53fb 553d c873 8dbb
000001b0: 8054 5b3d e1cd 41bd 147f 363c 733a 5e3d
000001c0: 6867 7abc c79e 783c 197c b0bc d90e bbbc
000001d0: 9d03 f03b 5bdf 10bc fcd0 493c ccc7 463d
000001e0: 7d85 22bd 8c41 fd3c 9f25 89ba 03dc d73b
000001f0: bd4c 323b 2f10 283d 036f 423b d5a4 473d
00000200: 773e c63a 8aa4 da3c 056d c0bc 5ce4 fc3c
00000210: 7a08 2a3d 810c e33c 8bf5 c9bc 6d6a 8abc
00000220: 2fed 223d 4ce4 893c c4d4 763d 032d 71bc
00000230: 93fe 473d 9a78 cf3c 50f3 c0bc 3af7 fdbc
00000240: cad7 dabb f49c ef3a 774f 713c 2de8 1ebc
00000250: 7b51 42bd aceb 18bd ccf9 adbc ecb2 863d
00000260: e019 1d3d 3bf6 813d 7f15 703d ba71 873d
00000270: f4e3 423c b7fc 00bd 6c86 f93c e06d 363d
00000280: 2c4e 13bd ae0e f93c 848d 76bd 641c a23c
00000290: ca26 90bc 6f62 eb3c 9440 493d 6e3a 413d
000002a0: 653e 9a3c b753 113d d780 00bd 99fd 7a3d
000002b0: 9089 0abd 3579 d2bc 4a8c b8bc 0214 30bc
000002c0: fa75 383d 8992 473d c34b 3d3d 952b 263d
000002d0: 6f65 8bbd 41c6 3e3d 0313 4e3d 9973 e6bc
000002e0: 0968 a7bc ecde 06bd 547b 6bbd 276e 483d
000002f0: f239 b8bc 636d 773c 3da8 333d e115 243d
00000300: 28fc f73c b529 81bd 1907 7e3b dec6 eaba
00000310: 4add 463a a0c8 673d 0d1c 8ebc a771 5b3d
00000320: 4fe0 1a3c 8d59 d63c d12e b539 7712 043d
00000330: 0303 97bc 8c67 7a3d 8a9f 4abd cc4a 2d3d
00000340: cd96 78bd ac85 8e3c 7602 593a e440 5b3d
00000350: 695a 163d 5c9a 2ebd ffb4 1f3d ff6a 1fbd
00000360: 0aba 913a 7684 db3c 9467 113d 1414 1ebd
00000370: d4b1 193d 5d8e cf3c 4d18 5a3c ebbc 463c
00000380: 9fe0 c9bb ba00 00bd b22d 41bc 713c 2a3d
00000390: 5b37 4c3d ed60 26bc 45f0 62bc 5fcf 17bc
000003a0: b331 7f3b f7a7 403d 342b edbc 3b6a 293d
000003b0: 6b48 c7bc 6253 67bd 2518 6e3d f828 79bd
000003c0: fd99 393d d56d 11bd d25c e1bc e5d7 30bd
000003d0: a7be 143d 28f6 6abd fc6d 993d 6797 2cbd
000003e0: e3de 0dbc 9f1e 173d c0df 293d 6b16 653c
000003f0: 799e 8a3d 24b3 f23c af8c febc 7448 f43c
-0.05580862 -0.025406668 0.0052850805 0.037390634 -0.021504013 0.05023975 0.022124311 0.03708115
-0.0047392016 0.066548206 0.06536635 0.04872436 0.04933339 -0.02810182 0.09141421 0.016015403
0.054670736 0.038900226 0.020485474 -0.0051064794 0.05372119 0.0078094504 -0.041635163 0.032324508
-0.025164582 -0.027737157 0.03931804 0.0651848 -0.032546837 0.030693544 0.037675817 0.05060814
0.07679631 -0.012211323 -0.0037637264 0.031776235 0.053309254 0.065955944 0.058840558 0.0010649714
0.020869792 -0.053219754 -0.03535651 0.031056004 0.033325285 0.0469902 0.0821053 0.041479055
0.0907639 -0.040360227 -0.01300359 0.017197832 0.0038909467 0.012468419 0.03943734 0.035863515
0.02729262 0.016767632 -0.012432709 -0.00798711 -0.011990285 0.03909866 0.008242989 -0.00991475
0.042115413 0.04180599 0.03182341 -0.044757973 0.033227686 0.032075945 -0.0450987 0.027843758
0.022444537 -0.057626836 -0.018285315 0.043276154 0.036697175 0.044138275 -0.011195925 0.04247168
0.049507108 0.019671539 0.033916134 -0.008318968 0.055879366 -0.045346644 -0.013963766 -0.00727344
0.0060402695 0.019169072 -0.01753535 -0.0049848226 0.08875478 0.06043075 0.058779117 -0.06869386
-0.0027372143 -0.03245907 -0.015038637 -0.057864845 0.046183452 -0.024868514 0.047256272 -0.020227982
-0.016954051 -0.025030015 0.052241635 -0.0043167807 0.053547382 -0.047315482 0.011138696 0.05425496
-0.015283443 0.015174574 -0.02154355 -0.022834228 0.0073246495 -0.008842315 0.012317892 0.048530385
-0.039678086 0.030915044 -0.0010463482 0.0065875067 0.0027206384 0.04103106 0.002966822 0.04874118
0.0015124817 0.026689786 -0.023489485 0.030870609 0.04151199 0.027715923 -0.024653217 -0.01689645
0.039776977 0.016832493 0.060261503 -0.014720204 0.048826765 0.025326062 -0.02355352 -0.031001676
-0.006678556 0.0018281029 0.014728419 -0.00969891 -0.047440987 -0.03733413 -0.021237276 0.065770954
0.038354754 0.06345793 0.05861425 0.066134885 0.011895169 -0.031491008 0.030459605 0.04453838
-0.035963222 0.030402508 -0.060193554 0.019788928 -0.017596621 0.02873346 0.049133852 0.047174864
0.01882858 0.035480227 -0.03137287 0.061277006 -0.033822596 -0.025692562 -0.022527833 -0.010746958
0.045034386 0.04872373 0.04621483 0.040568907 -0.06806456 0.04657579 0.0503111 -0.028131293
-0.02043535 -0.03292744 -0.05749066 0.048933174 -0.022488568 0.015101763 0.043861616 0.040059928
0.030271605 -0.06306783 0.0038761555 -0.001791205 0.0007586075 0.056587815 -0.01734736 0.053575184
0.009452893 0.026165748 0.0003455789 0.032244172 -0.018434053 0.061133906 -0.049468555 0.04230766
-0.06069069 0.017397724 0.000827826 0.05352868 0.036707316 -0.042627677 0.03899097 -0.0389204
0.0011118066 0.02679656 0.03549917 -0.038593367 0.037523106 0.025336439 0.013311458 0.0121300025
-0.00616081 -0.031250693 -0.01179068 0.041561548 0.04985748 -0.010154945 -0.01385123 -0.00926575
0.0038939535 0.047035184 -0.028951265 0.041361075 -0.024326524 -0.056476004 0.058128495 -0.060830086
0.04531287 -0.035505135 -0.02751008 -0.043174643 0.036314633 -0.05736366 0.07491681 -0.042136576
-0.008659097 0.036894437 0.04147315 0.013982396 0.067685075 0.029626437 -0.031072943 0.029819705

network_body.linear_encoder.seq_layers.0.bias f4 [256]
00000000: 2a1e 7d3d 690e aabd 003d 4ebd 4244 413d
00000010: 32a9 593d ccc2 823d 5caa 013e 79b6 203d
00000020: 314c 393d d8f0 f43c 0d0c 9b3d 9187 143d
00000030: a920 983d 47ab 1f3c 13dd 8abc e8ac d13d
00000040: 681d 153d 22d7 013e d466 293d b2f2 093e
00000050: 79c3 da3d e835 93bd a812 3b3d 31ef 4c3c
00000060: 72b5 f93d cf5c 9d3d 863a 9e3d 27db 3fbd
00000070: 8eb3 0a3e 6c5b a53d f9cc 1a3e 637c bc3d
00000080: 5928 d63d 222c 003e 7648 7f3c 448b 883d
00000090: 19eb 5a3d 48f3 9b3d 381a 1b3e 50a6 9e3d
000000a0: 99f9 ce3d 4104 a0bb 9038 023d e410 2b3d
000000b0: c9f7 5ebd 322c f63a 9a14 8fbc 057b ec3d
000000c0: 9407 063e a60a 3a3d 3fb1 103e c0be db3d
000000d0: 8a14 dc3d f443 42bd c436 3bbd 4c76 0c3e
000000e0: 71ab 4f3d e8da 85bb 0924 c13d a0f1 5abd
000000f0: 00b2 9d3d df01 e43d 5f8e 0b3e bed6 853d
00000100: a5aa f93d e176 c13d 0de4 6f3d 593e d93d
00000110: 530e fc3d 1ef6 f53d 1935 cc3d b55d 993d
00000120: 63ed 123e 7276 f93d 9049 69bd 297f d63d
00000130: 73f3 bf3d d417 303d 9dca cb3d c6f9 ae3c
00000140: a11f 923d 61b5 e43d 7c18 603d bc31 083e
00000150: 4a4e 003e 5c6b 36bd 51cf 2ebd 3156 033e
00000160: 0b9d d7bb f570 f33c d0f3 b53d de8d f13d
00000170: 9dbb 893d 4124 473d 609d 003e 46f2 863d
00000180: 2f8a 343d 51b7 963d 6369 71bd b51b ca3d
00000190: 6733 cc3d 41eb fb3d e452 6f3d dd24 453d
000001a0: f910 763d 718d 93bd 27cc ab3d 751f 163d
000001b0: bffd d93c efb4 2e3d fc00 76bd e20c 743d
000001c0: 09b3 b13d d89e 08bc 7621 493d fdeb d73c
000001d0: 7c02 a8bc a62c ebbc 8727 14bc bb3b 0f3e
000001e0: 7828 943c 3141 d03d 4101 a93d 4555 a3bd
000001f0: 73ff af3d f29f ac3d 4f3f b43d df19 223e
00000200: ed3c 163e ba31 8e3d 7416 ce3d 27d7 d4bc
00000210: 9be1 543d 36f2 1c3d 0bac aa3d 7a15 733d
00000220: 876d 293e 1acb 73bc 8298 f03d e84e 813d
00000230: 0309 8a3c c72b 643d 5183 f43d a7c7 ef3d
00000240: b1f0 bf3d 64c1 d43a c7aa fc3d 8908 023e
00000250: 1034 903d a82b e43d bc9c 083d 0c27 88bd
00000260: 8a4f c83d 1224 8e3d 725f 683d bf6b 6b3d
00000270: e6b0 c93d 9511 6f3b 2b40 3e3d 6d2f a43d
00000280: b6ed 1e3d 81f3 c43d 169f d73c 28f5 1c3b
00000290: e49a bc3d 2054 b3bd 5ac7 65bd 1671 8539
000002a0: 07bf b13d fdda 6b3d 22dd a9bd 1241 7e3d
000002b0: 847a 933d d5ed 023e 79da dc3d c7de 9cbd
000002c0: 1929 15be 99bc c03d 0cac dcbc 537c b0bd
000002d0: 8abe 853d 9848 843d 1eae 863d 1b04 883c
000002e0: 337c db3b e5dd 42bd d7b0 4d3b ce39 1d3e
000002f0: 184b 123e 6069 f73d 9606 9f3d 7d16 063d
00000300: 362f 893d a1c6 b53d c864 f83d 62dd 1e3d
00000310: 6d7f 063e ccb7 973c 95d2 7b3d b45e d53d
00000320: 9dc6 aa3d c089 e43d 5f43 c3bc caec 303e
00000330: 7d67 d73c 926f 383e 86d8 483d cebc 4abc
00000340: 511f 843d 2cf9 e73d 5909 723c 9aba b03c
00000350: 22f4 27bd b1ce db3d 7d51 793d 9dab 803c
00000360: 204d 0d3e 8b04 bb3d 0c0a 623c 3dac e63d
00000370: 430b a8bc caa9 603d 11c9 0e3e 50c2 97bc
00000380: 6d5c 883d d148 183d c0d2 1f3e e797 003e
00000390: 79ad 043e c2fd c93b 81cb 093e b8c8 9b3d
000003a0: bfdf ff3d ee19 d53d f841 943d 6edf 74bc
000003b0: 5c3c 50bd b16b ae3d 9b96 e5bb cbfc a93d
000003c0: dac5 b73d deb6 96bd e0cf 483d 8c39 a73d
000003d0: 65b5 ce3d 2923 2fbd 91cc e83d cc79 9f3b
000003e0: 2a35 233c 0f1b c23d 3107 f9bb 57b7 0a3d
000003f0: c98c b0bd 0d2a a83d 319a 2b3e 1fd0 293e
0.061796345 -0.0830353 -0.050351143 0.047184236 0.053139873 0.06384811 0.12662643 0.03923652
0.045238677 0.0299 0.07570658 0.0362621 0.074281044 0.009745426 -0.01695112 0.102380574
0.036404997 0.12679723 0.04135783 0.13471487 0.10681815 -0.07188016 0.04567209 0.0125082
0.12192811 0.076837175 0.07726006 -0.04683986 0.13545057 0.08074078 0.15117253 0.092034124
0.104569145 0.12516835 0.015581241 0.06667188 0.053446863 0.076147616 0.1514672 0.07746565
0.10106201 -0.0048833196 0.031792223 0.041764155 -0.054435525 0.0018781482 -0.017465878 0.115469016
0.13088828 0.04542031 0.14130114 0.10729742 0.10746105 -0.047428086 -0.045706525 0.13717002
0.05070061 -0.0040849335 0.09430701 -0.053453088 0.076999664 0.111331694 0.13628529 0.065350994
0.12190751 0.094465025 0.058567096 0.10607595 0.1230742 0.12009834 0.09971065 0.07488576
0.14348368 0.12180795 -0.05695492 0.104734726 0.09372606 0.042991474 0.09950755 0.021359336
0.07134939 0.11167408 0.05471085 0.13300222 0.12529865 -0.04453598 -0.04267818 0.12825848
-0.0065800003 0.029716948 0.08884394 0.11794637 0.067252375 0.04861856 0.12560034 0.06589179
0.044077095 0.073591836 -0.058938395 0.09868566 0.09970742 0.123007305 0.05842866 0.04813086
0.06007478 -0.07204712 0.08388548 0.036651094 0.026610253 0.04265302 -0.060059533 0.0595826
0.08676726 -0.008338653 0.049104176 0.026357645 -0.020508997 -0.028707813 -0.009042627 0.13987629
0.018085703 0.10168684 0.08252192 -0.07975248 0.08593645 0.08428945 0.08801138 0.15830182
0.14671679 0.06943078 0.10062876 -0.025981499 0.051972967 0.038316928 0.08333596 0.059346654
0.16545688 -0.014879966 0.117478386 0.06313878 0.01685 0.05570581 0.11939109 0.117080025
0.0937208 0.0016231951 0.12337261 0.12698568 0.0704118 0.11141139 0.0333526 -0.066480726
0.09780796 0.069404736 0.05673165 0.0574758 0.09848194 0.0036478986 0.046447914 0.08016858
0.038800918 0.09616757 0.026320975 0.0023949835 0.092092305 -0.0875628 -0.05609832 0.00025451992
0.08679014 0.05758189 -0.08294131 0.062073775 0.072011024 0.12786038 0.10783858 -0.07659679
-0.14566459 0.09410972 -0.026937507 -0.08617463 0.06530483 0.06459159 0.06576179 0.01660352
0.0066981553 -0.047574896 0.0031385922 0.15354082 0.14286458 0.120806456 0.07764928 0.03273629
0.06698458 0.08875776 0.121285975 0.038785346 0.13134547 0.018520258 0.061480124 0.10418454
0.08338664 0.11159086 -0.023835836 0.17277828 0.026294464 0.1801131 0.049034618 -0.012374116
0.06451286 0.11326823 0.0147727365 0.021573354 -0.041004308 0.10732783 0.06086873 0.015706832
0.13798952 0.09131726 0.013796341 0.112633206 -0.020513183 0.054849423 0.13943888 -0.018525273
0.06658254 0.037178818 0.15607738 0.12557946 0.129568 0.0061642835 0.13456537 0.076066434
0.12493848 0.10405336 0.07239145 -0.014945848 -0.050838813 0.08516634 -0.007006479 0.083001696
0.08973284 -0.07359098 0.04902637 0.08165273 0.10093192 -0.04275814 0.11367143 0.0048668142
0.009961406 0.09477817 -0.0075997342 0.033866253 -0.08620603 0.082111456 0.16758038 0.16583298

network_body.linear_encoder.seq_layers.0.weight f4 [256, 9]
00000000: 810f 533b 1b5f e83d 8c18 05bf 0e03 bebe
00000010: 954a 8dbe cc24 1fbc ab36 d2be 530e 333d
00000020: 6396 133e 2d22 db3d b563 ae3e 8e05 33bf
00000030: d6bc 0abe 5c0b 68bf 9076 01bf 0773 683d
00000040: bb01 ecbe e807 9cbd 4042 aabe 829f 83be
00000050: 0c6f e43e 3209 ca3e c659 1e3d 1f78 81be
00000060: 3821 443d 5827 b53d 6b94 16bd 2bcd 21bf
00000070: efb2 dbbe 4207 9c3e 0903 14bf 8277 fa3c
00000080: 1031 10bf aec8 86bd 98f7 aebe e882 513f
00000090: 2fe2 c33d 93a9 3e3f 147c d9be 7c92 1cbc
000000a0: 6a58 a13e 0ce0 0cbe 95d7 373f 6f89 e5bc
000000b0: 602a 8f3e 1d71 2d3c b10d dabd 427c 5abe
000000c0: f6a3 52bd 544e 533d 93e0 323e 1912 bd3d
000000d0: 1ad4 583e e370 f7be 96ba 983d 29a1 df3e
000000e0: 8c69 c13e 65e4 da3b 6d76 333f 214f 11be
000000f0: aef0 12bf e43a 26be 0840 29be e757 00bf
00000100: be23 c03e 64b3 9c3e 34a9 fd3e 1de9 133f
00000110: e24c 9c3e f4bf 77bf 7e0e 9bbe b6d0 38be
00000120: 0aa0 de3e 9f93 c2bd 8e1b 4dbe 77f4 6b3e
00000130: 15aa 6d3e b5f8 893d 5722 19be 489b c53e
00000140: 5444 a53d 55a5 a6bd 9ff8 593e e781 25bf
00000150: 708a 2fbe 7277 693d 985a 393e b58d 143e
00000160: 183b a03e cf8f fd3e 0e5f 213f 5408 293d
00000170: 57f8 413d dbcf 95be 598e b13e 9e4b 12bd
00000180: 2607 333e 9e06 a63d bb6b 93be 284f bc3e
00000190: de46 183e d7e9 0e3e e88a cebe 8a9f a03e
000001a0: 4abe 05be eac3 953e 838b b0be 47ec c0be
000001b0: 5bd2 183e dd1f de3c 80e0 c9be 58cd 32bf
000001c0: 5352 c33e 3ee5 98be 482f a2be 5683 cc3e
000001d0: 5e9d 88be ee9a 9c3e a714 f73e fbc1 4b3e
000001e0: ee65 a5be 5b46 423e 77a8 fa3e bc9e 263e
000001f0: 48bf 50be 2705 94be 77d9 5abe 43cb 1c3e
00000200: b4d5 98be 9afc 783d 9d02 4cbe f0e2 e7be
00000210: bfa0 38be 7ee9 17be f2cd dabd 5aee 6c3f
00000220: 34dc b73e a8a3 06be 38cc 1dbf cc21 3e3e
00000230: ed86 103e 99af acbe 644b f7be 6593 13be
00000240: e559 4dbf 30b3 9c3e de10 af3e 46ee 7bbf
00000250: 23e4 123e 4fc7 653e d730 753e a686 03bf
00000260: acc3 afbd c43b 2dbf 6a34 65bd 063d 063f
00000270: 5350 9a3e ceb5 433e d4b9 d73e d480 48bf
00000280: 5325 783e ca59 edbe 1fdc a93d 1aa5 363f
00000290: 3e96 2d3e fd33 58bf 020a 0b3f 3a33 21bf
000002a0: d151 563d b600 5bbe 14b8 56be b254 0a3f
000002b0: 8e6d 2d3f e26d 2f3e ba1b 813e 0c89 1e3c
000002c0: a82a 64bd 9ce9 5e3f 3c9a 843e 919e 1dbf
000002d0: d081 3b3f c912 703e 4975 94bd 0581 04bf
000002e0: 4961 f2bd a5be 033d 94b5 01bf 9af2 b8be
000002f0: a2b4 aabe e2a6 86be 7dd1 143e bc43 14bf
00000300: 3f78 0d3f ed22 c13e 0b2a 27bd 667f 393d
00000310: 9bce 3b3e 5af2 343e bfce efbe 09d0 8d3e
00000320: 0683 c6be bc2c 34bf ca04 843e 4aac 6b3e
00000330: 851b fb3d d714 8b3e 7ed0 7e3e 1ae0 0dbe
00000340: c74b 8abe 9cc6 05bc df29 9a3e be8c 1c3e
00000350: 4f69 be3d c8d9 8c3e 182e b2be 5768 86be
00000360: a93e 023f 9e7d 47be 1721 403e 701b b23e
00000370: 024d 9d3d c8b0 993e a7bc 19bc 8b43 163f
00000380: 75fb 05bf 7029 14be ac95 a7be b46c abbe
00000390: 6c59 f8bc 6bd4 14be 63b8 d03d 87a1 073f
000003a0: a6b6 ee3d 9b82 6c3f db20 fd3e c6c0 a93d
000003b0: aea7 733d 2c4b 0fbd ee85 d83d eb93 603e
000003c0: 39a7 b0be fa21 bbbc 65dd ad3e f234 1a3e
000003d0: 4ae8 57bf c37e 963d 2430 30be e5bc 0f3e
000003e0: 8e03 123f ddc2 c5bd 26dd 85bd 7227 043f
000003f0: b51c 0a3d 275d 1ebe a579 86bd f04a 293f
0.0032205286 0.11346265 -0.5199058 -0.37111706 -0.27595964 -0.009713363 -0.41057333 0.043714833
0.14412837 0.10699878 0.34060445 -0.6993035 -0.13548598 -0.90642333 -0.50571537 0.056750324
-0.4609507 -0.076186955 -0.3325367 -0.25707632 0.44615972 0.3946014 0.038659833 -0.25286958
0.047883242 0.08845395 -0.036762636 -0.63203686 -0.42909953 0.30474287 -0.5781713 0.030574564
-0.56324863 -0.06581245 -0.34173274 0.8184037 0.095646255 0.744775 -0.42477477 -0.009556409
0.31512767 -0.13757342 0.7181333 -0.028019635 0.27962017 0.01058605 -0.10647143 -0.21336463
-0.051425897 0.05158837 0.17468481 0.092319675 0.2117466 -0.48328313 0.074574634 0.43677643
0.37775838 0.006680059 0.7010258 -0.14190342 -0.573985 -0.16233402 -0.16528332 -0.5013413
0.3752727 0.30605614 0.49543154 0.5777758 0.30527407 -0.9677727 -0.30284494 -0.18048367
0.43481475 -0.09500813 -0.20030043 0.23042475 0.23209412 0.0673689 -0.14954506 0.38595033
0.08069673 -0.08137003 0.21286248 -0.6465134 -0.17142653 0.056998678 0.18100965 0.14507182
0.31295085 0.4952378 0.63035667 0.041267708 0.047355976 -0.29260144 0.34678915 -0.035716645
0.17483196 0.08106731 -0.2879313 0.3677914 0.14870784 0.1395639 -0.40340352 0.3137172
-0.13060871 0.29251033 -0.3448144 -0.37680265 0.14923994 0.027114803 -0.39429092 -0.6984458
0.38148746 -0.29862398 -0.31676698 0.3994395 -0.26682562 0.30586952 0.48257944 0.19898216
-0.3230433 0.18972151 0.48956653 0.1627149 -0.20385468 -0.2891018 -0.21372019 0.15311913
-0.29850543 0.060787775 -0.19922872 -0.45290327 -0.1803007 -0.14835164 -0.10683812 0.92551196
0.3591019 -0.13148367 -0.6163974 0.1856758 0.1411397 -0.3372772 -0.48299706 -0.14411695
-0.80215293 0.3060546 0.34192556 -0.9841045 0.1434484 0.22439311 0.23944412 -0.5137733
-0.08582243 -0.6766932 -0.05595819 0.52436864 0.30139408 0.19112322 0.42133963 -0.78321576
0.24232988 -0.46357566 0.08293938 0.71345675 0.16951844 -0.8445433 0.54312146 -0.6296879
0.05232412 -0.2138699 -0.20968658 0.54035485 0.6774529 0.1713176 0.25216466 0.009676229
-0.055704743 0.8707521 0.2589892 -0.6157008 0.73244953 0.23444666 -0.07248933 -0.5175937
-0.11834962 0.032164235 -0.5066769 -0.3612259 -0.33340937 -0.26299196 0.14533038 -0.57915854
0.55261606 0.3772196 -0.04081158 0.045287512 0.18340532 0.17670575 -0.46837422 0.2769778
-0.38771838 -0.7038076 0.25784904 0.23014942 0.12261108 0.27164337 0.24884221 -0.13855019
-0.2701094 -0.008165028 0.3011007 0.15288064 0.0929743 0.27509904 -0.34800792 -0.2625148
0.5087686 -0.19481513 0.18762623 0.34786558 0.07680704 0.30017686 -0.009383357 0.5869681
-0.5233682 -0.14468932 -0.32731378 -0.3348137 -0.030316077 -0.14534156 0.10191419 0.52980846
0.11655931 0.9238679 0.4943913 0.08288722 0.059486084 -0.0349838 0.1057242 0.21931426
-0.3450258 -0.02284335 0.33957973 0.1505926 -0.8433882 0.07348397 -0.17205864 0.14036901
0.57036674 -0.09656308 -0.06536321 0.5162269 0.033718783 -0.15465222 -0.065661706 0.6612997

network_body.linear_encoder.seq_layers.2.bias f4 [256]
00000000: 61d2 d6bd c452 9fbd afce 76bd 6458 273e
00000010: 3841 d43d b7c0 a53d 0481 003e 00a2 f33d
00000020: 1323 79bd ff3c 0f3d ba1d 68bd f1bc f23d
00000030: d8fd 8e3d 143e 8dbd 1177 68bd 73a4 c93d
00000040: 9649 123e 623a b23d b998 c63d 1a5a 82bd
00000050: cb56 f23d 7e28 82bd 57f6 d2bd 94bf 47bd
00000060: af85 92bd 4fd8 143d 1dcd 5cbd 93c4 043e
00000070: 7fd0 aabd b99b 033e 8186 9a3d ce32 8f3d
00000080: b187 b4bc 7a92 c73d 88e0 d13d 22ae 0f3e
00000090: 3066 053e ab9d ed3d cb90 f73d 0ae8 69bd
000000a0: f217 f93d 8c2f 9fbd 8670 37bc daa0 353e
000000b0: f480 223e 9b7e 7f3d 5c12 82bd 396e db3d
000000c0: f06f 4ebd bdf8 80bd 13cf 4abd 7cd8 123e
000000d0: 6094 0f3e 6f8e 2b3e 44cc 0b3e f1c4 9ebd
000000e0: a1f0 053e 4f3d ed3d f2b4 083e 6bc3 5fbd
000000f0: b2b5 cdbd 5216 af3d 2b33 c63d 94c9 ac3d
00000100: 1a13 47bc 2c43 ae3d aabc 073e 4916 453c
00000110: 0d81 bc3d c56a de3d 6552 a3bd 307e 6c3c
00000120: d7be d63d e9b4 82bd de83 9b3d fd1f 0f3e
00000130: 31d7 c53d d9d6 0c3e 937d c13d ec77 b23d
00000140: 2d76 1a3e ceee ff3c 33e6 fd3d 2bfa c43d
00000150: 3311 97bb 2fec 9cbd 3abf a5bd 2618 fc3d
00000160: 6d32 f7bc 1e6b 7f3d bfc6 0e3e b32f dc3d
00000170: 9ef5 d3bc 3b58 ce3d 75e8 bc3c 2f5c 9dbd
00000180: 5715 213e eef5 0f3e a4f5 93bd 5551 a0bd
00000190: 8a4d f33c 0e6f e03d 5b85 ea3d 6b80 643d
000001a0: 178c 9ebd c491 76bd 57b0 a33d 8e05 8cbd
000001b0: b223 d33d 5402 afbd 7e59 6a3c 09fb cc3d
000001c0: 918c b93d 31d0 d73d d231 a9bd 76d6 46bd
000001d0: 5829 033e 9380 223e 77d9 5cbc cf6a 44bd
000001e0: 534d d0bd d438 ca3d 9c69 e73d c0b1 a03d
000001f0: 9e7c 82bd be55 d43d ffe3 57bd bc7b bb3d
00000200: f5fe ef3d 21b5 c13d 5775 cc3d 3c9f e03d
00000210: c9a2 f83d fc19 80bd 2eb8 debc 126f 51bd
00000220: e974 0c3e 6f80 c23d cb39 a93d f260 083e
00000230: 8904 9d3d b117 17bd 64c6 e1bd e6f1 9e3d
00000240: 4d34 e5bd fd6d 063e c051 f43d 4043 86bc
00000250: d47e a3bd 96f6 903d 5255 68bd 05b2 81bd
00000260: f36e c13d 53f9 5bbc 22c2 e93d da25 cdba
00000270: f39d 053e 9762 a3bd 053f 39bb 5b63 89bd
00000280: c45b ddbd 5aae a53d 791c 0abe 801c 013e
00000290: bbac ef3d 7e01 e43d e22b f73d 5bf3 0a3e
000002a0: 956c 193c 46a9 7fbd af5a adbd cf3a c03d
000002b0: a4a7 a9bd 05d3 b9bd 99d8 9d3d fe91 e03d
000002c0: 24d1 523d 3b5d e23d 7856 bbba 7376 fb3d
000002d0: 85b8 313d 40c0 dc3d fe68 e93d d409 a0bd
000002e0: bf9d 983d 492b 8bbd a78e dcbd 742c f93d
000002f0: 5216 c9bc 57ca bb3d 4e92 ab3d 3975 1f3e
00000300: 2699 eb3c 9a28 b0bd 5dad eabc 7e33 f83d
00000310: ff7d 23bd db17 7f3d cce3 8fbd ce3a b33d
00000320: 8ed7 d63d c59c 363d 0025 82bd 207e bcbc
00000330: f314 313e 7ce1 2abd e2b1 b8bd fa24 b83c
00000340: 75ea a2bd 03d9 86bd 4399 ab3d a054 263e
00000350: 44f0 283e d3a4 f3bd cf71 0f3e cc30 83bd
00000360: c47f 183e 1565 4b3d 5442 023e 9e65 183d
00000370: 2cce 593d c204 44bd d74c e83d 9ed4 7dbd
00000380: 52e3 c03d d3d0 c0bd e1a9 063e d765 e4bc
00000390: 1cf9 fb3d 7c7b 023e ba37 e43c f592 8abd
000003a0: 1f54 ec3d 6e12 0d3e 8263 88bd fc2a c53d
000003b0: b26c ca3c 45cb aabd 7f81 e33d 10ae d8bd
000003c0: b8e1 fd3d c843 c4bd b866 c8bd 49ef 363d
000003d0: 0dde 18bd b4ed bebd 8fc3 2dbd 8274 2b3d
000003e0: fd20 b13d 8c4c 113e bcc7 e93d e75e 3e3e
000003f0: bb6f 7dbd f2e5 153e bdc4 a4bc 5582 8abd
-0.10489345 -0.07779458 -0.060255703 0.16342312 0.10364002 0.08093398 0.12549216 0.118961334
-0.060824465 0.03497028 -0.056668974 0.11852444 0.069820106 -0.06896606 -0.056754176 0.09845819
0.14285883 0.08702542 0.09697098 -0.06364842 0.11832961 -0.063553795 -0.10300892 -0.048766688
-0.07154404 0.0363391 -0.05390655 0.12965612 -0.08340549 0.12852372 0.07545186 0.06992112
-0.022037359 0.09744735 0.10247904 0.1403127 0.13027263 0.116023384 0.12088164 -0.057106055
0.1216277 -0.07772741 -0.011196261 0.17737141 0.15869504 0.0623766 -0.06351158 0.10714383
-0.05039972 -0.06297443 -0.049513888 0.14340395 0.14021444 0.16753553 0.1365214 -0.07752407
0.13080074 0.11583959 0.13350275 -0.054629724 -0.10044421 0.08549179 0.09677728 0.084368855
-0.01215055 0.08508906 0.13255563 0.012029239 0.09204302 0.108602084 -0.079747 0.014434382
0.104856186 -0.06382162 0.07593511 0.13977046 0.09660185 0.13753833 0.094477795 0.087142795
0.15084143 0.0312418 0.12397423 0.09618028 -0.0046102046 -0.07662236 -0.08093114 0.123092934
-0.030175412 0.062358014 0.13943003 0.107512854 -0.025873955 0.100754224 0.023060063 -0.07683598
0.15730797 0.14058658 -0.072245866 -0.07828013 0.02970006 0.10958682 0.11451217 0.05578653
-0.07741564 -0.060197607 0.079926185 -0.06836997 0.10309543 -0.08545366 0.014303563 0.10008819
0.09060014 0.10537756 -0.082614556 -0.04854437 0.1280874 0.1586936 -0.013479582 -0.047953423
-0.101709984 0.0987412 0.1129944 0.07846403 -0.06371425 0.103679165 -0.05270767 0.0915446
0.11718551 0.09458376 0.09983318 0.109678715 0.12140424 -0.06254956 -0.027187433 -0.051131316
0.13716473 0.09497153 0.08262976 0.13318232 0.07666881 -0.03688783 -0.11024168 0.07760982
-0.11191616 0.13127895 0.11929655 -0.01638949 -0.07983175 0.070782825 -0.056721993 -0.06332783
0.0944499 -0.013426143 0.11413981 -0.001565154 0.13048534 -0.07977789 -0.0028266322 -0.06708404
-0.108085185 0.080898955 -0.13487424 0.12608528 0.117028676 0.11133097 0.12068917 0.13569395
0.009364267 -0.06241729 -0.08464562 0.09386217 -0.08283928 -0.09073452 0.07707328 0.10965346
0.051468983 0.110529386 -0.0014292737 0.12278452 0.043388862 0.10778856 0.11396979 -0.078143746
0.07451963 -0.06795365 -0.10769396 0.12166682 -0.024546776 0.09169453 0.08377515 0.1557206
0.02875955 -0.08601494 -0.02864712 0.12119196 -0.03991508 0.06227861 -0.07025871 0.087514505
0.104903325 0.0445831 -0.063547134 -0.02300936 0.17293148 -0.041718945 -0.090183035 0.02247857
-0.079548754 -0.065843605 0.08378842 0.1624322 0.16497904 -0.11896672 0.14008258 -0.06405792
0.14892489 0.049656946 0.12720615 0.037206285 0.053175136 -0.0478561 0.11342781 -0.061970346
0.09418358 -0.0941483 0.13150741 -0.027880592 0.12303373 0.12742418 0.027858604 -0.06766311
0.11539482 0.13776562 -0.066596046 0.09627339 0.024710033 -0.08339552 0.11108684 -0.10580075
0.12396568 -0.09583241 -0.09785217 0.044661794 -0.03732114 -0.09322682 -0.042422827 0.041859157
0.0864887 0.14189357 0.114150494 0.1859089 -0.061874133 0.14638498 -0.020113343 -0.0676314

network_body.linear_encoder.seq_layers.2.weight f4 [256, 256]
00000000: 69d6 07bd 7b20 783c 22f1 c13d 0529 8b3c
00000010: 89bd 7cbd 4b0e c3bd 3fef babc 639c 07be
00000020: f1de f73b 1896 933d 33ce fabd cb27 cebd
00000030: f0f7 6abd 967c 3abe f739 a93d bdec 71be
00000040: b312 343c 04ca c63d 2b55 bebc 5e57 51bd
00000050: e40e 11be 2c5d e03b ba64 913b 7cee 41bd
00000060: ed56 f9bd 46b1 cabd f047 aebd 7087 11be
00000070: 424e 113d b628 6f3d e856 c2bd 97e2 bfbd
00000080: 8e8a efbc 1516 01be 5692 e8bb 0a94 e83d
00000090: c56e 403c ea43 37be e819 71bd b7ba a33c
000000a0: 762f 03be 2d9c 4bbd 9c74 2fbd 6b7e 95bd
000000b0: 6ff8 46bd 7ba5 633d 9bbb 01be 803b 3cbe
000000c0: 74ac 17be ecb2 90bb cbe6 e9bd 4212 893d
000000d0: fd41 d63d cd39 c7bc fe4c e4bd 2f8f a6bd
000000e0: 4a6f b4bc c5b6 1bbd ef91 aabd a13b 0abd
000000f0: 8949 a5bc 37d2 4dbe 43de ffbd d505 c5bd
00000100: 8025 6bbe c614 02be 0e9b ffbb 341e 18bd
00000110: 7b1a 813c 868c fcbd b76e dfbd 553d 45bd
00000120: e513 13be f029 a2bc 3f70 903d 9376 d8bd
00000130: 6e57 edbd 3a1d 463d 2946 60bd ddb7 223d
00000140: bc1c 28be eec6 0fbd d65f 90bc c85d 8e3d
00000150: 0095 10be 967b 12bc 7f4b cabd f2a6 eabd
00000160: e8d7 17be 10f6 06bd f64a 16bd 2b9f b2bd
00000170: 62ce 01bd 97fd febc 8b60 98bd 6ccd 0cbe
00000180: 6c64 f13d 0646 e8ba 49dd 9d3c b027 6abe
00000190: b666 c8bd 2523 89bb 33f3 01be add2 87bd
000001a0: 282a b9bd 2f52 9f3d e8c1 18be e35a e2bd
000001b0: 9127 0c3e 9a52 6a3c e1c8 413e 066f 0c3d
000001c0: eed1 53be 04fe c33d 1d7f 373c 63e5 9cbd
000001d0: 73c7 d13d 6f81 1fbb b8de 043c f6a3 43be
000001e0: ffd4 a5bd 2310 f53c 22a1 b3bd dafe a03d
000001f0: 5e76 3fbe 7efe 113b bc47 023d 2bfe b23d
00000200: cad4 71ba 6865 a5bc 8db0 f8bd f584 b23d
00000210: 282b 96bd 0836 d4bd 877e 5fbd 1610 eb3c
00000220: 00ca 713d 210a 37bd 2393 babd f8ff a7bd
00000230: 48e5 b9bd 8f73 46bb c1eb b53d c728 21be
00000240: 42fa 58bd 3f53 a1bd 12c0 12be 50b8 1ebe
00000250: a04d 11bd a49f c13d fcd8 05be 9e87 fd3c
00000260: ec5a 0dbe 9dd8 f4bd 0644 dd3b 9bd4 12be
00000270: 3216 fdbc 3a84 2bbd 9a25 a43c adf7 5ebd
00000280: ff63 ccbd 31da 433d 83eb e9bc 2b55 8dbc
00000290: d132 6cbd 9108 ffbc 985e 9abc 3e0b 63bd
000002a0: 2fbf 253d bda5 cf3d b7ac febd 0876 56bd
000002b0: 1d03 0abc 43a8 81bd 1d6f 55be 8175 eb3c
000002c0: 1534 473c c714 efbb 3cf8 c73c d353 613d
000002d0: 4f42 a03b a07a 25bd 0aab b23c 5c44 c93d
000002e0: 4e2b f3bd 1751 b43d 870d 19bd b507 d6bd
000002f0: 64e6 abbd 1802 9d3b 6725 323c 0fd0 b0bd
00000300: 6e52 da3c 00e0 c5bd a05a 903d 355c fbbb
00000310: 387f 37bd 2e10 d73c 213a 10be 09b3 8cbc
00000320: 1903 a7bb 49ee fdbd 6493 193d bd1d 49bd
00000330: 9f88 f33d e301 d2bd b5b7 ca3c 0fba 8a3d
00000340: 6ddd eb3c 2e01 dbbd ab35 38bc 6a0c cbbc
00000350: 4728 2e3a 3c7e b13b 516b 663d 3cb0 a3bd
00000360: 76f8 0e3d c35b 0d3e fd0f 363d 3a3b 0e3d
00000370: 50ca d93c 6428 22be e722 d8bd 61ac 76bd
00000380: 5766 a63c 2882 2abe eaf9 65bd af95 8bbd
00000390: c9d8 663c 9663 ecbd 2f31 43bd 4a4d 37be
000003a0: 60f8 dc3d 962b 5b3b 2eae 58bc a54f a03b
000003b0: 4498 38be c93b 1cbd 6175 e93d aace cfbd
000003c0: c548 883d fa39 203e 5107 d8bd 6fcf 013d
000003d0: 570e b9bd a0a0 853d 45df 9cbd 5c5e 1cbb
000003e0: 5239 bc3b 635b 67bd 7603 273d db5a 4e3d
000003f0: 4e88 1e3e 0f7a 4fbe b842 543d c6e3 6f3d
-0.03316346 0.015144463 0.094698206 0.016987333 -0.061704192 -0.095242105 -0.02281916 -0.1324325
0.0075644185 0.072063625 -0.12246361 -0.10066184 -0.057365358 -0.18211588 0.08263009 -0.23625465
0.010990786 0.097065 -0.02323397 -0.05110871 -0.14165837 0.0068470445 0.0044370564 -0.047346577
-0.12174783 -0.098970935 -0.08509815 -0.14211822 0.035475023 0.058388434 -0.09489232 -0.093693905
-0.029240873 -0.1260608 -0.0070975227 0.11356361 0.0117451595 -0.17897001 -0.058862597 0.019986494
-0.12811074 -0.049709488 -0.042835817 -0.07299503 -0.04857677 0.055577736 -0.12669222 -0.18382072
-0.1481188 -0.0044158604 -0.114209734 0.066929355 0.10461805 -0.024319554 -0.111474976 -0.08132779
-0.022025723 -0.0380161 -0.08328616 -0.033748273 -0.020176666 -0.20099722 -0.12493565 -0.09620253
-0.22963524 -0.12703237 -0.0078004664 -0.03713818 0.015759697 -0.1233149 -0.10909789 -0.048154194
-0.14363058 -0.019795388 0.07052659 -0.10569491 -0.115889415 0.048367716 -0.05475441 0.039726127
-0.16417211 -0.035101824 -0.017623823 0.06951481 -0.14119339 -0.008940598 -0.09877681 -0.114576235
-0.14828455 -0.032949507 -0.036692582 -0.08721765 -0.031690963 -0.03112678 -0.07440289 -0.13750237
0.11786732 -0.0017721064 0.019270556 -0.22866702 -0.097852156 -0.0041850978 -0.1269043 -0.0663198
-0.09041244 0.07779347 -0.1491772 -0.110524915 0.13686968 0.01430192 0.18924285 0.034285568
-0.2068555 0.09569934 0.01119974 -0.076609395 0.1024312 -0.0024338623 0.008109741 -0.19105515
-0.080972664 0.029914921 -0.08770968 0.07861109 -0.18697497 0.0022276933 0.031806692 0.08739885
-0.00092251285 -0.020189956 -0.121430494 0.08716766 -0.0733245 -0.10361868 -0.054564025 0.028694194
0.059030533 -0.044687394 -0.09110095 -0.08203119 -0.09076935 -0.003028128 0.08882857 -0.15738212
-0.05297304 -0.07877206 -0.14331082 -0.15499997 -0.03547442 0.09454277 -0.13071054 0.030948456
-0.13804215 -0.11955378 0.006752494 -0.14338915 -0.030894373 -0.041874148 0.020037461 -0.05443542
-0.0998001 0.047815505 -0.028554684 -0.017252525 -0.05766565 -0.031132014 -0.018843934 -0.055430643
0.04046553 0.10139034 -0.124352865 -0.052358657 -0.008423594 -0.063309215 -0.20843168 0.028742554
0.012158413 -0.007296178 0.02441036 0.05501158 0.004890717 -0.040400147 0.021810073 0.09827492
-0.11873494 0.08804529 -0.037366416 -0.10450689 -0.08393553 0.0047915094 0.010873175 -0.08633434
0.026650634 -0.09661865 0.07048535 -0.007670904 -0.04479906 0.026252832 -0.14084674 -0.017175214
-0.005096805 -0.12398965 0.03749408 -0.049100626 0.11891293 -0.10254266 0.024745801 0.06773769
0.028792107 -0.106935844 -0.011243264 -0.024786193 0.0006643575 0.0054166596 0.05625469 -0.079925984
0.03490492 0.13804536 0.04444884 0.03472445 0.026585728 -0.1583572 -0.10553532 -0.060222987
0.020312471 -0.16651213 -0.05614654 -0.06815659 0.014089772 -0.11542432 -0.047654327 -0.17900577
0.10789561 0.0033442727 -0.013225121 0.004892307 -0.18026835 -0.038142953 0.113993414 -0.1014684
0.06654505 0.15647116 -0.105482705 0.031691965 -0.09035938 0.065247774 -0.07659773 -0.0023859954
0.005744138 -0.056483638 0.040774785 0.050379615 0.15481684 -0.20261405 0.05182144 0.05856683

network_body.vector_processors.0.normalizer.running_mean f4 [9]
00000000: 43f2 1f40 ddb6 f93f 0000 0000 7946 2140
00000010: 3db6 f93f 0000 0000 c07c 4f3e 0000 0000
00000020: 066e 143d
2.4991615 1.950893 0.0 2.5199263 1.950874 0.0 0.20262432 0.0
0.03623774
